MAMRL-TE/Dynamic environments/Baselines/Random/B4/task0/savemodels/baseline0.pth (torch, 1464 bytes, 1 tensors)

weight f4 [1, 18]
00000000: 5206 573d 7ed6 dcc1 364f e8bd fd09 88be
00000010: aa1a 6dbf 7d56 b6bf f9e2 0245 0047 a6bb
00000020: b15d 1841 8941 93bc 1076 f23d f2c2 443f
00000030: 6720 a43f 62e5 02c5 dfdc 07be bb7e 193c
00000040: 5b92 f0b8 465f f4c1
0.052496262 -27.604733 -0.11343233 -0.2657012 -0.9261881 -1.4245144 2094.1858 -0.005074382
9.522874 -0.017975586 0.11838925 0.7685996 1.2822388 -2094.3364 -0.1326785 0.009368594
-0.000114713526 -30.54652
