MAMRL-TE/Dynamic environments/Baselines/Random/Geant/task2/savemodels/policy0.pth (torch, 275355 bytes, 12 tensors)

weight f4 [128, 7]
000000 fb aa 38 3e 25 10 6b bd 09 43 9f 3d 71 f6 0c be
       0.18033974 -0.057388443 0.07776458 -0.13765885
000010 79 ac 56 3c 3d 2e 10 be 2a ef b5 3d b5 e2 bf bd
       0.013102644 -0.14080139 0.088835075 -0.09369413
000020 03 5f 60 bd 0b 9f 3b be a3 0f 72 3a bb 9b 4a 3e
       -0.05477811 -0.18322389 0.00092338974 0.19785969
000030 26 96 ce 3d 5c 90 e9 bd 13 cc 7b 3d 67 47 0a bd
       0.10087232 -0.114044875 0.061473917 -0.0337595
000040 00 46 2e be 7a d0 21 3e e3 a5 88 bb 26 52 1a 3d
       -0.1701889 0.15802184 -0.004170166 0.037676
000050 09 fd b7 bd c6 21 f3 bd 5b 85 3f 3c f2 60 79 3d
       -0.089838095 -0.11871676 0.011689509 0.06088347
000060 94 b8 0d 3d 48 9d ee bd b8 b7 38 3e fb 3a 46 bd
       0.034599856 -0.11651093 0.18038833 -0.048396092
000070 77 c4 04 be 97 99 c8 bd 9a 5c 55 3e f0 74 ec ba
       -0.1296557 -0.0979492 0.20836106 -0.0018040221
000080 fc 2d e6 bc a2 e1 ae bd 8c bd 61 bd e3 42 47 be
       -0.028098099 -0.0853913 -0.055112407 -0.19459109
000090 0e e4 34 be e7 5c e5 3d b1 7d 2c 3e 85 df 42 3e
       -0.17665121 0.1119936 0.16844822 0.19030578
0000a0 30 f9 21 be 14 98 d1 3d 55 ec c5 3c 6a 09 da 3d
       -0.15817714 0.10234085 0.024160543 0.10646327
0000b0 d0 b3 15 3e 22 4d 0f 3e a7 ce 11 3e 8a d9 12 3e
       0.14619374 0.13994268 0.14238988 0.14340797
0000c0 11 04 bb 3a 94 14 b1 3e e0 51 ad bd 45 da ba 3d
       0.001426818 0.34586012 -0.08462882 0.09123663
0000d0 2a 0e 95 bd 07 9a 31 bc 0c 76 41 be a0 f3 73 bd
       -0.07278092 -0.010839946 -0.18892688 -0.05955851
0000e0 53 7f e6 bd 2c ca 71 bd 60 28 05 be b4 a3 41 be
       -0.11254754 -0.059030697 -0.13003683 -0.18910104
0000f0 28 6d be 3c eb 17 17 3e 0d 7d 4d 3e fa 4d 9e 3b
       0.02324541 0.14755218 0.20067234 0.004831073
000100 6c 42 df bd 7d 9b 5e be 2c 24 9f 3d de 74 e9 3d
       -0.10901341 -0.21739002 0.07770571 0.11399244
000110 64 de 43 be d1 ad 92 3d b7 bd 72 3e 4c d4 45 3c
       -0.19127804 0.07162059 0.23705183 0.012074541
000120 10 b2 00 be 88 3c 35 3e 2d b2 c1 3d 08 80 14 3e
       -0.12567925 0.17698872 0.094578125 0.14501965
000130 1b 0b 07 be 34 7d 14 3e ce 77 39 be 2d fa 43 3e
       -0.1318783 0.14500886 -0.18112108 0.19138403
000140 91 b1 f2 bd e8 0d cc 3d 8d 89 eb 3c 7d 16 00 3d
       -0.11850274 0.0996359 0.028752113 0.031271446
000150 f1 a4 08 bd 9c 3a ac 3d ec e3 b3 bd 8e 93 4c be
       -0.033360425 0.08409616 -0.08783707 -0.19978163
000160 b3 22 aa bd 4f 59 26 3e a6 2b 6b bd cb 67 a8 39
       -0.083073996 0.16245006 -0.057414673 0.0003212079
000170 aa b4 b0 bd 54 6e 1f 3e ca 65 fc 3d b0 2e 90 3d
       -0.08628209 0.1556943 0.12324102 0.07040155
000180 a3 fd ea bd 35 b7 34 be 8b fd f4 bc 27 9b 01 be
       -0.114741586 -0.17648013 -0.029906055 -0.12656842
000190 bb f8 2e 3e 57 b1 52 be 73 26 b8 3d 53 19 54 3e
       0.1708707 -0.20575462 0.089917086 0.20712785
0001a0 2c 8f d1 3d 56 2f c1 39 b7 e5 58 be 65 3e 48 3e
       0.10232386 0.00036847097 -0.2118138 0.19555052
0001b0 9b 06 25 bd ed dd 51 be 81 ef 4e 3e d1 57 c0 bd
       -0.040289503 -0.20494814 0.20208551 -0.0939175
0001c0 3b e4 43 bc 3d ab 5e 3e 7d 88 0c be da 69 03 be
       -0.01195627 0.2174501 -0.13723941 -0.12833348
0001d0 d1 3e 52 3d 93 49 7b bc 67 41 85 3d 87 a1 36 be
       0.051329438 -0.015337366 0.06506615 -0.17835055
0001e0 73 c8 fe 3b d2 f2 be bd b8 3c d3 bd 65 b6 44 be
       0.0077753603 -0.09323658 -0.103143156 -0.19210203
0001f0 96 da e7 3d 29 56 29 3d 02 35 8a be 76 4d 2a 3e
       0.11320989 0.041341934 -0.26993567 0.16631112
000200 3c 7d 69 3d 5f 76 e3 3c 7e 74 00 be 1e 40 12 3d
       0.0570042 0.027766405 -0.12544438 0.03570568
000210 3e 91 4b 3e 9f a7 90 3e 23 f5 68 be 81 e7 26 3e
       0.19879624 0.28252885 -0.22749762 0.16299249
000220 b9 69 f0 bc 68 75 78 3d 05 42 0c 3e e4 b5 12 3e
       -0.029347287 0.060658842 0.1369706 0.14327198
000230 f2 2a 2a be a0 da 3f 3e fd 98 11 be 68 bd 9a 3c
       -0.16617945 0.18735743 -0.14218517 0.018889144
000240 f7 bb 15 be 6b 29 37 bd 84 31 02 bc 95 31 20 3c
       -0.14622484 -0.044717234 -0.007946376 0.009777446
000250 9b 87 1c bd 7a d5 2f 3c 47 20 51 3e 61 85 f1 3d
       -0.03821526 0.010732049 0.20422469 0.11793018
000260 b8 85 e8 3d 8f 79 a3 3d 80 31 c2 3e dd 3b 06 bd
       0.1135363 0.0798217 0.3792839 -0.032771934
000270 dd 37 6f 3c f5 ab f0 3c 91 81 49 be 9b b1 37 be
       0.014600721 0.02937887 -0.19678332 -0.17938845
000280 12 9b 5f 3c 79 91 3e be d4 26 8a bc b5 b3 74 bd
       0.0136478115 -0.18610181 -0.016864218 -0.059741694
000290 c7 f2 9c 3c 50 c5 fa 3d b7 11 8c bd cc 4d 1b 3e
       0.019158734 0.122446656 -0.06839316 0.15166396
0002a0 78 92 ce 3d b3 87 2d be 08 cc 2d be 39 f7 33 be
       0.100865304 -0.16946296 -0.16972363 -0.17574777
0002b0 aa c4 fb bd d9 1e b7 bd 13 07 af bc 46 ae 51 bd
       -0.1229337 -0.089414306 -0.021365678 -0.05119159
0002c0 43 49 db bd e7 55 89 bd c1 91 9b bd a3 36 53 3e
       -0.10707333 -0.06705838 -0.0759616 0.20626311
0002d0 4f cd a0 bd f3 9d 1a be b1 79 2e 3d e4 7d 94 3c
       -0.078516595 -0.15099315 0.042596523 0.018126436
0002e0 6e 4e 38 3e 47 2e 18 3e 75 b2 5e 3e 68 fe 07 be
       0.17998669 0.14861403 0.21747763 -0.13280642
0002f0 1d f2 1e 3e 9c e4 66 3e 50 4b 10 be 79 8d 32 3e
       0.15522046 0.22548145 -0.1409123 0.1743678
000300 1d e0 eb 3d de 49 fb bc b5 c1 b3 3d df 35 e1 bd
       0.115173556 -0.030674871 0.08777181 -0.10996603
000310 4f ca 3a be d6 41 49 3d ec 26 79 3d 0b 59 0e be
       -0.18241237 0.04913505 0.060828134 -0.13901155
000320 cc 3f cb 3d 06 6b 3d be 25 12 36 3e 47 ba 30 3e
       0.09924278 -0.18497857 0.17780359 0.17258559
000330 42 a0 3a 3d 82 a3 0c be 7c 64 bb 3d 72 df c3 3c
       0.04556299 -0.13734248 0.09150025 0.023910258
000340 ca 43 43 3d b8 90 6a 3d e0 b4 83 3e be b0 f3 bd
       0.04767207 0.05726692 0.25723934 -0.11898945
000350 f9 15 7b bd a0 11 09 3d 7a 59 c5 38 86 f4 1a 3e
       -0.06130025 0.033464074 9.410358e-05 0.15132341
000360 0d 09 06 be c5 1f 1a bd 4b 6f ee 3c d9 a7 82 bd
       -0.1308939 -0.037627954 0.029105803 -0.06379671
000370 03 58 09 3e 32 b8 7d 3c 36 96 46 be c0 91 01 bd
       0.1341248 0.01548581 -0.19393238 -0.03163314
000380 15 83 c7 bd 2d b6 b6 3c 90 4c bc bc 0d 23 56 be
       -0.09741799 0.022303665 -0.022985727 -0.20911808
000390 e2 ba 19 bd 5a a3 98 bc 45 0f 7c bd 71 a6 60 3e
       -0.03753174 -0.01863258 -0.061538 0.21938492
0003a0 6e 21 d6 bd ed e2 d3 3d c8 a1 b7 3b ab 48 66 be
       -0.10455595 0.10346017 0.0056040026 -0.22488658
0003b0 c7 ad 63 3c 76 a0 0a 3e 9d 61 19 be 65 7f 12 be
       0.013896412 0.13537773 -0.14978643 -0.1430641
0003c0 bf ec 4b 3e 69 46 28 3e e2 ff fa bd 3e 8a f5 3d
       0.1991453 0.1643311 -0.12255837 0.11989258
0003d0 c3 ee 05 bd e0 bd 58 be a7 cf a8 3c 25 c1 8c 3d
       -0.032698404 -0.21166182 0.020606829 0.06872777
0003e0 8e ba 84 bd da e4 96 3d 13 49 2f be 2a 9c 16 3e
       -0.06480895 0.07367869 -0.1711772 0.1470801
0003f0 b4 83 a3 3e 8d 8f 9e 3d 4d 40 2d 3c 23 26 32 3d
       0.3193642 0.07742224 0.0105744125 0.0434934

bias f4 [128]
000000 92 b6 d8 bc 73 5a 00 bb 94 17 39 bc b4 82 ba bc
       -0.026454244 -0.0019585162 -0.011297125 -0.022767402
000010 fd ea 1c 3a 07 10 16 bc 6f a3 9f bc 7a 99 1d bc
       0.0005985944 -0.009159095 -0.01948711 -0.009619111
000020 b0 eb 43 3c 5f 6f dc b9 2d a2 9a 3a 54 18 1a bd
       0.011958048 -0.00042044648 0.00117976 -0.037620857
000030 7f 5a 1e bb 6b a9 06 bc 0f 23 45 bb 4a b1 13 bc
       -0.0024162827 -0.008219103 -0.003008071 -0.009014437
000040 96 e7 c6 3c 02 ff c1 3a 86 dc 12 bb 91 d3 83 bd
       0.02428035 0.001480073 -0.0022409274 -0.064368375
000050 73 45 25 3b 45 0a 9f bb 83 b3 bf bc c2 a8 54 bc
       0.0025218397 -0.004853519 -0.023401028 -0.012979688
000060 b3 84 fd bb 59 4d 18 ba 31 47 fb 3c 8a a2 22 bd
       -0.0077367662 -0.00058098655 0.030673595 -0.03970579
000070 ae b5 8d bb 3f a4 58 bc 64 7b e9 bc 23 37 29 bc
       -0.0043246364 -0.013222753 -0.02850122 -0.010328087
000080 23 e7 eb 3a 30 10 77 bd fc 16 dd bb 1a 95 9c 3b
       0.0017997961 -0.060318172 -0.0067471247 0.0047785165
000090 82 b2 1a bd 80 f9 40 ba c5 9e b3 bc 9c 8c 7c b9
       -0.037767895 -0.0007361397 -0.021926293 -0.00024084974
0000a0 41 2d 12 3c d9 be 40 bc a0 29 35 bb a8 a1 da 37
       0.008921922 -0.011764252 -0.0027643219 2.6062902e-05
0000b0 1b a1 fc bc c7 38 c9 b8 ea 27 bf ba e9 25 1e 3c
       -0.03083854 -9.5950025e-05 -0.0014584039 0.009652593
0000c0 db a8 a1 b7 02 ae 85 bc 94 c9 bb bc 38 8a 9e 3b
       -1.9271325e-05 -0.016318325 -0.022923268 0.0048382543
0000d0 f7 7b c9 ba f7 99 1a bd 19 c6 8f b9 59 5d 1a ba
       -0.0015372027 -0.03774449 -0.0002742268 -0.00058885437
0000e0 93 40 ac bb e0 68 0a 3b 0d c2 45 bd b6 49 88 3b
       -0.0052567213 0.002111964 -0.048280764 0.0041591777
0000f0 69 18 80 ba 8b be ee bb 9f 34 b4 bc c0 97 d4 bc
       -0.00097729 -0.007285898 -0.021997748 -0.025951266
000100 43 05 94 bb 98 23 3d 39 cd c5 85 bc da 30 58 bc
       -0.004517229 0.00018037704 -0.01632967 -0.013195241
000110 dc d2 c7 3c 65 a0 db bc 4b 22 4c bd 2b 9f a3 bc
       0.024392538 -0.02680988 -0.04983739 -0.019973358
000120 df 70 03 bd c8 6d ca ba 84 f0 12 bd c8 08 06 bc
       -0.032090064 -0.0015444094 -0.035873905 -0.008180805
000130 14 67 a4 3b b9 73 49 bb 3a 2b df bb c5 18 71 bb
       0.0050171707 -0.0030739142 -0.006810573 -0.0036788445
000140 73 02 15 bd 06 4e c7 bc 10 6e a9 39 07 06 6c bd
       -0.03637929 -0.024329197 0.00032316195 -0.057622936
000150 a6 a3 0a bb 79 75 8f bc 08 27 1f bd d8 a6 b0 bc
       -0.002115467 -0.01751207 -0.038855582 -0.021563932
000160 f9 89 b1 bc 0f 29 4a bb b3 e8 a5 bc c4 08 72 3c
       -0.021672236 -0.0030847227 -0.020252561 0.014772598
000170 5a c8 86 bb 39 38 0d bd c6 00 75 bc bf 00 2e bc
       -0.0041132392 -0.034477446 -0.014953798 -0.010620295
000180 68 56 01 bd 95 89 1d bd 86 c5 8f bc d2 bf 75 ba
       -0.031576544 -0.038461287 -0.017550241 -0.0009374592
000190 a1 6e d5 3b 5f f8 92 bd 26 bf 2a 3c f9 e8 cb bc
       0.006513432 -0.07176279 0.01042155 -0.024891363
0001a0 58 5b c7 bc aa 4d 18 bc 98 f3 99 3b 05 d8 95 bb
       -0.024335548 -0.00929586 0.004698228 -0.0045728707
0001b0 02 b6 02 3b f4 66 b6 ba 09 72 7c ba 11 8c b4 bb
       0.001994491 -0.001391618 -0.00096300297 -0.0055098613
0001c0 c8 bd dc bc 58 ce cd bc f1 8f fa bb f9 d8 6e bc
       -0.026945964 -0.025122806 -0.0076465537 -0.0145780975
0001d0 0c 70 48 bd a5 5a 3c 39 ed 89 06 bd b0 0d 4a 3b
       -0.04893498 0.00017962845 -0.03284638 0.0030830912
0001e0 25 e2 df bc 00 26 74 bc ea 01 8e 3a 43 71 8d bc
       -0.027329514 -0.014901638 0.0010834311 -0.017265921
0001f0 f1 c5 9c 3a 78 2b f2 bb ef ba 72 ba 17 c3 84 ba
       0.0011960847 -0.007390436 -0.00092594227 -0.0010128942

weight f4 [128, 128]
000000 aa d9 9a bc 9c 41 a1 3c d1 01 d3 bd 17 f5 ad bd
       -0.018902618 0.019684605 -0.10303081 -0.08494013
000010 bc a5 88 3d db 5e b5 bd 3d 85 2f 3d 5b 21 94 bc
       0.06672236 -0.08855983 0.042851675 -0.018082311
000020 8d 03 c6 3d 6d cd 1d bd ce 00 dd 3d b0 5a 85 bb
       0.09668646 -0.038525987 0.10791169 -0.0040696487
000030 1b 33 ae bd ab cd ec 3c cd b5 c0 bd 29 2c 17 3d
       -0.08505841 0.028906664 -0.09409676 0.03690735
000040 1f 80 96 bd e3 67 97 3c f9 3c ec bc 97 5c 22 bd
       -0.07348656 0.018482154 -0.028837668 -0.03963908
000050 d3 47 07 be 1c 80 52 bd e7 e2 02 3e e1 cc b0 3d
       -0.13210993 -0.051391706 0.12781869 0.086328276
000060 07 1c 83 bd 63 16 93 3c 46 ec 1c 3d 3c 9b c0 3d
       -0.0640183 0.01795501 0.038311265 0.094046086
000070 c5 f8 d5 3d f4 1a ac bd 06 e2 14 bd 31 ad 00 3e
       0.1044784 -0.084035784 -0.036348365 0.12566067
000080 35 52 80 3c 02 9f ad bd e1 8f 9d bd 78 5a 9b bd
       0.0156642 -0.08477594 -0.07693458 -0.07585615
000090 56 c6 13 be ac 68 d2 bd 28 ac 1b 3e 9a 00 97 bc
       -0.14431128 -0.10273871 0.15202391 -0.018432904
0000a0 07 24 d1 3d 80 0a 11 be bc d8 93 3d b5 ac 71 3d
       0.1021195 -0.14164162 0.07219073 0.059002597
0000b0 de ac 12 be 8f d1 17 bd ee 22 24 3d 8e 59 f6 bd
       -0.14323756 -0.037065085 0.040072374 -0.120288
0000c0 39 1b 71 3d e3 89 b6 3d db a3 0e be 4a 64 71 bd
       0.058863852 0.089130186 -0.13929693 -0.058933534
0000d0 66 eb db 3d 5f 59 5f bc fc 5b b7 bd b6 b8 1c 3d
       0.10738258 -0.013632148 -0.089530915 0.03826209
0000e0 a0 ed 01 be e1 64 51 3d 72 50 b5 bd 7a d0 63 3d
       -0.12688303 0.051121596 -0.08853234 0.05561874
0000f0 2d 9b a6 bd e4 65 3b bd 99 8c 91 bd c7 eb a3 3d
       -0.08135066 -0.045751467 -0.07106895 0.08003955
000100 44 c2 0f be 5a d1 bd 3d ef d9 a2 3d 1e c9 dc bd
       -0.1403895 0.09268446 0.07951724 -0.107805476
000110 a9 b7 d3 3d ef 9f e8 3d 1e 7f c5 bd 54 26 65 3c
       0.10337765 0.1135863 -0.09643386 0.013986189
000120 c8 f4 1c 3d a2 ab ac bc c3 19 e4 3d d7 36 1f bd
       0.03831938 -0.021077935 0.11137726 -0.03887066
000130 4d 10 57 bd ac 04 31 3d e9 71 a8 3d 72 ab f7 3d
       -0.05250578 0.043217346 0.08224852 0.120932475
000140 86 17 1c be ff 93 1b bd eb b7 8a bd ac 5e 65 bd
       -0.15243348 -0.037982937 -0.06773361 -0.05599849
000150 e4 dd 2a bd c1 80 b0 bd 17 1c b9 bd 69 89 a9 bd
       -0.041715518 -0.08618308 -0.09038561 -0.08278162
000160 9e 99 d4 bd 26 c1 78 3d c5 e2 ab 3d cc ca 8e bd
       -0.10380863 0.060731076 0.08392862 -0.06972274
000170 59 ee 13 3e 33 28 66 3d 7e ed ed bd 64 0a 95 3d
       0.14446391 0.05619068 -0.11617564 0.072773725
000180 f3 31 5f 3c e9 49 05 3e 45 dd 5a bc 42 d8 7c bd
       0.013622749 0.13016476 -0.013358419 -0.061729677
000190 f9 d4 f3 3d ee 1a 10 be 6c 68 86 3d 24 1a 06 be
       0.11905856 -0.14072773 0.06562886 -0.1309591
0001a0 32 0e 16 bd 1c d7 7b bc b1 78 13 be c4 06 ae bd
       -0.03663463 -0.01537111 -0.14401509 -0.08497384
0001b0 64 ed 7a bd 1f d6 ab bc 49 73 00 3d e3 d4 d9 bd
       -0.06126155 -0.020976124 0.031359944 -0.10636308
0001c0 00 08 00 3e 38 73 be 3c 8e e0 9a 3c a9 e8 0c 3d
       0.12503052 0.0232483 0.018905904 0.03440157
0001d0 57 ea c5 bd d5 16 1c bb f8 7a 0a be ba e8 17 3e
       -0.096638374 -0.002381732 -0.13523471 0.14834872
0001e0 bf f6 6a bd 78 72 11 be 4e 72 5d 3c 8f 8d e5 bd
       -0.05736422 -0.14203823 0.013516022 -0.11208641
0001f0 b6 61 06 be 03 9c dc bd aa 93 b9 bc a0 0d 5d 3d
       -0.13123211 -0.107719444 -0.02265342 0.053968072
000200 23 02 0c be 69 c1 b9 bc f1 c2 07 bd 13 71 88 bd
       -0.1367269 -0.022675233 -0.033144895 -0.06662192
000210 62 3e 82 3d 26 d8 db 3d b9 78 dd 3c 76 95 07 bd
       0.06359555 0.107345864 0.027035104 -0.03310152
000220 10 ac 44 3d 04 d6 7c bd 01 77 74 3c 10 e7 ca 3d
       0.048015654 -0.06172754 0.014920951 0.09907353
000230 0b bf f6 bc 9b d7 19 3e 99 a9 16 3e 46 89 4c 3d
       -0.030120393 0.15023653 0.14713134 0.0499356
000240 4c e9 86 bc f2 41 16 bd f5 6b 82 3d 7c 7e 2c 3d
       -0.016468666 -0.036683984 0.063682474 0.042112812
000250 e7 fc 03 be ae d3 04 be be 78 00 3d 41 25 1c 3d
       -0.12889443 -0.12971374 0.03136515 0.038121466
000260 ee 92 da 3d 58 c0 de 3d 16 47 56 3d 72 98 04 3e
       0.10672556 0.108765304 0.052313887 0.12948778
000270 cd 61 e8 3d 97 ae c1 bd b1 44 2a 3e e5 8d 97 bd
       0.11346779 -0.094571285 0.16627766 -0.07400111
000280 1d 6e c6 bd 35 a7 13 3d 5a 6f d3 bd cc 99 46 3c
       -0.09688971 0.036048133 -0.10323973 0.012121629
000290 1a c5 f6 3c 5f fc 3f 3d 64 ce 8c bd 94 2f a0 3d
       0.030123282 0.04687154 -0.068753034 0.07821575
0002a0 83 a5 e6 3d 1d e4 22 3d 28 30 93 3d 96 44 b2 bd
       0.112620376 0.039768327 0.071869195 -0.08704488
0002b0 2c f1 9d 3d 2e 3c b7 bd 5e d6 5d bd 8a a9 d2 bc
       0.077120155 -0.08947025 -0.054159515 -0.025715608
0002c0 34 38 48 ba ca 79 0d 3e 37 ed 05 3d 96 43 1c 3e
       -0.00076377694 0.1381599 0.03269693 0.15260157
0002d0 f5 c4 14 3d f5 df 1c bd 10 54 4f bd 4b b1 76 bc
       0.036320645 -0.03829952 -0.050617278 -0.015056918
0002e0 80 6c cd bd c8 87 73 3d a7 5c 1d 3e fa bf e1 3d
       -0.1003046 0.059455663 0.15367375 0.11022945
0002f0 a2 14 c0 3d 28 7f 18 3e 0a 3d 31 3d c9 d9 03 bc
       0.093789354 0.14892256 0.043271102 -0.0080475295
000300 a2 6a 5d bd 36 41 03 be 26 68 ae bd 35 ea 05 bc
       -0.05405677 -0.12817845 -0.085159585 -0.008173515
000310 8e 95 bc bd eb 48 d5 bd b4 7e ba 3c 9b ec af bd
       -0.09208213 -0.104142986 0.022765495 -0.08590051
000320 9a 1a ed bd 65 4a d9 bd 13 8c 8d 3d 05 0c a4 3c
       -0.115773395 -0.10609893 0.06911483 0.020025263
000330 ce fa 14 be f3 71 fc bd a7 f4 86 3d be b2 1d 3e
       -0.145488 -0.123264216 0.065896325 0.15400216
000340 e0 b2 67 3d 90 3a c6 3d 0e 1c da bb 88 3a ae 3d
       0.056567073 0.09679139 -0.0066561764 0.08507258
000350 e0 02 9f 3d 92 65 a0 bd 03 b9 c8 3d 24 9d 10 bd
       0.0776422 -0.07831873 0.09800913 -0.03530611
000360 40 a3 75 3d 09 ab 13 be f3 31 8b bd 4a 7b bc bd
       0.05997014 -0.14420713 -0.067966364 -0.09203203
000370 1d 06 3c bd d4 c0 1d 3e 1f c8 80 bd 7f 06 34 3d
       -0.045904268 0.1540559 -0.0628817 0.043951508
000380 6b 07 6b bc 44 3d bb 3c 94 08 4d bd 32 3a b5 bd
       -0.01434503 0.022856362 -0.05005701 -0.088489905
000390 1e d2 fe bd ca 8c 0d 3d c5 7c 11 be fd ff 06 be
       -0.124424204 0.034558095 -0.14207752 -0.1318359
0003a0 6d 5e 0a 3e 59 a1 bf 3d df d0 c9 bc 2d 91 88 bd
       0.13512583 0.093569465 -0.02463573 -0.06668315
0003b0 5d 66 20 3e 76 8d 75 3c ff a8 02 be 16 f7 e0 3d
       0.15664048 0.01498734 -0.1275978 0.10984628
0003c0 a4 46 22 3e 06 f0 5e 3d d8 00 e3 3d e7 7f dc bd
       0.1584726 0.054428123 0.11084145 -0.10766583
0003d0 9b 5b d4 3b 2d b0 19 3e b7 22 13 be 27 34 14 be
       0.006480647 0.15008612 -0.14368711 -0.1447302
0003e0 66 93 20 3c 89 d4 6a 3d 5c d0 27 3d 7f b1 37 bd
       0.0098007675 0.057331596 0.04097019 -0.044847008
0003f0 d3 82 03 3e b5 ed e2 3d 76 a7 1a be bb fc 14 be
       0.12842874 0.11080495 -0.15102944 -0.14549534

bias f4 [128]
000000 ab 0d 5b 37 69 40 73 bc c4 ce c1 3b b6 b1 0d 38
       1.30565995e-05 -0.0148469 0.005914541 3.3782526e-05
000010 a3 e7 8c 3a 04 f7 cb 3a c5 35 65 bc 6c d6 d3 3b
       0.0010750185 0.0015561287 -0.01398987 0.00646477
000020 b7 b2 58 3a 02 fa 08 3b 19 f7 d2 ba 18 b0 05 bd
       0.00082663767 0.002090097 -0.0016095369 -0.03263864
000030 4f f6 92 ba a8 6e d8 bb b7 05 50 bd 99 82 8c 3b
       -0.0011212322 -0.006604988 -0.0507867 0.0042880294
000040 a7 c8 ab bc 88 b6 9f 37 57 6b 51 bb 61 f6 06 3c
       -0.020969702 1.9039275e-05 -0.0031954849 0.008237452
000050 63 c2 6e bd b4 15 b4 bb f9 95 67 bc 88 b8 3e bb
       -0.05829085 -0.0054957513 -0.014134877 -0.0029101688
000060 32 b7 1b bc 65 46 15 bb c5 0c 33 bd 55 c0 4e bd
       -0.009504126 -0.0022777554 -0.04371335 -0.05047639
000070 95 da b0 3c 34 c2 cc bc 87 dc e3 bb 21 c9 3f bc
       0.021588603 -0.024994947 -0.006953779 -0.011705668
000080 ee 53 bc bc ac 88 32 bb 71 4c 7e bd 8e d4 43 bd
       -0.02298924 -0.0027242107 -0.06208462 -0.04781013
000090 49 cf 1b 3b b2 c5 50 bb 6a 25 31 3b c0 24 a9 3b
       0.0023774675 -0.0031856117 0.0027030357 0.0051618516
0000a0 fa 18 92 3b 09 55 f6 ba 00 00 00 00 27 9f da 3b
       0.004458544 -0.0018793653 0.0 0.0066718045
0000b0 f5 03 7c bb 52 a3 04 3b 8b 49 15 3d 51 82 cf bc
       -0.0038454507 0.0020238948 0.03644709 -0.025330694
0000c0 8c 3d 04 38 67 c9 73 bd f9 fd f6 bc 34 e3 98 38
       3.1528572e-05 -0.059518244 -0.0301504 7.290245e-05
0000d0 5e 85 d8 bb ec 32 20 bc eb bd a1 bc f0 57 31 bc
       -0.0066076955 -0.009777766 -0.01974388 -0.010824189
0000e0 7b 26 f2 bb bf 43 1b bc ce 48 81 bc d8 2a 92 3a
       -0.007389841 -0.009476601 -0.015781786 0.0011151684
0000f0 69 b2 4a bc f9 ad 39 bc 06 9f 75 bc 43 1b 7d bc
       -0.012371638 -0.011332982 -0.014991527 -0.015448394
000100 7d d6 4f bc a4 ad 1b bb d8 ea 4f bd 92 13 6f 3a
       -0.012685415 -0.002375462 -0.050761074 0.00091200427
000110 67 93 0c bc 09 e2 e5 bc 7e 3f 4e 3b 93 62 8f ba
       -0.008580065 -0.028061884 0.003147095 -0.0010939412
000120 2e 51 35 bd 63 06 a2 bc f1 f7 84 3a e6 22 34 b8
       -0.044266872 -0.019778436 0.0010144693 -4.2947846e-05
000130 59 12 6e bc 22 61 24 bc 1d d1 3e bd 74 6b ad 38
       -0.014530742 -0.010032924 -0.046586145 8.2692975e-05
000140 54 5e 74 ba 75 a4 e4 3c 9a d6 03 3b a6 ec d3 bb
       -0.00093219173 0.02791045 0.0020116926 -0.0064674197
000150 34 35 ad bb f4 4e 47 bd 7b 61 bb 3a 4e 87 56 bc
       -0.0052858833 -0.04865928 0.0014296019 -0.013093783
000160 eb ee f3 ba 56 d9 b8 bc 9a 63 59 bc 7f 62 0c b8
       -0.0018610632 -0.022564571 -0.013268376 -3.3470333e-05
000170 e3 a8 9a 3b 8f 95 e5 bc 0e b7 fc 3b 85 08 04 bd
       0.00471984 -0.028025417 0.0077122515 -0.032234687
000180 d7 3c 13 bd 61 a0 1a bc 25 7e 22 bd 60 0f 89 3a
       -0.035946693 -0.009437651 -0.039671082 0.0010456853
000190 35 92 da bc 60 6c 92 bc 63 c2 89 b9 46 36 f7 bc
       -0.026681045 -0.017873943 -0.00026275506 -0.030177247
0001a0 d0 51 8a bd cc c5 13 bd 44 5f b3 bb 98 73 35 bb
       -0.06753886 -0.036077306 -0.005474003 -0.0027687307
0001b0 f1 6d 9a ba 93 58 0a bb 9f b2 b3 bb 4e fb 70 bd
       -0.0011782033 -0.0021109923 -0.00548394 -0.058833413
0001c0 8f c1 fa b6 5a 18 6b bb bf 7c b0 bb 71 73 1f bc
       -7.473114e-06 -0.003587267 -0.0053859646 -0.009732113
0001d0 14 da 5b ba ad e6 f8 bc fe c3 b8 bb 0f 36 10 bd
       -0.0008386683 -0.030383432 -0.0056385985 -0.035207804
0001e0 1f 3b 61 bc 90 5b 2e 3c 4e d5 42 bb c7 84 67 bc
       -0.013747006 0.010641947 -0.002972919 -0.014130778
0001f0 2b c4 1b 39 0c 4d 2f ba 20 79 4d bb b7 d2 26 3a
       0.0001485503 -0.0006687201 -0.0031352714 0.00063637964

weight f4 [128, 128]
000000 5d f7 cc 3d 65 b3 87 bd 21 ac e3 3d d2 b9 ad 3d
       0.10008118 -0.06626014 0.11116815 0.08482708
000010 54 34 01 bd 74 35 0e be ed c3 cf 3d f7 98 1b be
       -0.031544045 -0.13887578 0.10144792 -0.1519507
000020 ea cd df 3b aa 83 1e bc 6d d0 02 be c1 32 cf 3b
       0.006829967 -0.009674946 -0.1277482 0.006323189
000030 e8 4f e3 bd aa 76 3a bd 3e a1 10 3e 82 19 9b 3c
       -0.11099225 -0.045523323 0.14124009 0.018933062
000040 09 9b 6c 3d dc 8f b3 bd b2 da 85 3d 82 ea 0d 3e
       0.05776504 -0.087676734 0.065358534 0.13858989
000050 c7 51 43 bc 12 75 8e bd af f8 8e 3d cf e7 6b 3d
       -0.011921353 -0.06955923 0.069810264 0.057594117
000060 85 39 1a be 96 ed 8f bd 3c ec 1c bd 97 ec bd bd
       -0.15061004 -0.07027738 -0.03831123 -0.092736416
000070 fe 15 14 be cf 3f 20 3c 57 01 6d bd 74 2d ba 3c
       -0.14461514 0.009780838 -0.057862606 0.022726752
000080 1c 59 53 bd 9c 43 f9 3d 92 67 b8 bc 0a e0 bd 3c
       -0.051598653 0.121710986 -0.022510324 0.02317812
000090 c9 64 f5 bd d8 50 12 3b eb c8 b4 3c eb e0 35 bd
       -0.11982114 0.0022326019 0.022068461 -0.04440395
0000a0 f8 7e 0c 3e 6a 4b eb 3d fa 7b 6f 3b c1 c5 c8 bd
       0.1372031 0.114889935 0.0036542402 -0.098033436
0000b0 d8 1f b1 3d b1 f6 c9 bd 96 ea 03 3e 39 17 69 3d
       0.08648652 -0.09861506 0.12882456 0.056906912
0000c0 f9 12 0d be 59 53 00 3d 03 44 d3 3b 8d f6 19 be
       -0.13776769 0.031329487 0.0064473166 -0.15035458
0000d0 8d db 15 be 4f ec e3 bd 2a 87 a2 3c 78 a3 d0 bd
       -0.14634533 -0.11129057 0.019839842 -0.10187429
0000e0 69 3a 18 3e 82 76 ca 3d 50 63 05 3e ae 78 7b 3d
       0.14866032 0.09885885 0.13026166 0.061394386
0000f0 82 e6 23 3d 6c 63 d0 bb 24 ee 65 bb 4a aa bd bd
       0.04001475 -0.0063595083 -0.003508457 -0.09260996
000100 0e af b1 3d 79 42 89 3d 88 89 84 bd b8 44 af 3d
       0.08675967 0.06702132 -0.064715445 0.08558029
000110 c9 87 19 3d 3b 50 c4 3d 24 92 6b bd b9 3d c2 bd
       0.03748301 0.09585615 -0.057512417 -0.09484429
000120 5b c8 c2 3d fa 8d a8 3c bb bb f8 bd 60 c1 85 3c
       0.09510871 0.020575512 -0.12145182 0.01632756
000130 50 6e 4f bc 06 42 ac bc 55 b6 35 bd 2d 4c 08 be
       -0.012660578 -0.021027576 -0.04436334 -0.13310309
000140 b0 85 8b bd 1e 93 8a bd ea f6 02 3d 0d f4 85 bd
       -0.06812608 -0.067663416 0.031973757 -0.065406896
000150 80 1f b4 3d c6 3a 05 be 65 80 90 bd 7a 6f 26 3d
       0.08795071 -0.13010702 -0.07055739 0.040633656
000160 c1 2a e1 3d d2 33 c4 bd 30 19 00 3e 4a a5 14 3e
       0.10994483 -0.095801964 0.12509608 0.14516178
000170 a6 51 81 3d fa 78 94 3d 01 9f 15 bd 9f 2a 2c bb
       0.06314401 0.07249637 -0.03652859 -0.0026270521
000180 e0 7a fa 3d a9 48 a7 3b af 2a c4 bc b7 8f c5 3d
       0.12230468 0.0051050973 -0.023946134 0.09646552
000190 c8 e2 04 3c 84 f4 a2 3c 55 9f 19 3e 57 68 87 bd
       0.0081107095 0.019891985 0.15002187 -0.06611698
0001a0 69 b2 8c 3d d0 65 c5 3d 73 a8 5f 3c 63 f6 c5 bc
       0.068699665 0.0963856 0.013651001 -0.024165338
0001b0 da 7e aa 3d 7a bf 67 3d 94 d4 04 3c cb f8 ce 3c
       0.08324976 0.05657909 0.008107323 0.025265118
0001c0 d5 6a d0 3d c5 8e e4 3d 0d 4d 74 bd 37 b4 7e 3c
       0.101766266 0.111600436 -0.059643794 0.015545896
0001d0 c0 6e 05 3e a0 53 6d 3d 0b 04 d7 bd 6f 8f 01 3e
       0.13030529 0.05794108 -0.10498818 0.12652372
0001e0 88 e3 f1 bd 5e 4d 68 bd 16 a1 b7 3c 45 b9 89 bd
       -0.11810976 -0.056714408 0.022415679 -0.067247905
0001f0 ab 88 65 3d 10 39 4f 3c 78 db 10 3e 48 c4 a6 bc
       0.05603854 0.012647882 0.1414622 -0.020357266
000200 87 0e fa 3d 67 27 b1 3c 03 20 04 be bf 42 a7 3d
       0.12209802 0.021625234 -0.12902837 0.08167028
000210 ac 7c 01 3e 33 1b 17 be 38 5e bc 3c b4 32 37 bd
       0.12645215 -0.1475647 0.022994146 -0.04472609
000220 5c 64 bc 3d bb 2e 89 3d c7 3e 9a 3d ed 8b 01 3e
       0.091988295 0.06698366 0.07531505 0.12651034
000230 39 3e 09 3e ae e7 b3 bd d0 0b dc 3d 54 33 0d bd
       0.13402642 -0.08784424 0.107444406 -0.03447278
000240 86 9a 14 3e d3 57 ec bd e0 af df bb eb 42 c8 bd
       0.14512071 -0.11540189 -0.006826386 -0.097783886
000250 ff ef 1c be 73 57 1b be 19 49 ce bd 37 dc fc bc
       -0.15325926 -0.15170078 -0.10072536 -0.030866725
000260 ee 43 cc 3d 06 28 1c be 3a 65 9a 3d b7 e3 b1 3d
       0.09973894 -0.15249643 0.07538839 0.08686011
000270 56 08 4a bd 40 44 29 3c c9 75 63 bd a2 7b 16 bd
       -0.049324356 0.0103312135 -0.05553225 -0.036739
000280 17 82 84 bd 4c d7 be 3d 80 7a b9 bd 2d 83 dc 3d
       -0.06470125 0.09318408 -0.09056568 0.10767207
000290 2f f6 5c 3d a5 93 03 3e 85 c8 a7 3b 8c b9 e7 3d
       0.053945716 0.1284929 0.0051203393 0.11314687
0002a0 85 ab e9 bd ae 43 b3 bc 52 62 04 bd 49 0e af bd
       -0.11409668 -0.021882858 -0.032320328 -0.085476466
0002b0 bf 0e d9 bd 4a 2a 0e 3e f9 f6 56 3c 26 a9 aa 3d
       -0.10598516 0.1388332 0.013120406 0.08333044
0002c0 5c 6f f8 3c d1 d7 9b 3d a9 0d 08 be 30 50 d8 bb
       0.030326538 0.07609523 -0.13286461 -0.006601356
0002d0 36 d2 9d 3d c0 28 a3 3a 58 7e 82 bd f3 87 0f 3c
       0.0770611 0.0012448058 -0.063717544 0.00876044
0002e0 a0 e5 fb bd cd c9 6d 3d 19 08 d5 3c 97 e8 f9 bd
       -0.12299657 0.05805378 0.026004838 -0.12202566
0002f0 de e2 b2 3d 93 b7 07 be d8 c7 a2 3d 61 88 ce bd
       0.08734678 -0.13253622 0.079482734 -0.10084606
000300 a8 72 14 be d4 da cc 3c a3 b1 be bc 02 56 f3 3d
       -0.14496863 0.02500669 -0.023278063 0.11881639
000310 20 73 92 bd 40 6a 10 3e 5b f7 18 3d 96 c6 96 3c
       -0.071508646 0.14103031 0.03734527 0.01840524
000320 cb 28 d9 3c f9 4a 31 3d c3 72 a6 3d e9 53 55 3c
       0.02650871 0.04328439 0.08127358 0.013020494
000330 8f d4 0b 3e 1b 1d 05 be 2e 6e 8a bd 1e 07 50 bd
       0.13655303 -0.12999384 -0.06759296 -0.050788037
000340 99 26 d5 bd a6 67 e5 bd 31 26 c4 bd 0c 82 f2 3c
       -0.104077525 -0.1120141 -0.09577597 0.029603027
000350 0a 5d 59 bd 58 26 01 be 91 c9 90 3d d6 04 0b 3e
       -0.053067245 -0.12612283 0.07069696 0.13576064
000360 f5 99 63 3d 67 95 d5 bd 63 17 19 3e 3a 00 20 3c
       0.055566747 -0.10428887 0.14950328 0.009765679
000370 7e 59 02 bc d5 e0 47 3c 25 51 09 3e 53 97 a8 bd
       -0.007955907 0.0121996 0.1340986 -0.08231988
000380 4e 73 d6 bd f3 fa 65 3d 57 b7 f8 bd 49 d3 6a bd
       -0.104712114 0.056147527 -0.12144344 -0.057330403
000390 75 8a a6 bc 73 1a 02 3e 31 32 4e bd 4f df cc bb
       -0.020329693 0.12705402 -0.050340835 -0.0062522064
0003a0 8f 08 0e be 2e 2f ab 3d 3f 23 fb bd 68 54 9b 3b
       -0.13870452 0.08358608 -0.12262582 0.0047402866
0003b0 60 3e 0f 3d f7 eb 3d bd 62 c3 1f 3d 59 bd ab 3c
       0.034971595 -0.04636761 0.03900469 0.020964311
0003c0 6c 4c c2 bd e9 ac 01 be 67 90 12 3e 04 d5 09 be
       -0.094872326 -0.12663616 0.14312898 -0.13460165
0003d0 2e b1 78 bd cd a1 97 3d 81 11 01 bd 33 5c f4 bc
       -0.060715847 0.07403908 -0.031510834 -0.02982912
0003e0 18 ae 91 3c 73 6a c3 bc e3 1b 89 3d c4 f5 81 bd
       0.01778321 -0.02385447 0.06694772 -0.06345704
0003f0 1d ef 17 3d a6 e4 13 be a0 3a be bc 55 f9 ea 3d
       0.03709327 -0.14442691 -0.023221314 0.114733376

bias f4 [128]
000000 5f 17 8b 3b c5 f8 c2 3b 47 46 6e bd 0b 82 5f bc
       0.0042447294 0.005950066 -0.05817249 -0.0136418445
000010 40 96 34 bd 80 4a 0f 3c 51 51 bc ba 38 e8 65 39
       -0.044088602 0.0087457895 -0.0014367496 0.0002192565
000020 00 00 00 00 fc 72 3b 3a 69 e4 0b 3d a8 20 89 bd
       0.0 0.0007150618 0.034153376 -0.06695682
000030 1a bd 85 3c 18 13 2e bd cf 14 06 ba f3 d5 9d 3c
       0.016325522 -0.042498678 -0.0005114795 0.019267058
000040 9b ec 48 bc 5f 1d 95 3c 21 85 95 bc 14 08 c9 bb
       -0.012263442 0.018202482 -0.018251957 -0.006134996
000050 77 b2 0a bd 15 59 e6 bb f1 d3 17 ba bc 3c 9e ba
       -0.033861604 -0.0070296624 -0.00057917746 -0.0012072544
000060 d3 14 68 bb 3f dc 86 bc 00 00 00 00 3c ba 85 3b
       -0.0035412803 -0.016462443 0.0 0.0040810388
000070 f3 8c bb 3c 46 f1 e2 38 da 19 e4 3c 1d 0c 94 3b
       0.022894358 0.000108214605 0.027844358 0.0045180456
000080 d2 85 5e 3d 4c f5 6a bc f2 c6 b4 ba fe 03 05 36
       0.05432684 -0.01434071 -0.00137922 1.9820868e-06
000090 04 7c 8b bc 46 58 f4 3b de a2 f2 ba ab d5 45 3c
       -0.017026909 0.007456812 -0.0018511673 0.012074868
0000a0 32 fe 26 bc c8 af 0a ba 00 00 00 00 00 00 00 00
       -0.010192441 -0.00052904757 0.0 0.0
0000b0 a4 ba 15 bd a7 5d e2 bc 54 ca 1e bc 7d b0 85 bc
       -0.036554947 -0.027632548 -0.0096917935 -0.016319508
0000c0 cd cd 41 bd 45 c6 b6 ba 54 3d 77 bc fc 74 d6 3b
       -0.047315408 -0.0013944587 -0.015090305 0.0065447073
0000d0 30 e8 6c bc 78 e5 8a ba e5 4d 85 bd 42 a8 33 bb
       -0.014459655 -0.0010596951 -0.06508998 -0.0027413522
0000e0 66 a3 9a bb 81 9b 0b bb 83 56 6a bd 00 00 00 00
       -0.0047191856 -0.0021302404 -0.05721141 0.0
0000f0 4c 74 83 bb 05 d8 78 bc f0 2c 0b 3c 45 0d 9f b9
       -0.0040116664 -0.015188222 0.008494601 -0.0003033673
000100 82 bc 41 b5 d6 af db 3b ed 77 30 b9 1f 65 7d bc
       -7.217242e-07 0.006704311 -0.00016829344 -0.015466004
000110 dc b3 91 3c 96 16 ab ba 29 d9 b4 3a 61 4f 9a 3a
       0.017785959 -0.0013052996 0.0013797629 0.0011772924
000120 3a 4b 06 bc fe da b8 3c b8 f5 81 bb 69 9c 0a bc
       -0.008196646 0.022565361 -0.0039660595 -0.008460143
000130 2e 7c b9 bc ed b7 8e bd 39 d7 00 bd 65 4c 50 bd
       -0.022642221 -0.06968675 -0.031455252 -0.050854106
000140 b1 8f e7 b8 2a 7e 30 bd cf fb 04 3c 87 22 49 bb
       -0.00011041703 -0.04308907 0.0081166765 -0.0030690746
000150 c0 7f 32 bb 05 e0 04 3b 2c 90 c9 b7 86 19 d9 bb
       -0.002723679 0.0020275128 -2.4028202e-05 -0.006625357
000160 eb 77 e8 bc 96 0a 08 bb 21 72 e4 bd 2c a0 d2 38
       -0.028377494 -0.0020758263 -0.11154581 0.00010043415
000170 95 65 4a bb 98 22 d2 3b d5 71 55 3b ba 22 63 ba
       -0.0030883302 0.0064128153 0.003256907 -0.00086645375
000180 69 cb 43 bd c0 bc b1 ba 2a 55 8f bc 65 5f 1d bd
       -0.04780141 -0.001356028 -0.017496664 -0.038421053
000190 e3 39 a5 bd 95 97 28 bd 64 07 ee ba ed 34 81 bc
       -0.08067682 -0.041160185 -0.0018160162 -0.015772307
0001a0 1a 58 9c bc 63 9f cf 3c 0b d1 77 bb fd 2f 19 ba
       -0.019084979 0.025344556 -0.0037813808 -0.00058436376
0001b0 52 e6 67 3a 27 38 80 bc f2 0f 81 bb c6 d9 70 bd
       0.0008846271 -0.015651776 -0.0039386684 -0.058801435
0001c0 ea 6c 8e bb b0 02 9c 3c 00 00 00 00 d0 45 14 bd
       -0.0043464797 0.01904425 0.0 -0.03619939
0001d0 c4 83 e3 bb a2 7e ff 3a 2e 07 80 bd 73 82 89 3c
       -0.006943198 0.0019492696 -0.062513694 0.016785836
0001e0 b1 f9 59 3a d1 90 cf bc 4e 53 14 bc 18 02 0c bc
       0.00083151 -0.025337609 -0.0090530645 -0.008545421
0001f0 86 e0 c9 bc bc 7f 9d bb 9f e9 98 3c 5a 0b a3 bb
       -0.024643194 -0.004806487 0.018666087 -0.0049757184

weight f4 [128, 128]
000000 7e 0a 01 be d8 db e3 bd 49 60 e2 3d da fa 1b 3e
       -0.12601659 -0.11125916 0.11053521 0.15232411
000010 6c 9c ca 3c 68 e4 65 3d ba 35 97 bd 96 99 83 bd
       0.02473279 0.05612603 -0.073832944 -0.064257786
000020 d4 82 13 3e fb c9 d6 bd ff 04 db 3c 04 75 0d 3e
       0.14405376 -0.104877435 0.02673578 0.13814169
000030 59 e8 34 bc 8a 5d 0f 3e 5f 6a f0 3c fa bd dd 3c
       -0.011041724 0.14000526 0.029347597 0.027068127
000040 59 a9 fc 3d 82 e2 dd 3b 32 f1 13 3d ae 34 f6 3c
       0.12336988 0.0067713866 0.036118694 0.030054417
000050 77 41 0d be a6 5f 02 be 55 87 df 3d 74 77 13 3e
       -0.13794504 -0.127318 0.109144844 0.14401037
000060 56 a2 d6 3d 3c b9 02 3e 22 e2 23 bd c8 ef 63 bd
       0.10480182 0.12765974 -0.04001058 -0.055648595
000070 64 1b 8c 3c 19 17 db 3c 17 0f 36 bd 40 df 8c 3d
       0.017102905 0.026744412 -0.044447985 0.06878519
000080 1c e1 b6 3d 47 78 12 be 89 db 14 3e a7 4e a2 3d
       0.08929655 -0.14303695 0.14536871 0.07925158
000090 85 d8 d4 3d 1a 9c 5b bc 7c 67 5f bd d0 62 ef bd
       0.1039286 -0.013403917 -0.05454205 -0.11688769
0000a0 2d 8d f7 3d 85 43 05 3e 72 8d 8d 3b 45 b4 ac 3d
       0.12087474 0.13014038 0.00431984 0.08432821
0000b0 32 72 2a bb 28 4f c9 3d b4 1d 42 bb 20 f5 af 3c
       -0.0026008007 0.09829551 -0.0029619755 0.02147919
0000c0 d5 b4 b9 3d b2 c9 0a 3e c5 66 09 3e 87 0e 92 bd
       0.09067694 0.13553503 0.1341811 -0.07131677
0000d0 7b ea b9 bd 39 63 f7 bd 89 13 13 3d a4 88 18 3e
       -0.09077927 -0.12079472 0.035907302 0.14895874
0000e0 20 d7 a9 3d 99 9a 42 3d 20 2a b7 3d 0f 55 a3 3c
       0.08292985 0.047510717 0.089435816 0.01993802
0000f0 f7 2d 0d be 60 12 c9 3d d6 8b e1 bd 26 05 e8 3d
       -0.13787065 0.09817958 -0.11013 0.11329107
000100 5d 93 44 bd 24 92 8d bd 75 f1 e8 3c 92 32 6d bd
       -0.0479921 -0.0691264 0.028435448 -0.057909556
000110 e3 32 21 3e b2 14 70 bd ef a2 f3 3c 1f 44 2b bd
       0.15742068 -0.058613487 0.029740779 -0.041813012
000120 77 9c bc 3d 55 5e fd bc 4b ad c0 bc 92 9a 11 3d
       0.09209531 -0.03092877 -0.023520133 0.0355478
000130 0d 0c fc 3d 71 a8 1b bd ea 13 a4 3d 6a 32 0b 3e
       0.12306986 -0.038002435 0.08011611 0.1359345
000140 18 61 a1 bc 92 77 a2 3d dd b3 04 ba 65 b9 15 be
       -0.019699618 0.079329625 -0.0005062202 -0.14621504
000150 3d 93 1b 3e fc fe ac bd 3d c5 8e 3d 66 be 4d bd
       0.15192886 -0.08447072 0.06971214 -0.050230406
000160 8c bf 8d bd b0 53 12 3e f0 00 d3 bd 82 c8 0d bd
       -0.069213 0.14289737 -0.10302913 -0.034615047
000170 0a de 0e be a5 85 c3 3d c3 00 a8 3d 48 59 45 3d
       -0.13951889 0.09546975 0.0820327 0.04818085
000180 9e 85 24 3e 9e 99 21 3d 9a e6 36 3d ab 50 71 3d
       0.16066596 0.03945314 0.044653513 0.05891482
000190 89 3d 6b 3d 1e 46 f2 bc 27 d2 d3 bd 7b 11 03 3e
       0.05743173 -0.02957445 -0.10342818 0.12799637
0001a0 96 e4 c3 bc f7 b1 f5 3d 47 de 88 3d cc 37 c1 3d
       -0.02391271 0.11996835 0.06683021 0.094344705
0001b0 77 22 c4 3d f1 37 f9 bd 4c ef 51 3c 64 25 7f bd
       0.09576886 -0.12168873 0.0128134005 -0.062291518
0001c0 3b 0f 0a be ae 71 1d bd 85 8b 00 3e 97 70 37 3d
       -0.13482372 -0.03843849 0.12553222 0.04478511
0001d0 4c 5a e7 bc 78 3a b2 3c 5e 85 8c 3d 0b 4d 85 3d
       -0.0282413 0.021756396 0.06861375 0.065088354
0001e0 e8 eb a2 bd d1 01 2a 3d fc 4e 7d 3c eb b7 0a bd
       -0.07955152 0.04150564 0.015460726 -0.033866804
0001f0 4c 45 70 3d 05 98 1a be ff cc 03 3e 54 87 2c bc
       0.058659837 -0.15097053 0.12871169 -0.010530312
000200 a3 12 a5 3d fe 2c de 3d b3 7a 01 be 83 ad c8 3d
       0.08060195 0.10848425 -0.12644462 0.0979872
000210 7e e1 49 bd b8 35 dd 3d 9c 90 1a be 1c 76 df 3c
       -0.04928731 0.10801262 -0.15094227 0.027277999
000220 4b 0c ea 3d 38 fc ea 3d 8f 24 f1 3d ff c4 aa bd
       0.11428126 0.11473888 0.11774551 -0.08338355
000230 0f 3c d2 bd d8 14 c6 bd bd 59 d4 3d cd 5e 33 bd
       -0.102653615 -0.096719444 0.10368679 -0.04379158
000240 91 e6 a6 bd b7 98 9b bd 00 4c e5 bd 0f a1 b5 3d
       -0.08149446 -0.075974874 -0.111961365 0.0886861
000250 44 a9 03 be 94 17 fb 3d c7 02 e1 bd 7e 7b e9 3d
       -0.12857538 0.122603565 -0.10986858 0.114005074
000260 27 09 d0 3c 7b 56 d3 bc 57 98 e2 bd bd 72 8e bc
       0.02539499 -0.025798073 -0.11064213 -0.017388696
000270 e7 1e 6c 3d cf 74 74 3d e2 96 3d 3d 84 f5 db bd
       0.05764666 0.05968171 0.04628647 -0.10740188
000280 d1 5b a4 3d 11 cd 14 3c 6c 6d 18 bc 41 bf fe bd
       0.08025325 0.009082095 -0.009303432 -0.124388225
000290 02 b6 56 bc 72 1f b2 bd 6d 07 dd 3d d7 f1 99 ba
       -0.0131049175 -0.08697404 0.10792432 -0.0011745048
0002a0 97 c3 7c 3b 7e 7a a8 b8 2e 67 51 bd aa d0 ee 3d
       0.003856873 -8.03368e-05 -0.05112379 0.11660893
0002b0 e7 91 ef 3d 37 86 9c 3d 25 16 03 bd 39 66 8e 3d
       0.116977505 0.07642787 -0.03200354 0.06953091
0002c0 04 1a 06 be 45 42 fb 3d c8 81 a9 bd ac f8 ad 3d
       -0.13095862 0.12268499 -0.08276707 0.08494696
0002d0 f7 e5 78 bb 48 75 13 3e c5 1c 19 3e 79 f6 d5 bd
       -0.0037978867 0.14400208 0.14952381 -0.104474016
0002e0 66 fa 03 be d8 9e 93 3c fa b1 fb bd fb bc eb 3d
       -0.12888488 0.018020079 -0.12289806 0.115106545
0002f0 47 1d f0 bb df 2c 17 3d c9 1d 11 3e 94 51 10 3d
       -0.007327709 0.036908027 0.14171518 0.03523405
000300 58 9f 10 be ea 18 17 3e ed 72 fe bc 28 77 8e bd
       -0.14123285 0.14755598 -0.03106066 -0.06956321
000310 ce 2c d0 bb 4a 6d e7 3b 1a ba 2e bd 7d 85 b0 bd
       -0.0063529974 0.007062589 -0.04265795 -0.08619211
000320 be 9b 72 bd 35 0f e1 bd c0 50 0c be f6 67 c1 3c
       -0.05923056 -0.10989229 -0.13702679 0.023609143
000330 d3 01 0c bd 2b cb 9b 3d c2 68 f3 bd 28 ef dd 3d
       -0.034181427 0.076071106 -0.11885215 0.10836631
000340 a0 93 cd bd 4e 65 a3 bd a9 0f b0 bd 4f 17 fc 3d
       -0.10037923 -0.07978307 -0.08596737 0.12309133
000350 81 ce c4 3d 5f 10 f0 bd 11 c7 0b bc fa a7 a0 3d
       0.096097 -0.117218725 -0.008531348 0.07844539
000360 ce fe 15 be 5e bd a8 bc 67 0c 34 3c 20 9c 12 be
       -0.14647982 -0.02059811 0.010989285 -0.1431737
000370 ca 7c 9b 3a 7f b2 d0 3c ac 80 64 3b 88 61 08 be
       0.0011862752 0.025475739 0.0034866733 -0.13318455
000380 a5 32 00 be 57 f0 02 be cf 4a d2 bc d7 89 c6 3d
       -0.1251932 -0.12786995 -0.025670437 0.096942596
000390 48 58 f3 bd be 62 bd bd fa 9c bc 3d 0f bb 9d 3d
       -0.11882073 -0.09247349 0.092096284 0.07701694
0003a0 6e f0 19 be fb e5 45 3d b1 38 97 bd a7 2e 9a bd
       -0.15033123 0.04831503 -0.0738386 -0.075284295
0003b0 c3 0d dd bd 0e cf e5 3d 18 60 9d bd 76 f0 70 3d
       -0.107936405 0.11221133 -0.07684344 0.05882307
0003c0 7e 7b e7 bc e3 60 0e be 8c fe f2 3d cf 0c 88 3d
       -0.028257128 -0.13904147 0.11864957 0.06643068
0003d0 24 5d de bb 90 95 3b bd 45 2f 3f 3b b5 ea d4 bc
       -0.0067860056 -0.04579693 0.0029172462 -0.025990823
0003e0 44 73 0a be 73 da 16 3e 75 0a 53 bd 0b 40 8d bc
       -0.13520533 0.1473177 -0.051523644 -0.017242452
0003f0 8b 43 ae bd 9d 84 ea 3d 13 ff 18 be ec 39 10 3e
       -0.085089765 0.11451075 -0.14941053 0.14084595

bias f4 [128]
000000 cc 6d 8e 3c 3e dd c9 38 00 00 00 00 68 37 8f 3b
       0.01738634 9.6256364e-05 0.0 0.0043706186
000010 b9 fa 9c bc 47 53 8e bd fe c5 12 3d 2d 38 a6 bd
       -0.019162523 -0.06949478 0.03583335 -0.081161834
000020 78 d1 b7 b9 ce 60 2b bb 7d b9 e1 bc 84 0e e3 bb
       -0.00035060546 -0.002615023 -0.027554268 -0.0069292206
000030 17 de 9b bc 9d 34 54 bc 1a 21 86 3c f1 fa 79 bd
       -0.0190268 -0.012951997 0.016373206 -0.061030332
000040 66 9d fb bc 61 da 6c bb d8 df 60 3b 5f be 22 39
       -0.030714702 -0.0036140906 0.0034313109 0.00015520443
000050 85 2a 42 39 af 1c 89 bd f0 9a 53 bd e1 2f ff bc
       0.00018517121 -0.06694924 -0.05166143 -0.03115076
000060 6f fd 2d bd 08 cc 49 bc 00 00 00 00 00 00 00 00
       -0.04247802 -0.012316711 0.0 0.0
000070 47 18 2e bd 76 80 a7 bb 95 ed ca 3a 69 e2 be 3b
       -0.04250362 -0.0051117493 0.0015482182 0.00582533
000080 b2 57 db 3b 06 1f 39 b9 bc 8c c3 3c 00 00 00 00
       0.0066938037 -0.00017654532 0.023870818 0.0
000090 df 4d b5 b4 12 c1 c5 bc 5c 2d 46 bd d2 8f d8 bb
       -3.3770536e-07 -0.024139915 -0.0483831 -0.0066089416
0000a0 7f b5 36 3c da 77 0b 38 a4 f8 25 bb e3 22 0b bd
       0.0111516705 3.3251803e-05 -0.0025325203 -0.033968817
0000b0 e9 f9 06 bd 00 00 00 00 6f 92 13 3d 14 07 3b bb
       -0.032953177 0.0 0.03602832 -0.0028538154
0000c0 13 2c c8 ba 99 11 56 3a 86 66 09 3d 3d 1d e1 3c
       -0.0015271924 0.00081660744 0.03354504 0.027479762
0000d0 d1 44 01 bd b6 01 2a bd b6 42 e9 3c f3 d8 d9 bc
       -0.03155977 -0.041505538 0.028474193 -0.026592707
0000e0 67 10 d8 3b ff 5a 18 bb aa bd 0f bc 00 00 00 00
       0.006593752 -0.0023247597 -0.008773247 0.0
0000f0 42 99 6a bc eb 3d fa 3b 30 cc 5a bb 79 ec f7 bc
       -0.014318766 0.0076367757 -0.0033385865 -0.030264126
000100 1a 61 b8 3a a6 59 5e bd 11 c1 f1 bc e8 66 9d 38
       0.0014067024 -0.054284714 -0.029511007 7.505511e-05
000110 d0 21 b9 bb 1d 96 10 bd 76 e8 43 bc 1d f5 98 39
       -0.0056497827 -0.03529941 -0.0119572785 0.00029174323
000120 d5 df 5c ba f0 cf e2 3b 3d e3 ce 3b 54 0b 28 ba
       -0.00084256876 0.0069217607 0.00631371 -0.00064103794
000130 6c 90 c6 3c 9e fa a0 36 d2 04 58 bd 28 85 13 bc
       0.024238788 4.7975473e-06 -0.052738972 -0.009003915
000140 62 c4 82 bc 19 21 74 ba 2e 21 de bc e5 b4 0c bc
       -0.015962783 -0.0009312793 -0.02711543 -0.0085880505
000150 5a be 32 3d 38 09 f5 b9 80 00 02 3a 00 00 00 00
       0.043638565 -0.0004673691 0.0004959181 0.0
000160 23 74 0a 3c 91 a2 c5 bc f1 fb f1 ba 99 cd 8c bc
       0.008450541 -0.02412537 -0.0018461925 -0.01718788
000170 27 d4 42 bc 8a ae 35 ba 44 73 44 bc 88 9b 24 bc
       -0.011891401 -0.00069306104 -0.011990372 -0.010046847
000180 10 63 18 bb 23 74 af bd 4a f6 1c 3b 28 a9 57 bc
       -0.0023252405 -0.08567073 0.002395051 -0.013162889
000190 ef c4 79 b7 3d bb 44 bc cb 9a 89 3b e7 78 40 bb
       -1.4887409e-05 -0.012007532 0.004199361 -0.0029368938
0001a0 00 00 00 00 00 00 00 00 40 1b 89 3b b1 8a a2 36
       0.0 0.0 0.0041841567 4.844122e-06
0001b0 b5 a9 85 3d a3 ec 0d bd 48 ac 90 bb 25 24 02 3c
       0.0652651 -0.034649502 -0.004415069 0.007943188
0001c0 6d 0d fc 3b 00 00 00 00 1b 1b ae bc be c4 19 bc
       0.00769203 0.0 -0.02125316 -0.009385286
0001d0 4d 26 ab bb 98 d4 b1 3b b9 d9 3d 3b 91 ec 98 bb
       -0.0052230717 0.0054269545 0.0028968884 -0.004666873
0001e0 73 19 21 bd 19 7e b7 38 82 6c 07 3c 00 00 00 00
       -0.03933091 8.7496075e-05 0.008265616 0.0
0001f0 a6 30 fc bc 3f 34 a4 bb 8d 58 c1 bb c2 83 90 bc
       -0.030784916 -0.005011111 -0.0059004487 -0.017640952

weight f4 [128, 128]
000000 ca 0b b5 bd 43 03 cd 3d 08 85 de 3d 10 44 65 bd
       -0.08840139 0.10010388 0.108652174 -0.055973113
000010 c0 75 a0 3c 98 c5 b4 bd 23 eb a0 bc 85 eb 35 3e
       0.019587398 -0.088267505 -0.019643372 0.17765625
000020 08 b1 ea bd 51 26 90 bd e5 76 bb 3d 89 55 70 bc
       -0.11459547 -0.07038558 0.09153537 -0.014668831
000030 00 a1 cc 3d da 7a e5 3d a7 93 05 3d af b5 d1 bc
       0.09991646 0.11205073 0.032611515 -0.025599329
000040 13 81 09 be 31 cc 07 3e ee 20 3f bd 6d 3c 87 3d
       -0.13428144 0.13261487 -0.046662264 0.06603322
000050 91 1e d1 3d dd 56 4b 3e 00 f1 13 bd 1f 5a cf 3d
       0.10210908 0.19857354 -0.036118507 0.10124611
000060 a3 4a 3e 3e c2 8d 41 bd a4 fc 3c 3c 7e 8f 35 bd
       0.18583159 -0.04725433 0.011534844 -0.044326298
000070 9c 71 a3 bd 17 15 fe 3c 2d b5 a7 3c 4b 29 b3 3d
       -0.07980654 0.031015916 0.020472134 0.087481104
000080 ac 3c 53 bd b0 34 21 bd ab b1 18 3e 78 07 d4 3d
       -0.051571533 -0.039356887 0.14911525 0.10352987
000090 03 d6 f0 bd 8e e7 f5 3c 69 7e c1 bd 4d 40 26 bd
       -0.117595695 0.03001764 -0.09447939 -0.040588666
0000a0 f4 9e 29 bd 0c 02 ca bd 43 c7 5b bd 6f ce 28 3e
       -0.041411355 -0.09863672 -0.053656828 0.16484998
0000b0 45 46 d7 bd c8 b0 a4 bd af b9 30 bb 74 92 19 be
       -0.1051145 -0.08041531 -0.0026966145 -0.14997274
0000c0 d4 b3 84 3b 1d ba 99 3c ea 7d 06 be 47 7f cf 3d
       0.0040497575 0.018765504 -0.1313397 0.10131698
0000d0 45 2e 0a be 52 88 4c bd 42 1f d6 3d b4 25 04 3e
       -0.13494213 -0.049934693 0.10455181 0.12905008
0000e0 f1 b1 82 bd 2f 3e bb bd 11 dd 09 be b1 44 ac bc
       -0.06381596 -0.0914272 -0.13463236 -0.021028848
0000f0 77 5a 48 3d f0 6a 80 bd 55 2d 9d bc 1b a0 da bd
       0.0489144 -0.06270397 -0.019186655 -0.10675069
000100 50 97 29 3d 9c 51 2b 3d 17 e7 c1 bc 30 db c9 bd
       0.04140407 0.041825876 -0.023669763 -0.0985626
000110 a6 e2 b9 bd 1e 02 4a 3d 10 f1 76 bd 6c 3a db bd
       -0.09076433 0.049318425 -0.06028849 -0.107045025
000120 ea c6 21 bd a5 bd cc bd 70 3e 24 3d 02 d6 fc 3d
       -0.03949634 -0.09997109 0.040098608 0.12345506
000130 08 82 00 bd 98 85 1d bd 82 98 18 3d 30 6c bd 3c
       -0.031374007 -0.038457483 0.037254818 0.023122877
000140 b0 7b f2 bd 2e 91 15 3a 45 9c ec 3d 50 00 8f bd
       -0.11839998 0.00057055324 0.115532435 -0.069824815
000150 d7 ba 85 bb 5d 22 55 bd 7e d8 14 3e 36 92 14 be
       -0.004081111 -0.052034725 0.1453571 -0.145089
000160 6e 97 d6 3d 3d 7d d3 3d 1c 6b a0 3c bd 73 11 3e
       0.10478102 0.10326622 0.019582324 0.14204307
000170 2f c0 38 3b 7f a7 0f bc 03 0c 02 bd 8a 59 7e 3d
       0.0028190722 -0.0087679615 -0.031749737 0.06209711
000180 7b 30 f5 3d a0 3b 6d bd 43 f5 fe bb d1 92 e3 3a
       0.119721375 -0.05791819 -0.0077807023 0.001736248
000190 a0 a4 ba 3d 4d 09 16 be 4c 4a 45 bd ca b1 e2 3d
       0.09113431 -0.14651985 -0.04816656 0.11069067
0001a0 c8 00 bf bd 84 8a 0e 3e 21 e1 03 bd f3 43 e3 bd
       -0.09326321 0.13920027 -0.03219712 -0.11096945
0001b0 6b 4f 34 bd 87 40 a9 3d 18 24 04 be 26 7e 52 bc
       -0.04402105 0.08264261 -0.12904394 -0.012847459
0001c0 cc 78 66 3c 81 12 a6 3d aa a5 06 be 6b f0 03 be
       0.014066886 0.08108998 -0.13149133 -0.12884681
0001d0 cf 18 c0 bd e1 58 04 be cb 10 84 bd f2 51 ab bd
       -0.09379732 -0.1292453 -0.064485155 -0.08365239
0001e0 61 e0 05 3e 0b 55 90 3d de da 3b bd 4d 81 38 3d
       0.13073875 0.07047471 -0.045863025 0.045045186
0001f0 cb dc e5 3d 36 59 88 bd 1b f2 b2 bd 08 92 0d 3e
       0.112237535 -0.06657641 -0.08737584 0.13825238
000200 4a 52 f3 bd 5f fd 01 bd d7 06 dc 3d ed ee e9 3c
       -0.1188093 -0.031735774 0.10743492 0.028556312
000210 a8 50 6c bd 1f 18 2a bc 1e 83 15 bd d2 38 86 3d
       -0.057694107 -0.0103817275 -0.036501996 0.06553806
000220 e1 ff 12 3e cd 6e 96 bd fe 2f 18 be 6f 73 61 bd
       0.14355423 -0.07345352 -0.14862058 -0.055041727
000230 5e 03 90 bd 81 ec 17 be bb b7 01 be 27 cd f3 bc
       -0.07031892 -0.14836313 -0.12667744 -0.02976091
000240 34 d5 7a 3d 49 56 3e bd 63 cd f7 bc c9 e6 c1 bd
       0.061238483 -0.046469007 -0.030249303 -0.09467847
000250 2a 33 e6 3c eb c8 f6 bd 83 c3 07 be 2b 31 0b bd
       0.028100569 -0.12050041 -0.13258176 -0.033982437
000260 f5 f6 8d 3d 28 b2 34 bd 59 a0 46 3d f2 81 a6 bd
       0.06931869 -0.044115216 0.048492763 -0.08130254
000270 55 f5 40 3c 86 a5 e0 3d 66 03 5c bd ad b3 af 3c
       0.011777242 0.10969071 -0.05371418 0.02144798
000280 80 1b 14 be 0f 92 6b 3d bf 5f 20 bd 82 2b db bd
       -0.14463615 0.05751234 -0.03915381 -0.10701658
000290 24 b2 91 3d 67 d0 31 bc ba 4e c0 3c 1f 39 a6 3d
       0.07114056 -0.01085291 0.02347504 0.08116364
0002a0 a8 bf 09 3e 2d ba 17 be a0 e0 76 bd 13 5c 1c be
       0.13452017 -0.14817114 -0.060272813 -0.15269499
0002b0 a8 94 1c 3d ad cb 16 be cb c9 a7 3d 40 a4 f4 3d
       0.038227707 -0.14726134 0.08192786 0.11945391
0002c0 2b fe ba bd 14 e7 78 3d dc 18 07 3e b8 a1 0a 3e
       -0.0913051 0.06076725 0.13193077 0.13538253
0002d0 a4 e9 c6 3c 71 af 8a 3d a2 2c b7 bd 34 20 b7 bd
       0.02428133 0.06771744 -0.0894406 -0.08941689
0002e0 fa 39 96 bd 59 ab 92 bc fb 6b dc 3b ae 97 18 3e
       -0.07335277 -0.01790397 0.0067267395 0.14901611
0002f0 a0 a4 b2 bc 87 d4 6c 3d 52 07 c5 3d 7a ec 10 be
       -0.021807015 0.05781987 0.09620537 -0.14152709
000300 6c d6 9f bc da ab 08 3e 76 2e d9 3d 41 a4 e6 bd
       -0.019511424 0.13346806 0.10604565 -0.11261798
000310 6f 03 5a bd f1 85 ce bc 08 ab 91 38 f4 54 1c bd
       -0.05322593 -0.025210353 6.945996e-05 -0.038166955
000320 c1 36 9c bd ce 40 c1 bc 90 5b 97 3b eb af 9a bd
       -0.07627631 -0.023590472 0.0046190694 -0.07553085
000330 76 7f de 3d 49 92 1a 3e 9d ca 66 3d 83 3c 80 3d
       0.10864155 0.15094866 0.05634557 0.06261542
000340 f6 f3 8a bd 0f 64 b0 3d 92 8b a4 3b cc 6f 80 bd
       -0.06784813 0.08612835 0.005021521 -0.062713236
000350 1e a6 80 bd b6 29 01 3e 7c d2 59 bd 71 ef 83 bd
       -0.06281684 0.12613568 -0.05317925 -0.06442154
000360 6c 4e a9 3d 79 58 14 be fb f8 06 3e 83 7a 11 3e
       0.08266911 -0.14486875 0.13180916 0.14206891
000370 d2 3c 0d be 6d a1 bb bb a8 6d 9f bd 6a b5 90 bd
       -0.13792732 -0.0057260306 -0.07784587 -0.07065852
000380 e3 cd b7 3d ce 3a 40 3d a2 ec 1a be d9 bd b2 bc
       0.08974817 0.04693108 -0.15129331 -0.021819042
000390 1a a2 ff bb a4 46 11 bd 61 e9 a2 3d 2a 54 c4 3c
       -0.0078013064 -0.03546776 0.0795467 0.023965914
0003a0 8f 5a 1a bc 95 5a da bd c9 5b 85 3d 72 77 6a bd
       -0.009421005 -0.106618084 0.06511647 -0.05724282
0003b0 84 1e b4 3d c6 96 fe bd fe a0 16 3e c3 eb ee 3b
       0.08794883 -0.124311015 0.14709851 0.0072912886
0003c0 14 f8 95 bc 09 9c b8 bd ea f2 d0 3d 81 7c 29 3d
       -0.01830677 -0.09014136 0.10202582 0.0413785
0003d0 7b 21 d9 bd 46 2d 06 3c 1a 3f ed ba 7c 49 c5 bd
       -0.10602089 0.008189505 -0.0018100471 -0.09633157
0003e0 2a 54 5b 3d 7d 0b 85 bd 9b 2d c9 bd 3c 51 bf 3d
       0.053547062 -0.06496332 -0.09823152 0.09341666
0003f0 78 7b 2d bc b0 84 11 3e ba 95 db 3c 2c 93 4b 3d
       -0.010588519 0.14210773 0.026804794 0.0497009
