MAMRL-TE/Dynamic environments/Baselines/Random/Geant/task2/savemodels/policy3.pth (torch, 275867 bytes, 12 tensors)

weight f4 [128, 7]
-0.13235447 0.015381424 -0.032237675 0.07549741 -0.08496533 -0.11161398 0.092962965 -0.23835665
0.12704165 0.14432609 0.15062918 0.20016086 0.15155363 0.20779118 0.02528575 0.09889319
-0.11104473 -0.1515683 -0.040175878 -0.20048995 -0.11497407 0.38845712 0.08907715 0.09936898
0.020246621 -0.009575773 0.19570862 0.01475132 -0.16409625 -0.1484282 0.079715855 -0.08690881
-0.15376726 -0.050023776 0.1955214 -0.1662497 -0.16251978 -0.042745885 0.099825986 -0.18359728
-0.018921701 -0.014462489 0.34971225 -0.17060529 0.00132893 -0.20122568 -0.072083995 -0.05931541
-0.123787306 0.19593184 0.053935885 -0.19404349 -0.07540636 -0.10475432 -0.02812634 0.010528299
0.32942483 0.067845225 -0.18934128 -0.070357025 -0.031766057 -0.008678921 -0.025880639 0.23092507
0.13956878 0.010856989 0.1855959 0.062158693 -0.11051945 0.12885518 -0.108191326 0.15332834
-0.10601783 0.070309415 -0.1565555 0.15584221 -0.051529825 -0.08439627 -0.17283793 0.18858375
-0.056284588 -0.013587441 -0.07808778 -0.08789372 0.093655534 0.13973363 0.19884662 0.011181763
-0.07764627 0.118175864 0.18338743 -0.16419491 0.13259734 -0.1071968 0.09125596 0.05326955
-0.11273511 -0.11206431 -0.2106312 0.11937566 0.2091899 0.16667224 -0.17301059 0.18586071
-0.11707643 0.20545882 -0.074024566 -0.16600418 0.038958993 0.1915423 0.11747878 0.0438112
0.033412196 0.10848268 0.23865865 -0.06611724 0.0571651 0.22827715 0.09103555 -0.08246631
-0.14870417 -0.20910157 0.037175283 -0.037110016 -0.09810787 -0.14355235 0.1984815 -0.15236159
0.10382354 -0.2263156 -0.22157443 -0.014801327 0.13458924 0.13656045 0.09023006 -0.22018415
-0.169147 0.029886404 0.06732259 -0.17094305 -0.17492266 -0.09764089 0.07023301 0.1824584
-0.14068447 0.042624168 0.17545962 0.08481561 -0.010488527 -0.04792409 -0.0007684641 -0.15182859
-0.0055622393 0.03324271 0.4038387 0.016449295 -0.18713316 -0.044643108 -0.05030607 -0.20047496
0.039423134 0.23574227 -0.1153251 -0.18787943 0.14430483 -0.15941058 -0.11853172 0.048423644
-0.083267644 0.065619975 0.117533505 -0.111471094 -0.10361705 -0.060933214 0.10002007 -0.102616265
0.20882387 -0.1704056 0.055476088 0.17754845 -0.056290057 -0.033245247 -0.11731465 -0.13111284
0.1666717 -0.20164427 0.07337916 -0.06740233 0.04638952 -0.0016754327 0.20770206 0.17595044
0.12419877 -0.1995292 -0.10838566 0.14614895 -0.14537807 -0.12054893 0.06268487 0.17404938
-0.1303185 0.04905157 -0.16873161 -0.061706766 -0.09632894 0.17287582 -0.16375186 -0.016044619
0.012458587 -0.033775117 0.08111581 -0.09639729 -0.21338987 0.09279013 -0.114619695 0.20342201
-0.14907698 -0.010816927 -0.15183657 0.15284215 -0.055753637 0.01745874 -0.11987353 0.022638965
0.04954334 0.24118799 0.13420598 0.22543505 0.0890701 0.22167239 0.20033869 0.15277398
0.07678931 -0.024157625 0.023346102 -0.13211206 0.037816778 -0.12544243 -0.1165937 0.17558123
-0.0422346 -0.08717929 -0.032946687 0.038638312 -0.13897559 0.015198483 0.009447335 -0.18161893
-0.18574822 -0.13570508 -0.13585764 -0.0077654314 -0.09297839 0.27377072 0.11873789 0.21084948
00000000: ee87 07be 5e02 7c3c a70b 04bd 639e 9a3d
00000010: 4e02 aebd df95 e4bd 5e63 be3d c413 74be
00000020: 3517 023e 38ca 133e 893e 1a3e f8f6 4c3e
00000030: e030 1b3e 36c7 543e 1024 cf3c 8388 ca3d
00000040: 6b6b e3bd b834 1bbe 768f 24bd 3d4d 4dbe
00000050: 8677 ebbd dae3 c63e 156e b63d f781 cb3d
00000060: 3edc a53c b4e3 1cbc d767 483e 85af 713c
00000070: d908 28be 90fd 17be 1142 a33d 3ffd b1bd
00000080: 2a75 1dbe bbe5 4cbd c336 483e 5d3d 2abe
00000090: 966b 26be 4f16 2fbd 9171 cc3d ed00 3cbe
000000a0: af01 9bbc 13f4 6cbc 7c0d b33e 27b3 2ebe
000000b0: 7e2f ae3a 1b0e 4ebe c6a0 93bd b7f4 72bd
000000c0: 3384 fdbd 5ba2 483e e0eb 5c3d 56b3 46be
000000d0: a66e 9abd 6f89 d6bd 3669 e6bc e37e 2c3c
000000e0: 5faa a83e 70f2 8a3d aee2 41be 5817 90bd
000000f0: 201d 02bd 0832 0ebc a203 d4bc 9f77 6c3e
00000100: 1eeb 0e3e 83e1 313c da0c 3e3e 1d9a 7e3d
00000110: 0558 e2bd 9df2 033e 6a93 ddbd 1b02 1d3e
00000120: e01f d9bd 62fe 8f3d 1650 20be 1a95 1f3e
00000130: f010 53bd f4d7 acbd 6dfc 30be 191c 413e
00000140: ab8a 66bd dc9d 5ebc 7cec 9fbd 9f01 b4bd
00000150: 79ce bf3d 5516 0f3e 739e 4b3e b733 373c
00000160: 0205 9fbd 3006 f23d eac9 3b3e b622 28be
00000170: 99c7 073e ff89 dbbd 68e4 ba3d 2c31 5a3d
00000180: aae1 e6bd f981 e5bd b5af 57be 3a7b f43d
00000190: e135 563e 21ac 2a3e b029 31be 4552 3e3e
000001a0: c4c5 efbd cc63 523e 319a 97bd 00fd 29be
000001b0: 7793 1f3d aa23 443e b798 f03d 5f73 333d
000001c0: 3adb 083d 2b2c de3d ef62 743e 7a68 87bd
000001d0: f425 6a3d 7cc1 693e d970 ba3d 19e4 a8bd
000001e0: e845 18be b91e 56be 1c45 183d ac00 18bd
000001f0: c7ec c8bd 63ff 12be bc3e 4b3e ad04 1cbe
00000200: 70a1 d43d 47bf 67be 68e4 62be 4481 72bc
00000210: c3d1 093e 81d6 0b3e 8aca b83d f477 61be
00000220: df34 2dbe 55d4 f43c 6de0 893d b20b 2fbe
00000230: ed1e 33be f2f7 c7bd 53d6 8f3d 60d6 3a3e
00000240: 970f 10be ae96 2e3d b0ab 333e ceb3 ad3d
00000250: 12d8 2bbc 0d4c 44bd c172 49ba f478 1bbe
00000260: 7243 b6bb 8229 083d f2c3 ce3e acc0 863c
00000270: d69f 3fbe b1db 36bd bd0d 4ebd 4f49 4dbe
00000280: 277a 213d 6c66 713e 912f ecbd 7763 40be
00000290: a5c4 133e 873c 23be c2c0 f2bd df57 463d
000002a0: 3a88 aabd c463 863d 68b5 f03d f54a e4bd
000002b0: 2d35 d4bd 1b95 79bd 53d7 cc3d 7a28 d2bd
000002c0: edd5 553e ce7e 2ebe e53a 633d 43cf 353e
000002d0: 6790 66bd 2b2c 08bd aa42 f0bd 7242 06be
000002e0: fcab 2a3e d67b 4ebe d047 963d 3c0a 8abd
000002f0: f002 3e3d 319a dbba d9af 543e 5a2c 343e
00000300: ed5b fe3d 6251 4cbe 4df9 ddbd 12a8 153e
00000310: fddd 14be 5be2 f6bd ed60 803d 003a 323e
00000320: 3672 05be 4dea 483d fbc7 2cbe 3cc0 7cbd
00000330: 1b48 c5bd 5c06 313e 91ae 27be 0170 83bc
00000340: 1a1f 4c3c c757 0abd 0c20 a63d f16b c5bd
00000350: e082 5abe c008 be3d bbbd eabd dc4d 503e
00000360: a3a7 18be 7b39 31bc 0c7b 1bbe a782 1c3e
00000370: ed5d 64bd a205 8f3c 4180 f5bd 5a75 b93c
00000380: f5ed 4a3d fcf9 763e 4b6d 093e 72d8 663e
00000390: 626a b63d 16fe 623e 9625 4d3e c870 1c3e
000003a0: b743 9d3d 36e6 c5bc 5340 bf3c 6248 07be
000003b0: c4e5 1a3d fb73 00be aec8 eebd 91cb 333e
000003c0: 30fe 2cbd 0e8b b2bd 1bf3 06bd 3543 1e3d
000003d0: 9e4f 0ebe 0f03 793c ffc8 1a3c 50fa 39be
000003e0: c834 3ebe 46f6 0abe 441e 0bbe 2975 febb
000003f0: 746b bebd ad2b 8c3e da2c f33d ede8 573e

bias f4 [128]
-0.0015109448 0.018366463 -0.0023083074 0.022638544 -0.00067009864 5.6956496e-06 -0.02387028 -0.011346545
-0.061032195 0.029648965 -0.0055412897 -0.0007306799 0.031347908 -0.004252689 0.013928212 -0.006140189
0.03358723 0.0 -0.030607386 -0.022118248 -0.016285501 0.0025572348 -0.044907883 -0.031299334
-0.008938912 -0.0026139545 -0.004406923 -0.008006948 0.0019249262 -9.192467e-05 -0.0048980694 -0.0013900313
0.0327171 -0.006029038 0.0050857253 -0.010425416 0.09631346 0.00068777194 3.267301e-05 0.0008549497
-0.0012097666 0.006229227 -0.0038839534 0.0021693828 -0.0020842475 -0.00015219266 0.07254902 -3.870125e-05
-0.03959247 -0.00069386786 -0.0055891597 -0.02938569 -0.026578326 -0.004266458 0.049637463 0.0063816537
0.00044446488 0.00043243682 -0.010070481 0.03017705 0.098168656 0.0019605048 0.012294248 -0.032157496
-0.027091319 0.033187218 0.012968493 -0.004403469 5.1648643e-05 -0.008467464 0.0010023563 -0.035016555
-0.016503917 -0.0074199797 -0.0024447062 1.3681727e-05 -0.024926348 0.02880321 -0.073027276 0.0035246443
-0.031617947 -0.05127959 -0.0036359825 0.047083683 0.00696107 -0.0034445664 0.0028076097 0.006136533
0.0003668607 -0.00059080735 -0.04444212 0.00024553516 -0.012134803 0.022147853 0.02985615 -0.013056808
0.020175904 -0.011962004 -0.023481032 -0.0030168323 0.0027090823 0.008637869 0.033117667 -0.014803048
0.0073271818 -0.037408456 -0.0026257343 0.049311843 -0.035470434 -0.043152574 -0.033171494 -0.005136802
-0.0052996073 -0.00010470303 -0.04602583 -0.00514722 -0.023719389 0.00077047985 0.004535111 0.020935195
-0.024990372 0.017710937 0.0 0.0014849196 0.0005035014 -0.013759895 -0.040985096 0.013197329
00000000: e50a c6ba 4475 963c f946 17bb 7874 b93c
00000010: 8fa9 2fba 421d bf36 9b8b c3bc dce6 39bc
00000020: e5fc 79bd 63e2 f23c b593 b5bb 198b 3fba
00000030: aa66 003d 245a 8bbb 2833 643c a333 c9bb
00000040: c392 093d 0000 0000 57bc fabc 5431 b5bc
00000050: 2c69 85bc 4897 273b 54f1 37bd bb33 00bd
00000060: 8474 12bc e14e 2bbb f367 90bb 932f 03bc
00000070: ce4d fc3a aec7 c0b8 fc7f a0bb b631 b6ba
00000080: 5e02 063d 3d8f c5bb 28a6 a63b 5dcf 2abc
00000090: fe3f c53d 984b 343a 610a 0938 b41e 603a
000000a0: 0891 9eba 8b1e cc3b ed89 7ebb 342c 0e3b
000000b0: df97 08bb e895 1fb9 9594 943d 2753 22b8
000000c0: b72b 22bd afe4 35ba 4525 b7bb 42ba f0bc
000000d0: caba d9bc a5cd 8bbb a750 4b3d 311d d13b
000000e0: 1107 e939 b0b8 e239 a9fe 24bc dc35 f73c
000000f0: a60c c93d d07b 003b d06d 493c 94b7 03bd
00000100: 9dee ddbc 52ef 073d cd79 543c fa4a 90bb
00000110: 4fa1 5838 1ebb 0abc 7f61 833a 856d 0fbd
00000120: 3933 87bc 4d23 f3bb 5d37 20bb 928a 6537
00000130: 5732 ccbc b6f4 eb3c 538f 95bd b8fd 663b
00000140: d281 01bd 8c0a 52bd aa49 6ebb d2da 403d
00000150: b019 e43b 3cbe 61bb e0ff 373b f814 c93b
00000160: 3657 c039 69e0 1aba f108 36bd 2cbb 8039
00000170: 0ed1 46bc 6a6f b53c e294 f43c 39ec 55bc
00000180: f047 a53c 48fc 43bc 4b5b c0bc 0cb6 45bb
00000190: dc8a 313b d985 0d3c 64a6 073d 7c88 72bc
000001a0: db18 f03b 9c39 19bd 8314 2cbb 37fb 493d
000001b0: 7249 11bd c1c0 30bd d5de 07bd 9e52 a8bb
000001c0: 54a8 adbb 0394 dbb8 9585 3cbd 03aa a8bb
000001d0: 2a4f c2bc 07fa 493a 459b 943b 4980 ab3c
000001e0: 9cb8 ccbc 8716 913c 0000 0000 a2a1 c23a
000001f0: 68fd 033a 2f71 61bc fddf 27bd 9c39 583c

weight f4 [128, 128]
-0.099302314 0.116017506 -0.021354057 -0.01957821 0.13541697 0.14019534 0.06332056 0.14262481
0.05471708 -0.14302886 -0.08601437 0.14487459 -0.018719401 0.08929421 -0.017941311 -0.10816982
-0.0363119 -0.021199578 0.09734308 -0.042424954 -0.047614686 -0.0030827676 0.029878829 -0.12965727
-0.09393306 0.11820805 -0.06761015 -0.059779525 -0.005532986 -0.05410674 0.02752821 0.021260127
-0.06593395 -0.1214285 0.04460432 0.02657507 -0.034178887 0.124114335 0.061462928 0.07261277
-0.14442965 0.11289208 -0.0053966343 -0.04098867 -0.011957382 0.1491297 0.06250283 0.020544136
-0.13404408 -0.12047601 -0.0851939 0.068093784 0.02173272 0.14753813 -0.010646808 -0.077248245
-0.07732761 -0.091758706 0.06218956 -0.07445826 -0.07515418 -0.008948998 0.06698533 0.074969165
0.15628321 0.14745502 -0.12084237 -0.10402834 0.052934665 -0.009932697 0.04832849 0.14807133
-0.06781849 -0.05998101 0.016023923 -0.047095735 -0.04060257 0.025000388 0.114513256 0.078180425
0.03566079 0.16001976 -0.04721334 -0.04961821 -0.11867288 0.097852536 -0.10128468 0.022381017
-0.038464006 -0.038190734 -0.11270234 0.12268177 0.053845763 -0.046406467 -0.1349453 0.10099257
0.063940816 -0.09347374 -0.14198086 0.030598449 0.022306759 -0.121902056 0.030096104 0.14296828
0.0090649715 -0.08731114 -0.02835509 0.034337863 0.12839471 0.0147874765 0.09298659 0.08735047
-0.024804719 0.005976057 -0.07750452 0.14328414 0.12910323 -0.01465131 -0.08340787 0.07385255
-0.042163152 -0.122255936 -0.06386736 -0.093027726 -0.15264499 -0.10272098 -0.11535459 -0.14215137
0.14710326 0.08653898 0.07277325 0.022934869 0.012256129 -0.09016217 0.13361979 -0.11435562
0.022101738 0.0991146 0.04253758 0.09453391 -0.09899046 0.10682716 -0.14200655 -0.11864383
0.006181482 0.0018096456 -0.07767035 -0.09079438 0.031734433 -0.045525074 0.12742853 0.025324523
0.079333365 -0.12001036 0.07706968 0.117389 -0.033113677 -0.15001866 -0.07482136 -0.0065638204
-0.15050581 0.13134399 -0.04988544 0.09906181 -0.03445533 0.077808775 -0.08895004 0.04619765
0.012859282 -0.05380937 0.011344365 -0.05399834 -0.02475273 -0.042504095 0.06670379 -0.026229687
0.1127098 -0.08884274 0.061978668 0.06510568 0.076129034 -0.027071446 -0.088196754 0.041351125
-0.12476555 0.13248904 0.024824403 0.12613544 0.14321285 0.055871613 -0.05427866 -0.14717908
-0.07602271 -0.09904078 -0.05831639 -0.07210326 0.14502056 -0.103337504 -0.016407605 -0.124178454
-0.13028868 -0.034005392 0.094173126 0.14764477 -0.0009461958 -0.124561585 -0.07285536 0.12785001
0.14463076 -0.057919275 0.01800875 -0.10081993 0.058039583 -0.1354115 0.10462388 0.054559063
0.10098354 0.018309748 -0.12406033 0.010802648 0.11527373 0.005840022 -0.10943106 -0.12282571
0.054890238 0.06285065 -0.061639287 0.10093365 -0.11341829 -0.097382836 0.060036622 0.016147414
-0.05319479 0.10372155 0.07113294 -0.10381968 0.1448122 0.09226491 0.0686695 0.08457587
-0.13785209 -0.051246796 -0.05699673 -0.10735736 0.11426384 0.108829625 -0.006544737 -0.1459582
-0.007079773 -0.08085128 0.020736773 0.062747516 0.021715445 -0.11597736 0.07111458 0.06171161
00000000: 035f cbbd 969a ed3d b4ee aebc 7b62 a0bc
00000010: bfaa 0a3e 5e8f 0f3e 36ae 813d 3d0c 123e
00000020: 041f 603d 2876 12be 4d28 b0bd 015a 143e
00000030: 6e59 99bc e2df b63d a8f9 92bc 2388 ddbd
00000040: c9bb 14bd bdaa adbc cf5b c73d cac5 2dbd
00000050: 9e07 43bd 4208 4abb 72c4 f43c e0c4 04be
00000060: fa5f c0bd 1017 f23d 3177 8abd 60db 74bd
00000070: 0d4e b5bb 079f 5dbd d782 e13c b829 ae3c
00000080: 6108 87bd 81af f8bd 05b3 363d f6b3 d93c
00000090: 29ff 0bbd a82f fe3d 8dc0 7b3d 01b6 943d
000000a0: 5ee5 13be f633 e73d 40d6 b0bb bce3 27bd
000000b0: e5e8 43bc 75b5 183e 7c01 803d 2d4c a83c
000000c0: da42 09be 20bc f6bd 247a aebd c174 8b3d
000000d0: d108 b23c 3c14 173e f36f 2ebc 5434 9ebd
000000e0: f05d 9ebd fdeb bbbd 7bba 7e3d 927d 98bd
000000f0: 6fea 99bd d19e 12bc 9b2f 893d 6f89 993d
00000100: b508 203e 73fe 163e 347c f7bd cf0c d5bd
00000110: 05d2 583d c0bc 22bc 18f4 453d 03a0 173e
00000120: 6ce4 8abd a6ae 75bd 9a44 833c 75e7 40bd
00000130: e14e 26bd 9dcd cc3c ed85 ea3d 0f1d a03d
00000140: 0c11 123d 38dc 233e c662 41bd 773c 4bbd
00000150: c40a f3bd e966 c83d 586e cfbd 6558 b73c
00000160: 6f8c 1dbd e36d 1cbd 7cd0 e6bd 9440 fb3d
00000170: 608d 5c3d b514 3ebd 1a2f 0abe 31d5 ce3d
00000180: 67f3 823d 296f bfbd 6e63 11be 99a9 fa3c
00000190: aabc b63c c9a7 f9bd 1b8c f63c 4766 123e
000001a0: 3f85 143c 2fd0 b2bd ef48 e8bc dca5 0c3d
000001b0: e779 033e 2c47 723c c16f be3d cee4 b23d
000001c0: 4433 cbbc cdd2 c33b b1ba 9ebd 14b9 123e
000001d0: a333 043e 0c0c 70bc bfd1 aabd 0140 973d
000001e0: 45b3 2cbd 5261 fabd e4cc 82bd 5285 bebd
000001f0: f84e 1cbe 615f d2bd 073f ecbd 2190 11be
00000200: 3da2 163e 593b b13d 240a 953d e8e1 bb3c
00000210: eecd 483c f2a6 b8bd a0d3 083e 4833 eabd
00000220: b40e b53c 98fc ca3d e33b 2e3d ff9a c13d
00000230: 83bb cabd 33c8 da3d 2a6a 11be 89fb f2bd
00000240: 088e ca3b a131 ed3a a211 9fbd 67f2 b9bd
00000250: f7fb 013d 8078 3abd a07c 023e 6075 cf3c
00000260: 8879 a23d fec7 f5bd b5d6 9d3d a569 f03d
00000270: 35a2 07bd 7e9e 19be f13b 99bd 5115 d7bb
00000280: 321e 1abe 0a7f 063e ad54 4cbd ebe0 ca3d
00000290: 0821 0dbd 355a 9f3d 702b b6bd bf39 3d3d
000002a0: bdaf 523c 3767 5cbd b7dd 393c 5d2d 5dbd
000002b0: 3dc6 cabc c618 2ebd ff9b 883d a4df d6bc
000002c0: 65d4 e63d 2ff3 b5bd 58dd 7d3d 2056 853d
000002d0: 8ae9 9b3d f0c4 ddbc 80a0 b4bd cc5f 293d
000002e0: 1585 ffbd 35ab 073e 8c5c cb3c a629 013e
000002f0: 64a6 123e a2d9 643d 4d53 5ebd 1db6 16be
00000300: cbb1 9bbd e4d5 cabd 2bdd 6ebd e0aa 93bd
00000310: 4580 143e 9da2 d3bd 3e69 86bc 4651 febd
00000320: 656a 05be 3d49 0bbd d7dd c03d 3130 173e
00000330: 200a 78ba 251a ffbd 3135 95bd 1deb 023e
00000340: 161a 143e c33c 6dbd 1687 933c ae7a cebd
00000350: eaba 6d3d 50a9 0abe 0b45 d63d 5379 5f3d
00000360: 75d0 ce3d 53fe 953c 5813 febd 97fd 303c
00000370: a214 ec3d a85d bf3b 641d e0bd 0c8c fbbd
00000380: 96d4 603d d7b7 803d 7a79 7cbd 4db6 ce3d
00000390: d947 e8bd a770 c7bd f6e8 753d 9547 843c
000003a0: c8e2 59bd f76b d43d 26ae 913d 6a9f d4bd
000003b0: a649 143e 63f5 bc3d 98a2 8c3d 1d36 ad3d
000003c0: 1929 0dbe 29e8 51bd 6775 69bd 2dde dbbd
000003d0: 2903 ea3d 11e2 de3d 3c75 d6bb 1176 15be
000003e0: 71fd e7bb 5b95 a5bd 2ae0 a93c c581 803d
000003f0: 97e4 b13c 8a85 edbd 85a4 913d 50c5 7c3d

bias f4 [128]
-0.008997337 0.00028640009 0.028187431 0.010659411 0.00026902618 0.009775063 -0.0004937158 -0.009266941
0.00073068455 -0.001159048 -0.043129437 -0.020756641 0.015680654 0.026616462 0.00016122952 -0.009634789
0.0 -0.031688914 0.0017831905 0.018557882 -0.0004857126 -0.000113143135 0.009812421 -6.808727e-05
0.0067951935 -0.005473918 0.015850635 -0.0008077727 0.027712421 -0.00054348377 0.00078112044 0.066367455
-0.0018845715 -2.6339258e-05 0.00072243676 -0.050744943 0.004872117 1.306094e-07 0.012289014 -0.002699341
-0.04373908 2.1398324e-05 -0.0063141403 0.00076217053 -0.00559161 -0.008410183 0.00077543204 0.047216713
0.0 -0.030366551 -0.018289149 -0.05243129 0.041370016 0.035225432 0.003924083 0.011376657
0.0003552288 -0.013968213 0.0 -0.0033462136 -0.020735782 -0.003899488 0.0033039807 -0.0063311253
-1.8147977e-05 0.0036870933 -0.0066004624 0.04189494 -0.046298712 3.971679e-06 -0.005191311 0.001487277
-0.00020884682 -0.0038642143 0.0036020281 -0.028574534 0.017691351 0.017058793 -0.0030744837 0.00045041504
-0.023062082 0.004788533 0.0019598147 -0.015323795 0.03287712 -0.0017663689 -0.005856256 0.00014716602
-0.0449836 -0.0056182565 -0.024956372 0.0 -0.020881413 0.018099245 0.0028300453 -0.0013265379
0.009787828 0.023920668 -0.0018882762 0.0006675344 0.08338802 0.010528568 0.0059020906 0.05136832
-0.0019355539 0.010241738 -0.009958729 -0.020890677 -0.004742564 0.088548705 0.0 -0.00014445109
-0.016702445 0.03454494 -0.00042085277 0.0027125322 0.05086096 0.0004890416 -0.0011119838 -0.0046481695
-0.018844148 0.0015794717 0.011923087 3.5858068e-06 -0.023044009 0.001100929 0.05758841 -1.5069108e-05
00000000: 9169 13bc f827 9639 54e9 e63c cfa4 2e3c
00000010: 150c 8d39 9627 203c b56c 01ba 5ed4 17bc
00000020: 698b 3f3a 33eb 97ba 7ea8 30bd d509 aabc
00000030: b774 803c c40a da3c b80f 2939 3cdb 1dbc
00000040: 0000 0000 3ccc 01bd f2b9 e93a b306 983c
00000050: 3ea7 feb9 4247 edb8 47c4 203c 13ca 8eb8
00000060: 37aa de3b 8d5e b3bb 31d9 813c b5c0 53ba
00000070: 2905 e33c 9478 0eba 1bc4 4c3a a9eb 873d
00000080: ba03 f7ba 20f3 dcb7 e961 3d3a eed9 4fbd
00000090: 48a6 9f3b a33d 0c34 dc57 493c 6de7 30bb
000000a0: c027 33bd 8d80 b337 d9e6 cebb 66cc 473a
000000b0: d339 b7bb ddca 09bc 5d46 4b3a 5066 413d
000000c0: 0000 0000 46c3 f8bc 20d3 95bc 31c2 56bd
000000d0: 9b73 293d 8b48 103d 9895 803b 2865 3a3c
000000e0: 013e ba39 efda 64bc 0000 0000 264c 5bbb
000000f0: 16de a9bc 8d8e 7fbb 9987 583b 5475 cfbb
00000100: 7c3c 98b7 29a3 713b b148 d8bb 079a 2b3d
00000110: b8a3 3dbd 7644 8536 df1b aabb bcf0 c23a
00000120: e4fd 5ab9 c23e 7dbb 0110 6c3b 2415 eabc
00000130: 74ed 903c e2be 8b3c 477d 49bb af25 ec39
00000140: b1ec bcbc 20e9 9c3b 3c70 003b a810 7bbc
00000150: 29aa 063d 8185 e7ba d6e5 bfbb 9450 1a39
00000160: b940 38bd 5a19 b8bb 4e71 ccbc 0000 0000
00000170: 7f0f abbc de44 943c 4878 393b 3adf adba
00000180: 205d 203c 47f5 c33c 0980 f7ba 7afd 2e3a
00000190: 57c7 aa3d 0480 2c3c 5366 c13b 9667 523d
000001a0: 69b2 fdba f6cc 273c f029 23bc ed22 abbc
000001b0: 8367 9bbb 0659 b53d 0000 0000 cb77 17b9
000001c0: 91d3 88bc ff7e 0d3d e7a5 dcb9 bdc4 313b
000001d0: 9553 503d 0733 003a fcbf 91ba ac4f 98bb
000001e0: 0b5f 9abc 4706 cf3a 0d59 433c b1a3 7036
000001f0: cac6 bcbc 0c4d 903a d3e1 6b3d 53d1 7cb7

weight f4 [128, 128]
0.06522304 -0.05557361 0.098389976 -0.009637505 -0.08140641 -0.09248165 0.049987208 -0.056120273
-0.06259273 -0.056135368 -0.1337452 0.07870752 0.08696125 0.031524945 0.12503648 -0.020405602
0.0071565113 -0.025079928 0.09329583 0.03900553 -0.055546355 0.07036115 -0.097226 -0.050376628
0.11841469 -0.038463663 -0.010167919 -0.10984209 0.14399485 -0.030718531 -0.10418742 0.13484184
-0.041364886 -0.027879398 -0.11813584 0.11233364 0.06251017 -0.1421086 -0.031777766 -0.046471052
-0.08676961 -0.14827016 0.08146612 0.008995152 0.09785868 0.04573855 0.1490696 -0.1299737
0.1195078 -0.07528144 -0.03305208 -0.019901257 0.09204412 0.012006032 0.06581143 0.14888468
0.043911777 -0.1434492 0.080648616 0.122928545 0.10802371 -0.033984676 0.021050747 0.14735787
-0.12115467 -0.01247036 -0.032982513 0.082172215 -0.08486775 0.05187088 0.087985285 -0.03141751
-0.090565555 -0.06796221 0.0851433 0.1530409 -0.1259592 0.019886324 -0.11144558 0.043986134
-0.14892352 0.016411996 0.15226273 -0.11404449 0.099953204 -0.08787647 0.10778083 0.11901912
0.13628548 0.03611464 -0.036250368 -0.015876273 -0.055063188 -0.098397754 -0.14274508 -0.09180116
-0.07585252 -0.008036102 0.124152794 -0.06817146 0.04486233 0.12865233 0.017287364 0.08987917
-0.1366873 0.11475119 0.038030475 -0.06516762 -0.10712139 -0.02846572 -0.12432858 0.022300791
0.11543237 -0.11341476 0.019165909 -0.13140601 0.095022745 -0.008532637 -0.061968476 -0.09111576
0.062456615 -0.059807975 0.1470013 -0.057832427 0.110015154 -0.10713705 0.04041242 -0.004010276
0.06290664 -0.10480271 0.10053103 -0.13308828 0.04679948 -0.08189164 -0.11826394 0.06978372
-0.03851474 0.020871157 0.12761547 -0.014013014 0.006617807 0.09738576 0.09096524 0.12769346
-0.15266182 0.08599324 -0.12792748 0.10186373 0.03211496 -0.11748391 0.12663107 0.100766085
-0.054442752 0.0878878 -0.16610338 0.0098823635 0.020744942 0.076634206 -0.13589828 -0.07650497
-0.14474481 0.115215875 -0.04375272 0.24515355 -0.061914787 0.017651627 -0.014174564 -0.06290041
0.0494904 -0.097083166 0.029850846 0.11536501 0.042242106 0.16378933 0.0747166 -0.08409299
0.017079467 0.07691064 0.08742507 0.20353363 0.0040420736 0.09594168 0.008501351 -0.014471813
-0.034193076 0.115216434 0.014419822 -0.10151765 0.08736397 0.25100768 0.013553678 -0.100133054
-0.03246492 -0.025272831 -0.046993475 -0.15254474 0.27039185 0.005976276 -0.109258175 0.11495033
0.10484466 0.02166289 -0.068715625 0.20099731 0.14222851 -0.043113805 -0.04070059 0.09989649
0.26361242 -0.024695694 0.18752131 -0.12521149 -0.09193584 0.03845281 -0.03532686 0.007765009
0.26184765 -0.08061082 0.047411285 -0.146358 -0.08130449 0.030275902 0.16349582 0.01007543
0.12626103 0.05270563 0.15252183 -0.03413708 -0.18564418 0.08095722 0.053060718 -0.013925419
-0.08123794 0.091144525 -0.14107782 0.10879497 -0.09763254 -0.2403688 0.03192406 -0.14521204
0.10260362 -0.12049996 -0.12568861 -0.0077079353 -0.1691408 0.06575533 -0.12364185 -0.0039206785
0.13902171 -0.07248093 -0.13496028 0.087839946 0.18498068 0.04345554 -0.18441686 -0.08567697
00000000: a893 853d 27a1 63bd af80 c93d a0e6 1dbc
00000010: 67b8 a6bd 0567 bdbd 63bf 4c3d 5fde 65bd
00000020: 9e30 80bd 33ee 65bd 80f4 08be 6931 a13d
00000030: bd18 b23d 4d20 013d 9009 003e a629 a7bc
00000040: 2b81 ea3b 6c74 cdbc e211 bf3d 43c4 1f3d
00000050: 9384 63bd 8219 903d 6d1e c7bd b957 4ebd
00000060: 6783 f23d 138c 1dbd 5897 26bc e4f4 e0bd
00000070: 6373 133e 6ea5 fbbc 3760 d5bd fb13 0a3e
00000080: 3a6e 29bd 5663 e4bc 34f1 f1bd 2e0f e63d
00000090: 5505 803d eb84 11be 6729 02bd 6e58 3ebd
000000a0: 44b4 b1bd 22d4 17be b6d7 a63d 6760 133c
000000b0: 226a c83d 5958 3b3d b4a5 183e d317 05be
000000c0: 81c0 f43d 282d 9abd 9e61 07bd f607 a3bc
000000d0: a181 bc3d f3b4 443c 25c8 863d 3a75 183e
000000e0: d6dc 333d 59e4 12be 1a2b a53d f6c1 fb3d
000000f0: 893b dd3d 8433 0bbd 9e72 ac3c fbe4 163e
00000100: f11f f8bd 7b50 4cbc ac18 07bd e849 a83d
00000110: 25cf adbd 8f76 543d a131 b43d a6af 00bd
00000120: 6f7a b9bd c52f 8bbd 9c5f ae3d c1b6 1c3e
00000130: 73fb 00be a5e8 a23c 953d e4bd ce2a 343d
00000140: 687f 18be 7372 863c c3ea 1b3e 2890 e9bd
00000150: 44b4 cc3d 94f8 b3bd 32bc dc3d 4cc0 f33d
00000160: 6c8e 0b3e f2ec 133d 447b 14bd f50e 82bc
00000170: f089 61bd c384 c9bd c42b 12be 3f02 bcbd
00000180: 9158 9bbd dba9 03bc d243 fe3d 7a9d 8bbd
00000190: 90c1 373d 70bd 033e 3b9e 8d3c 9212 b83d
000001a0: c1f7 0bbe ac02 eb3d d8c5 1b3d 9a76 85bd
000001b0: 7662 dbbd f130 e9bc fc9f febd 26b0 b63c
000001c0: ce67 ec3d ff45 e8bd d301 9d3c 4c8f 06be
000001d0: 499b c23d 79cc 0bbc a8d2 7dbd e69a babd
000001e0: 82d2 7f3d 35f9 74bd 8287 163e b2e1 6cbd
000001f0: a04f e13d ab6a dbbd 7e87 253d a268 83bb
00000200: 32d5 803d cea2 d6bd 36e3 cd3d 4b48 08be
00000210: d0b0 3f3d ceb6 a7bd 5d34 f2bd c4ea 8e3d
00000220: a2c1 1dbd fdf9 aa3c a1ad 023e d796 65bc
00000230: 30da d83b 2f72 c73d fc4b ba3d 13c2 023e
00000240: 6153 1cbe 391d b03d 6cff 02be ee9d d03d
00000250: fa8a 033d 679b f0bd 93ab 013e 735e ce3d
00000260: 5dff 5ebd 85fe b33d 0117 2abe a3e9 213c
00000270: 4cf1 a93c 65f2 9c3d eb28 0bbe a3ae 9cbd
00000280: fc37 14be 4df6 eb3d 0d36 33bd 8809 7b3e
00000290: 5c9a 7dbd 259a 903c 6e3c 68bc eed1 80bd
000002a0: 72b6 4a3d 8ad3 c6bd c389 f43c 7e44 ec3d
000002b0: 0f06 2d3d 64b8 273e 0405 993d f238 acbd
000002c0: 3dea 8b3c 5383 9d3d ea0b b33d 1f6b 503e
000002d0: 5f73 843b 127d c43d 4049 0b3c 2f1b 6dbc
000002e0: 0a0e 0cbd 98f6 eb3d 1e41 6c3c 7ce8 cfbd
000002f0: e2eb b23d 1484 803e 3f10 5e3c 8f12 cdbd
00000300: f0f9 04bd f808 cfbc 3b7c 40bd b034 1cbe
00000310: cd70 8a3e a3d4 c33b c0c2 dfbd 146b eb3d
00000320: ccb8 d63d 6076 b13c c7ba 8cbd 3dd2 4d3e
00000330: 5aa4 113e 1a98 30bd a9b5 26bd 8896 cc3d
00000340: 35f8 863e a04e cabc 9605 403e 7137 00be
00000350: dc48 bcbd b280 1d3d e6b2 10bd 9e71 fe3b
00000360: e510 863e 4917 a5bd 5632 423d dfde 15be
00000370: f882 a6bd 2b05 f83c 736b 273e 6b13 253c
00000380: 924a 013e dce1 573d af2e 1c3e 53d3 0bbd
00000390: 8219 3ebe e6cc a53d 3256 593d 7127 64bc
000003a0: 1460 a6bd fba9 ba3d b476 10be e6cf de3d
000003b0: 92f3 c7bd 3d23 76be cec2 023d 77b2 14be
000003c0: d921 d23d afc8 f6bd 84b4 00be d992 fcbb
000003d0: 3f33 2dbe bbaa 863d f037 fdbd 0979 80bb
000003e0: b55b 0e3e e270 94bd 0733 0abe 6ee5 b33d
000003f0: 936b 3d3e 70fe 313d c6d7 3cbe 6877 afbd

bias f4 [128]
0.03383991 -0.042505763 0.0008486235 -0.011459718 -0.010818393 -0.011441675 -0.0037676648 0.028251309
0.0 -0.0018584452 0.011708049 -3.3012315e-05 0.0 -0.0009770364 0.0074125053 0.034236155
0.05088512 -0.0395464 -0.0182587 0.0082669305 0.012260389 0.0033039688 -0.0027978742 -0.0077970303
-0.00055694993 -0.018500315 -0.0074444055 0.043683805 -0.0005703279 -0.011166711 0.0005724658 -0.024420856
0.010057854 0.0024322283 0.0009565585 -0.041415256 0.009478934 -0.0018839802 0.0027537541 -0.049333517
0.0001768376 0.028792402 -0.017417515 0.00029354257 -0.0002629962 -0.016703207 -0.0016630603 -0.00459583
-0.004488888 0.029633194 0.0011211047 0.0032468773 0.017285906 0.070648685 0.00039369692 -0.03516051
-0.0160683 0.021324407 -0.011315246 -0.014751943 -0.011260675 0.010956827 -0.02730779 0.0
-0.014329251 -0.0071233045 -0.00015130543 -0.0065284017 0.017121658 0.012471198 0.0 -0.001000531
0.049237225 0.003003534 0.04320714 -0.014477326 -0.002537512 0.002209613 0.007404134 0.0
0.03646296 2.1317306e-05 0.019144213 0.022213107 0.014447532 0.009045949 0.0056449627 0.027738484
0.002856735 0.0 0.06419004 0.019525304 -0.0035583703 -0.027143653 0.002666936 -0.011451899
0.007773027 -0.021335438 0.044318568 -0.003468185 -0.0013610612 -0.0099626025 -0.0050125034 -0.011422965
0.00019295521 0.029094787 0.0 0.011681156 -0.027347973 -0.013875147 0.01987088 -0.008713158
-0.012913497 -0.020029003 0.00945047 -0.0015207889 2.2145305e-06 0.01705614 0.00055229355 -0.00056885113
0.02707989 -0.010838024 -0.002180946 0.03589824 0.0011598379 0.03806713 0.013111473 -0.00045985277
00000000: b89b 0a3d 861a 2ebd 2976 5e3a 8bc1 3bbc
00000010: a13f 31bc dd75 3bbc edea 76bb 4a6f e73c
00000020: 0000 0000 1397 f3ba 1ed3 3f3c b476 0ab8
00000030: 0000 0000 e70f 80ba 9ae4 f23b 363b 0c3d
00000040: ea6c 503d 68fb 21bd 4593 95bc 0572 073c
00000050: ccdf 483c 6687 583b 8a5c 37bb 3b7e ffbb
00000060: 4700 12ba f98d 97bc 33f0 f3bb caed 323d
00000070: 0f82 15ba 95f4 36bc 8811 163a 3f0e c8bc
00000080: b2c9 243c 0566 1f3b 8ec1 7a3a 0ba3 29bd
00000090: 884d 1b3c e3ef f6ba 5478 343b f111 4abd
000000a0: 7b6d 3939 0bde eb3c 2daf 8ebc 9ee6 9939
000000b0: c1e2 89b9 2ad5 88bc 0bfb d9ba 9e98 96bb
000000c0: 8617 93bb 50c1 f23c 08f2 923a 90c9 543b
000000d0: 2c9b 8d3c 42b0 903d 1b69 ce39 7804 10bd
000000e0: aba1 83bc 86b0 ae3c 9563 39bc 22b2 71bc
000000f0: b27e 38bc 4384 333c 96b4 dfbc 0000 0000
00000100: 3cc5 6abc 9c6a e9bb bea7 1eb9 34ec d5bb
00000110: b842 8c3c ff53 4c3c 0000 0000 4024 83ba
00000120: f9ac 493d f0d6 443b f8f9 303d 4e32 6dbc
00000130: 634c 26bb 28cf 103b 619e f23b 0000 0000
00000140: 2f5a 153d 91d2 b237 53d4 9c3c 43f8 b53c
00000150: 57b5 6c3c 7635 143c 61f9 b83b d13b e33c
00000160: 0f38 3b3b 0000 0000 1176 833d 88f3 9f3c
00000170: 8c33 69bb 5e5c debc c3c7 2e3b bfa0 3bbc
00000180: e0b4 fe3b a8c7 aebc 6387 353d 7d4a 63bb
00000190: a365 b2ba 2f3a 23bc ed3f a4bb 6327 3bbc
000001a0: 0554 4a39 3158 ee3c 0000 0000 5262 3f3c
000001b0: db08 e0bc 9654 63bc 41c8 a23c a2c1 0ebc
000001c0: 2293 53bc dd13 a4bc 25d6 1a3c 3555 c7ba
000001d0: 589d 1436 51b9 8b3c cbc7 103a f41e 15ba
000001e0: a5d6 dd3c f891 31bc 34ee 0ebb 080a 133d
000001f0: b405 983a 47ec 1b3d 81d1 563c 6518 f1b9

weight f4 [128, 128]
-0.12104302 0.042334322 -0.11843895 -0.04885529 0.10107381 0.09451649 0.11520499 0.12535587
-0.1465824 0.029093549 -0.04369314 -0.045594938 -0.05053681 -0.07644794 -0.01738179 0.07258038
-0.04552273 -0.13177685 -0.07425017 0.014128644 -0.06503254 0.08375101 0.14034526 0.11753844
-0.11680977 -0.006659446 -0.07827132 0.08790804 0.12547956 -0.10919928 -0.064689495 -0.04345173
0.06321416 0.13360041 -0.07932196 -0.14023294 -0.12905692 0.03735932 0.056008838 0.03297868
-0.13681132 0.019075882 -0.13476163 0.1511332 0.08626885 -0.14853336 0.14532249 -0.10930911
-0.09095277 0.1057136 0.053343836 -0.04964458 0.0648755 0.09307831 0.0028750594 -0.09875685
0.09083236 -0.09804059 0.074567355 0.10775649 0.015230243 -0.111636005 -0.0013183532 -0.14966491
-0.12322554 0.04364821 0.1350232 0.045065504 0.063765116 -0.13885716 0.0774005 -0.08750287
0.052839838 0.0991823 0.048798997 0.13354166 -0.09584993 0.010537064 -0.033162586 0.101686776
-0.00039172795 0.027454376 0.09959118 0.0017713879 0.06174897 0.08801091 -0.00014018267 0.06604031
-0.010161962 -0.05108129 0.14660351 0.13070999 0.08662153 0.15091851 -0.15024057 0.030564684
0.01564787 -0.06682996 -0.06803762 -0.11754575 0.09065696 0.075612515 0.027091112 -0.10322882
-0.13955231 0.14648537 -0.018181957 0.006230764 -0.12928173 -0.04010617 -0.069937766 0.14543378
0.12004601 0.08329247 -0.11179512 -0.00685809 -0.07692943 0.11208529 0.11421406 0.013954983
0.14685303 -0.09913708 0.14525844 -0.101056136 0.13005103 0.14839207 -0.14956099 0.05326767
0.02028279 -0.084635 -0.11956503 0.08805388 -0.03012725 -0.05945554 0.018104138 -0.13750392
-0.064141095 -0.022357019 -0.06137629 0.11568617 -0.05747363 0.116379574 0.042533845 -0.10937125
-0.12033546 -0.10715728 -0.054830223 0.044312447 -0.036609318 -0.007821275 -0.13559496 0.02890007
0.039325725 0.071061246 0.00086029083 -0.13530402 0.09998218 0.12245119 0.114331886 -0.09840806
0.068640344 -0.086668275 -0.047482383 0.083064094 -0.14312598 0.0061868364 -0.15076354 -0.009539302
0.069848634 -0.09322955 -0.062411968 0.062742 0.051219914 -0.0018146369 -0.08507054 0.123930566
-0.12463038 0.03446638 -0.048327874 0.05875736 -0.047720052 0.103893794 -0.1276195 -0.030004852
-0.016426167 -0.082399175 0.15065657 0.070338316 0.034804873 -0.13056067 -0.035484504 -0.022094728
-0.024539739 0.019201418 0.006885311 0.03313576 0.01702954 0.14999071 0.11721084 -0.053611375
-0.0670193 0.035521973 -0.03442014 0.0793731 0.03422521 -0.13298671 -0.020067811 0.13082688
0.01982613 -0.13276184 0.07543925 -0.076090395 0.015541862 0.09570303 0.12297929 -0.023782795
0.011140113 -0.07106185 -0.017127013 0.08241488 -0.13224222 0.058207165 0.091276914 -0.0027456796
0.12269142 -0.14650857 0.09760744 -0.121168695 -0.07752418 -0.046479926 -0.13276826 -0.13097504
0.1460793 -0.053974487 -0.046457894 0.059964437 -0.12262348 0.14264432 0.012139928 -0.018162763
-0.035375103 -0.11424965 0.1406314 -0.09019867 0.105144896 -0.10033725 -0.12872337 0.0808576
0.10259728 -0.09408095 -0.12850712 -0.0357754 -0.067521 -0.08764245 0.0010502576 0.12098474
00000000: 67e5 f7bd c166 2d3d 1f90 f2bd 7c1c 48bd
00000010: c9ff ce3d dd91 c13d 98f0 eb3d 4a5d 003e
00000020: b219 16be 9855 ee3c 94f7 32bd c2c1 3abd
00000030: b0ff 4ebd bd90 9cbd 4164 8ebc 06a5 943d
00000040: 0b76 3abd 83f0 06be 7910 98bd d47b 673c
00000050: c82f 85bd a685 ab3d abb6 0f3e feb7 f03d
00000060: f639 efbd 7b37 dabb b74c a0bd 2109 b43d
00000070: b77d 003e dfa3 dfbd ed7b 84bd 71fa 31bd
00000080: 6d76 813d 8cce 083e 8d73 a2bd 3999 0fbe
00000090: 7f27 04be 1606 193d 8669 653d a714 073d
000000a0: 4418 0cbe 0645 9c3c f4fe 09be a9c2 1a3e
000000b0: b9ad b03d 2119 18be 6bcf 143e 74dd dfbd
000000c0: 7245 babd 5f80 d83d 117f 5a3d 1d58 4bbd
000000d0: 72dd 843d d79f be3d 7e6b 3c3b 0841 cabd
000000e0: 5106 ba3d 81c9 c8bd c5b6 983d 6faf dc3d
000000f0: 4588 793c 6ba1 e4bd 98cc acba c241 19be
00000100: ac5d fcbd 77c8 323d 8643 0a3e 9b96 383d
00000110: 4997 823d 9230 0ebe 2784 9e3d b434 b3bd
00000120: 966e 583d 1720 cb3d 75e1 473d 25bf 083e
00000130: f84c c4bd a6a3 2c3c 7ed5 07bd 2841 d03d
00000140: d660 cdb9 00e8 e03c 76f6 cb3d ea2d e83a
00000150: 7dec 7c3d 103f b43d 00fe 12b9 2440 873d
00000160: 5c7e 26bc 9d3a 51bd 3b1f 163e d7d8 053e
00000170: a166 b13d 628a 1a3e aad8 19be ca62 fa3c
00000180: f62f 803c 25de 88bd 4f57 8bbd d4bb f0bd
00000190: 5baa b93d bcda 9a3d 2eee dd3c a269 d3bd
000001a0: cde6 0ebe 4300 163e 54f2 94bc 702b cc3b
000001b0: 6e62 04be 5e46 24bd 883b 8fbd 98ec 143e
000001c0: afda f53d 3e95 aa3d d7f4 e4bd d4b9 e0bb
000001d0: 2d8d 9dbd f98c e53d 10e9 e93d 71a3 643c
000001e0: a460 163e 6208 cbbd a1be 143e 85f6 cebd
000001f0: 192c 053e 17f4 173e 8426 19be 332f 5a3d
00000200: 1828 a63c 1d55 adbd 83de f4bd 9855 b43d
00000210: 6ccd f6bc a787 73bd 214f 943c d4cd 0cbe
00000220: 685c 83bd 1126 b7bc b465 7bbd dfec ec3d
00000230: 7869 6bbd 6a58 ee3d f837 2e3d 09fe dfbd
00000240: 7072 f6bd 4775 dbbd a895 60bd f880 353d
00000250: a7f3 15bd ce24 00bc 68d9 0abe d7bf ec3c
00000260: 0314 213d 8f88 913d 2485 613a 238d 0abe
00000270: 75c3 cc3d b1c7 fa3d d626 ea3d 2a8a c9bd
00000280: 4f93 8c3d 237f b1bd e37c 42bd 821d aa3d
00000290: 9e8f 12be f2ba ca3b c261 1abe bc4a 1cbc
000002a0: cd0c 8f3d 22ef bebd b1a3 7fbd e17e 803d
000002b0: f9cb 513d 1cd9 edba 7739 aebd 4fcf fd3d
000002c0: 363e ffbd 9e2c 0d3d 73f3 45bd 8fab 703d
000002d0: 1a76 43bd 45c6 d43d b0ae 02be bccc f5bc
000002e0: 2b90 86bc e6c0 a8bd b745 1a3e 890d 903d
000002f0: 8e8f 0e3d b2b1 05be 3358 11bd 0100 b5bc
00000300: 9007 c9bc 4b4c 9d3c 2d9e e13b 5db9 073d
00000310: 8981 8b3c 2a97 193e 3d0c f03d 9a97 5bbd
00000320: 6a41 89bd 7d7f 113d 22fc 0cbd 5d8e a23d
00000330: bc2f 0c3d ab2d 08be 4065 a4bc 7bf7 053e
00000340: 686a a23c b8f2 07be e57f 9a3d 48d5 9bbd
00000350: 4ba3 7e3c f3ff c33d 91dc fb3d 23d4 c2bc
00000360: 0585 363c e088 91bd f34d 8cbc 22c9 a83d
00000370: 816a 07be a36a 6e3d 64ef ba3d dcf0 33bb
00000380: a445 fb3d 5806 16be 69e6 c73d 4b27 f8bd
00000390: ffc4 9ebd bc61 3ebd 67f4 07be 521e 06be
000003a0: d095 153e 5a14 5dbd a24a 3ebd 459d 753d
000003b0: 0522 fbbd 5a11 123e 8ce6 463c 13ca 94bc
000003c0: 7ce5 10bd b8fb e9bd ad01 103e 15ba b8bd
000003d0: 3556 d73d 9e7d cdbd 0fd0 03be ab98 a53d
000003e0: 861e d23d 83ad c0bd 5f97 03be 3a89 12bd
000003f0: 7348 8abd e37d b3bd cca8 893a d9c6 f73d

bias f4 [128]
0.025360692 -0.00028657546 -4.2529526e-05 0.0005140819 -0.0011215018 0.0 0.058816664 -0.043200232
0.0 5.4091062e-05 0.057486996 0.0019990515 0.018305354 -0.03364389 -0.009587073 -0.0021637192
0.00989978 -0.0068641063 0.0071843932 -0.0108655505 0.0024028257 -0.0040936437 0.010624496 0.041175444
0.062100936 0.0008495555 0.048365533 -0.013373576 0.0012174393 0.041764908 0.005971588 0.02149726
-0.026590424 -0.005240626 0.042140123 0.014192469 0.053511113 -0.019570865 -0.06896048 0.045629423
0.0012972454 -0.005186047 5.1000177e-05 -0.064893484 0.016154846 0.04324996 -0.0029866705 -0.019895118
0.0032780766 0.07967214 0.000120645476 9.527537e-05 -0.0002975241 -0.0068628634 -0.011003651 0.034934
0.020953568 0.005889295 0.054098237 0.013411166 -0.037671093 0.04314505 -0.0061308946 -0.0019934792
-0.000651168 0.019623293 -0.0029152378 8.312203e-05 0.08712242 5.5115383e-05 -0.02189117 -0.006765091
-7.1175828e-06 -0.049941022 0.0024860436 0.0 0.01763166 0.037309624 0.0062350035 -0.02228515
0.008492036 0.00044575968 -0.017389676 -0.0024361748 0.0023751988 5.8213714e-06 -0.004289116 -0.026911847
0.0053994027 -0.004110856 0.0 -0.00030527232 0.070793286 0.003026604 -0.03380279 0.037621286
0.004471534 -0.018639594 -0.040647298 0.0060381163 -0.003266137 0.028860142 0.00063811627 0.025264824
-0.006000292 -0.023300555 -0.035785705 -0.017328367 0.015208012 -0.0001542812 0.0 -0.0007403261
-0.013662439 0.0049375216 1.7740338e-06 0.0077394387 0.0048959902 -0.01876459 0.0064673973 0.055004545
-0.005490869 -0.025061619 0.012762995 0.01699796 0.007617663 0.045893516 -0.0030766483 0.016550632
00000000: 3ac1 cf3c 823f 96b9 bb61 32b8 74c3 063a
00000010: 5bff 92ba 0000 0000 bee9 703d baf2 30bd
00000020: 0000 0000 d6df 6238 7c77 6b3d 8502 033b
00000030: 1cf5 953c 2dce 09bd 1913 1dbc 2fcd 0dbb
00000040: b032 223c 4cec e0bb 0f6b eb3b 6c05 32bc
00000050: ba78 1d3b f923 86bb 5e12 2e3c 95a7 283d
00000060: 8d5d 7e3d b4b4 5e3a f01a 463d d81c 5bbc
00000070: 7c92 9f3a ae11 2b3d 50ad c33b 061b b03c
00000080: 29d4 d9bc 8fb9 abbb 1f9b 2c3d 8887 683c
00000090: 782e 5b3d 1453 a0bc 273b 8dbd ebe5 3a3d
000000a0: 5508 aa3a b7ef a9bb 06e9 5538 e0e6 84bd
000000b0: 2b57 843c df26 313d 04bc 43bb 16fb a2bc
000000c0: 00d5 563b 262b a33d 0c03 fd38 93ce c738
000000d0: 02fd 9bb9 dfe1 e0bb a848 34bc f416 0f3d
000000e0: d1a6 ab3c fdfa c03b 1d96 5d3d 82ba 5b3c
000000f0: 014d 1abd ddb8 303d ace5 c8bb 08a5 02bb
00000100: 25b3 2aba 07c1 a03c 930d 3fbb cd51 ae38
00000110: 3d6d b23d b12b 6738 1c55 b3bc b2ad ddbb
00000120: 92d3 eeb6 f58e 4cbd e4ec 223b 0000 0000
00000130: 4570 903c fad1 183d 004f cc3b 598f b6bc
00000140: 2e22 0b3c dab4 e939 cb74 8ebc 3ba8 1fbb
00000150: 39a9 1b3b 3355 c336 b68b 8cbb 3c76 dcbc
00000160: 79ed b03b 5cb4 86bb 0000 0000 f50c a0b9
00000170: 12fc 903d fd59 463b cb74 0abd c718 1a3d
00000180: f285 923b 10b2 98bc c87d 26bd 64db c53b
00000190: b00c 56bb 1b6c ec3c 4247 273a 2df8 ce3c
000001a0: 199e c4bb cee0 bebc 0894 12bd 38f4 8dbc
000001b0: 072b 793c 8bc6 21b9 0000 0000 7212 42ba
000001c0: 6cd8 5fbc efca a13b 561b ee35 1e9b fd3b
000001d0: 8b6e a03b 33b8 99bc 76ec d33b 724c 613d
000001e0: bfec b3bb 064e cdbc e21b 513c 4e3f 8b3c
000001f0: 979d f93b d7fa 3b3d 98a1 49bb 3195 873c

weight f4 [128, 128]
-0.1397112 0.018073432 0.045302216 -0.03956143 -0.041941375 -0.05614796 0.12602147 0.034851145
0.03422681 0.09018487 0.1637485 -0.07526156 -0.11403653 -0.11492552 0.016835205 -0.08705015
0.1652163 -0.08880432 0.034879256 -0.113885574 -0.034434795 0.0974312 -0.12344721 0.064437605
-0.15119895 -0.0577202 -0.046137962 -0.031560086 -0.13783546 0.033949487 -0.063153885 0.029612003
0.16680901 -0.09180411 -0.12784624 -0.081985265 -0.13643299 -0.02424604 0.040095516 0.100797944
0.076766536 0.091712356 -0.08915489 0.15414156 0.07550221 -0.017415855 0.1530112 0.07296058
0.13980125 -0.09486832 -0.06421558 0.0015568334 0.08462455 0.037005067 0.064611144 -0.056824997
-0.13795535 0.06849839 0.06793162 -0.102449045 0.13743247 0.04180181 -0.13065036 -0.011083623
0.027278237 -0.10760986 0.023995114 -0.037450377 0.015713848 -0.1436875 0.07210195 -0.045392446
0.13007836 0.102669716 -0.10279889 -0.03824857 0.061328076 -0.05341453 -0.06793628 0.12868676
0.08511698 0.14721616 0.10811268 -0.08677586 -0.06961154 0.08296801 -0.09769283 0.019428492
0.092557326 -0.14603156 -0.01763876 -0.06593377 0.08430817 0.08219902 0.015728625 0.1933075
0.07195129 -0.010165611 -0.08881894 0.061899874 -0.10959052 0.011393531 -0.14150824 0.0332986
-0.13542342 -0.110538214 0.06931094 0.14258836 0.0019613707 0.050514568 -0.10300516 -0.010369913
0.022023989 -0.1095768 -0.023076402 -0.12851131 0.10953853 -0.06890312 0.00941974 0.06439545
0.08738756 0.14898743 -0.061831318 0.17950268 -0.13926491 0.054884147 -0.06685091 0.01121466
-0.01936439 -0.113831654 -0.038769934 -0.046787016 0.06049127 -0.088145584 -0.14792562 0.0300704
-0.117206365 0.13667183 -0.13190065 -0.07906835 0.046008144 -0.09376233 0.14991465 0.05933515
0.13132074 0.021981377 -0.022425825 0.029967628 0.06847032 0.057367157 -0.13234185 -0.124444805
-0.011686187 -0.12607457 -0.079280645 -0.13120657 -0.07227727 -0.113648266 0.12306726 -0.0104759615
0.0636697 -0.1359805 0.08636261 0.058700748 0.00497272 -0.10176172 -0.12440473 -0.052473653
0.12862922 0.03552759 0.016409725 -0.14825195 -0.011559273 0.06011571 -0.12073426 -0.059148684
0.12933245 0.069014676 -0.03776382 -0.06667924 0.002967704 -0.017529286 0.14226936 0.06706421
0.11882684 0.05271265 0.005506665 0.10057968 0.1137583 -0.06946163 -0.114437245 0.060797542
0.021665486 -0.03159371 0.10383394 0.057973277 0.029148115 -0.025903292 0.03968652 0.069576606
0.026083117 0.14117455 -0.01873574 0.08550575 -0.030476015 -0.0013006708 0.14719228 -0.024305746
0.07005539 -0.02388651 -0.030694867 -0.1423609 -0.15290277 -0.107436165 -0.06394342 0.05262774
0.09128853 0.11511945 0.029284965 -0.121115394 0.11888815 0.040949836 0.071544215 -0.07647206
-0.11832853 -0.03412581 -0.05339309 0.11482116 0.0232245 0.06903007 -0.060444716 0.13011046
0.0055575767 -0.08872707 -0.14747553 -0.047578298 -0.040666834 0.00093108753 -0.12064286 0.04823319
-0.123327665 0.11710733 0.044910174 0.13325408 0.062998 0.13564245 0.09685651 -0.024099244
0.058401637 -0.14810044 -0.13415883 0.07040014 0.02383756 0.027476355 0.11807057 -0.06469479
00000000: 7410 0fbe bc0e 943c d18e 393d 2b0b 22bd
00000010: b8ca 2bbd 67fb 65bd c60b 013e 13c0 0e3d
00000020: 6931 0c3d d8b2 b83d b0ad 273e bc22 9abd
00000030: fc8b e9bd 125e ebbd fce9 893c 5947 b2bd
00000040: 762e 293e 0adf b5bd 8ddd 0e3d d73c e9bd
00000050: 800b 0dbd 028a c73d e4d1 fcbd ddf7 833d
00000060: e6d3 1abe 046c 6cbd 29fb 3cbd 2645 01bd
00000070: bd24 0dbe 9e0e 0b3d d356 81bd df94 f23c
00000080: fbcf 2a3e cb03 bcbd 20ea 02be e4e7 a7bd
00000090: 17b5 0bbe a29f c6bc 323b 243d 276f ce3d
000000a0: c637 9d3d b0d3 bb3d d796 b6bd 49d7 1d3e
000000b0: e7a0 9a3d b2ab 8ebc f8ae 1c3e 5b6c 953d
000000c0: 0f28 0f3e 524a c2bd 7583 83bd a90e cc3a
000000d0: a34f ad3d a092 173d d952 843d 54c1 68bd
000000e0: 2b44 0dbe e248 8c3d bc1f 8b3d ced0 d1bd
000000f0: 19bb 0c3e 6038 2b3d 35c9 05be 1698 35bc
00000100: 9c76 df3c 8f62 dcbd 6791 c43c 9165 19bd
00000110: 54ba 803c d122 13be 30aa 933d 6eed 39bd
00000120: 4333 053e 8044 d23d 3988 d2bd 88aa 1cbd
00000130: 2633 7b3d 32c9 5abd 2d22 8bbd 76c6 033e
00000140: d051 ae3d d5bf 163e 2e6a dd3d 8bb7 b1bd
00000150: 7f90 8ebd 22eb a93d 2e13 c8bd 8028 9f3c
00000160: b28e bd3d 4c89 15be 297f 90bc 4908 87bd
00000170: c3a9 ac3d f657 a83d 51d9 803c 67f2 453e
00000180: 335b 933d aa8d 26bc b4e6 b5bd b98a 7d3d
00000190: ff70 e0bd efab 3a3c 89e7 10be 1d64 083d
000001a0: 70ac 0abe dc61 e2bd e5f2 8d3d af02 123e
000001b0: 578a 003b 5de8 4e3d 5ff4 d2bd 91e6 29bc
000001c0: a76b b43c cd69 e0bd b90a bdbc 7898 03be
000001d0: bd55 e03d 141d 8dbd 4155 1a3c c3e1 833d
000001e0: 40f8 b23d 2990 183e d642 7dbd 8dcf 373e
000001f0: 769b 0ebe 33ce 603d 21e9 88bd b1bd 373c
00000200: 12a2 9ebc 9220 e9bd 39cd 1ebd bea3 3fbd
00000210: b2c5 773d ac85 b4bd d079 17be 3356 f63c
00000220: e409 f0bd b3f3 0b3e f710 07be 96ee a1bd
00000230: 0973 3c3d 7706 c0bd 3a83 193e 6a09 733d
00000240: f278 063e 4a12 b43c 5db6 b7bc ac7e f53c
00000250: 2b3a 8c3d d3f9 6a3d 9f84 07be ebdc febd
00000260: 6c77 3fbc b119 01be e45d a2bd 045b 06be
00000270: 1b06 94bd 6cc0 e8bd b00a fc3d 5ea3 2bbc
00000280: 4265 823d 793e 0bbe e1de b03d 3270 703d
00000290: 33f2 a23b 7368 d0bd e8c7 febd 9dee 56bd
000002a0: 61b7 033e 6185 113d b06d 863c 5ccf 17be
000002b0: 1b63 3dbc e43b 763d 8643 f7bd e445 72bd
000002c0: ba6f 043e 9157 8d3d 3cae 1abd 208f 88bd
000002d0: d07d 423b 9499 8fbc 0faf 113e f658 893d
000002e0: 7c5b f33d 38e9 573d 4171 b43b b8fc cd3d
000002f0: 1dfa e83d e641 8ebd 135e eabd d806 793d
00000300: d17b b13c 6868 01bd e4a6 d43d 6375 6d3d
00000310: 07c8 ee3c 2433 d4bc 558e 223d 2e7e 8e3d
00000320: 43ac d53c 1090 103e b27b 99bc a31d af3d
00000330: d6a8 f9bc 457b aaba 93b9 163e d81c c7bc
00000340: 3379 8f3d a4ad c3bc cd73 fbbc 0ec7 11be
00000350: 8b92 1cbe 7e07 dcbd c5f4 82bd 2f90 573d
00000360: 7bf5 ba3d bfc3 eb3d 06e7 ef3c 590b f8bd
00000370: a17b f33d 04bb 273d c685 923d 629d 9cbd
00000380: 3a56 f2bd 81c7 0bbd b6b2 5abd 5b27 eb3d
00000390: 4e41 be3c a35f 8d3d e194 77bd ad3b 053e
000003a0: 551c b63b 8ab6 b5bd d303 17be 76e1 42bd
000003b0: 4492 26bd 3a14 743a 9b13 f7bd 2a90 453d
000003c0: 3793 fcbd f8d5 ef3d bbf3 373d c273 083e
000003d0: 1805 813d dbe5 0a3e b55c c63d c76b c5bc
000003e0: 8e36 6f3d a4a7 17be ef60 09be f32d 903d
000003f0: fd46 c33c 1816 e13c fcce f13d b47e 84bd

bias f4 [128]
-0.009042346 -0.00093335734 0.009128559 0.090715714 0.0012642508 -0.006927062 0.008267751 0.011001376
0.07057476 -0.00012315273 0.01745562 -0.0017812947 -0.021316996 -0.0006086279 -0.0057185027 0.006555654
-0.022595318 0.0045158085 0.04572434 0.003651159 0.025853023 0.02481781 0.072544515 -0.039250724
0.024788352 0.0 -0.006469073 0.0 0.056490228 0.019371172 -0.009353384 -0.013966861
-0.0644914 -0.006106255 0.020810278 -0.053257313 0.032134634 7.484762e-06 0.001622524 0.009471944
-0.012002097 0.036387898 0.035362214 -0.045071676 -0.056600608 0.049689297 0.10128577 0.0037974922
-0.04297592 -0.00992596 0.04888808 0.017082676 -0.03371299 0.079704136 -0.00069998804 -0.01219208
0.0018709003 0.026456207 -0.018689679 0.010493332 0.00071449386 -0.009148951 0.014229698 0.05954328
0.03250901 -0.011809712 -0.010123156 0.0046249107 -0.03877013 -0.00036095217 0.0061878473 -0.0017272861
0.006021918 0.010831875 0.020451572 -0.0028884988 -0.009326103 -0.0070009534 -0.015303976 0.0046558925
-0.06337385 0.055152673 -0.022621289 0.024529312 0.011566983 -0.011977399 -0.005636657 0.023205843
0.0 0.0 0.067839384 -0.019910006 0.014620492 0.04550703 0.0621109 0.001733571
0.0022454439 0.0 -0.00014156633 0.0008361071 -0.012220382 0.031544004 -0.0030758972 -0.003214168
0.01436987 0.089357056 -3.3210363e-06 -0.026151678 -0.04634933 -0.012555915 0.052911222 -1.5188391e-05
0.0 0.0 -0.008219246 0.056079004 0.045084454 0.009770758 0.046935767 -0.0155580165
0.042324234 0.012463325 0.031509068 0.0 0.036710054 -0.0122497715 0.024515992 0.059567206
00000000: 5926 14bc 8dac 74ba f48f 153c 29c9 b93d
00000010: 38b5 a53a 68fc e2bb 7675 073c 1e3f 343c
00000020: 8089 903d 8f22 01b9 17ff 8e3c 557a e9ba
00000030: fba0 aebc 548c 1fba 4762 bbbb d0d0 d63b
00000040: d119 b9bc 59f9 933b 7249 3b3d 4848 6f3b
00000050: b8c9 d33c b84e cb3c 3892 943d 5ec5 20bd
00000060: f110 cb3c 0000 0000 84fa d3bb 0000 0000
00000070: 4c62 673d 4bb0 9e3c f03e 19bc 43d5 64bc
00000080: 1114 84bd fb16 c8bb 517a aa3c 5724 5abd
00000090: 9b9f 033d 9e25 fb36 dfaa d43a 3630 1b3c
000000a0: 72a4 44bc 7a0b 153d f8d7 103d 149d 38bd
000000b0: 0ad6 67bd 0187 4b3d ea6e cf3d 59df 783b
000000c0: 8507 30bd 7ea0 22bc de3e 483d f8f0 8b3c
000000d0: a216 0abd ec3b a33d 677f 37ba 4ac1 47bc
000000e0: ff38 f53a b0ba d83c 191b 99bc 39ec 2b3c
000000f0: df4c 3b3a 7be5 15bc ae23 693c a8e3 733d
00000100: 2b28 053d 867d 41bc 98db 25bc 908c 973b
00000110: 6ecd 1ebd 2e3e bdb9 6dc3 ca3b 1b66 e2ba
00000120: 8253 c53b 2d78 313c 0e8a a73c f84c 3dbb
00000130: 83cc 18bc 4168 e5bb 87bd 7abc 7590 983b
00000140: 26ca 81bd c5e7 613d 4850 b9bc b2f1 c83c
00000150: 7183 3d3c da3c 44bc b5b3 b8bb 2e1a be3c
00000160: 0000 0000 0000 0000 60ef 8a3d 4f1a a3bc
00000170: ca8a 6f3c 9465 3a3d 0068 7e3d fe38 e33a
00000180: 4c28 133b 0000 0000 6c71 14b9 332e 5b3a
00000190: ff37 48bc 4934 013d fe94 49bb caa4 52bb
000001a0: 9a6f 6b3c d500 b73d f8de 5eb6 0b3c d6bc
000001b0: ccd8 3dbd 53b7 4dbc 70b9 583d a5d1 7eb7
000001c0: 0000 0000 0000 0000 04aa 06bc 19b3 653d
000001d0: 7aaa 383d 8815 203c b83f 403d 0de7 7ebc
000001e0: 2d5c 2d3d f932 4c3c a70f 013d 0000 0000
000001f0: 485d 163d 44b3 48bc c3d5 c83c befc 733d
