MAMRL-TE/Dynamic environments/Baselines/Random/Geant/task0/savemodels/baseline2.pth (torch, 1459 bytes, 1 tensors)

weight f4 [1, 18]
0	0xbb98e040	-0.0046654046
1	0xbb0d3fa3	-0.0021552823
2	0xba1873fe	-0.0005815624
3	0xba190752	-0.00058375776
4	0xba18e7a6	-0.0005832858
5	0xba18cd6d	-0.00058289507
6	0xba18f47c	-0.0005834771
7	0xbdb64567	-0.08899956
8	0xbcc19ff7	-0.023635847
9	0xbae522f3	-0.0017481729
10	0xbae64bd9	-0.0017570212
11	0xbae62c87	-0.0017560878
12	0xbae564d5	-0.0017501364
13	0xbae5b2f0	-0.0017524641
14	0xbb3e02e6	-0.0028993427
15	0xbd45f499	-0.04832897
16	0x3a1a4720	0.0005885232
17	0xb94c82c7	-0.00019503674
