MAMRL-TE/Dynamic environments/Baselines/Random/Geant/task0/savemodels/baseline13.pth (torch, 1460 bytes, 1 tensors)

weight f4 [1, 18]
0	0xbb349fff	-0.0027561185
1	0x3a0efcb4	0.0005454526
2	0xb98f22d0	-0.00027301023
3	0xb990fb03	-0.0002765284
4	0xb99f2672	-0.00030355487
5	0xb99c42b5	-0.0002980434
6	0xb99c8a8a	-0.00029857858
7	0xbd40514b	-0.046952527
8	0xbc2d0b8a	-0.010561833
9	0xba5691d1	-0.00081851805
10	0xba59f0ac	-0.0008313756
11	0xba64bb5b	-0.0008725428
12	0xba6192d7	-0.00086049497
13	0xba602b0d	-0.0008551337
14	0xbb372006	-0.0027942671
15	0xbd7be9bf	-0.061502215
16	0x3a431484	0.0007441717
17	0xb90bbea9	-0.000133271
