MAMRL-TE/Dynamic environments/Baselines/Random/Geant/task0/savemodels/policy10.pth (torch, 275219 bytes, 12 tensors)

weight f4 [128, 7]
0	0xbde9791a	-0.114000514
1	0xbde91ea3	-0.113827966
2	0xbe4377fe	-0.19088742
3	0x3d3a2b26	0.045451306
4	0x3d0f751c	0.035023794
5	0x3ddf2a6f	0.108967654
6	0x3e052735	0.13003238
7	0xbe4e06e0	-0.2011981
8	0xbcd20c4d	-0.025640631
9	0x3d759ccf	0.059963997
10	0xbe328a6d	-0.17435618
11	0x3dc5a459	0.096504875
12	0xbe3c10cc	-0.18365782
13	0x3d97a989	0.07405383
14	0xbd03cae2	-0.032175906
15	0xbe30345b	-0.17207472
16	0xbd94a6f3	-0.072584055
17	0xbe49aa86	-0.19693956
18	0xbda8f6b1	-0.08250178
19	0xbcef5a5c	-0.029217891
20	0xbe2ddbd5	-0.1697839
21	0x3e235549	0.15950502
22	0xbdaaba41	-0.08336306
23	0x3dd0c624	0.10194042
24	0x3e3fc17d	0.18726154
25	0xbd555882	-0.05208636
26	0xbe5629e3	-0.20914416
27	0xbe0501f2	-0.12989023
28	0xbd3ab96e	-0.045586996
29	0xbdf92d74	-0.121668726
30	0xbe44bbdf	-0.19212292
31	0xbe4ea80d	-0.20181294
32	0x3e1b78d7	0.15182815
33	0xbe33617d	-0.17517658
34	0x3debad29	0.11507637
35	0xbcb211ac	-0.021736942
36	0xbd7a9c22	-0.061184056
37	0xbe3b7d0a	-0.18309417
38	0xbdb6dd45	-0.089289226
39	0x3c9ae926	0.018910002
40	0x3d197063	0.037460696
41	0x3e138b43	0.14408593
42	0x3dbcc380	0.09216976
43	0xbe1e4153	-0.15454607
44	0x3dbe8ea9	0.09304554
45	0xbe1bd44c	-0.15217704
46	0x3e029b28	0.127545
47	0x3ddd52bd	0.10806797
48	0x3e30d2fe	0.17267987
49	0xbe50fdee	-0.20409366
50	0xbd220871	-0.03955883
51	0xbdd4a9b1	-0.103839286
52	0xbc52c048	-0.012863226
53	0x3d35cb29	0.0443832
54	0xbc4f922a	-0.012669126
55	0xbd286b7d	-0.041118134
56	0x3da8dc9f	0.08245205
57	0xbe75a54c	-0.23988837
58	0x3c5f7a70	0.013640031
59	0xbe4af892	-0.19821385
60	0x3e12bdb6	0.14330181
61	0xbdfe0ecd	-0.12405167
62	0xbd84c4fa	-0.06482883
63	0xbe18234a	-0.14857212
64	0xbe080ddc	-0.13286537
65	0x3c7d6ad5	0.015467365
66	0xba88bdf1	-0.0010432584
67	0xbe08b341	-0.1334963
68	0x3ca00987	0.019535793
69	0xbe444319	-0.1916622
70	0xbca4c8d6	-0.020115297
71	0xbdc410e3	-0.095735334
72	0x3e8b6b2d	0.27230206
73	0x3dbf62eb	0.09345039
74	0x3e457d07	0.19285975
75	0x3e1477bf	0.14498805
76	0x3e73323f	0.23749636
77	0xbdf23cde	-0.11828016
78	0xbe15aca1	-0.14616634
79	0xbe385298	-0.18000257
80	0xbdd36405	-0.103218116
81	0x3e185567	0.14876328
82	0x3d694fe7	0.056960966
83	0xbe2b2fdc	-0.16717476
84	0xbc88aee1	-0.016684951
85	0xbe4308ef	-0.19046377
86	0x3e258e1e	0.16167495
87	0xbd965058	-0.07339543
88	0x3d673ed1	0.05645639
89	0x3db71d9a	0.08941193
90	0x3d2f5012	0.04280097
91	0x3c35922b	0.011082212
92	0xbe9eaf9c	-0.30993354
93	0xbe4a8778	-0.1977824
94	0x3d2f5d85	0.042813797
95	0x3e6ec1e6	0.23316154
96	0x3e54cbe1	0.20780899
97	0xbd87df8a	-0.066344336
98	0x3e722173	0.23645572
99	0x3ed7eeab	0.42174277
100	0x3d01111a	0.03151045
101	0x3a241020	0.00062585063
102	0xbd744489	-0.059635673
103	0x3e1a5251	0.15070464
104	0x3cf0b175	0.029381493
105	0xbe166cf2	-0.14689997
106	0xbe469a05	-0.19394691
107	0x3e4a27a4	0.19741684
108	0xbd137276	-0.03599783
109	0xbe0834e5	-0.13301428
110	0x3e0f0ec4	0.13970476
111	0xbe2a6603	-0.16640477
112	0xbd32c09f	-0.04364073
113	0xbe028e1d	-0.12749524
114	0x3e10bb2b	0.14133899
115	0x3d1f7556	0.03893026
116	0x3de20444	0.1103597
117	0xbd864635	-0.0655636
118	0x3e2991cd	0.16559525
119	0x3df5422c	0.11975512
120	0x3f02b366	0.5105499
121	0xbe2f9f9f	-0.17150734
122	0xbd902950	-0.0703913
123	0xbd7f9af0	-0.06240362
124	0x3da597fa	0.08085628
125	0x3dd167d9	0.102248855
126	0x3e306c8b	0.17228906
127	0xbeaa83a0	-0.33303547
128	0x3e97284a	0.29522926
129	0x3dcf666d	0.10126958
130	0x3eb569a3	0.35432157
131	0x3e326986	0.17423066
132	0x3e6ec638	0.23317802
133	0x3e6369dc	0.22208351
134	0x3f26b3c2	0.6511804
135	0x3b9ed644	0.00484732
136	0x3e2206b8	0.15822875
137	0xbde76833	-0.11299171
138	0xbe162f6c	-0.14666528
139	0x3d57f736	0.052725993
140	0x3e7fbdd6	0.2497476
141	0xbe73999f	-0.2378907
142	0xbdbbc93c	-0.09169242
143	0x3e08f1a5	0.1337343
144	0xbe3900a8	-0.18066657
145	0xbc3b1227	-0.011417902
146	0x3df9aaa8	0.12190753
147	0xbce819c2	-0.028332595
148	0x3eb7b1a4	0.35877717
149	0xbe4d5664	-0.20052487
150	0x39c47660	0.0003747223
151	0xbd437703	-0.04772092
152	0xbdc2bba9	-0.095084496
153	0x3e39628b	0.18103997
154	0xbca34271	-0.019929143
155	0xbc279316	-0.010227939
156	0xbdca9a0c	-0.09892663
157	0xbe52fce7	-0.20604287
158	0x3ce85033	0.028358554
159	0xbe034c15	-0.12821992
160	0x3d93614e	0.07196294
161	0x3dbfaec4	0.09359506
162	0x3dbd3378	0.092383325
163	0x3e07ea52	0.1327298
164	0xbca3bc08	-0.019987121
165	0x3d65e92a	0.056130566
166	0xbdb584cd	-0.0886322
167	0xbdd9bba0	-0.1063149
168	0xbda1d7a9	-0.07902462
169	0xbe2382d7	-0.1596788
170	0x3d669c64	0.05630149
171	0x3dbb9ab7	0.09160369
172	0xbdcdd5d6	-0.100505516
173	0xbdbf54d2	-0.0934235
174	0x3d6e8523	0.058232438
175	0x3e8f3e10	0.27977037
176	0x3ed1a77b	0.4094809
177	0xbcff9285	-0.031197796
178	0xbcd43c7c	-0.025907747
179	0x3dc86e5c	0.097866744
180	0x3daf98c5	0.0857406
181	0xbd0cbfd0	-0.034362614
182	0xbec5a423	-0.3860179
183	0xbe2a1eb8	-0.16613281
184	0xbd51e600	-0.051244736
185	0x3d6ff0b8	0.058579177
186	0xbe01bf90	-0.12670732
187	0xbdceac93	-0.1009151
188	0xbdd65ca9	-0.10466892
189	0xbbe06985	-0.0068485164
190	0xbe467320	-0.19379854
191	0xbb073573	-0.0020631223
192	0xbc2f8b21	-0.010714323
193	0xbcd2deaa	-0.02574094
194	0xbe31ae12	-0.17351559
195	0xbd416bbc	-0.047221884
196	0x3e7b9ebe	0.24572274
197	0x3f5b376a	0.8563143
198	0x3afd8350	0.0019341502
199	0xbd1ecb1e	-0.038767926
200	0xbe0bf33f	-0.1366701
201	0xbd6a5b39	-0.057215903
202	0xbda7767e	-0.081768975
203	0x3d93e368	0.07221109
204	0xbda7a055	-0.08184878
205	0xbe179529	-0.14802994
206	0x3e24f306	0.16108331
207	0x3c6b9b8d	0.014380348
208	0xbd2f5e06	-0.042814277
209	0xbda4dabc	-0.08049533
210	0x3e3b9517	0.18318592
211	0xbe755728	-0.23959029
212	0xbe3b1b5e	-0.18272159
213	0xbd9d81c0	-0.076907635
214	0x3d352ba5	0.044231076
215	0x3d18ef85	0.0373378
216	0xbd9ce92d	-0.07661662
217	0x3e4783c2	0.19483855
218	0x3f4a7500	0.7908478
219	0xbe1cf528	-0.15327895
220	0x3df0fdd0	0.11767161
221	0xbd8e8b72	-0.06960191
222	0xbcbd56e5	-0.023112724
223	0x3707d800	8.0969185e-06
224	0xbd3b676d	-0.04575293
225	0xbe3bbfe0	-0.18334913
226	0x3e040357	0.12891899
227	0xbe25bdcb	-0.16185682
228	0x3da6da66	0.08147125
229	0x3d2376cd	0.03990822
230	0x3e2ef034	0.17083818
231	0xbdf9b394	-0.12192455
232	0xbc7fec26	-0.015620267
233	0xbcdaa023	-0.026687687
234	0xbe5d7b65	-0.21629103
235	0x3d767988	0.060174495
236	0xbdd7f727	-0.105451874
237	0x3d921468	0.071327984
238	0xbdba8d43	-0.09108975
239	0xbe228fce	-0.1587517
240	0xbe2cdd78	-0.16881359
241	0x3e0a5429	0.13508667
242	0x3dc018a9	0.093797036
243	0xbc91c247	-0.017792834
244	0xbdc6f4aa	-0.09714635
245	0xbdae9d11	-0.08526052
246	0x3d818fd1	0.06326259
247	0x3cead91f	0.028667985
248	0x3e04a2c1	0.1295271
249	0xbd1e1cf9	-0.03860185
250	0x3e13958e	0.1441252
251	0xbe2a39a3	-0.16623549
252	0xbdf403ff	-0.11914825
253	0xbd082964	-0.0332426
254	0xbd9c56ab	-0.07633718
255	0x3d9ff471	0.078102954

bias f4 [128]
0	0xbd54f23a	-0.051988818
1	0xbcd54ff1	-0.026039096
2	0xbb4e827d	-0.0031510883
3	0x3ca56d9a	0.020193864
4	0xb6df8dd6	-6.6624298e-06
5	0xbc51dfff	-0.0128097525
6	0xbcfaa34e	-0.030595448
7	0xbd515737	-0.051108565
8	0x3c08a710	0.008340612
9	0xb78def20	-1.6919861e-05
10	0x3e3d6eb5	0.18499263
11	0xbba0b95e	-0.00490491
12	0xbc86311b	-0.016380837
13	0x3d74cb63	0.059764277
14	0xbce8c5c4	-0.028414614
15	0xbc5aac34	-0.0133467205
16	0x3d31ca35	0.04340573
17	0x3ccc10c1	0.024910333
18	0x3e902e66	0.281604
19	0xbc605a30	-0.013693377
20	0x3cbc07cd	0.022952938
21	0xbc267314	-0.010159273
22	0x3a915e5d	0.0011090745
23	0xbcccb6af	-0.024989454
24	0xbd40aad6	-0.04703792
25	0xbd236595	-0.039891798
26	0xbc89c722	-0.016818587
27	0x00000000	0.0
28	0xbe1d7eeb	-0.15380447
29	0xbc29f60f	-0.010373606
30	0x3d0827e2	0.03324116
31	0xbc9abc02	-0.018888477
32	0xbd170695	-0.03687151
33	0xbd0cd9d3	-0.03438742
34	0xbbf930c1	-0.007604689
35	0x3cfda89c	0.030964188
36	0xbd1ccb11	-0.038279597
37	0xbc83e79d	-0.016101653
38	0xbae49372	-0.0017438962
39	0xbc4d73df	-0.012539833
40	0x3c88ab2e	0.016683187
41	0xbd2c27e6	-0.042030238
42	0xbca3c83c	-0.01999294
43	0x3d634ade	0.05549132
44	0x3b71bde0	0.0036886856
45	0x3c97abb4	0.018514492
46	0x3d2e7dbc	0.04260038
47	0xbd16a82b	-0.03678147
48	0x3cd19c8e	0.025587346
49	0x3da65a75	0.08122722
50	0x3d9bc7ca	0.07606466
51	0x3c625a9b	0.013815547
52	0x3d81436f	0.0631169
53	0x3c24892d	0.010042471
54	0x3bbabea3	0.005698995
55	0xbb2ebfce	-0.0026664617
56	0xbd0f07a2	-0.03491939
57	0x3d396fea	0.045272745
58	0x3c821823	0.01588065
59	0xbe0f7929	-0.14011063
60	0x3d031dc2	0.0320108
61	0x3c3d024f	0.011536195
62	0xbde6f578	-0.11277288
63	0xbbfb3c40	-0.0076670945
64	0xbcd86062	-0.026413146
65	0xbddc8ee0	-0.10769439
66	0x3e048525	0.12941416
67	0xbe1c84e7	-0.15285073
68	0xbc0ff669	-0.008786776
69	0xbbae5d2f	-0.005321167
70	0x3d2a8f84	0.041640773
71	0x3ec4d8f7	0.3844678
72	0xbd0bf0ed	-0.03416531
73	0x3c307fbc	0.010772642
74	0xb9f4ae40	-0.00046669133
75	0xb6aa43ef	-5.0743033e-06
76	0x3dd5bbaf	0.104361884
77	0x3e822738	0.25420547
78	0x3d12c014	0.03582771
79	0x3bff02dc	0.0077823233
80	0x3ca4291b	0.020039132
81	0x3baa7ccf	0.0052028666
82	0x3c97d73e	0.018535253
83	0x3d956e9e	0.07296489
84	0x3c54b5e7	0.012982822
85	0x3daf762a	0.0856746
86	0xbbae9eb6	-0.0053289784
87	0xbe179bd6	-0.1480554
88	0x3be9b895	0.0071325996
89	0x3c5446b5	0.012956311
90	0x3ccfd048	0.02536787
91	0xba1f276c	-0.0006071243
92	0x3aa3efbf	0.0012507363
93	0x3d680e42	0.056654222
94	0x3bdd9a51	0.0067627807
95	0xbc06d0a7	-0.0082284575
96	0xb9bf5f65	-0.00036501433
97	0xbe01e602	-0.12685397
98	0x3c4cc765	0.012498711
99	0x3ecf1c7f	0.40451428
100	0xbe5abe6e	-0.21361706
101	0xbd1ddad0	-0.038538754
102	0xbd466fea	-0.048446573
103	0x3d89d6aa	0.06730397
104	0xbd75eabe	-0.06003832
105	0xbe892c7a	-0.26791745
106	0x3cc5a500	0.02412653
107	0xbc23bf8c	-0.009994399
108	0x3bed684e	0.0072451
109	0x3e15d3fc	0.14631647
110	0xbde5d98a	-0.11223133
111	0x3c7a862a	0.015290776
112	0x3d86d08a	0.065827444
113	0xbb69a572	-0.0035651592
114	0x3cce8806	0.025211345
115	0xbc544ce0	-0.012957782
116	0xbc89d9de	-0.01682752
117	0xbc0ecb24	-0.008715425
118	0x393e2d0a	0.0001813659
119	0xbd2e3a5c	-0.042536125
120	0x3dac2374	0.084052
121	0x3d374dc2	0.04475189
122	0xb901c442	-0.0001237551
123	0x3c7762e0	0.015099257
124	0x3c13c76b	0.009019713
125	0xbd3ca5fa	-0.046056725
126	0xbe299f1d	-0.16564603
127	0xbc67c86a	-0.0141469035

weight f4 [128, 128]
0	0xbcef80a2	-0.029236142
1	0xbe05d78e	-0.13070509
2	0xbc8fe970	-0.017567366
3	0xbda2c358	-0.07947415
4	0xbce022b7	-0.027360303
5	0x3ddeeb3b	0.108847104
6	0x3e051a42	0.12998298
7	0xbd299712	-0.041403838
8	0xbd16edfe	-0.03684806
9	0x3c11833d	0.008881387
10	0x3d111b82	0.035426624
11	0xbd2bead6	-0.041972004
12	0xbdd565a4	-0.10419777
13	0xbd57b35f	-0.052661296
14	0xbe12fe80	-0.14354897
15	0x3d88b42f	0.06674992
16	0x3dabb319	0.083837695
17	0x3d9568b2	0.0729536
18	0x3c98bcaa	0.01864465
19	0x3b4fae66	0.0031689643
20	0x3e1a0fd2	0.15045097
21	0xbe0d75f2	-0.13814524
22	0xbd4fc6f3	-0.050726842
23	0xbde7e5ca	-0.11323126
24	0xbd5aee45	-0.053449888
25	0xbd7f1b64	-0.06228198
26	0x3d6c72b3	0.057726573
27	0xbc895dfc	-0.016768448
28	0xbc734dda	-0.014850104
29	0x3e106f57	0.14104973
30	0x3c99563d	0.01871788
31	0xbdec9514	-0.11551872
32	0xbc573e38	-0.013137393
33	0xbd7953f7	-0.06087109
34	0xbe16d3ec	-0.1472928
35	0xbc4ce2df	-0.012505262
36	0xbe071938	-0.13193214
37	0x3df2a98e	0.11848746
38	0x3dd5fcdb	0.10448619
39	0xbd77ac6b	-0.060467165
40	0xbe27dec7	-0.16393577
41	0xbbd199b7	-0.006396498
42	0x3b6c20a8	0.0036030207
43	0xbe0e5fef	-0.13903783
44	0xbd81328d	-0.0630847
45	0xbe0d9af9	-0.13828649
46	0x3dd87b8c	0.1057044
47	0xbdbdaaba	-0.09261079
48	0xbca66083	-0.020309692
49	0xbd979fed	-0.0740355
50	0xbe02d429	-0.12776245
51	0x3dae7c33	0.08519783
52	0x3c041862	0.008062454
53	0x3d37c953	0.044869732
54	0xbd6e9e57	-0.058256473
55	0x3d2b8323	0.04187311
56	0xbd58d410	-0.052936614
57	0x3bc0ea1b	0.0058872825
58	0xbde53cb8	-0.11193222
59	0x3da21da9	0.079158135
60	0xbde966de	-0.113965735
61	0xbc8023d4	-0.015642084
62	0xbda91083	-0.082551025
63	0xbd1de609	-0.038549457
64	0x3a01aad8	0.0004946417
65	0x3d13e49d	0.036106694
66	0xbe1cca25	-0.15311487
67	0xbcefc0ed	-0.029266799
68	0xbda7ebd8	-0.081992805
69	0xbdef58b2	-0.11686839
70	0xbdcb9c47	-0.09941917
71	0x3d5892b3	0.05287428
72	0xbe183f4b	-0.14867894
73	0xbdd039fd	-0.101673104
74	0xbe03b0f5	-0.12860473
75	0x3c9020be	0.017593738
76	0x3cc4b491	0.024011882
77	0xbc922b44	-0.017842896
78	0xbd8ff196	-0.07028501
79	0xbdce9067	-0.10086136
80	0x3d974fbe	0.073882565
81	0xbc3c3e1c	-0.011489417
82	0xbe1333ea	-0.14375272
83	0xbdd1df6f	-0.10247695
84	0xbcdee9d9	-0.027211117
85	0xbd8d362c	-0.06895098
86	0xbd3aec22	-0.04563535
87	0x3d8bf1ea	0.06833251
88	0x3dd2e50a	0.10297592
89	0xbdd6f262	-0.104954496
90	0xbd2cdce0	-0.04220283
91	0x3e111c0a	0.14170852
92	0xbe01e629	-0.12685455
93	0x3cfa824a	0.030579705
94	0x3d52ef1b	0.05149756
95	0x3d04a30c	0.032382056
96	0x3d169060	0.03675878
97	0x3d1cf919	0.038323496
98	0xbd0a5c7d	-0.03377961
99	0x3d9c71d7	0.07638901
100	0xbe1507e0	-0.14553785
101	0x3cf6bb25	0.030118534
102	0xbd84b174	-0.06479159
103	0x3da17823	0.078842424
104	0x3cf2a441	0.029619338
105	0x3d30e625	0.043188233
106	0x3c4fd4c8	0.012685008
107	0xbddda55b	-0.10822555
108	0x3ddb3669	0.10703737
109	0x3c536c3a	0.012904221
110	0xbd8d698c	-0.06904897
111	0x3d478b93	0.048717093
112	0x3d80cf31	0.062895186
113	0xbd3a8a0b	-0.045541804
114	0x3d2645a0	0.040593743
115	0xbd187453	-0.03722031
116	0x3e1a9150	0.15094495
117	0x3d81dd0f	0.06340992
118	0xbda85a18	-0.08220309
119	0xbd48c7d3	-0.049018692
120	0xbcd4d100	-0.025978565
121	0x3d429aa2	0.04751075
122	0x3d55191e	0.052025907
123	0x3d610c77	0.054943528
124	0xbcff225d	-0.031144315
125	0x3db6818c	0.08911428
126	0x3e0d0045	0.13769634
127	0x3d38ad1e	0.045086972
128	0x3dd550d4	0.10415807
129	0xbd2d3750	-0.04228908
130	0xbde8bfdc	-0.11364719
131	0x3deadb49	0.114676066
132	0x3d5df1fc	0.054185852
133	0xbd0f84e1	-0.035038833
134	0xbdd35465	-0.10318831
135	0xbbd0b635	-0.006369377
136	0xbd7178bb	-0.05895303
137	0xbe09b7c6	-0.1344901
138	0x3c4b41fd	0.01240587
139	0x3dbfaedd	0.093595244
140	0x3c9b43ce	0.01895323
141	0xbda258a2	-0.079270616
142	0xbd986e99	-0.0744297
143	0x3ccf0585	0.025271187
144	0xbdbfb9bf	-0.093616
145	0x3d89a515	0.0672094
146	0xbe108a80	-0.14115334
147	0xbdc18982	-0.09450056
148	0x3d659f43	0.056060087
149	0x3da3be1d	0.079952456
150	0x3dc07d82	0.09398939
151	0x3c799366	0.015232896
152	0xbe0f6a5c	-0.14005417
153	0xbe15b6d8	-0.1462053
154	0xbde6ee7e	-0.112759575
155	0xbe171ea4	-0.14757782
156	0xbd37f515	-0.044911463
157	0x3d5b1350	0.053485215
158	0x3bb389c8	0.0054790713
159	0x3de79ef2	0.11309613
160	0x3e061a3b	0.13095944
161	0xbdbc180a	-0.091842726
162	0x3dc47cfb	0.09594151
163	0xbbcf6c36	-0.0063300384
164	0x3dcce319	0.10004253
165	0xbd719167	-0.058976557
166	0xbda384da	-0.07984324
167	0x3dae5743	0.085127376
168	0x3e04387a	0.12912169
169	0xbd958bf5	-0.07302085
170	0x3db464d2	0.088082924
171	0x3d67697a	0.056497075
172	0xbd316362	-0.04330767
173	0x3e084d3b	0.13310711
174	0xbcec0aae	-0.028813686
175	0xbe0723fa	-0.13197318
176	0x3a3c7296	0.00071887055
177	0x3dc99a8b	0.0984393
178	0x3dc27442	0.09494831
179	0xbd726d65	-0.059186358
180	0x3dfe55b1	0.12418688
181	0xbdb7ca9a	-0.0897419
182	0x3e014138	0.12622535
183	0x3d338965	0.0438322
184	0x3d9def8e	0.07711707
185	0xbdf901ed	-0.121585704
186	0xbdb789e0	-0.089618444
187	0x3d6412fb	0.055682164
188	0xbdf5b27d	-0.119969346
189	0xbdc989a3	-0.09840705
190	0xbd02f25a	-0.031969406
191	0xbdbc3275	-0.091893114
192	0xbe15c4e8	-0.14625895
193	0x3c0204cb	0.007935713
194	0x3d63890a	0.055550613
195	0xbb6729ce	-0.003527272
196	0xbdb0354c	-0.086039156
197	0xbe134a70	-0.14383864
198	0x3de1ca7e	0.110249504
199	0xbd5eb611	-0.05437285
200	0xbc7df202	-0.015499594
201	0xbd9e81fd	-0.07739637
202	0x3c176fb4	0.009242941
203	0x3e174fe9	0.14776577
204	0xbd4ececd	-0.05049019
205	0x3db50571	0.088389285
206	0x3d16d12c	0.036820576
207	0x3ce1eac7	0.02757777
208	0xbda95dcc	-0.082698435
209	0x3c31e30f	0.010857358
210	0xbe060882	-0.13089183
211	0xbe11ccbb	-0.14238255
212	0xbd815cde	-0.06316541
213	0xbdc6da76	-0.09709637
214	0x3e1c54bf	0.15266703
215	0xbd8580fd	-0.06518743
216	0x3ddb88ac	0.107194275
217	0xbd9650e7	-0.0733965
218	0xbdc8fba1	-0.098136194
219	0x3d6b2f5b	0.05741821
220	0x3d9a2070	0.07525718
221	0xbd04caea	-0.032420076
222	0xbdf740cb	-0.12072905
223	0x3dbb1ded	0.09136567
224	0xbd7a35b8	-0.061086386
225	0x3d94798b	0.07249745
226	0x3d61836f	0.055056985
227	0x3d8d4e71	0.06899727
228	0xbd831180	-0.06399822
229	0xbcb836ef	-0.022487132
230	0x3d4fb3fc	0.050708756
231	0x3d3f986e	0.046776228
232	0x3d70d3af	0.058795627
233	0x3d39d4f4	0.045369104
234	0x3e173e85	0.14769943
235	0x3dd9961b	0.106243335
236	0xbe0e6a95	-0.13907845
237	0x3d5afdb6	0.053464614
238	0x3d98c65e	0.074597105
239	0x3d85af91	0.06527627
240	0xbd44fa37	-0.048090186
241	0xbce0e790	-0.027454168
242	0xbe1be9ec	-0.15225953
243	0x3ddf57ee	0.10905443
244	0x3d8f752d	0.070047714
245	0xbd592b75	-0.05301996
246	0x3e0be0cc	0.13659972
247	0xbd2f6c66	-0.042827986
248	0xbd4731e0	-0.04863155
249	0xbdb6d456	-0.089272186
250	0xbd7d7e64	-0.061888114
251	0xbde4042c	-0.11133608
252	0x3d7ff41f	0.06248867
253	0xbd1ff916	-0.039055906
254	0xbdd794aa	-0.10526402
255	0xbe0cf6ac	-0.13765973

bias f4 [128]
0	0x3c80ff6a	0.01574679
1	0xbbe8e011	-0.007106789
2	0xbe85272b	-0.26006445
3	0x3dbf276d	0.09333692
4	0x3e574b14	0.21024734
5	0x3d2cb4a2	0.042164452
6	0xbe4e35e8	-0.20137751
7	0xbbc921ba	-0.0061380537
8	0x3cdc8bed	0.02692219
9	0x39252b71	0.0001575181
10	0xbb51c3be	-0.003200754
11	0x3a429400	0.00074225664
12	0x3e2f3e4a	0.17113605
13	0x3dbc4a12	0.09193815
14	0x3d34c05a	0.044128753
15	0x3e30eec2	0.17278579
16	0x3746cb40	1.18490425e-05
17	0x3d892634	0.0669674
18	0x3dc38575	0.09546939
19	0xbc45281a	-0.012033487
20	0xba51d4df	-0.00080044375
21	0x3c981fa7	0.01856978
22	0x3d2490a9	0.04017702
23	0xbd9a548c	-0.07535657
24	0xbc0cf1ae	-0.008602543
25	0xbda0cedf	-0.078519575
26	0x3df41404	0.1191788
27	0x3b32d75a	0.0027289004
28	0xbc609069	-0.013706305
29	0xbde21bf7	-0.1104049
30	0xbd866e6f	-0.06564032
31	0xbada33c1	-0.0016647504
32	0xbdefaecd	-0.117032625
33	0x39e81040	0.00044262595
34	0x3c2b4862	0.010454269
35	0xbb4d0fe9	-0.003129
36	0x00000000	0.0
37	0x3e1dde85	0.15416916
38	0xbd616f8e	-0.055038027
39	0x3d5f77bd	0.05455755
40	0xbb4183cc	-0.002952802
41	0xbda588b3	-0.08082714
42	0x3c191c44	0.009345118
43	0xbe097190	-0.13422227
44	0xbccd806e	-0.025085654
45	0xbdb6a81f	-0.08918785
46	0xbbf2620a	-0.007396941
47	0xba1ac150	-0.00059034396
48	0x38fb3959	0.000119792945
49	0xbd3575c2	-0.044301756
50	0x3987e3f2	0.0002591904
51	0xbd3fe97e	-0.046853535
52	0x3c5ad349	0.013356038
53	0xbdb20f49	-0.08694322
54	0xbcbf715f	-0.02336949
55	0x3dc02ad0	0.09383166
56	0x3c52fc47	0.01287753
57	0x00000000	0.0
58	0x3e18420b	0.14868943
59	0xbd9cc689	-0.07655055
60	0x3c1a284a	0.00940902
61	0xbba04390	-0.0048908666
62	0xbd2d1855	-0.042259533
63	0x3dc10c48	0.094261706
64	0x39dea81f	0.000424684
65	0xbc6a43ce	-0.014298392
66	0x3a159e73	0.00057075097
67	0xb580d795	-9.599486e-07
68	0x3b27c490	0.0025599338
69	0x3d874cef	0.06606471
70	0xbe8c462c	-0.27397287
71	0x3ba9ad11	0.005178102
72	0xbd10c764	-0.035346404
73	0xba9c2616	-0.0011913206
74	0xbd1bcb48	-0.03803566
75	0xbb95b409	-0.004568581
76	0xbcaa0381	-0.020753624
77	0x39b32522	0.00034169207
78	0xbd56fc6d	-0.052486826
79	0xbc0114bf	-0.007878481
80	0x3a60ea34	0.0008579821
81	0xbcf10bd3	-0.029424584
82	0x3d4381ad	0.04773109
83	0x3d0f62c5	0.035006303
84	0x3e24f1e2	0.16107896
85	0xbc05838f	-0.008149042
86	0x3b5ec380	0.0033991039
87	0xbdc8d1ff	-0.098056786
88	0xb814bb2a	-3.546026e-05
89	0x3d0f37e5	0.034965415
90	0x3df4269b	0.11921426
91	0xbd892c08	-0.066978514
92	0xba44286e	-0.0007482831
93	0x3e2409be	0.16019341
94	0x3cc4e7ff	0.024036406
95	0xbe3ae747	-0.18252288
96	0x3d055f28	0.03256145
97	0xba7bc060	-0.0009603556
98	0x3d2b752a	0.041859783
99	0x3be4e81a	0.0069856765
100	0xbdb90530	-0.090341926
101	0xbdbf30c6	-0.09335475
102	0x3b9c0da0	0.0047623664
103	0x37107dc0	8.612347e-06
104	0xbc13e1b2	-0.009025978
105	0x3dc3d048	0.09561211
106	0xbc956632	-0.018237207
107	0x3e6cd1cf	0.2312691
108	0x3cc2fe6c	0.023802958
109	0x3b667539	0.0035165085
110	0x3ccd18cb	0.025036236
111	0x3a840306	0.0010071702
112	0xbdeac0f2	-0.11462583
113	0xbcb0f542	-0.021601323
114	0xbaa15cc2	-0.0012310969
115	0xbe2e6b43	-0.17033105
116	0xbcae4270	-0.021271914
117	0xba542409	-0.0008092528
118	0x376e1cdc	1.4192625e-05
119	0xbcde987e	-0.027172323
120	0x3e0ecbe0	0.1394496
121	0xbdbbd781	-0.091719635
122	0xbd50df30	-0.0509941
123	0xbd62f6fb	-0.05541132
124	0xbe1410b5	-0.14459498
125	0x3d49f898	0.049309343
126	0xbdf92581	-0.121653564
127	0x3d154884	0.03644611

weight f4 [128, 128]
0	0x3d1d8094	0.0384527
1	0xbd354466	-0.044254683
2	0xbb2fc2b7	-0.002681894
3	0x3d0cdfc3	0.034393083
4	0xbd28cdb3	-0.041211795
5	0x3db4ab4e	0.08821736
6	0xbe10d74e	-0.14144632
7	0x3da54bb1	0.080710776
8	0xbdcfabb8	-0.101401746
9	0xbd6087c4	-0.054816976
10	0x3e0c686c	0.13711709
11	0x3c105097	0.008808277
12	0xbdca1489	-0.09867198
13	0x3e00bbf1	0.12571694
14	0xbb45d83c	-0.00301887
15	0x3d97cc35	0.07411996
16	0x3d22d3c1	0.039752726
17	0x3bfc2c92	0.007695743
18	0xbcf6c784	-0.030124433
19	0xbd86e897	-0.06587332
20	0xbe0cd4e2	-0.13753083
21	0xbd8d8e23	-0.06911876
22	0x3d10a15c	0.035310134
23	0xbdbfca6f	-0.09364783
24	0xbdb8d506	-0.09025006
25	0xbcfae699	-0.030627536
26	0x3cf3e886	0.029773962
27	0x3d6cf83b	0.05785392
28	0x3c75e81e	0.015008954
29	0xbe091511	-0.13386942
30	0xbe11a08c	-0.142214
31	0xbc499564	-0.012303684
32	0xbd4db37f	-0.05022001
33	0xbd51d65d	-0.051229823
34	0xbc00a9ed	-0.007853013
35	0x3dc53226	0.09628706
36	0x3de9a339	0.114080854
37	0xbd8ec2ec	-0.06970772
38	0x3d0262af	0.031832393
39	0xbe0c4387	-0.13697635
40	0x3df4c6e3	0.11951997
41	0xbd6ceae6	-0.057841204
42	0xbdc667b7	-0.09687751
43	0x3c41ee56	0.011836609
44	0xbdcbd833	-0.09953346
45	0x3baf69e2	0.0053531984
46	0xbdde00bf	-0.10839986
47	0xbe0b723e	-0.13617799
48	0x3e101d1b	0.14073603
49	0xbe14c9f3	-0.14530163
50	0x3dd7d065	0.10537795
51	0xbe14da09	-0.14536299
52	0x3cc7ea9a	0.024403859
53	0x3ce5526d	0.027993405
54	0xbd085106	-0.033280395
55	0xbe158899	-0.14602889
56	0x3d2d6470	0.042332113
57	0xbe0ff373	-0.14057712
58	0x3cdd0ec9	0.02698459
59	0x3dff5823	0.124679826
60	0xbdff4c73	-0.124657534
61	0xbce0ebf7	-0.027456267
62	0xbe12f544	-0.14351374
63	0x3dc66070	0.09686363
64	0xbe186004	-0.14880377
65	0x3e0d073b	0.1377229
66	0x3d3a9afa	0.045557953
67	0xbdd887fe	-0.105728135
68	0xbd22117b	-0.039567452
69	0xbd99744f	-0.07492887
70	0xbc864562	-0.016390506
71	0xbc9ff142	-0.01952422
72	0xbd95e03f	-0.07318162
73	0x3e051e5f	0.12999867
74	0xbe07580e	-0.13217184
75	0x3e13a226	0.14417323
76	0xbdd2381c	-0.10264608
77	0xbddfffd2	-0.10937466
78	0x3de5206f	0.11187827
79	0x3d23a6c3	0.03995396
80	0x3debdeba	0.11517091
81	0x3c70fa87	0.014708168
82	0x3da740f3	0.08166685
83	0xbd6bd44c	-0.05757551
84	0x3df2c13d	0.118532635
85	0x3e0d63cf	0.13807605
86	0x3ddf1c08	0.108940184
87	0x3d822e71	0.06356514
88	0xbbb2a1d5	-0.005451421
89	0x3da39591	0.07987512
90	0x3b94c44b	0.0045400015
91	0xbaed960f	-0.0018126386
92	0xbbc83db5	-0.0061108717
93	0x3d4de7ad	0.05026977
94	0xbb5987bf	-0.0033192483
95	0x3dba3bbc	0.09093425
96	0x3cf3755f	0.029719053
97	0x3dad5f9c	0.08465502
98	0xbcc2ea8b	-0.02379348
99	0xbdf1c637	-0.118053846
100	0x3daff083	0.08590796
101	0xbd5b3b3d	-0.05352329
102	0x3d06e76f	0.032935556
103	0x3d8c0a41	0.06837893
104	0xbc3d643d	-0.011559543
105	0xbc62173e	-0.013799487
106	0x3de3815e	0.11108659
107	0x3de7365c	0.11289665
108	0xbca90bb6	-0.020635467
109	0x3baecac8	0.005334232
110	0xbe0c789a	-0.13717881
111	0x3e105f5d	0.14098878
112	0xbe1699e0	-0.14707136
113	0xbe091e9c	-0.13390583
114	0x3e089921	0.13339664
115	0xbd713664	-0.05888976
116	0xbdd92c9b	-0.10604211
117	0xbd9a686f	-0.075394504
118	0xbd15fcff	-0.03661823
119	0xbd489fc1	-0.04898048
120	0xbdf08fab	-0.117461525
121	0xbe09e330	-0.13465571
122	0x3e14a593	0.14516287
123	0xbd459fca	-0.04824809
124	0xbd8e491f	-0.069475405
125	0x3d657517	0.05601987
126	0xbdeb2961	-0.11482502
127	0x3cdabd54	0.026701607
128	0x3e0911c7	0.13385688
129	0xbe1252eb	-0.14289443
130	0xbdbdbaf3	-0.09264173
131	0xbdebbded	-0.11510835
132	0x3de67b25	0.11253957
133	0xbd925e71	-0.071469195
134	0xbd5cfa07	-0.053949382
135	0xbd15f68e	-0.036612086
136	0x3dbd641c	0.0924761
137	0xbc672dde	-0.014110057
138	0x3da7f4ec	0.08201012
139	0x3d172e27	0.03690925
140	0xbdb404a7	-0.0878995
141	0x3d252f33	0.040328216
142	0xbdb5026a	-0.08838351
143	0x3db67e8b	0.08910855
144	0x3d2a61d0	0.041597188
145	0xbc2919f1	-0.010321126
146	0xbc47074c	-0.012147736
147	0x3e0cea00	0.13761139
148	0x3dd01344	0.101599246
149	0xbe130930	-0.14358974
150	0x3db39bf8	0.08769983
151	0x3dae78c2	0.085191265
152	0xbddc8f6b	-0.10769542
153	0x3cf388f2	0.029728387
154	0x3d84878e	0.064711675
155	0x3c664405	0.014054303
156	0xbc288dec	-0.010287743
157	0x3e123fcd	0.1428215
158	0xbd14af1a	-0.036299802
159	0xbdf7af32	-0.12093963
160	0x3cdfa043	0.027298098
161	0xbdd0e690	-0.10200226
162	0x3df3df16	0.11907785
163	0x3cdbd342	0.026834134
164	0x3d32abcd	0.043620873
165	0x3d6b51dd	0.057451118
166	0xbe09d2f1	-0.13459374
167	0x3da7d1b0	0.081942916
168	0x3cb16de3	0.021658843
169	0x3d4ed279	0.05049369
170	0xbd8b0458	-0.06787938
171	0xbd863390	-0.065528035
172	0xbc2807aa	-0.0102557335
173	0x3da3c829	0.07997162
174	0xbd0b2d2a	-0.03397862
175	0xbd322623	-0.0434934
176	0xbddde726	-0.10835104
177	0x3d1e2e0a	0.038618125
178	0x3dd60d96	0.1045181
179	0x3c00489e	0.007829813
180	0x3d6af9ff	0.05736732
181	0x3b84bffa	0.0040512057
182	0x3c138007	0.009002692
183	0xbde4db9a	-0.11174698
184	0x3d49f359	0.04930434
185	0xbdf00321	-0.11719347
186	0xbdf8039a	-0.12110062
187	0x3d204d1a	0.03913603
188	0x3d0d1bf1	0.034450475
189	0x3de415a8	0.11136943
190	0xbd9d192d	-0.076708175
191	0xbce7ee70	-0.028311938
192	0xbdf43f86	-0.11926179
193	0x3d1a8ea6	0.037733696
194	0x3ddcacde	0.10775159
195	0xbbdc3e4a	-0.0067212926
196	0x3bac7f3d	0.0052641914
197	0x3e0c7061	0.13714744
198	0x3d4f9762	0.05068148
199	0xbddbdc6a	-0.107354
200	0x3d633eff	0.05548
201	0x3d1072cb	0.035265725
202	0xbe1533e8	-0.14570582
203	0xbd256807	-0.04038241
204	0x3d3e87a5	0.04651608
205	0x3da17cff	0.07885169
206	0x3d2923e3	0.04129399
207	0x3d32ade2	0.04362286
208	0x3d01a55d	0.031651843
209	0xbb774788	-0.0037731845
210	0xbdd6f983	-0.10496809
211	0xbd8d0a66	-0.06886749
212	0xba27c9c1	-0.0006400608
213	0x3d954a52	0.07289566
214	0x3e0cf857	0.13766609
215	0xbdb45382	-0.0880499
216	0xbe0da8ce	-0.13833925
217	0xbe1a720f	-0.15082572
218	0xbc674eb6	-0.014117887
219	0x3e010a9f	0.12601708
220	0xbdebac1d	-0.115074374
221	0x3be7afe0	0.0070705265
222	0xbe028c53	-0.12748842
223	0xbd6fd47e	-0.058552258
224	0xbc4be91c	-0.012445714
225	0x3da536ae	0.0806707
226	0xbdb33409	-0.08750159
227	0x3cc13c16	0.023588222
228	0xbd99eaef	-0.07515513
229	0x3cd58c47	0.026067866
230	0xbb785e97	-0.0037898177
231	0xbe131b8b	-0.14365976
232	0x3c98ff63	0.018676465
233	0xbd29ca74	-0.04145284
234	0x3dd9f8a7	0.1064313
235	0x3c641b1e	0.013922481
236	0xbd5528d9	-0.05204091
237	0x3d4cd179	0.050004456
238	0x3b6eb881	0.003642589
239	0xbe0c505d	-0.13702531
240	0x3ca2b677	0.019862397
241	0xbe012c3c	-0.1261453
242	0xbce996ab	-0.028514227
243	0xbd22e6f5	-0.03977104
244	0x3d53607d	0.05160569
245	0x3e083868	0.13302767
246	0xbdf88c92	-0.12136187
247	0x3c333080	0.010936856
248	0xbc11868f	-0.008882179
249	0x3d146d3c	0.036236987
250	0xbdd1df1b	-0.10247632
251	0xbde77bdc	-0.11302921
252	0xbe07ef27	-0.13274823
253	0xbdf4eb4c	-0.11958942
254	0x3d60f585	0.054921646
255	0xbc1b68dd	-0.009485451

bias f4 [128]
0	0xb8c1dd41	-9.244169e-05
1	0x38ae6966	8.3165985e-05
2	0x3c7004c4	0.014649574
3	0xbc0b2163	-0.008491847
4	0xbd32b6e0	-0.043631434
5	0xbd165261	-0.036699656
6	0x00000000	0.0
7	0x3c0010f8	0.007816546
8	0x00000000	0.0
9	0xbe3be88f	-0.18350433
10	0x3cb5a3ba	0.022172797
11	0xbd8ec0dc	-0.06970379
12	0x3e245498	0.16047895
13	0xba8e0816	-0.001083615
14	0xbdc47865	-0.09593276
15	0x3b1a4f09	0.0023545644
16	0x3c72ab2c	0.014811318
17	0x3c06dd39	0.0082314545
18	0x3c4fc7fd	0.012681958
19	0xbd07709d	-0.03306638
20	0xbcbadc4a	-0.02281012
21	0xbc3ea479	-0.011635893
22	0xbd568f70	-0.052382886
23	0x3c0b8827	0.008516348
24	0xbbd507fb	-0.0065011955
25	0x3d939093	0.0720531
26	0xb8141370	-3.5304052e-05
27	0x3bfd83fa	0.00773668
28	0x3d725576	0.059163533
29	0xbb25767b	-0.0025247622
30	0x3bee72e0	0.0072768778
31	0xbda6d25e	-0.08145593
32	0xbc6ce901	-0.014459849
33	0x3e164d9c	0.14678043
34	0xbc482695	-0.01221623
35	0x395f7274	0.00021309574
36	0x37999673	1.830908e-05
37	0x3dc4d990	0.09611809
38	0x3e0ad678	0.13558376
39	0xbe3acaef	-0.18241476
40	0xb9e90cee	-0.00044450857
41	0x00000000	0.0
42	0xbe435522	-0.19075444
43	0x3d128d2a	0.035779156
44	0x3d8609cf	0.065448396
45	0xbe2307d8	-0.15920961
46	0xbb8904c7	-0.0041814777
47	0x394b88dd	0.00019410574
48	0xb6f6f6a4	-7.360084e-06
49	0x3bf0b6e4	0.007346021
50	0x3c94061f	0.018069325
51	0xbb637553	-0.0034707382
52	0xbd27f447	-0.041004445
53	0xb40ecdf5	-1.3299707e-07
54	0xbd0c1c5a	-0.034206726
55	0xbcf43127	-0.029808594
56	0x3dde052f	0.108408324
57	0xbd9f2ebc	-0.07772586
58	0x39fb5a28	0.00047941622
59	0xbb45c43a	-0.0030176775
60	0xbc363509	-0.011121043
61	0x3d32bb0a	0.043635406
62	0xbda091a8	-0.07840282
63	0x3e1444cd	0.1447937
64	0x3da5daab	0.08098348
65	0xbc082015	-0.00830843
66	0xb9edc505	-0.00045350954
67	0x3d881a00	0.06645584
68	0xbc279d6b	-0.010230402
69	0x3c7c3aa8	0.015394844
70	0xbc0659e8	-0.008200146
71	0x3d72e14a	0.059296884
72	0xbbd40db0	-0.0064713582
73	0x3cc243da	0.023713995
74	0x39973ab6	0.00028844707
75	0xbb6e97b0	-0.003640633
76	0xbde74a7b	-0.11293503
77	0xbb85aa20	-0.0040791184
78	0xbb368698	-0.002785122
79	0xbd6ff0c6	-0.05857923
80	0xb7b32264	-2.1354477e-05
81	0x3caa5663	0.020793146
82	0x3d8d5725	0.06901387
83	0x3d9e2404	0.07721713
84	0xb9ed8f3e	-0.00045310886
85	0x3d8135ba	0.06309076
86	0xbd0699f1	-0.032861654
87	0xbe088d60	-0.1333518
88	0xba8c2e51	-0.0010694956
89	0x3d3ca64f	0.04605704
90	0x00000000	0.0
91	0x3d8885ed	0.06666169
92	0xbdfd896b	-0.12379726
93	0xba61c555	-0.00086124736
94	0xbcb5ebf6	-0.022207242
95	0xbd909dc2	-0.0706134
96	0x00000000	0.0
97	0x3953ea45	0.000202098
98	0xbdd9105a	-0.10598822
99	0x381477bc	3.539746e-05
100	0xb9b9a3b8	-0.0003540793
101	0xbd431c19	-0.047634218
102	0x3c8c6ff0	0.01714322
103	0xba81ef96	-0.0009913321
104	0xbce3638c	-0.027757429
105	0xbe064b85	-0.13114746
106	0xbb7b72dc	-0.0038368022
107	0xbcbda465	-0.023149678
108	0xbd705530	-0.05867499
109	0x3ca33a12	0.019925151
110	0xbb698b2f	-0.0035635938
111	0x3bba3771	0.0056828787
112	0xba62e32e	-0.0008655068
113	0xbd99d00e	-0.075103864
114	0x3dd63823	0.10459926
115	0x3d9f9539	0.07792134
116	0x3ae8c5e3	0.001775917
117	0x3b3eecb8	0.0029132795
118	0xbdf84049	-0.121216364
119	0xbca11029	-0.019661026
120	0xbdf81b54	-0.121145874
121	0x3be22224	0.0069010425
122	0x3becccc8	0.0072265603
123	0xbd5d076f	-0.053962167
124	0xb6df43e6	-6.6538223e-06
125	0xbc76ce37	-0.015063814
126	0xbc4141ce	-0.011795474
127	0x3b7112d0	0.0036784895

weight f4 [128, 128]
0	0xbdb0d113	-0.08633628
1	0xbd7c2329	-0.06155697
2	0x3d4dd714	0.050253943
3	0xbcdd903a	-0.027046312
4	0x3e4cd5a6	0.20003375
5	0x3d39122d	0.04518335
6	0x3d483d69	0.04888669
7	0x3dc16767	0.094435506
8	0xbd7a08ce	-0.061043553
9	0x3e882483	0.26590356
10	0xbe221a9f	-0.15830468
11	0xbd17b23c	-0.037035212
12	0xbe117dd4	-0.14208156
13	0x3d5d6b39	0.054057334
14	0x3df34adb	0.11879512
15	0x3e06fe11	0.13182856
16	0x3da502ce	0.080571756
17	0xbdb26bcb	-0.08711966
18	0x3d1a2bf9	0.03763959
19	0x3ee7e83b	0.45294365
20	0x3d7f0adc	0.062266216
21	0x3d86daea	0.06584723
22	0x3e5710fa	0.2100257
23	0x3dd9d766	0.10636787
24	0x3e0c330a	0.13691345
25	0xbddb938a	-0.107215
26	0xbd80df54	-0.062925965
27	0xbb48dadc	-0.0030648028
28	0xbdbf7a36	-0.09349482
29	0x3d626f3c	0.055281863
30	0x3dd433ec	0.10361466
31	0x3e56f000	0.2098999
32	0x3e06269a	0.13100663
33	0xbd665938	-0.05623743
34	0x3e1d2f5e	0.153501
35	0xbdd7746d	-0.10520253
36	0x3cd5c7a4	0.026096173
37	0x3e018a8d	0.12650509
38	0x3de46188	0.11151415
39	0x3e6012ea	0.21882215
40	0x3e10c857	0.14138924
41	0xbca74a14	-0.020421065
42	0x3e433e06	0.19066629
43	0x3d357b01	0.04430676
44	0xbcbabe37	-0.02279578
45	0x3e44a57c	0.19203752
46	0xbd9c0e61	-0.0761993
47	0xbdfd230e	-0.12360202
48	0xbdea7b7c	-0.11449334
49	0x3d99a309	0.075017996
50	0x3de66696	0.112500355
51	0x3d8c143b	0.06839796
52	0x3dd326ad	0.10310111
53	0xbdbb712b	-0.091524445
54	0xbdda2a3f	-0.10652589
55	0x3ddffcfe	0.10936926
56	0xbd020210	-0.03174025
57	0x3e78367c	0.24239534
58	0x3dba30e0	0.090913534
59	0x3d9ee873	0.0775918
60	0x3d8c0175	0.068362154
61	0x3d8ba17d	0.06817911
62	0x3eb7d7d6	0.35906857
63	0x3de7e30e	0.11322604
64	0x3dd591d0	0.10428202
65	0x3d18b8ca	0.037285604
66	0x3d57a542	0.052647837
67	0x3e84d334	0.25942385
68	0x3ccef382	0.025262598
69	0x3db009a2	0.08595587
70	0xbdab49ff	-0.08363723
71	0xbdd76759	-0.10517759
72	0xbe10d8b1	-0.14145161
73	0xbdcd7c23	-0.10033443
74	0xbdff7e96	-0.12475316
75	0xbda46a25	-0.08028058
76	0x3ea14f3f	0.31505772
77	0xbd610298	-0.054934114
78	0xbd33466e	-0.04376834
79	0x3e371916	0.17880663
80	0xbd0b7dad	-0.0340554
81	0x3dea1c5a	0.11431189
82	0x3db46833	0.08808937
83	0xbdff4276	-0.12463848
84	0xbd921180	-0.07132244
85	0xbd46cdf0	-0.04853624
86	0xbc58e165	-0.013237332
87	0x3e2b0ca7	0.16704045
88	0x3e1b801d	0.1518559
89	0x3c22c2c0	0.009934127
90	0xbc3485ea	-0.011018256
91	0x3e02c03e	0.12768647
92	0x3ee0b352	0.4388681
93	0x3c98163d	0.018565292
94	0x3cd34929	0.025791721
95	0x3df0f4a6	0.11765413
96	0x3bc2a647	0.005940232
97	0xbdbbe5b4	-0.09174672
98	0x3ea11a5a	0.31465417
99	0xbe154bbe	-0.14579675
100	0xbe16f4ee	-0.14741871
101	0x3bbf1680	0.0058315396
102	0xbd448281	-0.04797602
103	0x3de6d572	0.1127118
104	0x3e164f87	0.14678775
105	0x3ec8c95f	0.39216134
106	0x3ccc4bb2	0.024938438
107	0x3c8bbf25	0.017058918
108	0x3de28b72	0.11061753
109	0x3de10e14	0.10989013
110	0xbcba3c7b	-0.022733917
111	0xbe1a3a37	-0.1506127
112	0x3de26344	0.1105409
113	0x3d8e2fd7	0.069427185
114	0xbdf1cfa1	-0.1180718
115	0x3e5f9c94	0.21837074
116	0xbdfb90c5	-0.12283472
117	0xbd817def	-0.06322848
118	0x3e6ced35	0.23137362
119	0x3d604542	0.05475355
120	0x3ca9f5d0	0.020747095
121	0x3e6b8a74	0.23002034
122	0xbe03831d	-0.12842984
123	0xbd83a95c	-0.06428787
124	0x3e0d989e	0.1382775
125	0x3e132d11	0.1437266
126	0x3dd46e6a	0.10372622
127	0x3d9b678e	0.07588111
128	0xbd8d91f8	-0.06912607
129	0x3d8399c7	0.06425815
130	0xbdce6eb7	-0.10079711
131	0x3e0ff2b3	0.14057426
132	0xbdac155a	-0.0840251
133	0x3d8c2f98	0.06845015
134	0x3d64e5ff	0.055883404
135	0x3de35d84	0.11101821
136	0x3e1abf6b	0.15112083
137	0x3dcc1f4c	0.09966907
138	0xbe0598ef	-0.13046621
139	0x3dd54b62	0.10414769
140	0xbd41b4c9	-0.04729155
141	0xbe0b9cc4	-0.1363402
142	0x3e0b9ac8	0.13633263
143	0xbcf63bde	-0.030057844
144	0x3e1126f3	0.14175014
145	0x3df760af	0.12078988
146	0xbdeb1d5d	-0.1148021
147	0x3e2d3abb	0.16916935
148	0x3dfc1124	0.12307957
149	0x3de2ab7a	0.11067863
150	0x3d5c3a4e	0.05376654
151	0x3ca23938	0.019802675
152	0x3d89ac86	0.06722359
153	0x3e13357f	0.14375876
154	0xbe135ed1	-0.14391638
155	0xbe03e73a	-0.12881175
156	0xbe165558	-0.14680994
157	0xbdb6de8c	-0.08929166
158	0xbdf7c6cf	-0.120984666
159	0x3d32b7bf	0.043632265
160	0x3dc36722	0.095411554
161	0x3c997ab5	0.01873527
162	0xbdb35984	-0.08757308
163	0xbd885e7d	-0.06658647
164	0xbd7839fc	-0.060602173
165	0x3cb9a080	0.02265954
166	0x3e0c72fe	0.13715741
167	0xbcf344f2	-0.029695962
168	0xbd98bc56	-0.07457797
169	0xbda9b2c1	-0.08286048
170	0xbdebcfbc	-0.115142316
171	0x3e0e74bc	0.13911718
172	0xbdfa15b4	-0.12211171
173	0xbdf61fd2	-0.12017788
174	0xbcc2a6b8	-0.023761138
175	0x3da68ff9	0.08132929
176	0x3d625460	0.055256248
177	0x3da1a847	0.078934245
178	0x3d004476	0.03131529
179	0xbdade1ee	-0.08490358
180	0x3e24fb82	0.16111568
181	0x3d1a25c3	0.03763367
182	0x3d8ce29e	0.06879161
183	0xbe0dece5	-0.138599
184	0xbc179ac0	-0.009253204
185	0x3dacd3f0	0.08438861
186	0x3d5b212f	0.053498443
187	0x3d18dbe6	0.037319086
188	0xbe05aa91	-0.13053347
189	0x3dc60b6f	0.096701495
190	0x3cf12dbe	0.029440757
191	0xbd4667d2	-0.048438855
192	0xbd04f417	-0.032459345
193	0xbdcc8aa4	-0.09987381
194	0x3ddaa061	0.10675121
195	0x3d6bc33c	0.057559237
196	0xbc9e620c	-0.019333862
197	0x3c8a5226	0.016884875
198	0x3e1700b0	0.14746356
199	0x3e0a6c77	0.13517939
200	0xbd2dd0c9	-0.04243544
201	0x3cb7c446	0.022432458
202	0x3daba66a	0.0838135
203	0xbe07d1c6	-0.13263616
204	0x3d66bce4	0.056332484
205	0xbdf41e2b	-0.119198166
206	0x3cdee496	0.027208608
207	0x3dc8cd49	0.0980478
208	0x3db46a25	0.08809308
209	0x3dad81ed	0.08472047
210	0xbd1c62a6	-0.038180016
211	0x3dd4f0e1	0.103975065
212	0xbd3dc7d6	-0.046333157
213	0xbcf3fd81	-0.029783966
214	0x3d35612a	0.044282116
215	0x3d824b84	0.0636206
216	0xbd918027	-0.07104521
217	0xbe1a57b7	-0.15072523
218	0x3d880cb1	0.06643046
219	0x3db3562f	0.087566726
220	0xbc918f64	-0.01776857
221	0xbdd7bbac	-0.105338424
222	0x3d8eb920	0.069689035
223	0xbd957451	-0.07297576
224	0x3de6b4ec	0.11264977
225	0x3e04429e	0.12916037
226	0xbcb6dde1	-0.022322597
227	0x3ad77d63	0.0016440566
228	0x3bccb330	0.0062469468
229	0x3d72c330	0.059268177
230	0x3e1567c3	0.14590363
231	0xbe18a82c	-0.14907902
232	0x3d88f7e5	0.06687907
233	0x3e05aa29	0.13053192
234	0xbdca7463	-0.0988548
235	0x3ddb5d06	0.10711102
236	0xbcc5f127	-0.024162842
237	0x3da40fcc	0.080108255
238	0xbdafa7b7	-0.08576911
239	0x3d906b77	0.07051747
240	0x3d614b53	0.055003475
241	0x3e19825e	0.14991137
242	0x3d93054d	0.071787454
243	0x3b6be802	0.0035996442
244	0xbd6fbfeb	-0.058532637
245	0x3e166d6f	0.14690183
246	0x3d81e734	0.063429266
247	0x3d634057	0.05548128
248	0xbd0d9d48	-0.034573823
249	0x3e10bbb4	0.14134103
250	0xbd310723	-0.043219697
251	0xbd94ec5b	-0.07271644
252	0xbdb28410	-0.08716595
253	0x3db32e41	0.087490566
254	0xbe099166	-0.13434371
255	0xbda66283	-0.08124258

bias f4 [128]
0	0xbdc515dd	-0.09623311
1	0x3d85e4c0	0.06537771
2	0xb8babecc	-8.90471e-05
3	0x3b8eefbc	0.0043620747
4	0x37bf8e79	2.2835318e-05
5	0x3c48e2df	0.0122611215
6	0x3d3eaab1	0.046549503
7	0xbdd38ad0	-0.10329211
8	0x3db2aed5	0.08724753
9	0x3db1f253	0.08688798
10	0x3ccc2efe	0.024924751
11	0xbc58541f	-0.01320365
12	0xbdde44c7	-0.10852962
13	0x3aeb6b78	0.0017961105
14	0x3ca092ec	0.019601308
15	0xb7949f90	-1.7717277e-05
16	0x3db0a1ab	0.08624586
17	0xbc8a96da	-0.016917635
18	0xbe006469	-0.12538303
19	0xbc021153	-0.007938701
20	0xbd0599dd	-0.03261744
21	0xbaa6f858	-0.0012738807
22	0xbd4aa620	-0.049474835
23	0x00000000	0.0
24	0xba0c0612	-0.0005341481
25	0xbd05c1f7	-0.032655682
26	0xbd78d221	-0.06074727
27	0x00000000	0.0
28	0x00000000	0.0
29	0xbcd4b635	-0.02596579
30	0xbbe1b2d5	-0.0068877735
31	0x3c26027b	0.010132427
32	0xba6b31fe	-0.0008971988
33	0x3e01ec29	0.12687744
34	0xba180630	-0.0005799262
35	0xbc93e4c5	-0.018053422
36	0xbbbb7ad5	-0.00572143
37	0x336e5c54	5.5497665e-08
38	0x3d23b944	0.039971605
39	0x3ce2cfc1	0.027686955
40	0xbc8c9aa3	-0.01716358
41	0xbcf72c2b	-0.030172428
42	0x00000000	0.0
43	0x3dd24e2e	0.10268818
44	0xb8df18d7	-0.000106380954
45	0x3cf39d2b	0.02973803
46	0x3e2268e3	0.15860324
47	0x3c77a053	0.015113908
48	0xbc312616	-0.010812303
49	0xbdf90524	-0.121591836
50	0x3c179b8a	0.009253392
51	0xb7a6d52e	-1.9888012e-05
52	0xbd20addf	-0.039228316
53	0xbde6e0aa	-0.1127332
54	0x3d91bd04	0.0711613
55	0xbd9a9c17	-0.07549303
56	0xba56a5cd	-0.00081881584
57	0x00000000	0.0
58	0xb87a53d1	-5.9682705e-05
59	0x00000000	0.0
60	0x00000000	0.0
61	0xbc12d467	-0.0089617735
62	0xbc997403	-0.018732077
63	0x3b7ac1bd	0.003826245
64	0xbc1d6937	-0.009607605
65	0xbcd42d10	-0.025900394
66	0x35919a85	1.0848313e-06
67	0xbd2c9b15	-0.042140085
68	0xbb3c27ff	-0.0028710363
69	0xba16c1aa	-0.0005750904
70	0x371e2f29	9.428514e-06
71	0x3a23cfca	0.00062489195
72	0x3d8f5122	0.06997897
73	0xbcecdbf7	-0.028913481
74	0x3aa928a4	0.0012905789
75	0x3e8cfead	0.27538052
76	0x3684935c	3.9510614e-06
77	0xbca2e70c	-0.019885562
78	0x3cb85c28	0.022504881
79	0xbd852ff6	-0.065032884
80	0x3cd48896	0.025944036
81	0x3d01a2ec	0.031649515
82	0x3c878776	0.016544085
83	0x3d9c0d39	0.076197095
84	0xbd4c6a5c	-0.04990612
85	0xbdd3b6b5	-0.10337583
86	0xbd07cba4	-0.03315319
87	0x3d25fe57	0.04052576
88	0xbc820946	-0.015873563
89	0xbc1f89b5	-0.009737422
90	0xb7c6ddac	-2.3706663e-05
91	0x3cb5545c	0.022134952
92	0x3bc00bfd	0.005860804
93	0xbc34b060	-0.011028379
94	0x3b2d9801	0.0026488306
95	0x3b942521	0.0045210277
96	0x3bda8489	0.0066686315
97	0x3d58b16e	0.052903585
98	0xbc9fa020	-0.019485533
99	0x39c081c8	0.00036717788
100	0x3aa3c8fb	0.001249581
101	0x3beb49a0	0.0071804076
102	0x39761bdb	0.00023470765
103	0xbe18b7b1	-0.14913823
104	0xbd1359ce	-0.035974316
105	0xbd9fdd10	-0.07805836
106	0xbe4c0425	-0.19923456
107	0xbaab54ab	-0.0013071498
108	0xbcbce51f	-0.023058472
109	0xbcdab63e	-0.026698228
110	0xbc49f49d	-0.012326387
111	0xbc171680	-0.009221673
112	0xbb7589fc	-0.0037466278
113	0xbb6abcf2	-0.0035818187
114	0xbb871097	-0.0041218507
115	0xbd01cef2	-0.0316915
116	0xbb9e86f7	-0.0048378664
117	0xba6ceeab	-0.000903825
118	0x3abf7b12	0.0014608821
119	0x393f8719	0.00018265507
120	0xb88e8871	-6.796502e-05
121	0x3c53f7d2	0.012937503
122	0xbe207f73	-0.15673618
123	0xbca08933	-0.019596672
124	0x00000000	0.0
125	0xbdce53be	-0.10074566
126	0xbdd86680	-0.10566425
127	0xbd653b8e	-0.055965

weight f4 [128, 128]
0	0x3d8456da	0.06461878
1	0x3df5c76b	0.120009266
2	0x3daf86ae	0.0857061
3	0xbd74c1de	-0.0597552
4	0x3d238d22	0.039929517
5	0x3a8f6657	0.0010940534
6	0x3db9bd28	0.09069282
7	0xbe308e52	-0.17241791
8	0x3e12d780	0.14340019
9	0xbdc232b6	-0.094823286
10	0x3dfe781f	0.12425255
11	0x3de31b1c	0.11089155
12	0x3dab5436	0.08365671
13	0xbe1e63f0	-0.1546781
14	0xbe14b0bd	-0.14520545
15	0x3d8b04a0	0.067879915
16	0x3d3805ab	0.04492728
17	0xbd6b8601	-0.057500843
18	0xbe280a14	-0.16410094
19	0x3c68ee4b	0.01421697
20	0xbdb88ccb	-0.09011229
21	0x3dabd33a	0.08389898
22	0xbde5bcf8	-0.112176836
23	0xbdd55b62	-0.104178205
24	0xbdbbf601	-0.09177781
25	0xbd0762e4	-0.033053294
26	0x3c3fddf3	0.011710632
27	0x3da82589	0.08210284
28	0xbc86a2ed	-0.016435111
29	0xbc34f723	-0.01104525
30	0xbdde9c9d	-0.10869715
31	0x3e133cd1	0.14378668
32	0xbe00f7f6	-0.1259459
33	0x3bbd3924	0.005774634
34	0xbd3f399d	-0.046685804
35	0xbe00ea3f	-0.12589358
36	0x3e18bc47	0.14915572
37	0xbd0577ee	-0.032585077
38	0x3de45e56	0.11150806
39	0x3e0854ab	0.13313548
40	0x3dd55107	0.10415845
41	0x3ba18e49	0.004930292
42	0x3de80ddc	0.113307685
43	0x3d103dca	0.035215177
44	0xbdedb540	-0.11606836
45	0x3d87274b	0.065992914
46	0x3e1b7611	0.15181758
47	0x3df73afc	0.12071797
48	0x3dddba61	0.108265646
49	0xbd89f2ee	-0.06735788
50	0x3e08f414	0.13374358
51	0xbe18634d	-0.1488163
52	0xbcc9d3f2	-0.024637196
53	0xbd904b5f	-0.07045626
54	0x3da9879d	0.08277819
55	0xbd7e5712	-0.062094755
56	0xbe146a98	-0.14493787
57	0xbd6a91c3	-0.057267915
58	0x3db1978f	0.08671486
59	0xbd09d9ab	-0.03365485
60	0x3e027d15	0.12743028
61	0xbd8f77b9	-0.07005257
62	0x3dac472b	0.08412012
63	0xbdeae45c	-0.11469337
64	0xbdf0166c	-0.11723027
65	0xbd69c87e	-0.05707597
66	0xbe0d0744	-0.13772303
67	0x3cf90247	0.030396594
68	0x3db2982b	0.0872043
69	0x3e119c1f	0.14219712
70	0xbdaa6500	-0.083200455
71	0xbd40463c	-0.04694198
72	0x3c910638	0.01770316
73	0xbd918dfc	-0.071071595
74	0x3d086a35	0.033304412
75	0x3e3655e0	0.17806196
76	0x3dadfef1	0.08495892
77	0xbdf8d7fc	-0.12150571
78	0xbdea7dcd	-0.11449776
79	0xbb5c2850	-0.0033593364
80	0xbdd8f78f	-0.10594093
81	0x3dec418c	0.115359396
82	0xbd62f96b	-0.055413645
83	0x3e13e82a	0.14444032
84	0x3d97c4fd	0.074106194
85	0xbe3c87f0	-0.18411231
86	0xbe0611bd	-0.13092704
87	0xbd67bd81	-0.05657721
88	0xbdbe13c1	-0.092811115
89	0xbd26a4af	-0.0406844
90	0x3e012b5c	0.12614197
91	0xbd9794fb	-0.07401463
92	0x3ca4d9e9	0.020123439
93	0x3e18faa3	0.1493936
94	0xbd533e72	-0.051573224
95	0x3e04df75	0.12975867
96	0x3e06b3e4	0.1315456
97	0xbd85146c	-0.06498036
98	0x3cfa490c	0.03055241
99	0x3dc6c3b3	0.097052954
100	0xbd15432a	-0.036441006
101	0x3c072d15	0.0082504945
102	0x3d86b243	0.065769695
103	0xbe670136	-0.22559056
104	0xbda05163	-0.07828023
105	0x3deaedea	0.1147116
106	0xbe6e9851	-0.23300292
107	0x3d868f9d	0.06570361
108	0xbe3d9a1f	-0.18515824
109	0x3d6bad3d	0.05753826
110	0xbe37d391	-0.179518
111	0x3d3def6a	0.0463709
112	0xbe1a3b22	-0.1506162
113	0x3dcdac1d	0.10042594
114	0xbd9608d6	-0.07325904
115	0xbcab2a24	-0.020894118
116	0xbd9efb85	-0.07762817
117	0x3d36b40a	0.044605292
118	0xbe10d384	-0.14143187
119	0xbd45237d	-0.048129547
120	0x3d4700a4	0.048584595
121	0xbdaeb174	-0.0852994
122	0xbe567c77	-0.20945917
123	0x3caefe1c	0.021361403
124	0xbdcb3a9c	-0.09923288
125	0xbd96d491	-0.073647626
126	0xbac17d24	-0.0014762026
127	0x3dd83e53	0.105587624
128	0x3d8eed88	0.06978899
129	0x3e0938e0	0.13400602
130	0x3e04d1f7	0.1297072
131	0x3e13aabc	0.14420599
132	0xbcd67c98	-0.026182458
133	0xbca84927	-0.020542694
134	0xbdd0629d	-0.10175059
135	0x3de5b3a5	0.11215905
136	0xbe168e3a	-0.14702693
137	0xbc822888	-0.015888467
138	0x3dd22bbd	0.10262249
139	0x3da7bec9	0.08190686
140	0xbba52ac0	-0.0050404966
141	0x3e2fd337	0.17170416
142	0xbd593f01	-0.0530386
143	0xbcf968fe	-0.030445572
144	0x3dede4fd	0.11615942
145	0xbcbdd55f	-0.023173032
146	0xbcef10f0	-0.029182881
147	0x3db0bad3	0.08629384
148	0x3db42580	0.08796215
149	0xbdae8e35	-0.085232176
150	0xbd3d4d69	-0.046216402
151	0xbd92c3db	-0.07166263
152	0x3d06e451	0.032932583
153	0x3d72cfbd	0.059280146
154	0x3e233dee	0.15941593
155	0x3e03ffa6	0.12890491
156	0x3c8fd970	0.017559737
157	0x3d57950f	0.052632388
158	0x3d8c01b0	0.06836259
159	0x3e12fb66	0.14353713
160	0xbd8d3e08	-0.06896597
161	0xbd9f2931	-0.077715285
162	0xbdf3d501	-0.11905862
163	0x3e02a16b	0.12756889
164	0xbcef80fa	-0.029236306
165	0xbdf5e475	-0.12006465
166	0x3de61cae	0.11235939
167	0x3ddfb340	0.10922861
168	0x3e4f7c12	0.20262173
169	0x3da1724a	0.07883127
170	0xbce05651	-0.027384909
171	0xbd127796	-0.035758577
172	0xbd5a7337	-0.053332534
173	0x3da91565	0.08256034
174	0xbe0d4661	-0.13796379
175	0xbd5f19cf	-0.054467972
176	0xbdc3f243	-0.09567692
177	0x3e606cda	0.21916524
178	0xbe03c3a7	-0.12867604
179	0x3d0a4971	0.033761445
180	0x3e406421	0.18788196
181	0x3e4832d2	0.19550636
182	0xbdc2f04c	-0.09518489
183	0x3da9abae	0.082846984
184	0xbe05b805	-0.13058479
185	0xbc4b404b	-0.012405465
186	0x3d568967	0.05237713
187	0xba0aa8c8	-0.00052894326
188	0xbd218b1a	-0.0394393
189	0x3d3515bf	0.04421019
190	0x3c6ad73e	0.014333544
191	0xbcf8c25c	-0.030366115
192	0xbdc6ed4a	-0.09713228
193	0xbd4307cc	-0.047614858
194	0xbd27a471	-0.040928308
195	0x3e4eab9c	0.20182651
196	0xbdbb75c1	-0.09153319
197	0x3dba89e7	0.09108334
198	0xbe1032c8	-0.14081872
199	0x3e086812	0.1332095
200	0xbcdca921	-0.026936116
201	0x3e1b47c2	0.15164092
202	0xbca31e68	-0.01991196
203	0xbcc4f3ac	-0.024041973
204	0x3d8f3b6b	0.06993755
205	0xbb3f8b68	-0.002922738
206	0xbdbdb7a1	-0.0926354
207	0x3e1f4705	0.15554436
208	0x3a7bcba0	0.00096052326
209	0xbe21c194	-0.157965
210	0x3df5f70d	0.12010012
211	0x3dbb6d5c	0.09151718
212	0xbd3ecf40	-0.046584368
213	0x3d91a6b1	0.07111872
214	0xbca41329	-0.020028668
215	0xb9eb702f	-0.00044906276
216	0x3d067cda	0.03283391
217	0x3cccd472	0.025003646
218	0x3daba9e3	0.08382013
219	0x3dbe5581	0.09293652
220	0xbdb96395	-0.09052197
221	0x3c50ddac	0.012748163
222	0x3d8b3ba2	0.067984834
223	0x3d977339	0.07395024
224	0x3e1e30b5	0.15448268
225	0xbe18b1c1	-0.14911558
226	0x3e2dd105	0.16974266
227	0xbe0867d7	-0.13320862
228	0xbca882fc	-0.02057027
229	0xbd3037d1	-0.04302198
230	0xbe0ca577	-0.13734995
231	0x3de43d44	0.11144498
232	0x3d947ec4	0.07250741
233	0x3d2a4a7e	0.041574948
234	0x3e95e15b	0.29273495
235	0xbcb7016e	-0.022339549
236	0xbb2c7860	-0.0026316866
237	0x3d886a4e	0.06660901
238	0xbd6c3109	-0.05766395
239	0xbdede3e4	-0.11615732
240	0xbddfbe27	-0.109249406
241	0x3e0d58aa	0.13803354
242	0xbe17a3ab	-0.14808528
243	0xbd169d96	-0.03677138
244	0x3dda0548	0.106455386
245	0xbda335a7	-0.07969218
246	0xbdb3f7b0	-0.08787477
247	0xbde4e32e	-0.111761436
248	0xbdb75cbc	-0.089532346
249	0x3da20e88	0.07912928
250	0x3e988198	0.29786372
251	0xbd8035aa	-0.062602356
252	0x3e04d5a2	0.1297212
253	0x3e051676	0.1299685
254	0x3e8d7d7f	0.27634808
255	0x3e57aeb5	0.21062739
