MAMRL-TE/Dynamic environments/Baselines/Random/Geant/task0/savemodels/policy6.pth (torch, 275219 bytes, 12 tensors)

weight f4 [128, 7]
0	0xbe4d96bb	-0.2007703
1	0xbdf017ed	-0.117233135
2	0xbce98dc4	-0.028509982
3	0xbe200280	-0.15625954
4	0xbcaa7561	-0.020807924
5	0x3ca116af	0.019664137
6	0x3e06eb28	0.13175642
7	0xbe55dc5d	-0.20884843
8	0x3bdb0ec7	0.006685111
9	0x3d51a743	0.051184904
10	0x3cca63d7	0.02470581
11	0x3cfb3c2c	0.03066834
12	0xbd2371d9	-0.039903495
13	0xbdef09a9	-0.116717644
14	0x3e3ecc65	0.18632658
15	0xbbb33942	-0.005469472
16	0xbe09f59e	-0.13472602
17	0xbe175775	-0.14779456
18	0xbe501224	-0.2031942
19	0xbd1dc396	-0.038516603
20	0x3d2e24d4	0.04251559
21	0xbe4a20dc	-0.19739097
22	0xbe09c818	-0.13455236
23	0x3e395667	0.18099366
24	0x3dda71c8	0.10666233
25	0x3dbea812	0.093094006
26	0xbe2423dd	-0.16029306
27	0xbe37e58c	-0.17958659
28	0x3e4bb72f	0.19894098
29	0x3e2bcc1f	0.16777085
30	0xbd937e28	-0.07201797
31	0xbd949843	-0.07255604
32	0x3db0b44c	0.08628139
33	0xbac4e1c7	-0.00150209
34	0xbe0bb117	-0.13641773
35	0xbe40d698	-0.18831861
36	0xbe1706ee	-0.14748737
37	0xbe50a8a4	-0.20376831
38	0xbe03f0c5	-0.12884815
39	0xbe4385e4	-0.19094044
40	0x3d565779	0.052329514
41	0x3e323d59	0.17406215
42	0x3d5233b6	0.051318847
43	0x3e4ef5ec	0.20210999
44	0xbe1f90ed	-0.15582629
45	0x3b016fda	0.0019750507
46	0x3de5a752	0.112135544
47	0xbde777fd	-0.11302183
48	0x3e1a43de	0.15064952
49	0xbe014d76	-0.12627205
50	0xbdb11846	-0.08647208
51	0xbde5a5db	-0.11213275
52	0xbc35ab57	-0.011088214
53	0x3df31850	0.118698716
54	0x3dcc5066	0.09976272
55	0x3deeed66	0.11666374
56	0x3beb9f2e	0.0071906066
57	0x3cf451e7	0.02982421
58	0xbd828e01	-0.06374741
59	0x3da2d095	0.0794994
60	0xbd4046b4	-0.046942428
61	0xbdf41ae1	-0.11919189
62	0x3e508b86	0.20365724
63	0xbe06b5d6	-0.13155302
64	0x3e2ab9c8	0.16672432
65	0x3b165197	0.0022936815
66	0xbdbfb1af	-0.09360062
67	0xbd8ddb48	-0.0692659
68	0x3d309160	0.04310739
69	0x3e4c3da2	0.19945386
70	0x3e4c2ffd	0.19940181
71	0xbe450c1b	-0.19242899
72	0xbdfefe13	-0.124508046
73	0xbd860914	-0.065447
74	0xbe556dfd	-0.20842738
75	0x3d526fd2	0.05137617
76	0xbdae57cd	-0.085128404
77	0xbd7c0c5a	-0.061535217
78	0xbccbcb27	-0.024877144
79	0xbd9c24e7	-0.07624226
80	0xbdabf394	-0.08396068
81	0xbc8ceb36	-0.017202001
82	0xbdd67042	-0.1047063
83	0x3d260317	0.04053029
84	0x3d0458fc	0.032311425
85	0x3daf06a1	0.08546186
86	0xbd915cef	-0.07097804
87	0x3d9f4aba	0.07777925
88	0xbe1ae6ab	-0.15127055
89	0x3e28fd55	0.16502889
90	0x3dfa3c39	0.12218518
91	0xbd9e8cd3	-0.07741704
92	0x3e115855	0.14193852
93	0xbdf67ed7	-0.120359115
94	0x3c89cf79	0.016822563
95	0xbc413532	-0.011792468
96	0xbe1a1ebe	-0.1505079
97	0x3e189187	0.14899264
98	0xbe1860d8	-0.14880693
99	0xbdbd5675	-0.09245006
100	0xbddf8e6d	-0.109158374
101	0xbde25dd5	-0.11053053
102	0x3dbd0b3f	0.09230661
103	0xbdfa47a6	-0.12220697
104	0xbe1a15a4	-0.15047318
105	0x3da3c46a	0.079964474
106	0x3e53e524	0.20692879
107	0x3ce2a2b6	0.027665477
108	0xbd346910	-0.044045508
109	0xbdea0416	-0.114265606
110	0xbe208b0e	-0.15678045
111	0x3d444a14	0.04792221
112	0xbd47b9bc	-0.048761114
113	0xbe00e4d4	-0.12587291
114	0x3dad254a	0.08454378
115	0xbe3bf3fc	-0.18354791
116	0x3e413698	0.18868482
117	0x3b26ffe3	0.002548211
118	0xbd96b4ca	-0.073587015
119	0x3e392f24	0.18084389
120	0x3e183cf4	0.14867002
121	0x3dde6614	0.108593136
122	0x3cb49e6b	0.022048196
123	0x3e18db5f	0.14927433
124	0xbe1e941d	-0.15486188
125	0x3deb5d18	0.114923656
126	0xbd17b31e	-0.037036054
127	0xbe07ed36	-0.13274083
128	0x3c91c8c8	0.017795935
129	0xbe07ad09	-0.13249601
130	0xbd7bf29b	-0.061510663
131	0xbe410a13	-0.188515
132	0xbdccd903	-0.10002329
133	0xbb485d35	-0.0030573134
134	0x3d2b2d58	0.04179129
135	0x3d55a528	0.05215946
136	0x3e523485	0.20527847
137	0xbd66c63e	-0.056341402
138	0xbd37979d	-0.044822324
139	0x3dc036a9	0.093854256
140	0xbd9266ab	-0.071484886
141	0xbd4d74b6	-0.050160132
142	0xbe1c6cb0	-0.15275836
143	0x3e3ebcb2	0.18626669
144	0xbd0edf58	-0.034880966
145	0x3d7e6827	0.062111046
146	0xbddedce1	-0.10881973
147	0x3d6350a9	0.055496845
148	0xbe28714f	-0.16449474
149	0x3e0ce79e	0.1376023
150	0x3e32ec5e	0.1747298
151	0xbdce116c	-0.10061917
152	0xbe1c82b5	-0.15284236
153	0xbe564fec	-0.20928925
154	0xbdd3f586	-0.10349564
155	0xbe1d8251	-0.15381743
156	0xbdc8e021	-0.09808374
157	0x3d9c0e9c	0.07619974
158	0x3de54f1a	0.11196728
159	0x3e217b22	0.15769628
160	0xbe07a132	-0.13245085
161	0x3d853624	0.06504467
162	0xbe3763ec	-0.17909211
163	0xbe406c16	-0.18791232
164	0x3c853f6c	0.016265593
165	0xbd057bfa	-0.032588936
166	0x3e2ad147	0.16681395
167	0xbda061f0	-0.0783118
168	0x3e288011	0.16455103
169	0x3e4745ce	0.19460222
170	0xbe2937ee	-0.16525242
171	0xbdbe618d	-0.0929595
172	0xbe31660c	-0.17324084
173	0xbd94be36	-0.07262842
174	0xbe55008a	-0.20800987
175	0xbd49e58e	-0.049291186
176	0x3e51afb4	0.20477182
177	0xbcf41ece	-0.029799845
178	0x3dd9faba	0.106435254
179	0x3bdf87e7	0.0068216207
180	0x3e3abee0	0.18236876
181	0x3df94a96	0.12172429
182	0xbe2f7e8c	-0.17138118
183	0xbdbe1f28	-0.09283286
184	0x398cda66	0.000268656
185	0xbc4c4f05	-0.012470012
186	0xbd609a89	-0.054834876
187	0xbe50221d	-0.20325513
188	0x3e170813	0.14749174
189	0xbcd113d7	-0.025522156
190	0x3e3224b4	0.17396814
191	0xbe1381c5	-0.14404972
192	0x3e056cbd	0.13029762
193	0xbe0c49ef	-0.13700078
194	0xbe44585f	-0.19174336
195	0xbe4afdff	-0.19823454
196	0x3e3c770d	0.1840479
197	0xbe085be1	-0.13316299
198	0xbe2e850c	-0.17042941
199	0x3e272786	0.1632367
200	0xbe41b9c7	-0.18918525
201	0x3e04abe6	0.12956199
202	0xbdc0e1fe	-0.094181046
203	0xbe42814e	-0.18994638
204	0x3e07291d	0.13199277
205	0xbdaffa86	-0.085927054
206	0x3daccc54	0.0843741
207	0xbdba9133	-0.09109726
208	0x3e3e656c	0.18593377
209	0xbe08148e	-0.13289091
210	0x3e142e9f	0.1447091
211	0xbdb9a372	-0.09064378
212	0xbe36cafc	-0.1785087
213	0x3db1c8eb	0.086809
214	0xbc8eaa27	-0.01741512
215	0xbe39448b	-0.18092553
216	0x3e475c3b	0.19468777
217	0x3dad4a9d	0.08461497
218	0x3db88db7	0.09011405
219	0xbcdff0b6	-0.02733646
220	0x3e2ed399	0.17072906
221	0xbd68272a	-0.056677975
222	0x3d9437de	0.07237218
223	0xbe10e9f3	-0.14151745
224	0x3d9d08d1	0.07667697
225	0x3dc75fe0	0.097350836
226	0x3e2f2496	0.171038
227	0x3e3ae07b	0.18249695
228	0x3dd30c98	0.103051364
229	0x3c25cf02	0.010120155
230	0x3e1e4549	0.15456118
231	0xbe10784c	-0.1410839
232	0x3d9a8e3d	0.07546661
233	0x3e1fd154	0.15607196
234	0xbdccdc26	-0.100029275
235	0x3e17cc4d	0.14824028
236	0x3e5313fc	0.20613092
237	0xbe08a984	-0.13345915
238	0xbe3b9766	-0.18319473
239	0xbc982320	-0.018571436
240	0x3d3fa81c	0.04679118
241	0xbd86444a	-0.06555994
242	0x3e17d6a4	0.14827973
243	0x3d88b847	0.06675773
244	0x3d2d1bc5	0.04226281
245	0xbd894936	-0.06703417
246	0x3e4ed8e7	0.20199929
247	0xbe2c4d00	-0.16826248
248	0xbdeb50c7	-0.114900164
249	0x3dfd2718	0.12360972
250	0x3cc7e795	0.02440242
251	0x3d891af9	0.06694598
252	0xbd75a1e5	-0.059968848
253	0xbdc31aad	-0.095265724
254	0xbdb6c81d	-0.08924887
255	0x3e427335	0.1898926

bias f4 [128]
0	0x00000000	0.0
1	0x38c7eb85	9.5329284e-05
2	0x392bc89a	0.0001638256
3	0xb4e42116	-4.2492383e-07
4	0xb8490c31	-4.793349e-05
5	0x00000000	0.0
6	0xb98783b6	-0.0002584734
7	0x3759e997	1.2988595e-05
8	0xb7c0eb2c	-2.2997694e-05
9	0x39afc63c	0.00033526297
10	0x35f30a10	1.8107839e-06
11	0x00000000	0.0
12	0x3825e82d	3.9555296e-05
13	0xb9283c84	-0.00016044272
14	0x00000000	0.0
15	0xb8f67b6d	-0.00011753184
16	0x00000000	0.0
17	0x39eaea56	0.00044806552
18	0x00000000	0.0
19	0x38b7411e	8.738249e-05
20	0x37f18bcd	2.8794539e-05
21	0xb737bd1f	-1.0951683e-05
22	0x00000000	0.0
23	0xb5098871	-5.1235025e-07
24	0xb98a1b88	-0.00026341924
25	0xb96a824d	-0.0002236452
26	0x00000000	0.0
27	0xb9b2a697	-0.00034074925
28	0x379b09c6	1.8481991e-05
29	0xb7ea4642	-2.792769e-05
30	0xb8d8ec0c	-0.0001034365
31	0xb84a9731	-4.830136e-05
32	0xb9a2dbc3	-0.00031062783
33	0xb9bd6183	-0.0003612154
34	0xb910e5af	-0.00013818474
35	0xb903384d	-0.00012514107
36	0x364642c3	2.954316e-06
37	0x3537ac3a	6.8423435e-07
38	0x39d94c62	0.00041446375
39	0x397ac460	0.00023915013
40	0xb923d054	-0.000156225
41	0x39331dc2	0.00017081856
42	0xb98e8ca4	-0.00027189136
43	0xba05ce15	-0.0005104256
44	0x3588179d	1.0139662e-06
45	0x36ad4623	5.1639668e-06
46	0x391357b8	0.0001405169
47	0x00000000	0.0
48	0xb8e31814	-0.000108286884
49	0xb89ee70d	-7.577064e-05
50	0x00000000	0.0
51	0x3931e09c	0.00016963709
52	0xb85d6714	-5.2786505e-05
53	0x00000000	0.0
54	0xb9123446	-0.00013943118
55	0xb992115b	-0.0002786022
56	0xb80ab6c3	-3.3071974e-05
57	0x398bcc29	0.00026664257
58	0x3901c670	0.00012376322
59	0xb7323cff	-1.06238285e-05
60	0x3920af3f	0.00015324073
61	0xb8289036	-4.018863e-05
62	0x38facb1c	0.00011958761
63	0xba0eabd0	-0.0005442472
64	0x37ce30b8	2.45798e-05
65	0xb8860f63	-6.392484e-05
66	0x00000000	0.0
67	0xb5568992	-7.9921404e-07
68	0x00000000	0.0
69	0xba266799	-0.0006347835
70	0x39606837	0.00021401128
71	0x39b33479	0.00034180636
72	0xb9f0e4ca	-0.00045946828
73	0xb948c1f0	-0.00019145734
74	0x00000000	0.0
75	0x39c54e60	0.00037633162
76	0x392bb862	0.00016376519
77	0xb4c842ee	-3.73016e-07
78	0x00000000	0.0
79	0x00000000	0.0
80	0xb4f7eb5a	-4.6178576e-07
81	0x37830fdf	1.5623807e-05
82	0xb92b0b0f	-0.0001631195
83	0x00000000	0.0
84	0x3a0a4ff3	0.00052761956
85	0x35bd676d	1.4111698e-06
86	0x392b90c2	0.00016361757
87	0xb9432b9e	-0.00018612898
88	0xb851e346	-5.0041148e-05
89	0xb9cd8c72	-0.00039205287
90	0xb8f4f85b	-0.000116810865
91	0xb9692063	-0.00022232677
92	0x37ed330a	2.8276369e-05
93	0x39a51b13	0.00031491424
94	0xb91f64ed	-0.0001520102
95	0xb84359b0	-4.657515e-05
96	0xb9633cb4	-0.0002167102
97	0xb90d01ca	-0.00013447474
98	0xb81f72d2	-3.801549e-05
99	0x37a2a982	1.9390838e-05
100	0xb8a68176	-7.939611e-05
101	0x00000000	0.0
102	0x39b849db	0.00035150241
103	0xba81cdb5	-0.0009903224
104	0x389c3b6b	7.449727e-05
105	0x3962c26b	0.00021625466
106	0xb9e26d64	-0.00043187581
107	0xb5e4e38e	-1.7053551e-06
108	0x00000000	0.0
109	0x392068ad	0.00015297784
110	0xb8247233	-3.9207003e-05
111	0xb921c234	-0.00015426503
112	0xb99f75cb	-0.00030414606
113	0xb8a2f54b	-7.770451e-05
114	0xb87d37c1	-6.0371825e-05
115	0x00000000	0.0
116	0xb9372210	-0.00017464929
117	0xb945991c	-0.00018844422
118	0xb93e3cfe	-0.00018142533
119	0xb64f3d8e	-3.0881233e-06
120	0xb9adb041	-0.0003312845
121	0x38102817	3.4369612e-05
122	0x3782ada5	1.5578067e-05
123	0xb8c42eec	-9.354748e-05
124	0xba0ae4be	-0.00052983675
125	0xb92bc0e5	-0.0001637969
126	0x37ee01e7	2.8372697e-05
127	0xb790253f	-1.7183482e-05

weight f4 [128, 128]
0	0x3d8f48cb	0.06996306
1	0x3e0348a1	0.12820674
2	0x3d1c9ddd	0.038236488
3	0xbd33b527	-0.043873932
4	0xbde79b67	-0.113089375
5	0x3da1fb2d	0.07909236
6	0x3dd45117	0.10367029
7	0xbda957a7	-0.082686715
8	0x3d4e1176	0.05030962
9	0x3d944952	0.07240547
10	0xbd98671f	-0.07441544
11	0x3d1803c1	0.037112955
12	0x3d45cc5a	0.048290588
13	0xbe0f5290	-0.13996339
14	0xbde6ae01	-0.11263657
15	0xbd80883e	-0.06275986
16	0xbdaff947	-0.08592468
17	0x3cc3a0e5	0.023880431
18	0xbcfdff78	-0.031005606
19	0xbddd4515	-0.10804192
20	0x3e067f0b	0.131344
21	0xbd033b1e	-0.0320388
22	0x3e073eab	0.132075
23	0x3d7f0758	0.062262863
24	0xbc913658	-0.017726108
25	0x3d935d54	0.07195535
26	0xbdcc647d	-0.09980104
27	0xbdc0ed97	-0.09420317
28	0xbdcc5a40	-0.09978151
29	0xbdc821c9	-0.09772069
30	0xbd7786f5	-0.06043144
31	0x3c96092d	0.018314922
32	0xbe0feada	-0.14054433
33	0x3c189e79	0.009315127
34	0x3d8219b3	0.06352558
35	0xbd2d15ee	-0.042257242
36	0xbe0bca12	-0.13651302
37	0xbd8a0b6a	-0.06740458
38	0x3dcf1a3c	0.10112426
39	0xbd2e1a7c	-0.042505726
40	0xbdd8e647	-0.10590797
41	0xbe14fae3	-0.1454883
42	0x3c32e168	0.010917999
43	0xbd0783d7	-0.033084717
44	0x3b45761f	0.003013022
45	0xbe194afe	-0.14970013
46	0x3db1718d	0.08664236
47	0xbe1555c3	-0.14583497
48	0x3e1c5ebb	0.15270512
49	0x3c1a80d5	0.00943013
50	0x3dde12ab	0.108434044
51	0x3e0e9961	0.13925697
52	0xbdefcf48	-0.11709458
53	0x3d1b5c37	0.03792974
54	0x3e1177fb	0.14205925
55	0xbdd91ab4	-0.10600796
56	0xbbc53791	-0.006018587
57	0xbc5d47d4	-0.013505895
58	0x3a520fab	0.0008013199
59	0x3d80e381	0.06293393
60	0x3cb21f0e	0.021743324
61	0x3b3788c7	0.002800511
62	0xbddf481a	-0.10902424
63	0x3e112d18	0.14177358
64	0x3df54e20	0.11977792
65	0xbc6aef79	-0.014339321
66	0x3c7b3c7c	0.015334245
67	0xbc0cdaf7	-0.008597127
68	0x3d567d33	0.052365493
69	0x3e0630ae	0.13104507
70	0xbcff58cf	-0.031170277
71	0xbdb18c4b	-0.08669337
72	0x3dbbe045	0.091736354
73	0x3ca02a26	0.019551348
74	0xbbdb3fc3	-0.0066909506
75	0xbd9514f2	-0.072793856
76	0x3e198b19	0.14994468
77	0xbde256cf	-0.11051714
78	0x3dc17cf6	0.094476625
79	0xbcec708a	-0.028862257
80	0xbcbdacb2	-0.023153637
81	0x3d795fa0	0.06088221
82	0xbd59cbf4	-0.05317302
83	0xbd5fc2c1	-0.05462909
84	0x3df1cd85	0.11806778
85	0xbc367ec3	-0.011138621
86	0xbbd4b71b	-0.0064915544
87	0xbd386204	-0.04501535
88	0x3da121fe	0.078678116
89	0x3e170747	0.1474887
90	0x3e12586f	0.14291547
91	0xbd4bb96b	-0.049737375
92	0x3d3d8f9b	0.04627953
93	0x3d814c87	0.063134246
94	0xbe0b9176	-0.13629708
95	0xbd7912fc	-0.06080912
96	0x3e12fb08	0.14353573
97	0x3df89048	0.121368945
98	0x3dd6dac9	0.10490949
99	0x3e063cf7	0.13109194
100	0xbdaab828	-0.08335906
101	0xbdc20146	-0.09472899
102	0x3d2e2dc3	0.04252411
103	0xbe0293bb	-0.12751667
104	0xbe1ab59a	-0.15108338
105	0x3e0cf5fa	0.13765708
106	0xbd0f342c	-0.034961864
107	0xbdcc3cf3	-0.09972563
108	0x3b797591	0.003806446
109	0xbe0a6d26	-0.135182
110	0xbd911f51	-0.07086051
111	0x3c1203a4	0.008912001
112	0xbe016320	-0.1263547
113	0x3d1e6fd2	0.03868086
114	0x3d9d4084	0.07678321
115	0x3d14b52b	0.036305588
116	0x3dc23287	0.094822936
117	0x3d3024ed	0.043003965
118	0xbd955d11	-0.07293142
119	0x3e15638d	0.14588757
120	0xbd578ea3	-0.052626263
121	0x3dd8de2a	0.105892494
122	0x3d766ecf	0.06016427
123	0x3d38d962	0.045129187
124	0xbc4f206b	-0.012642006
125	0x3e0eb0bd	0.13934608
126	0x3df6b720	0.12046647
127	0xbdc3ae00	-0.09554672
128	0xbde51c0a	-0.11186989
129	0xbda56d7f	-0.08077525
130	0x3d0f308f	0.03495842
131	0xbdd7b92d	-0.10533366
132	0x3cfcbff5	0.030853251
133	0x3d66926e	0.05629199
134	0xbc5424b1	-0.012948201
135	0x3dc7922d	0.09744678
136	0xbe11f542	-0.14253715
137	0xbd964db4	-0.073390394
138	0x3c1b1ffb	0.009468074
139	0x3e0c77d6	0.13717589
140	0xbdf417a0	-0.119185686
141	0x3d8f8712	0.070081845
142	0x3bd03449	0.006353889
143	0xbe061646	-0.13094434
144	0xbd56978d	-0.052390624
145	0xbc22b83e	-0.009931622
146	0xbdc32796	-0.09529035
147	0xbdce2cbd	-0.10067127
148	0xbd7de765	-0.061988253
149	0x3ddb6b79	0.10713858
150	0x3dd140f7	0.10217469
151	0x3e18224a	0.1485683
152	0xbe063895	-0.13107522
153	0x3c83e65a	0.016101051
154	0xbbf4ca86	-0.0074704317
155	0x3c4d33e2	0.012524577
156	0xbcf4af90	-0.029868871
157	0xbd9fe7c1	-0.078078754
158	0x3be5e810	0.0070161894
159	0x3cc38836	0.023868661
160	0xbe08fce3	-0.13377719
161	0xbc8016ef	-0.015635936
162	0x3dddc84e	0.10829221
163	0x3dce7dd2	0.10082592
164	0xbd4b97b1	-0.04970521
165	0xbb6fe23e	-0.0036603357
166	0x3da1ef21	0.07906938
167	0xbc8f2a7e	-0.017476317
168	0xbda08058	-0.0783698
169	0xbc5a28b0	-0.013315365
170	0x3d961d0c	0.07329759
171	0xbc17d90e	-0.009268058
172	0x3e1a2802	0.15054324
173	0x3dcd52b1	0.10025538
174	0xbdcc5b0e	-0.09978305
175	0x3d8ab209	0.06772239
176	0xbd95e413	-0.07318892
177	0xbda0010a	-0.07812698
178	0x3d14835b	0.036258083
179	0x3b9b23b9	0.004734483
180	0x3de3a017	0.11114519
181	0xbda86982	-0.08223249
182	0xbdb3bbb5	-0.08776037
183	0x3dec69b4	0.11543599
184	0xbd131433	-0.035907935
185	0x3d059dac	0.03262107
186	0x3d8d6970	0.06904876
187	0xbd0a30d0	-0.033737957
188	0xbe131d1f	-0.14366578
189	0x3deee731	0.1166519
190	0x3e142ae5	0.14469488
191	0x3d95aa75	0.07307903
192	0xbd91b071	-0.07113732
193	0xbda4bb47	-0.08043533
194	0x3e0a55fa	0.1350936
195	0x3da25657	0.07926624
196	0xbc070cca	-0.008242795
197	0x3d2086f7	0.039191213
198	0x3dbea03d	0.09307907
199	0x3cb87b67	0.02251978
200	0x3c8534d5	0.016260544
201	0x3dc6ce07	0.09707265
202	0xbe070e01	-0.13188936
203	0xbd7cb541	-0.061696295
204	0xbe1c3044	-0.15252787
205	0x3d112652	0.035436936
206	0xbde3fe2f	-0.11132466
207	0xbdd0b685	-0.10191063
208	0xbd86bac5	-0.06578592
209	0x3db2f643	0.08738377
210	0x3cf2c4c6	0.029634845
211	0x3c4b536e	0.012410028
212	0x3d3df7e9	0.046379004
213	0xbd81122a	-0.06302293
214	0x3d3b2a34	0.045694545
215	0xbadfaaa9	-0.001706441
216	0xbda14f17	-0.07876413
217	0x3dbd8027	0.09252959
218	0xbd2fa41a	-0.04288111
219	0x3ceaaa70	0.028645724
220	0xbd5d50d1	-0.05403215
221	0xbdbadb46	-0.09123854
222	0x3e0c0292	0.13672855
223	0x3d492bc2	0.049113996
224	0xbcb75d96	-0.022383492
225	0x3d20c6c7	0.03925207
226	0xbe0e2a2e	-0.13883278
227	0xbda98cfa	-0.08278842
228	0xbdb48d6e	-0.08816038
229	0x3b97f806	0.004637721
230	0xbcf3f62a	-0.029780466
231	0xbdde3788	-0.108504355
232	0xbdbdaf28	-0.09261924
233	0xbda01e19	-0.07818241
234	0xbded104f	-0.11575376
235	0xbe129c03	-0.14317326
236	0x3d69e893	0.057106566
237	0xbdec6253	-0.11542191
238	0x3dc43f0c	0.09582338
239	0x3d1a3dba	0.037656523
240	0x3db71783	0.089400314
241	0xbcad9746	-0.021190297
242	0xbe0f4860	-0.13992453
243	0x3e11fbe5	0.14256246
244	0xbd9738b3	-0.073838614
245	0x3e094758	0.13406122
246	0x3e1880e4	0.14892918
247	0x3e0c8d04	0.13725668
248	0x3ccb3304	0.0248046
249	0xbd0cfa58	-0.034418434
250	0x3d9f8768	0.077894986
251	0x3dd25c74	0.1027154
252	0xbe1b0b46	-0.15141019
253	0xbdf6fd82	-0.120600715
254	0xbc1334c7	-0.008984751
255	0x3c8cf7c8	0.017207995

bias f4 [128]
0	0x39102745	0.00013747539
1	0xb7c80844	-2.3845707e-05
2	0x395e2d46	0.00021188435
3	0xba38b1f2	-0.0007045559
4	0x390905bc	0.00013067474
5	0xb9ce25af	-0.00039319458
6	0xb7dea0fe	-2.653943e-05
7	0xb6eadc00	-6.999355e-06
8	0x39a48be4	0.00031384744
9	0xb851a650	-4.9984374e-05
10	0xb9f647aa	-0.0004697417
11	0x00000000	0.0
12	0x35784493	9.248699e-07
13	0xb79c5c47	-1.863962e-05
14	0x00000000	0.0
15	0x397d7bc2	0.00024174064
16	0xb900c981	-0.00012282097
17	0xba282842	-0.000641469
18	0xb9eb17b1	-0.00044840344
19	0x394b813e	0.00019407735
20	0x00000000	0.0
21	0x00000000	0.0
22	0xb411f702	-1.3594038e-07
23	0xb788d291	-1.6310516e-05
24	0xba071610	-0.0005153129
25	0xba5b2179	-0.0008359175
26	0x00000000	0.0
27	0x37e8fb78	2.7773654e-05
28	0x39b56901	0.00034601244
29	0x37ef77ae	2.854675e-05
30	0xb57dc780	-9.4540155e-07
31	0x00000000	0.0
32	0x37da9d3c	2.6060843e-05
33	0xb8f2c811	-0.000115767245
34	0x36d6074f	6.378548e-06
35	0x00000000	0.0
36	0x3809f84d	3.2894593e-05
37	0xb8ce8d6f	-9.8491895e-05
38	0xb8f2b8e9	-0.000115739014
39	0x00000000	0.0
40	0xb30f9510	-3.3430354e-08
41	0x00000000	0.0
42	0xb913e463	-0.00014104093
43	0xb91abe32	-0.00014757438
44	0x38fda502	0.00012094715
45	0xb775aa03	-1.4642722e-05
46	0x00000000	0.0
47	0x00000000	0.0
48	0xb97c8f9b	-0.0002408609
49	0x38ee5e8b	0.000113663344
50	0xb99e0d66	-0.0003014609
51	0xb9a3512d	-0.00031150263
52	0xb98b554a	-0.0002657569
53	0x00000000	0.0
54	0xb937d4c2	-0.00017531498
55	0x00000000	0.0
56	0x39a794c0	0.0003196355
57	0x38e30045	0.00010824254
58	0xb73d4fac	-1.1283828e-05
59	0x3862221c	5.3914366e-05
60	0x00000000	0.0
61	0xb97c6f67	-0.00024074093
62	0xb6a62d6b	-4.952473e-06
63	0x00000000	0.0
64	0x3918af5a	0.00014561173
65	0x00000000	0.0
66	0xb82c1e3c	-4.1036154e-05
67	0xba1467a5	-0.0005661196
68	0x3927a820	0.00015988993
69	0xb989cc4a	-0.00026282883
70	0xb6014613	-1.9263287e-06
71	0x39eb87fe	0.00044924015
72	0xb8d6f83b	-0.00010250552
73	0x3a1c5ff7	0.00059652276
74	0x00000000	0.0
75	0xba3594b3	-0.000692676
76	0xb8d7c668	-0.00010288955
77	0x3908bbaa	0.00013039881
78	0xba505215	-0.00079468015
79	0x00000000	0.0
80	0x37f10991	2.8733893e-05
81	0x39512c81	0.00019948372
82	0x386bee43	5.6250265e-05
83	0xba07f312	-0.00051860616
84	0x37d0cae7	2.4890016e-05
85	0x00000000	0.0
86	0xb99cacca	-0.00029883377
87	0x38e4a8f0	0.00010903354
88	0x35dddf76	1.6530819e-06
89	0x00000000	0.0
90	0xb933b390	-0.00017137663
91	0xb47eb569	-2.372159e-07
92	0xba48193e	-0.0007633156
93	0x00000000	0.0
94	0x395e6a07	0.00021211068
95	0x00000000	0.0
96	0xb8c4bd1a	-9.381231e-05
97	0x38fac047	0.000119567434
98	0xb8446fb4	-4.6834073e-05
99	0x38c46e9d	9.3666116e-05
100	0xb81afa09	-3.6949325e-05
101	0xba38f765	-0.00070559076
102	0x389ecc0e	7.572035e-05
103	0x382e2953	4.152332e-05
104	0x39ecf77f	0.00045197827
105	0x00000000	0.0
106	0x00000000	0.0
107	0xb9d67d29	-0.00040910512
108	0xb86cf594	-5.6495497e-05
109	0xb4cfbbbd	-3.8693352e-07
110	0x3668dd89	3.4699644e-06
111	0x00000000	0.0
112	0xb90b3f52	-0.00013279662
113	0xb9132e38	-0.0001403623
114	0xb4e12760	-4.1938165e-07
115	0xb6c4e884	-5.8683236e-06
116	0xb828a9fa	-4.0212624e-05
117	0xb9e8dc56	-0.0004441465
118	0xba065a18	-0.00051251194
119	0xb9238c62	-0.00015597188
120	0xb6436d29	-2.9120804e-06
121	0x00000000	0.0
122	0x3961dff6	0.00021541104
123	0x00000000	0.0
124	0x38aebd61	8.332241e-05
125	0x38235556	3.8941704e-05
126	0x3882c185	6.234929e-05
127	0xba019e9f	-0.0004944596

weight f4 [128, 128]
0	0xbdb4532d	-0.08804927
1	0x3b375d16	0.0027979068
2	0xbdf1f107	-0.118135504
3	0x3e0153b9	0.12629594
4	0xbe098aa4	-0.13431793
5	0x3dfc1187	0.123080306
6	0x3ddfdbdd	0.109306075
7	0x3e067623	0.13131003
8	0x3d9ee0c5	0.07757715
9	0x3d4a8f0a	0.04945282
10	0xbdb54487	-0.08850961
11	0x3cf098d8	0.029369757
12	0xbdf7ee90	-0.12106049
13	0xbdd54e65	-0.10415343
14	0xbdb7cd5f	-0.08974718
15	0x3c527395	0.01284494
16	0xbd77fdf9	-0.06054494
17	0x3d815ddb	0.0631673
18	0x3de71db0	0.11284959
19	0x3dd2c699	0.10291786
20	0x3e08cc6c	0.13359231
21	0x3c9bff07	0.019042505
22	0xbbbc187b	-0.005740223
23	0xbd001ab9	-0.031275485
24	0x3da8e7a1	0.08247305
25	0x3dfa6553	0.12226357
26	0x3e015ca2	0.12632993
27	0xbdb6747a	-0.08908935
28	0x3d9c6d5b	0.076380454
29	0xbdff4bd8	-0.12465638
30	0x3d726636	0.059179507
31	0x3d07545c	0.033039436
32	0xbdc66077	-0.09686368
33	0xbe10c3ac	-0.14137143
34	0x3e09d446	0.13459882
35	0xbe1a74fd	-0.1508369
36	0x3e0bc5b3	0.13649635
37	0xbd41d997	-0.04732665
38	0xbdd9ec22	-0.10640742
39	0xbdac6fc0	-0.08419752
40	0xbd098a7a	-0.033579327
41	0x3d58cb73	0.0529284
42	0x3cc6135d	0.024179155
43	0x3d582e36	0.052778445
44	0x3dd07909	0.101793356
45	0xbc46dfa1	-0.012138278
46	0xbc85bb11	-0.016324552
47	0x3e19a75f	0.15005253
48	0x3d9a2e5f	0.07528376
49	0xbe03d641	-0.128747
50	0xbda406df	-0.08009123
51	0x3e18ada4	0.14909989
52	0xbc8f44a9	-0.017488794
53	0xbdf22398	-0.11823195
54	0xbd242203	-0.0400715
55	0x3d4a8450	0.04944259
56	0x3d04690a	0.032326736
57	0x3da198a7	0.07890444
58	0x3d117e15	0.03552063
59	0x3d034b8b	0.032054465
60	0x3d77d7a4	0.060508385
61	0xbdea8018	-0.11450213
62	0x3df01010	0.11721814
63	0xbc020eec	-0.007938128
64	0xbcd3bfe4	-0.025848337
65	0x3cd89af0	0.026441067
66	0x3dee9cd5	0.11651007
67	0x3d988954	0.07448068
68	0x3dcd2997	0.10017698
69	0x3b36a601	0.0027869942
70	0xbdb50084	-0.08837989
71	0xbc0ff1db	-0.00878569
72	0x3dc6f230	0.09714162
73	0xbd58038a	-0.05273775
74	0xbd654503	-0.055974018
75	0x3d82c511	0.06385244
76	0xbdf270ba	-0.11837907
77	0xbdf2f9ce	-0.11864053
78	0x3e062246	0.13099012
79	0xbe176cdf	-0.14787625
80	0x3d2c5570	0.042073667
81	0xbd9bed3b	-0.076136075
82	0x3d9b09c0	0.07570219
83	0x3d1e78c6	0.038689397
84	0x3cf0e90f	0.029408006
85	0x3d5b8eaa	0.053602852
86	0x3d00f181	0.031480316
87	0xbdcac5f8	-0.09901041
88	0x3d92edbb	0.0717425
89	0x3d3af4fc	0.04564379
90	0xbd5095d2	-0.05092413
91	0x3da98f24	0.08279255
92	0x3e095513	0.1341136
93	0xbd5931e3	-0.05302609
94	0xbe0e5bef	-0.13902257
95	0xbc4be505	-0.012444739
96	0xb9a6639e	-0.00031736208
97	0xbc9c607c	-0.019088976
98	0xbdcf468e	-0.10120879
99	0x3a0de4eb	0.00054128346
100	0x3d61069c	0.054937944
101	0x3da751bf	0.08169889
102	0x3dc287c1	0.09498549
103	0x3dcd7c51	0.10033477
104	0xbe0a238f	-0.13490127
105	0xbd62a1a4	-0.055329934
106	0x3ce2d357	0.027688665
107	0xbdf41606	-0.11918263
108	0x3e070c87	0.13188373
109	0x3af33212	0.0018554351
110	0xbd20d3f5	-0.039264638
111	0x3c813a77	0.015774949
112	0x3d342ae2	0.04398621
113	0x3e11b261	0.14228202
114	0xbda3e545	-0.08002714
115	0xbde9cb58	-0.11415738
116	0x3dc367cb	0.09541281
117	0xbd8c2a1d	-0.0684397
118	0xbd8f6be6	-0.07003002
119	0x3e1a8e57	0.15093361
120	0xbdd92728	-0.106031716
121	0x3e06e3d7	0.13172852
122	0xbd8dedb0	-0.06930101
123	0x3c1776d0	0.009244636
124	0xbde42978	-0.11140722
125	0x3d99eb0e	0.07515536
126	0xbcd6cfa5	-0.02622206
127	0x3e092106	0.13391504
128	0xbd031722	-0.032004483
129	0xbdb484a6	-0.08814363
130	0xbd2ef5fe	-0.042715065
131	0x3d8ea9f8	0.06966013
132	0x3e0e5ee0	0.1390338
133	0xbe079822	-0.13241628
134	0xbd98948e	-0.074502096
135	0x3e18f870	0.14938521
136	0x3e1af73b	0.15133373
137	0x3d951007	0.072784476
138	0x3d595529	0.05305973
139	0xbd938243	-0.0720258
140	0x3d42af3c	0.047530398
141	0xbe13e55c	-0.14442962
142	0xbb730df1	-0.0037087167
143	0xbe13ec83	-0.14445691
144	0xbdfe74c1	-0.12424613
145	0xbe12af8d	-0.1432478
146	0x3c580c75	0.013186564
147	0x3dbe11a6	0.0928071
148	0x3d702e06	0.05863764
149	0x3d4b9c35	0.049709518
150	0xbd9c52b2	-0.076329604
151	0x3d8d04fd	0.06885717
152	0x3c9e5f03	0.019332414
153	0x3dc193ea	0.094520405
154	0x3d0f48c9	0.034981523
155	0xbd7c1180	-0.061540127
156	0x3c8492d7	0.0161833
157	0xbcbbbde1	-0.02291769
158	0xbc9c180d	-0.019054437
159	0xbe0622ae	-0.13099167
160	0x3db6cf77	0.089262895
161	0xbda7c7c6	-0.08192401
162	0x3d6e163a	0.058126666
163	0xbcf26da7	-0.029593302
164	0x3c324373	0.010880339
165	0xbdd52dd2	-0.1040913
166	0x3e073d3b	0.13206951
167	0x3c6f1fd0	0.014594987
168	0xbb2ce3ae	-0.0026380825
169	0xbd45854c	-0.048222825
170	0x3e091375	0.13386329
171	0xbda1114d	-0.07864628
172	0x3e0e4a1f	0.13895462
173	0xbd5e361e	-0.05425083
174	0x3dff8fca	0.124785975
175	0xbdcaa781	-0.0989523
176	0xbdc69db5	-0.09698049
177	0xbda50a7d	-0.08058641
178	0x3d8f5562	0.06998707
179	0x3e09107a	0.13385192
180	0xbd9a28d3	-0.07527318
181	0xbdc47453	-0.095924996
182	0xbdec6818	-0.11543292
183	0x3d993297	0.07480352
184	0x3d6bebbb	0.057597857
185	0x3dcd4ca8	0.10024387
186	0x3df440a0	0.11926389
187	0xbbd060bc	-0.006359188
188	0xbda3a6a8	-0.079907715
189	0x3db7b110	0.08969319
190	0xbdf4e13e	-0.11957024
191	0x3e170fc2	0.14752105
192	0xbd04fe29	-0.03246895
193	0xbd85a28f	-0.06525146
194	0xbd5efea4	-0.054442063
195	0x3dedb03f	0.11605882
196	0xbdf0536e	-0.11734663
197	0x3d418fb3	0.047256183
198	0xbe089678	-0.1333865
199	0x3d13854b	0.03601579
200	0xbe0e7638	-0.13912284
201	0xbda74f72	-0.0816945
202	0x3d2181d2	0.039430447
203	0x3dcd6531	0.10029066
204	0x3e164209	0.14673628
205	0x3da284a1	0.07935453
206	0x3e180030	0.14843822
207	0xbd4f4284	-0.050600544
208	0xbda41616	-0.08012025
209	0xbcf2526d	-0.02958032
210	0xbce4fbb3	-0.02795205
211	0xbce8e0bc	-0.028427474
212	0xbc8af165	-0.016960809
213	0xbc8fde2f	-0.017562
214	0x3d12cc8e	0.03583961
215	0xbd877b56	-0.06615321
216	0x3d8897b1	0.06669558
217	0x3dfb0da3	0.122584604
218	0x3d9f37dc	0.07774326
219	0xbdb50754	-0.08839288
220	0xbde9f863	-0.11424329
221	0xbdb5bf86	-0.08874421
222	0x3d6bc1af	0.057557758
223	0xbe0cf151	-0.1376393
224	0xbdf72690	-0.12067902
225	0x3df93e81	0.12170125
226	0xbcd8dd0b	-0.026472589
227	0x3d85de7a	0.06536575
228	0x3db89578	0.09012884
229	0xbe0aeb42	-0.13566306
230	0x3d8cb07a	0.06869598
231	0xbd9abc40	-0.07555437
232	0xbb683641	-0.0035432728
233	0x3cd638ac	0.02615007
234	0xbc973275	-0.018456677
235	0x3de26048	0.110535204
236	0x3c732637	0.014840654
237	0x3c335f26	0.010947978
238	0xbbd48480	-0.006485522
239	0xbe0b054e	-0.13576242
240	0x3d96ad01	0.073572166
241	0xbd6b145b	-0.05739246
242	0x3dbd3c3b	0.09240004
243	0xbdc42e41	-0.09579135
244	0x3dd6e73c	0.10493323
245	0x3d8edd2b	0.06975778
246	0xbcb91b8b	-0.022596141
247	0xbdabf1ae	-0.08395706
248	0xbda527be	-0.08064221
249	0xbdc90bea	-0.098167256
250	0x3cff5387	0.031167759
251	0x3d7e721e	0.06212055
252	0x3d86016f	0.06543242
253	0x3e191431	0.14949109
254	0x3d6bb425	0.057544846
255	0x3df2aa13	0.11848845

bias f4 [128]
0	0xb9e4a811	-0.00043612768
1	0x390dd734	0.00013526977
2	0x37b6bab0	2.1783024e-05
3	0x00000000	0.0
4	0x35b63557	1.3575581e-06
5	0xb8ce86f4	-9.8479824e-05
6	0x390e143a	0.0001354971
7	0x00000000	0.0
8	0x00000000	0.0
9	0xb8fdc292	-0.00012100222
10	0xb89fdd1c	-7.622896e-05
11	0xb9e43fcd	-0.00043535084
12	0x396de032	0.000226856
13	0xb90dd587	-0.00013526353
14	0x39fa1953	0.00047702584
15	0x375ee767	1.3286109e-05
16	0xba19f101	-0.0005872399
17	0x388f13b2	6.82244e-05
18	0x37a4fa14	1.9666775e-05
19	0xb9d2bba5	-0.00040194127
20	0xb88a9896	-6.608774e-05
21	0xba5b5984	-0.0008367526
22	0xb88de822	-6.766642e-05
23	0x00000000	0.0
24	0xb9b832b2	-0.00035132986
25	0xba13ef74	-0.0005643286
26	0xb892e8ff	-7.0052214e-05
27	0x00000000	0.0
28	0x39aef0c1	0.00033367242
29	0x39e6b798	0.00044005807
30	0xb9ad9344	-0.00033106853
31	0x38b93547	8.831411e-05
32	0x00000000	0.0
33	0xba154d14	-0.00056953845
34	0xb93d8c2e	-0.00018076666
35	0x399a97dd	0.00029486316
36	0xb79f67e4	-1.9002655e-05
37	0xb8c57b28	-9.416632e-05
38	0xba08730c	-0.00052051316
39	0xb9959a76	-0.00028534577
40	0x00000000	0.0
41	0xba228f6a	-0.000620118
42	0x00000000	0.0
43	0x3936cd7c	0.00017433421
44	0xb502983d	-4.865031e-07
45	0xb8912e7c	-6.922797e-05
46	0x396364d3	0.00021685967
47	0xb9af2bb2	-0.00033411157
48	0x3a4001ab	0.00073244673
49	0xb99321fc	-0.00028063345
50	0x00000000	0.0
51	0xb9fc1afb	-0.00048085288
52	0xb96515aa	-0.00021847212
53	0xb9e127a1	-0.0004294487
54	0xb8a1152a	-7.68102e-05
55	0xb8ad106b	-8.252341e-05
56	0x3916b281	0.00014371613
57	0x3727a200	9.991694e-06
58	0x3a5512d5	0.00081281114
59	0x00000000	0.0
60	0x00000000	0.0
61	0xb3b85921	-8.58438e-08
62	0x391402d0	0.00014115428
63	0xb9871bcb	-0.00025769914
64	0xb6637ecb	-3.389944e-06
65	0xba5da732	-0.0008455395
66	0xb93a6dd2	-0.00017779254
67	0x00000000	0.0
68	0xb7501588	-1.2402779e-05
69	0x39bc36ea	0.00035899068
70	0xb3c20abc	-9.0357815e-08
71	0x00000000	0.0
72	0xb63b6fdf	-2.793029e-06
73	0xb8498680	-4.8047397e-05
74	0x00000000	0.0
75	0x33903f6d	6.7170596e-08
76	0x390952d4	0.00013096194
77	0x39633001	0.0002166629
78	0xb9794b01	-0.00023774432
79	0xae29d1fc	-3.8612655e-11
80	0xb818a72a	-3.6395308e-05
81	0xba531d63	-0.000805339
82	0xb9ea58fb	-0.00044698254
83	0xb9e11f39	-0.00042938607
84	0xb30a80e0	-3.224784e-08
85	0x00000000	0.0
86	0xba2b77b8	-0.0006540972
87	0x3a1ecc7b	0.00060576916
88	0xb53ecc80	-7.10781e-07
89	0xba39fee3	-0.0007095171
90	0x376375d2	1.35576865e-05
91	0xb900c188	-0.00012279127
92	0x390d6f27	0.00013488215
93	0xb9c937a7	-0.00038379172
94	0xb714ef52	-8.8772085e-06
95	0xb6442793	-2.9229311e-06
96	0x3a06b2bc	0.0005138328
97	0x38c69d92	9.4707255e-05
98	0x00000000	0.0
99	0x00000000	0.0
100	0xb9a0b9a7	-0.000306559
101	0x3a36ca1f	0.00069728674
102	0x00000000	0.0
103	0xb8ea7ff3	-0.00011181822
104	0x00000000	0.0
105	0xb8a8e9f4	-8.0544414e-05
106	0x3905bb05	0.00012753539
107	0x00000000	0.0
108	0x391a4e08	0.00014715653
109	0x39a8eb25	0.00032218653
110	0xba77cce9	-0.0009452836
111	0xba67e2ca	-0.0008845745
112	0xb8f36bae	-0.000116072
113	0x3a12ab9e	0.0005595031
114	0x39a511f9	0.00031484643
115	0xba9b2fd4	-0.0011839815
116	0x00000000	0.0
117	0xb9feb177	-0.00048578877
118	0x3a4145b1	0.00073727506
119	0x398e138c	0.00027098914
120	0xb94a13c8	-0.0001927159
121	0x00000000	0.0
122	0x00000000	0.0
123	0x00000000	0.0
124	0x38ca6aca	9.6520016e-05
125	0xb938042e	-0.00017549164
126	0x39ab3481	0.0003265478
127	0xba88c443	-0.0010434467

weight f4 [128, 128]
0	0xbd9f018b	-0.07763966
1	0xbc9dd377	-0.019265873
2	0x3c4d0097	0.012512348
3	0x3dd410de	0.1035478
4	0x3d8cd394	0.06876293
5	0xbc9c9d19	-0.019117879
6	0xbd979c45	-0.07402853
7	0xbb85fcf9	-0.0040889946
8	0xbd88b635	-0.06675378
9	0xbdcf5eae	-0.101254806
10	0xbdd23e2a	-0.10265763
11	0xbdaf1730	-0.085493445
12	0xbdfddd95	-0.12395779
13	0x3c8cdd28	0.0171953
14	0x3e0492e1	0.12946655
15	0x3d90a24d	0.070622064
16	0x3d371884	0.044701114
17	0xbd7296bd	-0.059225786
18	0xbce0540f	-0.027383832
19	0x3d942b90	0.072348714
20	0xbdee3291	-0.116307385
21	0x3dcee789	0.101027556
22	0x3cbdefe5	0.02318568
23	0x3d88bd73	0.066767596
24	0x3cda7642	0.026667718
25	0xbcbc3ade	-0.022977289
26	0x3dc68c64	0.09694746
27	0x3d8f364a	0.06992777
28	0x3debd1ad	0.11514602
29	0x3d175bd5	0.036952812
30	0x3e114d0c	0.14189547
31	0xbb889a89	-0.0041688127
32	0xbd6400ee	-0.05566495
33	0x3ceb6272	0.028733466
34	0x3d80560d	0.06266413
35	0xbde126af	-0.109937064
36	0x3cd6c53f	0.026217101
37	0x3e01ecfd	0.1268806
38	0xbe05de72	-0.13073137
39	0x3dcd83a7	0.10034876
40	0x3c8bdf1a	0.017074157
41	0x3df4da5e	0.11955713
42	0x3d8a320a	0.067478254
43	0xbdc62bdf	-0.096763365
44	0xbe174eab	-0.14776103
45	0x3e08738f	0.13325332
46	0x3d86b2b9	0.065770574
47	0x3dc551cc	0.09634742
48	0xbda2ed4c	-0.07955417
49	0x3d439a2f	0.047754463
50	0x3b17c92d	0.0023160682
51	0x3e0fe21f	0.14051102
52	0x3d8fbdff	0.07018661
53	0x3dce16ee	0.10062967
54	0x3db9373c	0.09043738
55	0x3e0dff16	0.13866839
56	0x3d8705cb	0.06592902
57	0xbc04b26e	-0.008099182
58	0x3dd6651f	0.10468506
59	0xbd748081	-0.059692863
60	0xbdc6b44a	-0.09702356
61	0xbe0e8dd6	-0.13921294
62	0xbd3bf887	-0.04589131
63	0xbe026351	-0.12733199
64	0x3da00e8a	0.07815273
65	0xbdf2eb1c	-0.1186125
66	0x3e1b9ebf	0.15197276
67	0xbdaccf82	-0.084380165
68	0x3da396ba	0.07987733
69	0x3d53104c	0.051529214
70	0xbaa8b391	-0.0012870898
71	0xbe128122	-0.14307073
72	0xbe1b2248	-0.15149796
73	0xbbba2b25	-0.0056814128
74	0x3e0aa91e	0.13541076
75	0xbd94f06b	-0.072724186
76	0x3b8fd1ce	0.0043890243
77	0xbd187f93	-0.03723104
78	0x3de7ecf4	0.11324492
79	0x3dd9b121	0.10629488
80	0x3e084b80	0.13310051
81	0x3dd620ec	0.10455498
82	0xbbb808d8	-0.0056162886
83	0xba002227	-0.00048879016
84	0x3dfff967	0.124987416
85	0x3d0fb95e	0.03508889
86	0xbe07788b	-0.13229577
87	0x3df52503	0.1196995
88	0x3dee821e	0.11645912
89	0x3def6ad2	0.11690296
90	0x3e086b65	0.13322218
91	0xbdcd2cbb	-0.10018297
92	0xbc926265	-0.017869184
93	0xbe0a1341	-0.13483907
94	0xbd6b69c0	-0.057473898
95	0x3d392db4	0.0452096
96	0xbe0f9536	-0.14021763
97	0xbd878052	-0.06616272
98	0xbdd6b1e2	-0.10483147
99	0x3da6058f	0.08106529
100	0x3d3fd5af	0.046834644
101	0x3d3874b0	0.045033157
102	0xbd34dc5a	-0.044155456
103	0x3c97dbf8	0.018537506
104	0xbdc5dd36	-0.09661333
105	0xbe014750	-0.1262486
106	0xbc619c26	-0.013770139
107	0xbddb4fc0	-0.107085705
108	0xbd6b5207	-0.057451274
109	0x3dfbf9b2	0.12303485
110	0xbe189215	-0.14899476
111	0x3c8a8f0b	0.016913911
112	0x3e1198ad	0.14218397
113	0xbd3817c1	-0.04494453
114	0x3d73d589	0.059529815
115	0xbe1274fe	-0.14302441
116	0xbd7fcfcd	-0.062454034
117	0xbdbb31e6	-0.09140377
118	0xbdbae3a0	-0.09125447
119	0xbda1ea10	-0.07905972
120	0x3e198851	0.14993407
121	0x3e1323d2	0.14369133
122	0xbe004ed5	-0.12530072
123	0x3c8f70af	0.017509786
124	0xbd8918f5	-0.06694213
125	0x3cfe025b	0.031006983
126	0xbd84faaa	-0.06493123
127	0xbd346c53	-0.04404862
128	0xbd0536c6	-0.03252294
129	0xbdd6b850	-0.104843736
130	0x3c911be4	0.017713495
131	0xbe06bd9a	-0.13158265
132	0xbe190e56	-0.14946875
133	0xbd31242c	-0.043247387
134	0xbda68476	-0.08130734
135	0xbd45f3c1	-0.048328165
136	0x3c976df8	0.018485054
137	0x3b70a6d0	0.0036720522
138	0xbddf9149	-0.10916383
139	0xbdfd30ed	-0.123628475
140	0x3df7fee7	0.12109166
141	0xbd5d6fee	-0.054061823
142	0xbc2c7ddf	-0.010528057
143	0x3dc0c340	0.09412241
144	0x3e0101c7	0.12598334
145	0x3dba1d5f	0.09087633
146	0xbba30b27	-0.0049756947
147	0x3dd23467	0.10263901
148	0x3d1b39f1	0.037897054
149	0x3df057d8	0.11735505
150	0x3db0bace	0.0862938
151	0xbded72a8	-0.115941346
152	0x3e0ae4e8	0.13563883
153	0xbcc319a2	-0.023815934
154	0x3d83b727	0.06431418
155	0x3d788b8c	0.060679957
156	0xbdcab7de	-0.09898351
157	0xbdefd505	-0.11710552
158	0x3d0ade00	0.033903122
159	0xbe04d56c	-0.12972039
160	0xbd2cda09	-0.042200122
161	0xbe12a9e0	-0.14322615
162	0xbcdd5e5d	-0.027022535
163	0x3c20be48	0.009810992
164	0xbe173f4c	-0.1477024
165	0x3c928bb3	0.01788888
166	0xbdffc31a	-0.124883845
167	0x3dfe68c4	0.12422326
168	0xbdd47e6c	-0.103756756
169	0x3c9c37b6	0.019069534
170	0xbd38ae77	-0.045088258
171	0xbddfadb9	-0.10921807
172	0xbe0d5a59	-0.13803996
173	0x3d5dd0ef	0.054154333
174	0x3dc63989	0.09678943
175	0x3e17ecb0	0.14836383
176	0x3d010abd	0.03150438
177	0xbc6fe871	-0.014642821
178	0xbdad70c6	-0.084687755
179	0xbd6e0771	-0.058112565
180	0x3ca2ab03	0.019856935
181	0x3e0c3176	0.13690743
182	0xbdeac9e1	-0.114642866
183	0x3e1ca17d	0.15295978
184	0xbe0b8a52	-0.13626984
185	0x3cda2297	0.026627822
186	0xbd41beab	-0.047300976
187	0x3c76cffa	0.015064234
188	0xbdbd271f	-0.092359774
189	0xbce1b55c	-0.0275523
190	0x3db6e5b8	0.08930534
191	0x3e05b7b9	0.13058366
192	0xbd8c0f65	-0.06838874
193	0xbe18845c	-0.14894241
194	0xbcdc6255	-0.026902357
195	0xbe0a5b15	-0.13511308
196	0xbda6cd36	-0.0814461
197	0x3da4aa44	0.08040288
198	0xbe05b184	-0.13055998
199	0xbe142550	-0.14467359
200	0xbd485586	-0.048909687
201	0xbe06bb71	-0.1315744
202	0x3cb1a122	0.02168328
203	0x3dd33c56	0.103142425
204	0x3d3c8620	0.04602635
205	0x3cd08726	0.025455069
206	0x3e06dd0d	0.13170262
207	0xbddb6f82	-0.10714628
208	0xbd02d971	-0.03194565
209	0xbc5bde10	-0.013419643
210	0x3dace4f6	0.08442108
211	0x3cefdffc	0.029281609
212	0x3d2aa4c7	0.04166105
213	0x3de508fb	0.111833535
214	0x3c417888	0.011808522
215	0xbdd4882c	-0.10377535
216	0xbd70cc12	-0.058788367
217	0xbd887ea2	-0.06664778
218	0xbc4b29dd	-0.012400118
219	0xbe013ea2	-0.12621549
220	0xbdc04f8f	-0.093901746
221	0x3dc41ba0	0.095755816
222	0x3ca3d6a7	0.019999815
223	0x3d4a234f	0.04935008
224	0x3d2a9d2e	0.041653804
225	0xbc131dfa	-0.008979315
226	0x3e042551	0.1290486
227	0xbe1122cf	-0.14173435
228	0xbdfcafd2	-0.123382226
229	0x3bd7efa1	0.0065898453
230	0x3dedbbac	0.11608061
231	0xbca0b2c3	-0.01961649
232	0xbb29fd06	-0.0025938167
233	0x3c1da345	0.009621446
234	0xbda50a46	-0.080586
235	0x3e0c9ad3	0.13730936
236	0x3dde9b35	0.10869447
237	0x3ccaa584	0.024737127
238	0xbe0fc170	-0.14038634
239	0xbdb0b1dc	-0.08627674
240	0x3c8292ed	0.0159392
241	0x3dc45096	0.09585683
242	0xbe06c12c	-0.13159627
243	0x3c6fc02e	0.014633222
244	0x3cc160a6	0.023605656
245	0xbddcdaaf	-0.10783898
246	0xbd31818f	-0.043336447
247	0x3cd4397e	0.02590632
248	0xbe043060	-0.12909079
249	0xbd96bc49	-0.07360131
250	0x3e0e0099	0.13867415
251	0x3d49e87c	0.04929398
252	0x3df9f353	0.122046135
253	0x3dc68de9	0.09695036
254	0xbdc1d2fd	-0.09464071
255	0xbdb8b657	-0.090191536

bias f4 [128]
0	0x3731b80f	1.0592877e-05
1	0x00000000	0.0
2	0x00000000	0.0
3	0x38788b04	5.9257276e-05
4	0xba48a476	-0.0007653901
5	0xb912f6cb	-0.00014015583
6	0x3983c28c	0.00025131216
7	0x39c5915a	0.00037683063
8	0x351fe84a	5.957014e-07
9	0x3a0630dc	0.0005118975
10	0xb46eec0e	-2.2251353e-07
11	0xb99f73d2	-0.00030413136
12	0x391662c6	0.0001434191
13	0x3938d265	0.00017625985
14	0xb9d05e02	-0.00039742893
15	0x39d01d58	0.00039694714
16	0x00000000	0.0
17	0x00000000	0.0
18	0x352e3674	6.489929e-07
19	0x39085fa2	0.00013005597
20	0x00000000	0.0
21	0x3a048f4b	0.00050567527
22	0xb7b84738	-2.1967673e-05
23	0xba5e8966	-0.0008489102
24	0x3a3b92de	0.0007155369
25	0xb9d36b8a	-0.0004032518
26	0x00000000	0.0
27	0x39cc1711	0.00038927098
28	0x3a4d0e88	0.0007822295
29	0xb83f7eae	-4.565593e-05
30	0x00000000	0.0
31	0x00000000	0.0
32	0xabeebe3b	-1.6963717e-12
33	0x3a2ba594	0.00065478054
34	0xb5a66d03	-1.239969e-06
35	0xb7b6a175	-2.1771275e-05
36	0xb9bf32b6	-0.00036468141
37	0x36f69511	7.348725e-06
38	0x00000000	0.0
39	0xb8a805ad	-8.0119215e-05
40	0xb9240fc3	-0.0001564613
41	0xb8c7f942	-9.535487e-05
42	0x39722df5	0.00023096039
43	0x392e92b0	0.00016648578
44	0xb65a253f	-3.2506211e-06
45	0x39204a6b	0.00015286512
46	0x00000000	0.0
47	0xb9870dea	-0.00025759573
48	0xb9cf2515	-0.00039509745
49	0x3a5ab30d	0.00083427207
50	0x00000000	0.0
51	0xb91e92d5	-0.00015122753
52	0xb7c0acce	-2.2968652e-05
53	0xba41c493	-0.00073916576
54	0xb9852b73	-0.0002540011
55	0x00000000	0.0
56	0xba5402bc	-0.00080875657
57	0xba22cab7	-0.00062100164
58	0xba2bd778	-0.00065552397
59	0x3a2d6dc0	0.00066157803
60	0x00000000	0.0
61	0xb937e226	-0.00017536487
62	0xba2024af	-0.0006108982
63	0xb984ced8	-0.00025331113
64	0xb96b593e	-0.00022444592
65	0x00000000	0.0
66	0x3913a1ee	0.00014079336
67	0x3989ff5c	0.00026320934
68	0xb99e651c	-0.0003021144
69	0x37969f7e	1.7955663e-05
70	0xb85e0c34	-5.294029e-05
71	0xb10d5393	-2.0565707e-09
72	0x00000000	0.0
73	0x00000000	0.0
74	0x3a9fe22c	0.0012198142
75	0x39c3f803	0.00037378081
76	0x341a3b0e	1.4363852e-07
77	0xba1565af	-0.0005699051
78	0xb9ecf974	-0.00045199285
79	0x00000000	0.0
80	0xb9a56b26	-0.00031551084
81	0x39a0c7c9	0.0003066643
82	0xb9d1b073	-0.0003999505
83	0x390122c6	0.00012315353
84	0x00000000	0.0
85	0x00000000	0.0
86	0xb688ac78	-4.073194e-06
87	0xb0e68348	-1.6772015e-09
88	0x00000000	0.0
89	0xb7d51906	-2.5403231e-05
90	0xb6cde37e	-6.1359597e-06
91	0xb8615d7f	-5.3731255e-05
92	0x00000000	0.0
93	0x00000000	0.0
94	0x35821113	9.690724e-07
95	0xba9726be	-0.0011531932
96	0x00000000	0.0
97	0xb91a5198	-0.0001471698
98	0xb89335bd	-7.019516e-05
99	0x3917cdcf	0.00014477152
100	0x00000000	0.0
101	0x394baae6	0.00019423253
102	0xb9a97cfe	-0.00032327318
103	0xba03f86d	-0.0005034272
104	0x39e83e6d	0.00044297
105	0xbb9f8722	-0.004868404
106	0x00000000	0.0
107	0xb9168a3c	-0.00014356611
108	0xba28bf45	-0.0006437193
109	0xba7b4718	-0.0009585484
110	0x00000000	0.0
111	0x3a01d0c3	0.00049520674
112	0xb8a40e11	-7.8227495e-05
113	0xb98de57b	-0.00027064592
114	0xb8592f9c	-5.178117e-05
115	0x32d5a52e	2.4871579e-08
116	0xb8ebabaa	-0.00011237648
117	0x39be65f9	0.000363156
118	0xb9d8f1bb	-0.00041378834
119	0x37698272	1.3918254e-05
120	0x354b5258	7.574322e-07
121	0xb9fb3744	-0.00047915627
122	0x37bb4762	2.2325377e-05
123	0x00000000	0.0
124	0xb815f936	-3.5756464e-05
125	0xb907632a	-0.00012911545
126	0x00000000	0.0
127	0xb88fa155	-6.848822e-05

weight f4 [128, 128]
0	0xbb9c27c7	-0.004765484
1	0xbe0d041c	-0.13771099
2	0xbd92e5d7	-0.07172745
3	0xbd84c4fe	-0.06482886
4	0xbd702211	-0.05862624
5	0x3e1b25e9	0.1515118
6	0x3ce6657d	0.028124565
7	0xbe0a3bc2	-0.13499358
8	0x3dca2c65	0.09871749
9	0xbde06183	-0.10956099
10	0x3db62fb4	0.088958174
11	0xbceff8f3	-0.029293513
12	0x3e102ba3	0.14079146
13	0x3da42c92	0.080163136
14	0x3dff7cbf	0.12474965
15	0x3d187432	0.037220187
16	0xbc7ab8bf	-0.015302836
17	0x3df43bf0	0.11925495
18	0xbc85012e	-0.016235914
19	0xbaa0deef	-0.0012273471
20	0xbd30b223	-0.043138634
21	0x3dbb3ce8	0.09142476
22	0x3da87fec	0.08227524
23	0x3e0967c7	0.13418494
24	0x3df9dbef	0.12200152
25	0xbd442221	-0.04788411
26	0xbd04e18a	-0.032441653
27	0xbd8d22fa	-0.06891437
28	0x3e10e9ce	0.1415169
29	0x3e0088c1	0.12552167
30	0xbdb138b9	-0.08653397
31	0xbd090477	-0.033451524
32	0x3d3bdb0b	0.045863193
33	0x3dcc0b3c	0.0996308
34	0x3e1b67a2	0.15176252
35	0xbd4ac026	-0.049499653
36	0xbc9cc2f2	-0.019135926
37	0xbdf133b7	-0.11777442
38	0xbd92f99c	-0.071765155
39	0xbd80d953	-0.06291451
40	0xbe01a851	-0.12661864
41	0xbe00b459	-0.12568797
42	0xbcff4b83	-0.031163936
43	0xbd88d5d4	-0.066814095
44	0xbda36ccf	-0.07979738
45	0x3d761331	0.060076896
46	0x3d218d35	0.039441306
47	0x3d7e0f79	0.062026475
48	0x3d464154	0.048402146
49	0xbd54f355	-0.051989872
50	0xbe0bcef1	-0.1365316
51	0x3d0dc3c7	0.034610536
52	0x3e155a0e	0.14585134
53	0x3dff8f5a	0.12478514
54	0xbd69aa67	-0.057047274
55	0xbd76df62	-0.06027163
56	0x3dc4b312	0.096044675
57	0x3d026344	0.03183295
58	0xbceda60c	-0.029009841
59	0xbe0f515c	-0.1399588
60	0xbdcb9a1f	-0.09941506
61	0x3de6c7aa	0.11268552
62	0x3bc9dfda	0.0061607184
63	0x3dbe5ca4	0.092950135
64	0x3c675685	0.014119749
65	0xbe102f2f	-0.14080499
66	0x3d8f3441	0.069923885
67	0x3dec8a21	0.115497835
68	0x3d715b44	0.05892493
69	0x3d0497eb	0.032371443
70	0xbdfb15b6	-0.122600004
71	0xbde8f4f2	-0.113748446
72	0xbe067872	-0.13131884
73	0x3bb3f9ae	0.0054924106
74	0x3d96bb83	0.07359984
75	0xbe09f3f8	-0.13471973
76	0xbd3dd859	-0.046348903
77	0xbdc1f14a	-0.0946985
78	0x3c1db303	0.009625199
79	0xbd7cd2e8	-0.061724573
80	0xbdc932a5	-0.09824113
81	0x3dd00ae2	0.10158326
82	0xbdabebe1	-0.083946
83	0xbcb9cf58	-0.022681877
84	0x3cf93886	0.03042246
85	0xbe06f23e	-0.13178346
86	0x3e0e28b2	0.13882712
87	0xbdd3443a	-0.103157476
88	0x3d64f6b9	0.055899356
89	0xbc1cd48e	-0.009572161
90	0x3d9f1953	0.07768502
91	0xbe002fd9	-0.12518252
92	0xbd693853	-0.05693848
93	0x3deb3d06	0.11486249
94	0xbbd6ad58	-0.006551426
95	0x3c43b6dd	0.0119454535
96	0xbb52d239	-0.003216876
97	0xbe1a5445	-0.15071209
98	0xbce9ee94	-0.028556146
99	0xbcf8d0c6	-0.030372988
100	0xbda176a5	-0.07883958
101	0x3d9f5e4f	0.0778166
102	0xbd8d6367	-0.06903725
103	0x3e128484	0.14308363
104	0x3cc5e22f	0.024155704
105	0xbd963225	-0.07333783
106	0xbd2219ab	-0.03957526
107	0xbcf5d979	-0.030010926
108	0x3e0054cd	0.12532349
109	0xbd0c51bb	-0.03425763
110	0x3d32fdc4	0.04369904
111	0x3e0ed8fb	0.13949959
112	0x3d759160	0.059953094
113	0x3da10cc1	0.07863761
114	0x3dca9e93	0.09893527
115	0xbb92f7f0	-0.004485123
116	0x3db1ec00	0.086875916
117	0x3e088fe7	0.13336144
118	0x3d9b0196	0.07568662
119	0x3de94b0b	0.113912664
120	0xbde83236	-0.11337702
121	0xb94fd33c	-0.0001981975
122	0xbd4cce66	-0.050001524
123	0xbd0feb33	-0.035136413
124	0x3b61bbbb	0.0034444171
125	0x3d0f19e1	0.03493679
126	0x3db803d8	0.08985108
127	0xbe011b13	-0.12607984
128	0xbc8d5f6e	-0.017257418
129	0xbca5d7bf	-0.020244477
130	0xbe1caab8	-0.15299499
131	0xbe03fbda	-0.12889042
132	0x3cd1b04e	0.025596764
133	0x3d71108e	0.05885368
134	0x3d2f370c	0.042777106
135	0xbde1faf7	-0.11034196
136	0xbdf20f02	-0.11819269
137	0x3e1832ed	0.14863177
138	0xbcf8e258	-0.030381367
139	0xbc8c9f8f	-0.017165927
140	0xbced4d0c	-0.028967403
141	0x3d26807f	0.040649887
142	0xbde3cc40	-0.11122942
143	0xbded29f7	-0.1158027
144	0xbe086d0e	-0.13322851
145	0x3d72ac93	0.05924661
146	0x3e1a94bc	0.150958
147	0x3d2061b8	0.03915569
148	0x3d0e7b51	0.034785572
149	0xbc83798a	-0.016049165
150	0xba97f589	-0.0011593561
151	0xbdd8c39a	-0.10584183
152	0xbde19e50	-0.11016524
153	0x3db83037	0.08993571
154	0xbc9b6c4a	-0.018972535
155	0xbde47cc7	-0.11156612
156	0x3da9ddfd	0.08294294
157	0x3da46f05	0.08028988
158	0xbd0e5cf2	-0.03475661
159	0x3d2f850f	0.042851504
160	0x3dcdd788	0.10050875
161	0xbe052421	-0.13002063
162	0xbd470062	-0.04858435
163	0x3d670e3f	0.05641007
164	0x3c8543fc	0.016267769
165	0x3cac23e2	0.021013204
166	0x3d865da4	0.06560829
167	0xb9b9592c	-0.00035352388
168	0x3dad6590	0.08466637
169	0xbd8e5fca	-0.06951864
170	0xbd05d4ce	-0.03267365
171	0x3e0bd0d4	0.1365388
172	0xbcef418b	-0.029206058
173	0x3da74caf	0.08168923
174	0xbe14ba33	-0.14524154
175	0x3dbc8812	0.09205641
176	0x3d9a86ad	0.075452186
177	0x3e092aeb	0.13395278
178	0x3e11c7f5	0.14236434
179	0x3cbd6a91	0.023122104
180	0xbd5ac1ff	-0.053407665
181	0xbe1502f4	-0.14551908
182	0x3de70200	0.11279678
183	0x3df32a8f	0.11873352
184	0x3d532c97	0.051556196
185	0x3d5ba458	0.053623527
186	0xbe19594e	-0.14975473
187	0x3a4bc339	0.0007772926
188	0x3e0c0d10	0.13676858
189	0xbd77ebf8	-0.06052777
190	0x3e056c5e	0.1302962
191	0xbe0b53af	-0.13606142
192	0xbe09e1db	-0.13465063
193	0x3e186aca	0.14884487
194	0xbd2d633b	-0.04233096
195	0x3dd9d44e	0.10636197
196	0x3cc088b1	0.02350268
197	0x3e04d145	0.12970455
198	0xbd49b7d7	-0.04924759
199	0xbe121806	-0.14266977
200	0xbe0ba697	-0.13637768
201	0xbda22e0a	-0.079189375
202	0x3dcd24cf	0.10016786
203	0xbd991f25	-0.074766435
204	0x3cbd2bd3	0.023092186
205	0xbe14ae16	-0.14519534
206	0xbd9bdf7a	-0.07610984
207	0x3e15f554	0.14644367
208	0xbda36bbf	-0.07979535
209	0x3dc9d906	0.09855847
210	0x3d19c05f	0.037536975
211	0xbde413fb	-0.111366235
212	0x3da9e665	0.082958974
213	0x3bcce363	0.0062526925
214	0xbc62148d	-0.013798845
215	0xbded4b41	-0.11586619
216	0x3dc7ddda	0.09759112
217	0x3d272633	0.040807914
218	0xbd689964	-0.05678691
219	0xbd6c8877	-0.05774733
220	0xbd03d759	-0.032187793
221	0xbd9502ce	-0.072759256
222	0x3d7f6298	0.062349886
223	0xbe0f1359	-0.13972224
224	0xbc291df8	-0.0103220865
225	0x3b8aee9f	0.0042398716
226	0x3d3b7d20	0.045773625
227	0xbdc88195	-0.09790341
228	0x3e0230bf	0.12713908
229	0xbe1c0a08	-0.15238202
230	0x3d8ff18a	0.07028492
231	0x3da5bd12	0.08092703
232	0x3d3fc953	0.046822857
233	0x3d58451a	0.052800275
234	0x3e1117f7	0.14169298
235	0x3df2e391	0.11859811
236	0xbdceb180	-0.10092449
237	0xbd7e0d8a	-0.06202463
238	0x3c6c0a63	0.014406773
239	0x3d97a89f	0.07405209
240	0x3c36082d	0.011110348
241	0x3db41b19	0.08794231
242	0xbc3d5775	-0.011556496
243	0x3deafe31	0.114742644
244	0x3c9ff486	0.019525778
245	0x3dc49fca	0.0960079
246	0xbd01939f	-0.031634923
247	0x3dfa66b4	0.1222662
248	0xbd86f329	-0.06589348
249	0x3c6bd80f	0.014394774
250	0x3d071522	0.03297914
251	0xbd7dc856	-0.061958633
252	0x3d258b1c	0.04041587
253	0xbddf2060	-0.10894847
254	0xbd9a2040	-0.075256824
255	0xbbcda304	-0.0062755365
