MAMRL-TE/Dynamic environments/Baselines/Random/Geant/task0/savemodels/policy0.pth (torch, 275219 bytes, 12 tensors)

weight f4 [128, 7]
2.7870154 1.6093258 0.061275445 -0.004575379 0.04741199 -0.05840216 0.13577567 -0.09200217
-0.05561407 -0.18287273 -0.00010667353 0.19965638 0.102186374 -0.11236467 0.059324298 0.040849365
-0.16393805 0.18667312 0.012386434 0.05064124 -0.08312405 -0.42761093 0.7952405 0.090975285
0.037019186 -0.07927323 0.19824773 -0.0361237 -0.12910843 -0.09860248 0.20753412 1.0153136e-05
-0.028617393 -0.08773461 -0.055265103 -0.17755863 -0.16752274 0.12342327 0.18034883 0.20116487
-0.1522 0.11402176 -0.7318126 0.31782147 0.14946902 0.15850872 0.12681367 0.116788104
-0.012592819 1.1682296 0.86654484 0.14451694 -0.033448257 0.026806802 -0.16245255 -0.047409635
-0.11041664 -0.07642152 -0.13467571 -0.18961619 0.013247256 0.13619526 0.19021557 -0.35838395
-0.41595694 -0.21292865 0.070945375 0.10763191 -0.18454768 0.07075855 0.25962526 -0.4124589
-0.124629885 0.1496279 0.088337325 0.13925865 -0.1419547 1.5282758 1.1151866 0.296462
-0.03192058 0.17390704 0.077159114 0.071069784 -0.55255 0.209397 -0.08750776 -0.19383498
-0.06507451 0.16266987 -0.05771211 -0.08827218 -0.19931664 0.14185283 0.114969544 0.06406141
-0.11279993 -0.17357203 -0.003109008 -0.1335402 0.16984569 -0.2033692 0.09182221 0.2067386
0.10506771 0.07302526 -0.2019048 0.20314106 -0.03590383 -0.1969319 0.20847912 -0.0857704
-0.8125042 1.1688862 -0.09585588 -0.10821917 0.032870024 -0.031615224 0.038902875 -0.15109792
-0.30283996 -0.09298821 -0.104026146 -0.19326381 0.12047041 0.038650986 -0.5694053 1.3097979
0.13048336 0.10755099 -0.10736698 0.031741984 0.1936271 0.074869856 -0.20812598 0.18832219
0.012286389 0.097624026 0.16264917 0.17891152 -0.31209773 0.23366827 -0.13692826 0.004850829
-0.13760294 -0.05779127 -0.017492479 -0.45660073 1.9135325 0.11545719 0.29700163 0.15548591
0.14528452 0.08118188 2.5767088 0.80441666 0.057449333 0.06129251 -0.12819399 -0.12837422
0.055530425 -0.078464 -0.016505068 -0.044618774 0.034170303 0.13766313 -0.07241903 0.16373813
1.3626196 0.75655365 -0.13678779 -0.15022421 -0.096135765 -0.06913937 -0.008879675 -0.051269416
-0.10651575 -0.06697569 -0.076262444 0.20682102 -0.07813542 -0.15094624 0.97856927 -0.42529756
0.15507251 0.12211439 0.21292707 -0.12908724 0.14670008 4.85306 -0.877445 0.2175856
0.17686905 0.17269051 0.22477241 -0.012246605 -0.4438797 1.255314 0.11578885 -0.06599217
0.12142984 -0.1591136 0.17803252 2.4308913 -0.27834487 -0.14741907 0.05918017 0.068653606
0.07334019 0.095183015 1.2057544 0.969112 0.0040872134 0.103311874 0.054009568 0.1971442
-0.101855986 0.83647263 0.45900542 -0.03881833 0.17733228 0.03429838 -0.18175031 -0.01729483
-0.06264796 -0.36813912 -0.047553264 -0.20784526 -0.050940815 -0.026935197 -0.062197 4.2051735
0.9902139 0.15270686 0.041795716 -0.033167705 0.103271335 0.21912329 -0.138535 -0.14015095
0.20539106 0.16779016 -0.11758714 0.12525114 -0.028577616 -0.12631509 -0.94810194 0.024053901
-0.0647203 0.038245745 -0.18219036 0.14106777 2.672905 -0.36523446 -0.003426209 0.021741599
00000000: 765e 3240 63fe cd3f f6fb 7a3d 10ed 95bb
00000010: 1333 423d 1a37 6fbd c708 0b3e a26b bcbd
00000020: 94cb 63bd fd42 3bbe eab5 dfb8 b972 4c3e
00000030: 1747 d13d 731f e6bd 09fe 723d aa51 273d
00000040: 60df 27be 3d27 3f3e 78f0 4a3c 306d 4f3d
00000050: f13c aabd d2ef dabe e294 4b3f 4051 ba3d
00000060: 6ea1 173d 015a a2bd 7401 4b3e 72f6 13bd
00000070: 0035 04be 19f0 c9bd d383 543e 6357 2a37
00000080: 066f eabc 34ae b3bd a95d 62bd eed1 35be
00000090: 158b 2bbe 57c5 fc3d 5dad 383e 2afe 4d3e
000000a0: 51da 1bbe 3e84 e93d 1258 3bbf 7fb9 a23e
000000b0: 680e 193e 1c50 223e 71db 013e 9a2e ef3d
000000c0: 1c52 4ebc 8c88 953f e2d5 5d3f 40fc 133e
000000d0: 0a01 09bd f099 db3c f659 26be 9b30 42bd
000000e0: 1f22 e2bd e382 9cbd 6ee8 09be bf2a 42be
000000f0: 050b 593c c576 0b3e dfc7 423e 1a7e b7be
00000100: 4ff8 d4be f809 5abe cf4b 913d 1e6e dc3d
00000110: 11fa 3cbe dce9 903d 9aed 843e d02d d3be
00000120: f43d ffbd 0e38 193e 33ea b43d d299 0e3e
00000130: 935c 11be 8b9e c33f 6fbe 8e3f dec9 973e
00000140: 27bf 02bd b014 323e 9905 9e3d 098d 913d
00000150: eb73 0dbf 2b6c 563e 4537 b3bd ad7c 46be
00000160: c945 85bd ee92 263e 8963 6cbd 0bc8 b4bd
00000170: a919 4cbe de41 113e 2775 eb3d a132 833d
00000180: a603 e7bd debc 31be 80c0 4bbb c3be 08be
00000190: 07ec 2d3e 0440 50be 480d bc3d 49b3 533e
000001a0: bd2d d73d 448e 953d 22c0 4ebe 3604 503e
000001b0: e50f 13bd 84a8 49be 8d7b 553e 64a8 afbd
000001c0: 4600 50bf 109e 953f 1650 c4bd 03a2 ddbd
000001d0: b8a2 063d f77e 01bd 9f58 1f3d 6ab9 1abe
000001e0: d70d 9bbe 9a70 bebd a90b d5bd f3e6 45be
000001f0: 31b9 f63d 7f50 1e3d 8cc4 11bf 75a7 a73f
00000200: 6e9d 053e b243 dc3d 38e3 dbbd e203 023d
00000210: 2f46 463e 5e55 993d fa1e 55be 88d7 403e
00000220: da4c 493c 1bef c73d 818d 263e 9534 373e
00000230: 46cb 9fbe bc46 6f3e ec36 0cbe b4f3 9e3b
00000240: c9e7 0cbe 8ab6 6cbd 634c 8fbc 92c7 e9be
00000250: a2ee f43f d274 ec3d 9910 983e b337 1f3e
00000260: 77c5 143e af42 a63d cce8 2440 40ee 4d3f
00000270: fe4f 6b3d db0d 7b3d 4945 03be 8874 03be
00000280: df73 633d bcb1 a0bd a335 87bc 2dc2 36bd
00000290: 29f6 0b3d 90f7 0c3e 6e50 94bd f8aa 273e
000002a0: 526a ae3f 80ad 413f 1912 0cbe 60d4 19be
000002b0: d4e2 c4bd f198 8dbd 0e7c 11bc e1ff 51bd
000002c0: ee24 dabd 8d2a 89bd 7c2f 9cbd e4c8 533e
000002d0: 7705 a0bd a791 1abe 8483 7a3f 9ac0 d9be
000002e0: 54cb 1e3e 1c17 fa3d 8e09 5a3e 722f 04be
000002f0: 8c38 163e 444c 9b40 3ca0 60bf c2ce 5e3e
00000300: 291d 353e c8d5 303e bd2a 663e fca5 48bc
00000310: 3344 e3be 21ae a03f b422 ed3d e726 87bd
00000320: 35b0 f83d adee 22be 284e 363e b993 1b40
00000330: 3883 8ebe 06f5 16be e866 723d 439a 8c3d
00000340: 6233 963d 50ef c23d 2956 9a3f b917 783f
00000350: 08ee 853b 2d95 d33d 2339 5d3d 2be0 493e
00000360: df99 d0bd 1223 563f c202 eb3e f8ff 1ebd
00000370: 9896 353e 757c 0c3d c11c 3abe e3ad 8dbc
00000380: 934d 80bd bb7c bcbe 36c7 42bd 63d5 54be
00000390: 51a7 50bd 34a7 dcbc 48c2 7ebd c890 8640
000003a0: a87e 7d3f 305f 1c3e fc31 2b3d dcda 07bd
000003b0: ec7f d33d db61 603e 1edc 0dbe bb83 0fbe
000003c0: 0952 523e 2fd1 2b3e 87d1 f0bd d641 003e
000003d0: 9b1b eabc be58 01be cfb6 72bf b00c c53c
000003e0: 148c 84bd 92a7 1c3d 1c90 3abe 1274 103e
000003f0: e010 2b40 0300 bbbe 408a 60bb 701b b23c

bias f4 [128]
0.13674593 -0.00022911778 0.0053305225 0.0633664 0.0 9.3619764e-07 0.015995277 0.07849936
-0.00044233896 -0.025558822 -0.03544092 0.10494007 0.010227284 -0.010114601 -0.00082182203 7.7794626e-05
0.0813238 -0.025756348 0.09521898 -0.0036613145 0.004090675 0.16223855 0.067853965 -0.0010514979
0.07653451 0.0 -0.034421638 -0.06442205 0.10017175 -0.027970836 0.08831675 0.03497408
-0.032385133 0.08638179 -0.00032359423 -0.08032693 -0.040112417 -5.1902857e-06 -0.0003857767 0.061226696
-0.06673243 0.022307301 0.015529144 0.008044295 0.028854186 -4.908757e-09 -0.006730902 0.0058326647
0.07365138 0.048986904 0.050833195 -0.006078284 0.0 0.14764135 0.06618619 -0.0006643607
0.064852506 0.029946014 -0.045335107 -0.008190461 0.0 0.036318112 -0.015202039 0.053924233
0.021386918 -9.633846e-05 -0.04860701 8.406033e-09 0.09368184 0.063445136 0.05508181 0.01949105
-0.0030041568 0.100700974 -0.051049747 0.0698709 0.0 -0.0047702347 0.037087936 0.012040069
0.0027983973 0.01699335 0.14890426 0.19753815 1.0979576e-05 0.0 -0.000918902 6.625638e-08
0.009767223 0.11534645 0.020669226 -0.013164361 -0.0020647245 -0.053848676 0.069942765 -0.0014956758
0.08927742 0.05457641 0.010108039 0.03861493 0.041805506 -0.01393606 0.06453233 0.10229756
-0.0027405145 0.088870384 0.02424952 -0.015411376 0.041368242 -9.991098e-05 0.0 -0.006471731
0.3222565 0.13161482 0.0053436197 -0.036556553 0.0884373 0.0 0.017959027 3.6315382e-07
0.1041558 0.025047423 0.03157003 -0.0008073516 -0.0070318654 0.010058168 -0.0064262836 0.0
00000000: 2007 0c3e 563f 70b9 aaab ae3b 3ec6 813d
00000010: 0000 0000 034f 7b35 8708 833c 46c4 a03d
00000020: bbe9 e7b9 bc60 d1bc 802a 11bd d2ea d63d
00000030: 5790 273c b6b7 25bc 8b6f 57ba ac25 a338
00000040: 188d a63d fafe d2bc 2b02 c33d aaf2 6fbb
00000050: 120b 863b dd21 263e 05f7 8a3d 6ad2 89ba
00000060: 20be 9c3d 0000 0000 b4fd 0cbd b5ef 83bd
00000070: d926 cd3d 1823 e5bc 6adf b43d fb40 0f3d
00000080: 46a6 04bd f0e8 b03d 15a8 a9b9 7282 a4bd
00000090: eb4c 24bd 3728 aeb6 1242 cab9 d8c8 7a3d
000000a0: 03ab 88bd cdbd b63c f36d 7e3c 38cc 033c
000000b0: 9d5f ec3c e2a9 a8b1 e68e dcbb f01f bf3b
000000c0: 89d6 963d 7ea6 483d 7836 503d 572c c7bb
000000d0: 0000 0000 4b2f 173e a08c 873d 7e28 2eba
000000e0: 64d1 843d 5851 f53c 4eb1 39bd 4931 06bc
000000f0: 0000 0000 4dc2 143d f911 79bc a8df 5c3d
00000100: 9e33 af3c 5109 cab8 2518 47bd 206a 1032
00000110: 44dc bf3d 86ef 813d 779d 613d b2ab 9f3c
00000120: 63e1 44bb 503c ce3d 8a19 51bd 7918 8f3d
00000130: 0000 0000 a14f 9cbb 85e9 173d b643 453c
00000140: 5165 373b a335 8b3c 5c7a 183e 7147 4a3e
00000150: eb34 3837 0000 0000 78e2 70ba d548 8e33
00000160: b406 203c c23a ec3d 8252 a93c 55af 57bc
00000170: 5450 07bb 6e90 5cbd 273e 8f3d 8d0a c4ba
00000180: 14d7 b63d 848b 5f3d 309c 253c b02a 1e3d
00000190: 403c 2b3d 1254 64bc 8729 843d 6281 d13d
000001a0: 349a 33bb ad01 b63d eea6 c63c ff7f 7cbc
000001b0: bf71 293d 4d87 d1b8 0000 0000 d010 d4bb
000001c0: cefe a43e 09c6 063e 8819 af3b 53bc 15bd
000001d0: 9d1e b53d 0000 0000 cf1e 933c 7bf7 c234
000001e0: a34f d53d 4130 cd3c 934f 013d 73a4 53ba
000001f0: 906b e6bb 04cb 243c 9393 d2bb 0000 0000

weight f4 [128, 128]
-0.018902618 0.019683888 -0.10303081 -0.08494094 0.06671965 -0.08856439 0.042844497 -0.018082311
0.09668646 -0.038525987 0.10791169 -0.0040704524 -0.08505841 0.028904907 -0.094098374 0.03690735
-0.073487744 0.018482154 -0.028842455 -0.03963908 -0.13211082 -0.05139216 0.12781869 0.0863251
-0.0640183 0.017953921 0.038306713 0.094046086 0.1044732 -0.084035784 -0.036348365 0.12566046
0.015663477 -0.08477594 -0.07693581 -0.0758609 -0.14431128 -0.10273871 0.15202048 -0.018437458
0.10211434 -0.14164162 0.07219007 0.05899547 -0.14323756 -0.037065085 0.040072374 -0.120291166
0.058862608 0.08912106 -0.13930106 -0.05893612 0.10738258 -0.013632148 -0.089530915 0.03826209
-0.126885 0.05112102 -0.08853234 0.05561874 -0.08135066 -0.04575561 -0.07106895 0.08003255
-0.1403895 0.09268399 0.07951724 -0.107805476 0.10337757 0.11358283 -0.09643782 0.013983791
0.03831938 -0.021078197 0.111374125 -0.038873125 -0.05250578 0.043216817 0.08224852 0.120932475
-0.15243518 -0.037982937 -0.06773361 -0.05599849 -0.041717295 -0.08618308 -0.09038561 -0.08278162
-0.10380863 0.060731076 0.08392862 -0.06972667 0.14446391 0.05619068 -0.11617564 0.072773725
0.013622749 0.13016075 -0.013359691 -0.061732385 0.11905288 -0.14072773 0.06562576 -0.13096046
-0.03664159 -0.01537111 -0.1440198 -0.084974006 -0.06126155 -0.020976124 0.031359915 -0.10636569
0.12503052 0.0232483 0.018901687 0.03440157 -0.09663914 -0.002381732 -0.13523471 0.14834872
-0.05737307 -0.14203823 0.013516022 -0.11208641 -0.13123535 -0.10772005 -0.02265342 0.053968072
-0.101639085 -0.022913923 -0.0345628 -0.108810306 0.06338514 0.1071869 -0.06932262 -0.041516326
0.048136275 -0.066998854 0.028763577 0.10741468 -0.07317306 0.14958178 0.15165906 0.0439581
-0.08871047 -0.034703698 -0.041549247 0.02717921 -0.21499103 -0.15782604 0.059307292 0.038098138
0.109890714 0.10876313 0.076743215 0.20370784 0.036296554 -0.050872754 0.17074633 -0.08727295
-0.104659036 0.106399596 -0.10327251 0.008113483 0.051138323 0.046738338 -0.040416997 0.027291
0.049940154 0.05391917 0.051131874 -0.15708174 0.07268208 -0.08949812 -0.09951683 -0.060753882
-0.047993846 0.027501732 0.027085045 0.05591383 0.036110584 -0.021124547 -0.07104552 -0.014946811
-0.1538248 -0.0049438737 0.18963423 0.08987315 0.09362048 0.061768398 0.028098537 -0.09017177
-0.09081252 -0.1281052 -0.08497975 -0.008282782 -0.061664395 -0.112289205 0.00047584623 -0.091136046
-0.12530702 -0.12320159 0.03975109 0.013487541 -0.14551635 -0.124195725 0.055570442 0.19057232
0.035650037 0.11986674 -0.121646464 0.133499 0.07759114 -0.08220898 0.07775707 -0.04145256
0.045486525 -0.1926197 -0.07644953 -0.14480303 -0.061906435 0.20355305 -0.047361724 0.040522803
-0.03328103 -0.05625566 -0.09071682 -0.16316465 -0.18143474 0.07829862 -0.2307181 -0.14085032
0.04507283 0.09295539 -0.038233995 -0.10655379 0.16674964 -0.0066066487 -0.12758608 0.04323759
0.20051207 0.08423398 0.11059943 -0.07444764 -0.02767048 0.15008558 -0.14472833 -0.1449747
-0.096552 0.072260976 0.037312575 -0.04389223 0.12732083 0.02902133 -0.15182135 -0.14550336
00000000: aad9 9abc 1b40 a13c d101 d3bd 84f5 adbd
00000010: 50a4 883d 3f61 b5bd b67d 2f3d 5b21 94bc
00000020: 8d03 c63d 6dcd 1dbd ce00 dd3d 6e61 85bb
00000030: 1b33 aebd fcc9 ec3c a6b6 c0bd 292c 173d
00000040: be80 96bd e367 973c 0347 ecbc 975c 22bd
00000050: 0f48 07be 9680 52bd e7e2 023e 37cb b03d
00000060: 071c 83bd 1a14 933c 80e7 1c3d 3c9b c03d
00000070: 0cf6 d53d f41a acbd 06e2 14bd 23ad 003e
00000080: b150 803c 029f adbd 8690 9dbd f65c 9bbd
00000090: 56c6 13be ac68 d2bd 42ab 1b3e 270a 97bc
000000a0: 5321 d13d 800a 11be 63d8 933d 3ca5 713d
000000b0: deac 12be 8fd1 17bd ee22 243d 375b f6bd
000000c0: eb19 713d 1a85 b63d f0a4 0ebe 0067 71bd
000000d0: 66eb db3d 5f59 5fbc fc5b b7bd b6b8 1c3d
000000e0: 24ee 01be 4664 513d 7250 b5bd 7ad0 633d
000000f0: 2d9b a6bd 3c6a 3bbd 998c 91bd 1be8 a33d
00000100: 44c2 0fbe 1bd1 bd3d efd9 a23d 1ec9 dcbd
00000110: 9fb7 d33d 1d9e e83d 3181 c5bd 451c 653c
00000120: c8f4 1c3d 2fac acbc 1e18 e43d 6d39 1fbd
00000130: 4d10 57bd 1e04 313d e971 a83d 72ab f73d
00000140: f817 1cbe ff93 1bbd ebb7 8abd ac5e 65bd
00000150: c1df 2abd c180 b0bd 171c b9bd 6989 a9bd
00000160: 9e99 d4bd 26c1 783d c5e2 ab3d dbcc 8ebd
00000170: 59ee 133e 3328 663d 7eed edbd 640a 953d
00000180: f331 5f3c dc48 053e 9be2 5abc 19db 7cbd
00000190: ffd1 f33d ee1a 10be cc66 863d 801a 06be
000001a0: 7e15 16bd 1cd7 7bbc ed79 13be da06 aebd
000001b0: 64ed 7abd 1fd6 abbc 4173 003d 41d6 d9bd
000001c0: 0008 003e 3873 be3c b6d7 9a3c a9e8 0c3d
000001d0: beea c5bd d516 1cbb f87a 0abe bae8 173e
000001e0: 0600 6bbd 7872 11be 4e72 5d3c 8f8d e5bd
000001f0: 8f62 06be 549c dcbd aa93 b9bc a00d 5d3d
00000200: 2728 d0bd fbb5 bbbc b991 0dbd f0d7 debd
00000210: 11d0 813d ce84 db3d 05f9 8dbd 060d 2abd
00000220: 8b2a 453d b236 89bd 98a1 eb3c 3afc db3d
00000230: c2db 95bd f72b 193e 834c 1b3e 690d 343d
00000240: d6ad b5bd 7725 0ebd 8b2f 2abd efa6 de3c
00000250: 9c26 5cbe 269d 21be 34ec 723d cb0c 1c3d
00000260: 620e e13d 34bf de3d 8c2b 9d3d ca98 503e
00000270: b2ab 143d f35f 50bd 20d8 2e3e 29bc b2bd
00000280: 7a57 d6bd 08e8 d93d 8a80 d3bd 6aee 043c
00000290: 6b76 513d b370 3f3d 4b8c 25bd 6091 df3c
000002a0: 0c8e 4c3d 59da 5c3d a86f 513d 09da 20be
000002b0: 58da 943d ca4a b7bd 7bcf cbbd 10d9 78bd
000002c0: 3295 44bd 504b e13c 75e1 dd3c e605 653d
000002d0: b1e8 133d 630d adbc 5080 91bd 78e3 74bc
000002e0: 4084 1dbe 3800 a2bb 7a2f 423e 6a0f b83d
000002f0: 18bc bf3d dc00 7d3d e72e e63c faab b8bd
00000300: eafb b9bd 022e 03be dd09 aebd 81b4 07bc
00000310: ce93 7cbd e2f7 e5bd 007b f939 89a5 babd
00000320: 7c50 00be 1d51 fcbd 0ad2 223d d9fa 5c3c
00000330: 3d02 15be 545a febd d59d 633d 6425 433e
00000340: c605 123d b27c f53d c821 f9bd f6b3 083e
00000350: 1be8 9e3d 2f5d a8bd 193f 9f3d 29ca 29bd
00000360: 1450 3a3d 193e 45be 9291 9cbd 3f47 14be
00000370: 9a91 7dbd 3670 503e 5efe 41bd 3dfb 253d
00000380: b051 08bd 566c 66bd bdc9 b9bd a214 27be
00000390: 07ca 39be 075b a03d 5e41 6cbe 113b 10be
000003a0: 4a9e 383d 655f be3d 409b 1cbd e038 dabd
000003b0: 6bc0 2a3e 967c d8bb eda5 02be e619 313d
000003c0: 0953 4d3e dd82 ac3d f481 e23d 0178 98bd
000003d0: 34ad e2bc 09b0 193e aa33 14be 3f74 14be
000003e0: 0ebd c5bd 90fd 933d 12d5 183d 57c8 33bd
000003f0: 6460 023e 24be ed3c 0e77 1bbe d5fe 14be

bias f4 [128]
0.0 -0.027136885 1.9990888e-07 0.0 0.053979762 1.2211575e-06 0.03454676 -0.0041945567
-0.01876588 -0.05906847 5.627593e-05 0.020442422 0.049912393 -0.00020295035 0.049502496 -1.6316882e-05
-0.014887628 0.00010080471 -0.024891824 0.09778841 -0.015461796 -0.00037082145 0.020851647 0.036055386
0.018249173 -0.005383794 0.005836959 -0.022101259 0.03582373 -0.041289773 0.1886583 0.009920371
1.7686529e-05 0.0 0.065955356 -0.036644917 -0.0003011521 0.0 -0.00068254233 -0.0028209335
-0.037384532 -0.00035572937 0.0 0.040249106 0.0056748567 0.06872881 0.05790379 0.046267994
0.0 -0.05341805 -0.014193075 -0.00045087645 0.05171683 0.0631048 -0.01641379 -0.047529418
0.0738589 0.023250919 0.08524123 0.074880034 0.04844012 -0.0011845513 0.19323067 0.025713522
0.031684484 0.0 -0.004709105 0.035470624 -0.14794043 -0.061787497 -3.2732632e-06 0.020847939
-0.0028705273 0.03536106 0.074009754 -9.067829e-05 8.07007e-06 -0.07739697 0.022889901 8.169526e-06
0.0076046376 0.0019117836 -0.019321213 0.015163026 0.05990806 -0.006805284 -0.017804116 0.011628022
1.1510538e-07 0.043673217 0.023456665 0.071031615 -2.1258548e-07 -0.009542111 -0.0011147406 0.023945913
0.03371958 -0.0004912102 -0.052895207 0.00040691753 0.024763122 -0.0054216506 -0.10009263 0.14714117
-0.00095675903 0.01919837 0.04369247 0.025711112 -0.031800207 0.07730782 0.04539974 0.016034542
0.0 3.8144204e-08 -0.005770011 0.19624099 0.026765678 -0.00022135224 -0.015793094 0.023805233
0.02690536 0.0045342487 0.00056395854 0.023167506 0.0 0.009995129 0.027299885 0.0070493864
00000000: 0000 0000 2c4e debc 89a6 5634 0000 0000
00000010: e219 5d3d a7e6 a335 e780 0d3d 7e72 89bb
00000020: e7ba 99bc c8f1 71bd d209 6c38 de76 a73c
00000030: f070 4c3d 12cf 54b9 21c3 4a3d 3de0 88b7
00000040: 3deb 73bc 1e67 d338 f0e9 cbbc 4a45 c83d
00000050: 7953 7dbc d06a c2b9 13d1 aa3c d0ae 133d
00000060: 4a7f 953c 8a6a b0bb f643 bf3b b30d b5bc
00000070: e7bb 123d 771f 29bd a42f 413e 0d89 223c
00000080: 885d 9437 0000 0000 9a13 873d fb18 16bd
00000090: f3e3 9db9 0000 0000 a4ec 32ba 69df 38bb
000000a0: 8620 19bd 3081 bab9 0000 0000 3fdc 243d
000000b0: 26f4 b93b b1c1 8c3d 862c 6d3d 8283 3d3d
000000c0: 0000 0000 e3cc 5abd 128a 68bc 9d63 ecb9
000000d0: 07d5 533d 173d 813d 3676 86bc 35ae 42bd
000000e0: 5643 973d b678 be3c f492 ae3d b45a 993d
000000f0: 2669 463d f242 9bba 43de 453e 2aa5 d23c
00000100: 97c7 013d 0000 0000 d64e 9abb a549 113d
00000110: b27d 17be e314 7dbd 3caa 5bb6 4cc9 aa3c
00000120: 751f 3cbb c2d6 103d 6d92 973d 892a beb8
00000130: b064 0737 4d82 9ebd 9a83 bb3c d90f 0937
00000140: 5330 f93b d094 fa3a 8547 9ebc 576e 783c
00000150: 2762 753d dcfe debb f0d9 91bc 7683 3e3c
00000160: da2f f733 b0e2 323d 3128 c03c 0679 913d
00000170: 0d43 64b4 8456 1cbc 7d1c 92ba 382a c43c
00000180: 8b1d 0a3d 8fc4 00ba a5a8 58bd 8c57 d539
00000190: 08dc ca3c 1aa8 b1bb 5dfd ccbd 2dac 163e
000001a0: 03cf 7aba e645 9d3c e0f6 323d 1ca0 d23c
000001b0: ef40 02bd 9053 9e3d 14f5 393d df5a 833c
000001c0: 0000 0000 ffd3 2333 5c12 bdbb 66f3 483e
000001d0: b243 db3c ca1a 68b9 8560 81bc 3103 c33c
000001e0: a168 dc3c 0994 943b 9ed6 133a c8c9 bd3c
000001f0: 0000 0000 9cc2 233c 02a4 df3c 8afe e63b

weight f4 [128, 128]
0.10008091 -0.024634302 0.111270204 0.084826946 0.0020196773 -0.13890676 0.27850348 -0.12025549
0.03463633 -0.009355868 -0.12766321 0.08708507 -0.11123886 -0.049610186 0.14729394 0.01878769
0.22095807 -0.08748613 0.2022388 0.15992859 0.34190387 -0.07069614 0.08391139 0.06691889
-0.060146265 -0.0699903 0.14242192 0.12345375 -0.11475766 0.11860078 -0.014554843 0.15714116
-0.047631938 0.12168361 0.12031108 0.20949607 -0.1200565 0.0022306212 0.026424166 -0.0273154
0.23208795 0.11465205 0.0036542402 0.09637806 0.19639823 -0.078195676 0.15143704 0.25959903
-0.1377678 0.43595237 0.18919098 -0.15025288 -0.078438565 -0.1031855 0.15676817 -0.056131747
0.1628369 0.20371714 0.15375853 0.102045745 0.055691727 -0.007469654 0.036185645 -0.0839484
0.17878267 0.06713522 0.010439996 0.15802848 0.041178808 0.37598526 -0.057416655 -0.087635525
0.10163074 0.120800056 -0.09852934 0.016325485 -0.012735393 0.14482664 0.10458681 -0.13313729
-0.06770259 -0.057996012 0.035799008 0.05984456 0.14063153 -0.044270404 -0.06726687 0.2303642
0.10971872 -0.025592037 0.2845699 0.15718521 0.06267348 0.16423205 -0.036264334 0.30781624
0.35302424 0.00497874 0.1537915 0.096492305 0.27687913 0.053606346 0.15144473 -0.012460403
0.07439457 0.20698437 0.016446235 -0.02185028 0.08718372 0.060914565 0.055378348 0.052579716
0.101766035 0.111606464 0.026020177 0.17039075 0.26767123 0.07431856 0.0044934154 0.20262825
-0.08412427 0.051353533 0.02246038 0.03298454 0.05602605 0.013501739 0.15755059 0.05859568
0.12209802 0.02598775 -0.12902741 0.08167028 0.1674711 -0.14756532 0.028538546 -0.042886186
0.09780484 0.06922494 0.075304165 0.1384181 0.13504444 -0.088023484 0.11205298 -0.034455758
0.16671745 -0.115393706 -0.001509957 -0.06979422 -0.093181364 -0.15173233 -0.100653686 -0.019767154
0.102610454 -0.15253025 0.080242515 0.11357337 -0.018377654 0.030397238 -0.057675608 -0.016071577
-0.06418095 0.093182385 -0.04043074 0.11390139 0.053954884 0.1284929 0.006726039 0.1139698
-0.109772034 -0.021934485 -0.032320328 -0.057429664 -0.105983205 0.15945436 0.034510575 0.093596675
0.030326538 0.08168478 -0.119613566 -0.006568957 0.07566804 0.0077454657 -0.03576537 0.047626436
-0.103514224 0.07000075 0.05747348 -0.123041004 0.105308905 -0.13010459 0.120577164 -0.10227522
-0.115486376 0.024958884 -0.004195852 0.15435538 -0.0633543 0.14410272 0.03734805 0.02588619
0.029188696 0.07231145 0.11266162 0.0130204735 0.13654853 -0.1276202 -0.0512171 -0.050813004
-0.1041147 -0.11243914 -0.08681502 0.043755643 -0.056310657 -0.12729502 0.07353671 0.15927546
0.055531155 -0.090652645 0.20074308 0.027668318 -0.007396554 0.021320477 0.13406721 -0.08866377
-0.10958097 0.0559573 -0.06174765 -0.057324015 0.0049956515 0.12116539 -0.04657714 0.047433663
-0.13712083 0.08691149 -0.11889961 0.0048455815 0.034327433 -0.041676648 0.04080385 0.04968333
-0.094872326 -0.12663686 0.14273436 -0.14207329 -0.040869772 0.07758357 -0.0085637085 -0.032283936
0.017978134 -0.021463871 0.066943094 -0.051174857 0.037093263 -0.14492866 -0.0073944125 0.15222993
00000000: 38f7 cc3d e0cd c9bc a2e1 e33d c0b9 ad3d
00000010: 905c 043b 933d 0ebe 0298 8e3e 8348 f6bd
00000020: d3de 0d3d 5b49 19bc 25ba 02be a859 b23d
00000030: 33d1 e3bd 0d34 4bbd 39d4 163e a4e8 993c
00000040: d542 623e ee2b b3bd b017 4f3e 52c4 233e
00000050: 060e af3e 23c9 90bd bcd9 ab3d c50c 893d
00000060: ee5b 76bd 1357 8fbd 0dd7 113e 52d5 fc3d
00000070: 1006 ebbd f7e4 f23d 7077 6ebc 9de9 203e
00000080: b519 43bd 4235 f93d a865 f63d 2386 563e
00000090: 2fe0 f5bd 9d2f 123b 7e77 d83c 8cc4 dfbc
000000a0: 77a8 6d3e b2ce ea3d fa7b 6f3b dc61 c53d
000000b0: 9e1c 493e 0e25 a0bd 5012 1b3e 2aea 843e
000000c0: 0113 0dbe 2635 df3e 48bb 413e e4db 19be
000000d0: 66a4 a0bd eb52 d3bd d687 203e 67ea 65bd
000000e0: b7be 263e 3a9b 503e e072 1d3e 5cfd d03d
000000f0: 021d 643d 00c4 f4bb 6637 143d 24ed abbd
00000100: ce12 373e 317e 893d 840c 2b3c 38d2 213e
00000110: 1cab 283d 2481 c03e ba2d 6bbd 417a b3bd
00000120: c723 d03d 0566 f73d c0c9 c9bd 06bd 853c
00000130: 1ca8 50bc 6f4d 143e 9c31 d63d 2455 08be
00000140: a8a7 8abd 3a8d 6dbd fba1 123d 921f 753d
00000150: b601 103e e254 35bd 36c3 89bd 98e4 6b3e
00000160: 35b4 e03d 64a6 d1bc 25b3 913e 29f5 203e
00000170: f45a 803d 722c 283e e989 14bd 179a 9d3e
00000180: 98bf b43e b324 a33b 857b 1d3e c29d c53d
00000190: 1ac3 8d3e 5492 5b3d 5414 1b3e b826 4cbc
000001a0: 2e5c 983d b6f3 533e 41ba 863c 5cff b2bc
000001b0: 618d b23d 8d81 793d 68d4 623d d45d 573d
000001c0: b66a d03d ee91 e43d 4428 d53c ea7a 2e3e
000001d0: 340c 893e 5434 983d 803d 933b c87d 4f3e
000001e0: 5849 acbd 1558 523d d5fe b73c cc1a 073d
000001f0: 927b 653d 6636 5d3c f154 213e 0602 703d
00000200: 870e fa3d 43e4 d43c c31f 04be bf42 a73d
00000210: 8b7d 2b3e 5d1b 17be abc9 e93c 6da9 2fbd
00000220: e74d c83d cec5 8d3d 1239 9a3d 79bd 0d3e
00000230: 1749 0a3e a845 b4bd 087c e53d 7b21 0dbd
00000240: fbb7 2a3e 8953 ecbd c0e9 c5ba 46f0 8ebd
00000250: dfd5 bebd b85f 1bbe 8523 cebd baee a1bc
00000260: 6e25 d23d e430 1cbe 3056 a43d 2899 e83d
00000270: bc8c 96bc a103 f93c 423d 6cbd 8aa8 83bc
00000280: 4d71 83bd 68d6 be3d b49a 25bd 2245 e93d
00000290: ccff 5c3d a593 033e 1b66 dc3b 0069 e93d
000002a0: 29d0 e0bd f3af b3bc 5262 04bd 5e3b 6bbd
000002b0: b90d d9bd 0148 233e f65a 0d3d 9daf bf3d
000002c0: 5c6f f83c 5a4a a73d f5f7 f4bd 6840 d7bb
000002d0: d8f7 9a3d adcd fd3b b57e 12bd f013 433d
000002e0: 44ff d3bd 8e5c 8f3d 5069 6b3d ecfc fbbd
000002f0: 32ac d73d 233a 05be 29f1 f63d ac75 d1bd
00000300: 1f84 ecbd 9376 cc3c 5c7d 89bb 560f 1e3e
00000310: e6bf 81bd aa8f 133e 45fa 183d 460f d43c
00000320: 221d ef3c 0718 943d 23bb e63d d353 553c
00000330: 61d3 0b3e dfae 02be 06c9 51bd 4c21 50bd
00000340: 163a d5bd 7e46 e6bd 13cc b1bd 1e39 333d
00000350: 01a6 66bd a059 02be 6a9a 963d 1b19 233e
00000360: a374 633d 18a8 b9bd 988f 4d3e aba8 e23c
00000370: cb5e f2bb 48a8 ae3c ea48 093e 5a95 b5bd
00000380: fd6b e0bd 7b33 653d 1beb 7cbd 96cc 6abd
00000390: 90b2 a33b 8f25 f83d acc7 3ebd cd49 423d
000003a0: 6769 0cbe a7fe b13d a481 f3bd afc7 9e3b
000003b0: ec9a 0c3d 22b5 2abd f021 273d bf80 4b3d
000003c0: 6c4c c2bd 18ad 01be f528 123e a97b 11be
000003d0: 1067 27bd 22e4 9e3d cc4e 0cbc 293c 04bd
000003e0: e146 933c 00d5 afbc 7619 893d ba9c 51bd
000003f0: 1bef 173d 2e68 14be d44c f2bb 2ae2 1b3e

bias f4 [128]
0.048204582 0.018155543 -0.044513445 0.12274802 0.018301602 0.07974329 -0.037127335 0.0009890161
0.0 -0.0059740166 -0.020449163 0.120993376 0.00069562986 0.01505743 -0.022413675 -0.007183465
-0.05670781 0.065929726 -0.030379819 -0.008655855 0.02817831 -0.00081809337 0.00039609103 0.0
0.000113155686 -3.3764118e-06 0.0 -0.002355387 0.09112149 0.0 0.11557553 0.06763094
0.0 0.00054476166 -8.14775e-05 -0.00035110605 -0.07984617 0.03966356 2.2876158e-08 0.03290383
0.046183463 0.012340016 0.0 0.0 -0.013840146 -0.009700122 0.08584016 0.019529782
0.026133545 -0.01604564 0.019881586 -0.047658525 0.0 0.00013056504 -0.06894308 0.024974594
-0.0002725293 0.0 -0.0065964223 0.00016112428 -0.0011165781 0.015398381 0.008492452 -0.013627485
0.0 -0.003647986 -5.798229e-05 0.037664704 -0.00041359343 0.0076280865 -0.005096441 -0.0010147368
0.03550322 -0.03138654 0.014106198 0.05059122 -1.3923727e-07 0.017978832 -0.037463766 0.019249912
-0.0729288 -0.03654222 -2.211712e-05 0.0 -0.00016409557 0.0001358912 0.0 0.079088844
0.054685507 -0.019582357 -0.0753197 0.0 0.018723994 -0.0009826706 -0.03465266 0.00477742
-0.019554254 -0.00077493605 -0.008810473 -0.056788795 -0.08579543 -0.0023009514 0.0 0.019147359
9.7807526e-05 0.0427693 0.023875302 -0.010274463 0.0 0.05335058 -4.820369e-07 0.07247529
-1.6079868e-05 -0.00288082 0.0 0.012895248 0.008417776 -0.010258555 -0.038013402 2.2042448e-05
-0.00034053798 -0.021724105 -0.0064387205 0.029430097 0.006959602 -8.268492e-06 0.060177084 -0.025365932
00000000: 2b72 453d efba 943c bb53 36bd 5063 fb3d
00000010: 3eed 953c 7350 a33d d512 18bd e0a1 813a
00000020: 0000 0000 afc1 c3bb 0185 a7bc 60cb f73d
00000030: ee5a 363a 70b3 763c e29c b7bc 4663 ebbb
00000040: 7346 68bd 2a06 873d 19df f8bc 4ad1 0dbc
00000050: 33d6 e63c 5175 56ba 70aa cf39 0000 0000
00000060: ff4d ed38 5096 62b6 0000 0000 d65c 1abb
00000070: e79d ba3d 0000 0000 ddb2 ec3d 1782 8a3d
00000080: 0000 0000 56ce 0e3a e6de aab8 a814 b8b9
00000090: 6486 a3bd 4276 223d 3481 c432 2bc6 063d
000000a0: df2a 3d3d c72d 4a3c 0000 0000 0000 0000
000000b0: c8c1 62bc 43ed 1ebc f7cc af3d ecfc 9f3c
000000c0: 0416 d63c 2572 83bc b5de a23c 9635 43bd
000000d0: 0000 0000 49e8 0839 0832 8dbd 8597 cc3c
000000e0: 43e2 8eb9 0000 0000 cd26 d8bb 78f3 2839
000000f0: 255a 92ba 7e49 7c3c ed23 0b3c d145 5fbc
00000100: 0000 0000 0d13 6fbb 0332 73b8 4e46 1a3d
00000110: 92d7 d8b9 07f5 f93b 0c00 a7bb eb00 85ba
00000120: d36b 113d 2c8f 00bd af1d 673c bd38 4f3d
00000130: 4081 15b4 5848 933c 9b73 19bd feb1 9d3c
00000140: b25b 95bd 4bad 15bd 2788 b9b7 0000 0000
00000150: 1211 2cb9 047e 0e39 0000 0000 55f9 a13d
00000160: e9fd 5f3d 2e6b a0bc 3741 9abd 0000 0000
00000170: 1063 993c f4cc 80ba f3ef 0dbd e78b 9c3b
00000180: 3e30 a0bc 1425 4bba cd59 10bc 5e9b 68bd
00000190: 84b5 afbd 8fcb 16bb 0000 0000 ecda 9c3c
000001a0: 041e cd38 dd2e 2f3d 2396 c33c 3956 28bc
000001b0: 0000 0000 2386 5a3d 5365 01b5 ed6d 943d
000001c0: 41e3 86b7 24cc 3cbb 0000 0000 9746 533c
000001d0: b6ea 093c 8013 28bc f1b3 1bbd cce7 b837
000001e0: 3c8a b2b9 c0f6 b1bc e7fb d2bb 6317 f13c
000001f0: 5f0d e43b e7b8 0ab7 3f7c 763d 37cc cfbc

weight f4 [128, 128]
0.0035632327 -0.116076335 0.38214403 0.34609944 0.0831122 0.18509893 -0.038138654 -0.06427858
0.14405376 -0.07520554 0.026645418 0.34203246 -0.009866742 0.19868833 0.28755686 0.20299864
0.24593431 0.13816944 0.11467491 0.21187481 0.0067286193 -0.12849014 0.22836581 0.14400895
0.104847744 0.12739637 -0.04001058 -0.05701471 -0.005438572 0.02674508 -0.0868767 0.2327066
0.084606975 -0.14287454 0.14623305 0.07925653 0.3110399 0.011902831 -0.054372475 0.030967318
0.10839522 0.13590749 0.00431984 0.08432821 0.18135959 0.09370722 -0.039038885 0.013718845
0.15245262 0.30169466 0.15576419 0.14579444 -0.090664744 -0.1206691 0.33096972 0.12711172
0.08349286 0.04683735 0.36608648 0.01993212 -0.13761802 0.09654766 -0.10627516 0.22186662
-0.047992088 -0.05997251 0.028613828 -0.020219393 0.15200812 -0.07437751 0.034790173 -0.0356398
0.13498366 0.14298075 -0.028362917 0.013355177 0.1180472 0.15036333 0.24406537 0.42437127
0.009158049 0.31796 0.0005297202 -0.1461695 0.15195993 -0.085367344 0.069712125 0.110251635
-0.060810752 0.1516517 0.3670134 -0.03461643 -0.14766528 0.09386765 0.1363432 0.052384682
0.4434115 0.039080057 0.15594518 0.23832513 0.3652204 -0.031823028 -0.1058741 0.20856808
-0.029403564 0.11556492 0.12292625 0.095004864 0.09578951 -0.13948457 0.012713095 -0.03905947
-0.13475117 -0.039529964 0.12553222 0.028075984 0.0064587463 0.12616588 0.33082098 0.06567442
-0.08059093 0.02603394 0.16052195 0.15655121 0.048977155 -0.15117994 0.1609748 0.00041201152
0.08060223 0.10848425 -0.12645166 0.09797978 -0.04929206 0.10801262 -0.15094306 0.027278
0.11428126 0.11473888 0.11774161 -0.083403036 -0.10266319 -0.09671979 0.10368684 -0.0437927
-0.08149583 -0.075974874 -0.11196539 0.08868099 -0.12860501 0.122603565 -0.10988968 0.113999546
0.02539499 -0.02579839 -0.11064213 -0.017399957 0.05764657 0.05968171 0.046262998 -0.107401855
0.0802527 0.009081096 -0.009306485 -0.124388225 -0.013123188 -0.08697497 0.10792432 -0.0011744318
0.0038545534 -8.064729e-05 -0.05112379 0.11660893 0.11695173 0.076420665 -0.032023706 0.069531046
-0.13095844 0.122685656 -0.0827683 0.08494707 -0.0037978867 0.143994 0.14948569 -0.104495764
-0.12888445 0.018020079 -0.1229155 0.115106545 -0.0073274784 0.03690326 0.1417089 0.035230454
-0.14123285 0.14752723 -0.031084063 -0.06956313 -0.00636139 0.0070628333 -0.04265796 -0.08619211
-0.059230696 -0.109899916 -0.13702679 0.02358779 -0.034187388 0.0760584 -0.11885344 0.108356334
-0.100383624 -0.07979699 -0.0859778 0.123089075 0.096097 -0.11721943 -0.008531348 0.07844021
-0.14649467 -0.02059811 0.010967484 -0.1431737 0.0011740851 0.025474505 0.0034548575 -0.13318461
-0.1252224 -0.12786995 -0.025683487 0.096931435 -0.118838765 -0.0924795 0.092096284 0.07698976
-0.15033185 0.04830539 -0.07383857 -0.07528473 -0.107936405 0.11219717 -0.07684372 0.05881724
-0.02825752 -0.13904147 0.11864957 0.06640089 -0.0067859427 -0.045796726 0.0028841945 -0.025998777
-0.13520533 0.14731216 -0.05153942 -0.01724861 -0.085089765 0.11451075 -0.14941208 0.14084071
00000000: 2085 693b 6eb9 edbd 62a8 c33e f233 b13e
00000010: bb36 aa3d 938a 3d3e 4737 1cbd 7da4 83bd
00000020: d482 133e 5d05 9abd 7e47 da3c e11e af3e
00000030: 1ea8 21bc f474 4b3e a73a 933e e0de 4f3e
00000040: 34d6 7b3e 4a7c 0d3e aeda ea3d b6f5 583e
00000050: c07b dc3b eb92 03be bad8 693e 1577 133e
00000060: 6aba d63d 3274 023e 22e2 23bd 4288 69bd
00000070: 0c36 b2bb 7f18 db3c 69ec b1bd a44a 6e3e
00000080: 6c46 ad3d b44d 12be 1ebe 153e 3f51 a23d
00000090: 9f40 9f3e 1704 433c acb5 5ebd 2caf fd3c
000000a0: 50fe dd3d 552b 0b3e 728d 8d3b 45b4 ac3d
000000b0: 54b6 393e 92e9 bf3d 3de7 1fbd 02c5 603c
000000c0: 8a1c 1c3e b977 9a3e a680 1f3e 234b 153e
000000d0: 70ae b9bd 5c21 f7bd dd74 a93e 9329 023e
000000e0: 4efe aa3d 85d8 3f3d b06f bb3e af48 a33c
000000f0: bdeb 0cbe c8ba c53d cba6 d9bd 0131 633e
00000100: 5a93 44bd bca5 75bd 8c67 ea3c 24a3 a5bc
00000110: 04a8 1b3e 3c53 98bd 2480 0e3d 0afb 11bd
00000120: 2839 0a3e 8c69 123e 5959 e8bc accf 5a3c
00000130: bbc2 f13d d8f8 193e 46ec 793e 3147 d93e
00000140: a40b 163c a7cb a23e ecdc 0a3a 75ad 15be
00000150: 629b 1b3e 13d5 aebd 3bc5 8e3d 9ccb e13d
00000160: b214 79bd 954a 1b3e 2ee9 bb3e f5c9 0dbd
00000170: 9135 17be af3d c03d 8d9d 0b3e 5291 563d
00000180: d506 e33e 6912 203d 18b0 1f3e 810b 743e
00000190: 2bfe ba3e dd58 02bd 85d4 d8bd df92 553e
000001a0: bedf f0bc 4dad ec3d c2c0 fb3d e991 c23d
000001b0: 4a2d c43d 0bd5 0ebe 964a 503c d3fc 1fbd
000001c0: 36fc 09be 2cea 21bd 858b 003e 9bff e53c
000001d0: e4a3 d33b a131 013e 5e61 a93e 4f80 863d
000001e0: dc0c a5bd 2145 d53c de5f 243e f64e 203e
000001f0: 459c 483d eace 1abe 94d6 243e 4003 d839
00000200: c812 a53d fe2c de3d 8b7c 01be 9fa9 c83d
00000210: 79e6 49bd b835 dd3d d190 1abe 1d76 df3c
00000220: 4b0c ea3d 38fc ea3d 8322 f13d 36cf aabd
00000230: 1441 d2bd 0615 c6bd c459 d43d f95f 33bd
00000240: 49e7 a6bd b798 9bbd 1c4e e5bd 619e b53d
00000250: 08b1 03be 9417 fb3d d70d e1bd 9878 e93d
00000260: 2709 d03c 2557 d3bc 5798 e2bd 5b8a 8ebc
00000270: cf1e 6c3d cf74 743d 457e 3d3d 81f5 dbbd
00000280: 875b a43d e1c8 143c 3a7a 18bc 41bf febd
00000290: a402 57bc ef1f b2bd 6d07 dd3d 64ef 99ba
000002a0: ad9c 7c3b 2f21 a9b8 2e67 51bd aad0 ee3d
000002b0: 6384 ef3d 7082 9c3d 4a2b 03bd 4b66 8e3d
000002c0: f819 06be 9e42 fb3d 6d82 a9bd bbf8 ad3d
000002d0: f7e5 78bb 2a73 133e c712 193e e001 d6bd
000002e0: 49fa 03be d89e 933c 1fbb fbbd fbbc eb3d
000002f0: 581b f0bb df27 173d 231c 113e cf4d 103d
00000300: 589f 10be 6111 173e 01a4 febc 1d77 8ebd
00000310: 3573 d0bb 576f e73b 1dba 2ebd 7d85 b0bd
00000320: e39b 72bd 3513 e1bd c050 0cbe 2e3b c13c
00000330: 1308 0cbd 82c4 9b3d 6f69 f3bd ede9 dd3d
00000340: ee95 cdbd 9b6c a3bd 2115 b0bd 2016 fc3d
00000350: 81ce c43d be10 f0bd 11c7 0bbc 43a5 a03d
00000360: b302 16be 5ebd a8bc f6b0 333c 209c 12be
00000370: c2e3 993a e9af d03c e46a 623b 8c61 08be
00000380: 4d3a 00be 57f0 02be 2d66 d2bc fd83 c63d
00000390: bd61 f3bd e465 bdbd fa9c bc3d cfac 9d3d
000003a0: 98f0 19be dfdb 453d ad38 97bd e12e 9abd
000003b0: c30d ddbd a1c7 e53d 3e60 9dbd 59ea 703d
000003c0: 517c e7bc e360 0ebe 8cfe f23d 31fd 873d
000003d0: 9d5c debb 5995 3bbd c104 3d3b 63fb d4bc
000003e0: 4473 0abe 00d9 163e 001b 53bd f54c 8dbc
000003f0: 8b43 aebd 9d84 ea3d 7bff 18be 8c38 103e

bias f4 [128]
0.018980682 0.0 0.0 0.013153203 0.04617332 -0.041269384 0.0003154198 -0.021651339
0.016659055 4.3728072e-05 -0.000152405 -0.022261498 0.043753136 -0.00020404799 0.0017364045 -0.060759343
-0.0042710816 0.06953621 0.019480271 0.0 -0.06482195 -0.07900962 0.03430021 -0.07983953
-0.041202817 3.7252932e-05 0.0 0.0 -0.008821467 0.025686 0.018907884 0.01874585
0.024821531 0.0 -0.006277354 0.0 3.1764632e-06 -0.014693249 -0.032476142 0.017262965
0.0 -0.05834432 0.018523235 -0.009292943 0.018323338 0.010333537 -2.8912284e-05 0.08387023
0.015374319 -7.91957e-05 0.04083154 0.096844755 0.0033352547 0.0015049037 0.09668912 -0.018644623
0.029431958 0.0 -0.0015068325 0.0 -0.035672735 -0.020348504 -0.04720753 0.006191483
-0.0023783566 0.12580843 0.010276161 0.0 -0.024958778 0.019876009 0.015745101 0.0
0.0 0.07213838 0.04632223 -0.016088463 -0.034587014 0.0 -0.023273107 0.03800601
0.10455982 -0.00031229726 0.04410759 -0.00029393448 0.08595626 0.0 0.0 0.0
0.03977072 0.0627093 0.0 -0.01304364 -0.0051162946 0.025877073 0.06725219 0.003823826
0.056732915 0.0062143956 5.9023514e-05 0.0054786894 6.554735e-05 -0.048975714 8.4385974e-05 0.042370472
0.0 0.0 0.0 0.0 -0.0005993817 -0.029380802 -0.024307584 0.059471857
0.026497655 0.0 -0.041393682 0.035113893 -0.0007748161 -2.2121405e-05 9.0826616e-05 0.014920546
0.015955167 0.0 -0.030483345 0.0 -0.06282088 0.06734256 -0.001288052 -0.07118987
00000000: 607d 9b3c 0000 0000 0000 0000 8880 573c
00000010: 3c20 3d3d 160a 29bd ee5e a539 265e b1bc
00000020: 9278 883c a968 3738 e8ce 1fb9 bf5d b6bc
00000030: 7d36 333d b7f5 55b9 1198 e33a cade 78bd
00000040: 6ef4 8bbb 0069 8e3d 1795 9f3c 0000 0000
00000050: 5fc1 84bd cccf a1bd 617e 0c3d e882 a3bd
00000060: 49c4 28bd 0840 1c38 0000 0000 0000 0000
00000070: ea87 10bc 726b d23c b5e4 9a3c e690 993c
00000080: 8656 cb3c 0000 0000 43b2 cdbb 0000 0000
00000090: 392b 5536 f4bb 70bc b405 05bd 106b 8d3c
000000a0: 0000 0000 74fa 6ebd 0abe 973c 6e41 18bc
000000b0: d31a 963c ff4d 293c a888 f2b7 28c4 ab3d
000000c0: 91e4 7b3c de15 a6b8 f93e 273d 8b56 c63d
000000d0: 4a94 5a3b 3040 c53a f204 c63d 9cbc 98bc
000000e0: 4a1b f13c 0000 0000 e980 c5ba 0000 0000
000000f0: 931d 12bd e8b1 a6bc af5c 41bd ece1 ca3b
00000100: 34de 1bbb edd3 003e 585d 283c 0000 0000
00000110: 5a76 ccbc 03d3 a23c dffb 803c 0000 0000
00000120: 0000 0000 49bd 933d 61bc 3d3d f4cb 83bc
00000130: 1dab 0dbd 0000 0000 3ea7 bebc 31ac 1b3d
00000140: 7523 d63d d4bb a3b9 29aa 343d 381b 9ab9
00000150: d609 b03d 0000 0000 0000 0000 0000 0000
00000160: 9fe6 223d bc6d 803d 0000 0000 feb4 55bc
00000170: 97a6 a7bb 28fc d33c 84bb 893d 2899 7a3b
00000180: c660 683d 21a2 cb3b 0490 7738 9486 b33b
00000190: 7776 8938 c29a 48bd 60f8 b038 a98c 2d3d
000001a0: 0000 0000 0000 0000 0000 0000 0000 0000
000001b0: d31f 1dba 02b0 f0bc b320 c7bc c398 733d
000001c0: 9c11 d93c 0000 0000 6c8c 29bd 96d3 0f3d
000001d0: 071d 4bba 5b91 b9b7 2b7a be38 4e75 743c
000001e0: 69b4 823c 0000 0000 35b8 f9bc 0000 0000
000001f0: 3ca8 80bd e5ea 893d dad3 a8ba ffcb 91bd

weight f4 [128, 128]
0.12808524 0.10010275 0.108652174 0.042277563 0.14300947 0.28474367 -0.027347906 0.60872823
-0.13867101 -0.07147134 0.20740582 0.126149 0.23633301 0.11086286 0.23900923 0.55562437
-0.13634452 0.016392194 -0.048319466 0.06605612 0.080071606 0.6177093 0.115904115 0.43877727
0.6595403 -0.04767209 0.011534844 -0.044326298 -0.029052854 0.0061116796 0.01187935 0.13415349
-0.07165751 -0.03934998 0.14888112 0.10352987 -0.11759471 -0.05516329 0.21736081 -0.040256396
-0.04359963 -0.10639662 -0.05688875 0.39550737 -0.06627858 -0.083045706 -0.0071026506 -0.17794828
-0.002413749 0.018753417 -0.16066918 -0.009149119 -0.1364727 -0.0039899796 0.0074079186 0.36066598
-0.15661994 -0.09145159 -0.13455363 -0.021028848 0.044363588 -0.056514625 -0.052004434 -0.20423543
0.037932158 0.4101761 0.07988286 -0.09856168 0.111605264 0.11260903 -0.0754932 -0.107055046
-0.039491877 -0.13858871 -0.027730817 0.086341634 0.16243732 -0.03845753 0.4046803 0.0010075066
-0.16357863 0.0005652366 0.09810981 0.061791718 -0.08884096 -0.05203374 0.1467511 -0.145089
0.19695954 0.08692415 0.019504506 0.19551171 -0.005536264 -0.021730494 -0.12191409 0.21378924
0.10269249 -0.07556931 -0.009672933 0.076057054 0.091078386 0.114492506 -0.051141173 0.11161858
-0.09326321 0.13920027 -0.032374512 -0.11096948 -0.045120407 0.2993965 -0.026530638 -0.06308723
-0.0014876593 0.08108998 -0.13240564 -0.15868491 -0.09686007 -0.13194051 -0.06436786 -0.113020435
0.5071284 0.0704739 0.18598245 0.045045186 0.5447276 -0.123633616 -0.09421721 0.6847545
-0.1188093 -0.031735774 0.10743492 0.028556312 -0.057694107 -0.0103817275 -0.036501996 0.06553806
0.14355423 -0.07345352 -0.14862058 -0.055041727 -0.07031892 -0.14836313 -0.12667744 -0.02976091
0.061238483 -0.046469007 -0.030249303 -0.09467847 0.028100569 -0.12050041 -0.13258176 -0.033982437
0.06931869 -0.044115216 0.048492763 -0.08130254 0.011777242 0.10969071 -0.05371418 0.02144798
-0.14463615 0.05751234 -0.03915381 -0.10701658 0.07114056 -0.01085291 0.02347504 0.08116364
0.13452017 -0.14817114 -0.060272813 -0.15269499 0.038227707 -0.14726134 0.08192786 0.11945391
-0.0913051 0.06076725 0.13193077 0.13538253 0.02428133 0.06771744 -0.0894406 -0.08941689
-0.07335277 -0.01790397 0.0067267395 0.14901611 -0.021807015 0.05781987 0.09620537 -0.14152709
-0.019511424 0.13346806 0.10604565 -0.11261798 -0.05322593 -0.025210353 6.945996e-05 -0.038166955
-0.07627631 -0.023590472 0.0046190694 -0.07553085 0.10864155 0.15094866 0.05634557 0.06261542
-0.06784813 0.08612835 0.005021521 -0.062713236 -0.06281684 0.12613568 -0.05317925 -0.06442154
0.08266911 -0.14486875 0.13180916 0.14206891 -0.13792732 -0.0057260306 -0.07784587 -0.07065852
0.08974817 0.04693108 -0.15129331 -0.021819042 -0.0078013064 -0.03546776 0.0795467 0.023965914
-0.009421005 -0.106618084 0.06511647 -0.05724282 0.08794883 -0.124311015 0.14709851 0.0072912886
-0.01830677 -0.09014136 0.10202582 0.0413785 -0.10602089 0.008189505 -0.0018100471 -0.09633157
0.053547062 -0.06496332 -0.09823152 0.09341666 -0.010588519 0.14210773 0.026804794 0.0497009
00000000: c728 033e ac02 cd3d 0885 de3d 3d2b 2d3d
00000010: 1371 123e ecc9 913e b708 e0bc 9dd5 1b3f
00000020: c6ff 0dbe 915f 92bd 3162 543e 342d 013e
00000030: 4801 723e 110c e33d d6be 743e 663d 0e3f
00000040: e69d 0bbe ec48 863c a2ea 45bd 6e48 873d
00000050: 95fc a33d 3222 1e3f 235f ed3d 6aa7 e03e
00000060: a2d7 283f cf43 43bd a4fc 3c3c 7e8f 35bd
00000070: 4000 eebc 7c44 c83b 9ba1 423c 885f 093e
00000080: 2cc1 92bd 722d 21bd 4b74 183e 7807 d43d
00000090: 7fd5 f0bd e7f2 61bd d593 5e3e e4e3 24bd
000000a0: 8795 32bd 79e6 d9bd 2e04 69bd f17f ca3e
000000b0: 10bd 87bd de13 aabd 5abd e8bb 1338 36be
000000c0: fd2f 1ebb c4a0 993c 7686 24be 30e6 15bc
000000d0: 80bf 0bbe 60be 82bb 20be f23b 36a9 b83e
000000e0: fa60 20be f94a bbbd 6dc8 09be b144 acbc
000000f0: 98b6 353d e17b 67bd 9a02 55bd 1823 51be
00000100: c05e 1b3d 9a02 d23e a099 a33d b5da c9bd
00000110: 4d91 e43d 909f e63d 2e9c 9abd ad3f dbbd
00000120: 3cc2 21bd 33ea 0dbe bd2b e3bc e2d3 b03d
00000130: f855 263e a585 1dbd 4232 cf3e 500e 843a
00000140: 2881 27be 632c 143a cced c83d 5019 7d3d
00000150: 40f2 b5bd 5521 55bd ec45 163e 3692 14be
00000160: c3af 493e 4a05 b23d eac7 9f3c 3934 483e
00000170: 8c69 b5bb 2604 b2bc 18ae f9bd 91eb 5a3e
00000180: 7150 d23d 15c4 9abd 397b 1ebc cdc3 9b3d
00000190: 4e87 ba3d 0c7b ea3d 6879 51bd 4898 e43d
000001a0: c800 bfbd 848a 0e3e 239b 04bd f743 e3bd
000001b0: 2dd0 38bd 804a 993e c856 d9bc e133 81bd
000001c0: 90fd c2ba 8112 a63d 5895 07be 4c7e 22be
000001d0: 935e c6bd 6a1b 07be 4cd3 83bd 4277 e7bd
000001e0: 2bd3 013f 9f54 903d 2f72 3e3e 4d81 383d
000001f0: 4573 0b3f 9f33 fdbd f4f4 c0bd 124c 2f3f
00000200: 4a52 f3bd 5ffd 01bd d706 dc3d edee e93c
00000210: a850 6cbd 1f18 2abc 1e83 15bd d238 863d
00000220: e1ff 123e cd6e 96bd fe2f 18be 6f73 61bd
00000230: 5e03 90bd 81ec 17be bbb7 01be 27cd f3bc
00000240: 34d5 7a3d 4956 3ebd 63cd f7bc c9e6 c1bd
00000250: 2a33 e63c ebc8 f6bd 83c3 07be 2b31 0bbd
00000260: f5f6 8d3d 28b2 34bd 59a0 463d f281 a6bd
00000270: 55f5 403c 86a5 e03d 6603 5cbd adb3 af3c
00000280: 801b 14be 0f92 6b3d bf5f 20bd 822b dbbd
00000290: 24b2 913d 67d0 31bc ba4e c03c 1f39 a63d
000002a0: a8bf 093e 2dba 17be a0e0 76bd 135c 1cbe
000002b0: a894 1c3d adcb 16be cbc9 a73d 40a4 f43d
000002c0: 2bfe babd 14e7 783d dc18 073e b8a1 0a3e
000002d0: a4e9 c63c 71af 8a3d a22c b7bd 3420 b7bd
000002e0: fa39 96bd 59ab 92bc fb6b dc3b ae97 183e
000002f0: a0a4 b2bc 87d4 6c3d 5207 c53d 7aec 10be
00000300: 6cd6 9fbc daab 083e 762e d93d 41a4 e6bd
00000310: 6f03 5abd f185 cebc 08ab 9138 f454 1cbd
00000320: c136 9cbd ce40 c1bc 905b 973b ebaf 9abd
00000330: 767f de3d 4992 1a3e 9dca 663d 833c 803d
00000340: f6f3 8abd 0f64 b03d 928b a43b cc6f 80bd
00000350: 1ea6 80bd b629 013e 7cd2 59bd 71ef 83bd
00000360: 6c4e a93d 7958 14be fbf8 063e 837a 113e
00000370: d23c 0dbe 6da1 bbbb a86d 9fbd 6ab5 90bd
00000380: e3cd b73d ce3a 403d a2ec 1abe d9bd b2bc
00000390: 1aa2 ffbb a446 11bd 61e9 a23d 2a54 c43c
000003a0: 8f5a 1abc 955a dabd c95b 853d 7277 6abd
000003b0: 841e b43d c696 febd fea0 163e c3eb ee3b
000003c0: 14f8 95bc 099c b8bd eaf2 d03d 817c 293d
000003d0: 7b21 d9bd 462d 063c 1a3f edba 7c49 c5bd
000003e0: 2a54 5b3d 7d0b 85bd 9b2d c9bd 3c51 bf3d
000003f0: 787b 2dbc b084 113e ba95 db3c 2c93 4b3d

bias f4 [128]
-0.019744154 0.0 0.0038350315 0.042526387 -0.0012574631 -0.00014668133 0.03163221 0.0
0.061421487 9.7421056e-05 -0.00016445754 -0.012530545 -0.031363536 -0.029447453 0.00072358607 7.247125e-07
0.043647144 0.017979713 -0.0060144826 -0.00586294 0.005514284 0.0 0.011188715 -0.0434667
0.0 -0.009594768 0.0026614654 0.014344663 -0.03434187 -1.5030562e-05 0.0 0.0
2.7631277e-06 0.041674156 0.03814828 -0.00053228124 0.021047598 -0.037573773 0.063534975 -0.024079151
-0.016141715 -4.3572843e-05 -0.11919038 0.0 0.08738494 -0.013344699 -0.07112249 0.0
-0.057506718 -0.041510783 -0.00010898967 -0.05812009 -0.00213218 -0.0003975689 -0.003768324 -0.004437976
0.0020251458 -0.031880975 0.014678429 -1.0902282e-06 -0.027879598 -0.004777804 3.6495485e-06 -0.005526879
-0.003637455 -0.013549112 0.0002040387 -0.029311677 -0.032842442 0.0268404 -0.034114715 0.00046571
-0.026504258 0.04602874 0.06840516 -0.0015203579 0.0 -0.003179474 -0.0034011495 0.00046602625
-0.027785167 0.0 -0.005861983 -0.046756327 0.0 -0.032183837 -0.0062427474 -0.0015653198
0.0 -0.016608968 0.05967742 -0.0008329928 0.044561245 0.013280741 0.058122154 -1.3342299e-05
0.0008242298 -0.003021024 -0.023006743 0.039512746 0.09941668 0.0 -0.00076746446 -0.03760721
0.050600596 0.05590222 0.09875143 0.0012303973 -0.01645964 0.035331063 0.035807654 0.0009126673
-0.00011817623 0.0058956617 -0.0029147614 0.024965834 -0.025757656 0.05218363 0.0 -0.010825938
-0.01765783 0.0076228823 0.01776101 0.0 -0.017327845 -0.045289204 0.05039841 -0.03233965
00000000: 7ebe a1bc 0000 0000 2755 7b3b 2630 2e3d
00000010: 76d1 a4ba 78ce 19b9 c790 013d 0000 0000
00000020: 1995 7b3d 884e cc38 3c72 2cb9 ea4c 4dbc
00000030: 0d77 00bd c93b f1bc 0aaf 3d3a dd89 4235
00000040: 59c7 323d 314a 933c 2315 c5bb e81d c0bb
00000050: 2bb1 b43b 0000 0000 df50 373c 230a 32bd
00000060: 0000 0000 6033 1dbc fb6b 2e3b e105 6b3c
00000070: 10aa 0cbd c62b 7cb7 0000 0000 0000 0000
00000080: 2c6e 3936 85b2 2a3d 5f41 1c3d ca88 0bba
00000090: 036c ac3c f5e6 19bd a01e 823d a441 c5bc
000000a0: a13b 84bc fcc1 36b8 161a f4bd 0000 0000
000000b0: e0f6 b23d b9a3 5abc aba8 91bd 0000 0000
000000c0: 2a8c 6bbd 3607 2abd 6291 e4b8 550f 6ebd
000000d0: 0bbc 0bbb cb70 d0b9 fcf5 76bb 716c 91bb
000000e0: 4fb8 043b a095 02bd cb7d 703c f553 92b5
000000f0: c163 e4bc 208f 9cbb c4ea 7436 d21a b5bb
00000100: 5e62 6ebb 18fd 5dbc 39f3 5539 0b1f f0bc
00000110: cc85 06bd 66e0 db3c dfbb 0bbd 8a2a f439
00000120: 751f d9bc a288 3c3d 0118 8c3d bf46 c7ba
00000130: 0000 0000 b95e 50bb d2e5 5ebb fc54 f439
00000140: b89d e3bc 0000 0000 e115 c0bb 9083 3fbd
00000150: 0000 0000 33d3 03bd f68f ccbb 6b2b cdba
00000160: 0000 0000 880f 88bc 4f70 743d 335d 5aba
00000170: da85 363d 7797 593c 7f11 6e3d bdd8 5fb7
00000180: 2011 583a 5ffc 45bb a378 bcbc 1ed8 213d
00000190: f99a cb3d 0000 0000 ab2f 49ba 050a 1abd
000001a0: 9242 4f3d baf9 643d 313e ca3d 4845 a13a
000001b0: 5ed6 86bc 4eb7 103d 0cab 123d 1140 6f3a
000001c0: 61d5 f7b8 6530 c13b 9505 3fbb 2685 cc3c
000001d0: b801 d3bc 81be 553d 0000 0000 465f 31bc
000001e0: 27a7 90bc 5fc9 f93b 8a7f 913c 0000 0000
000001f0: 20f3 8dbc 2c81 39bd 906e 4e3d 9576 04bd
