MAMRL-TE/Dynamic environments/MAMRL/Train/B4/savemodels/policy4.pth (torch, 276379 bytes, 12 tensors)

weight f4 [128, 7]
000000 12 a1 5e bd 2e f3 bf 3e 49 e8 13 3e be a1 25 3e
       -0.054352827 0.3749022 0.14444079 0.16174981
000010 52 72 ff 3d 40 23 24 be 10 93 a0 bd 23 ac 32 bd
       0.12472977 -0.16029072 -0.0784055 -0.043621194
000020 92 1b 47 3e 9b 15 63 3d 68 c6 8e bd a7 ad 10 3e
       0.19444111 0.055440526 -0.06971437 0.14128743
000030 58 8e 1d 3e 5c b9 87 bc 01 88 0d 3d d4 30 4b be
       0.15386331 -0.016567878 0.03455353 -0.19842845
000040 e3 c9 14 3e ad c3 0a 3d a4 65 85 3c 41 04 32 be
       0.14530139 0.033878017 0.016283818 -0.17384435
000050 21 dd 22 3e 5a 36 3f 3e 7f cd 9d bd fb 88 99 bd
       0.15904666 0.18673077 -0.07705211 -0.0749683
000060 52 c6 32 be 0b 5c 0e 3e 6a f1 27 be 8e a8 31 bd
       -0.17458466 0.13902299 -0.16400686 -0.043373637
000070 72 a2 e8 3c 8b 07 6a 3d 92 49 ae 3c 57 61 1e 3c
       0.028397772 0.0571361 0.021275315 0.009666762
000080 05 63 28 3c 16 22 2b be 18 27 34 3d 0c 8b 13 3c
       0.010277514 -0.16712222 0.043982595 0.009005319
000090 54 e2 de 3d d1 2f 80 3d 67 a0 3b be 7b 1d 99 3d
       0.108830124 0.0625912 -0.18322907 0.07476326
0000a0 3f c7 f0 3c 98 f8 32 bd ef 10 01 bd 44 6f a1 3e
       0.029391883 -0.04369411 -0.03151029 0.315302
0000b0 0b df 4d 3e 80 8a 02 3e de da 30 be 4a bf f7 3d
       0.20104615 0.12748146 -0.17270991 0.12097032
0000c0 27 b0 29 3e 25 ba 4b 3d 70 33 a6 3e 46 2e 47 3e
       0.16571103 0.049738068 0.3246112 0.19451246
0000d0 33 7a 66 3e 30 26 9a bd 2c 4d 60 3d 8a 97 bb bd
       0.22507553 -0.07526815 0.054761097 -0.09159763
0000e0 b7 fa 31 be 71 0e 4c 3e ef f8 19 be e3 3d c0 bb
       -0.17380796 0.19927384 -0.15036367 -0.0058667525
0000f0 d7 fc 44 3c 99 c9 2d be 40 16 2d be f0 da aa 3b
       0.012023172 -0.16971435 -0.16903019 0.0052140877
000100 a2 b4 52 be 01 bb 7b 3d ae 06 35 be e5 35 c3 3c
       -0.20576718 0.061457638 -0.1767833 0.02382941
000110 cf c4 20 bd f7 15 b4 3d 99 dd 6a 3e ac 37 05 be
       -0.03925019 0.08793252 0.22936095 -0.13009518
000120 3e 6e ac bc 2e 53 bf bc d3 0b 1c be 34 87 ac bd
       -0.021048661 -0.023355093 -0.15238886 -0.084242254
000130 19 f3 45 bd d5 7b 44 be a9 ff 73 3e 0e aa b9 bc
       -0.04832754 -0.19187863 0.23827995 -0.022664096
000140 97 92 cd bd 7a a2 d3 bc 2a 7c 22 be 53 6f 89 bc
       -0.100377254 -0.02583431 -0.15867677 -0.016776716
000150 17 6a 03 3d f5 cd aa 3e d3 b4 88 bc 9b c2 72 3e
       0.032083597 0.33360258 -0.016687786 0.23707049
000160 2d a3 36 3e 76 c7 a0 bd 04 f2 7d 3d 1e 30 ec 3d
       0.17835684 -0.07850544 0.061998382 0.11532615
000170 07 cf f7 3d a7 ac cf bc 7e 1e 03 3e 15 d2 92 3c
       0.12100034 -0.025350882 0.128046 0.01792244
000180 c3 db b9 3d 5b 51 1e be d7 47 c4 3d aa 02 95 3e
       0.09075119 -0.15460722 0.09584015 0.29103595
000190 4a ca 62 3d 77 de 31 3e 47 00 c8 3d 7b 4b be bd
       0.0553687 0.1737002 0.09765678 -0.092917405
0001a0 32 d1 fb bc 40 04 53 3e 42 ce c8 bc fa c7 a2 3c
       -0.0307394 0.2060709 -0.024512414 0.019870747
0001b0 47 cb 94 3c 39 56 45 be 68 e9 a2 bd 53 03 89 3d
       0.018163336 -0.19271173 -0.07954675 0.06690087
0001c0 b7 74 a3 3d b3 36 af bd d5 08 55 bc a8 e1 38 bd
       0.07981246 -0.08555355 -0.013002594 -0.045137078
0001d0 8d 9e db 3d 2f ba eb 3d f4 b8 97 3d 28 ca d0 3d
       0.107236005 0.11510121 0.07408324 0.10194808
0001e0 fd 0f 03 be 89 25 1e be 47 26 d3 3c 0b 2c 42 3e
       -0.12799068 -0.15444006 0.025775088 0.18962114
0001f0 36 93 df bd 9a d4 22 3c 25 08 5b 3e 13 cc 5f 3d
       -0.1091675 0.0099383835 0.21389826 0.05463798
000200 f8 fb 49 be 2c 23 1a 3e 94 3d 06 3d 66 96 e8 bd
       -0.19725025 0.1505248 0.03277357 -0.11356811
000210 05 c7 b5 bd 24 90 28 be 07 18 69 bd a9 d6 8c bd
       -0.088758506 -0.16461235 -0.05690768 -0.06876881
000220 61 cb 47 bd 5d f8 cc 3d 2f 86 2e be b9 c1 37 be
       -0.04877794 0.10008309 -0.17043374 -0.17944993
000230 7e 11 7a 3e e3 0c 10 3d 71 56 43 3e c9 69 41 be
       0.24420735 0.03516854 0.19075944 -0.1888801
000240 96 7a f0 3d 4d 50 48 3e 86 fa 94 bd 09 e0 10 3e
       0.117421314 0.19561882 -0.07274346 0.14147963
000250 6b c9 18 3e 2a 22 23 3e 9b 27 e3 bc 38 34 9c bd
       0.14920585 0.15931001 -0.027728846 -0.076271474
000260 d9 3f 3f 3e fb d4 c0 3d 84 ff 5c bd ee 41 e5 3c
       0.186767 0.09415623 -0.053954616 0.02798554
000270 08 f4 11 3e a8 88 d3 bd 4e 4b fe 3c 7b bf 07 be
       0.14253247 -0.103287995 0.031041767 -0.13256638
000280 1b 42 7b 3d c3 2e 6c 3e 00 48 27 be 36 4b 90 bd
       0.06134234 0.23064713 -0.1633606 -0.07045595
000290 42 00 c7 bd ed 6e 98 bd f4 48 e0 bd 27 9e cf 3d
       -0.09716846 -0.074430324 -0.10951415 0.10137587
0002a0 02 3c db bc a0 33 5b be 5b ce 27 3e f9 64 46 3d
       -0.026762012 -0.21406412 0.16387312 0.04843614
0002b0 df de 9b 3d db 6d 38 3e 01 e2 a1 3d c7 f0 93 bd
       0.07610869 0.18010657 0.07904435 -0.07223659
0002c0 68 91 aa bd e9 dd 28 be 4a 3c 4f 3e 12 c9 91 3d
       -0.08328515 -0.16490902 0.20237842 0.07118429
0002d0 8b 1a 3f 3e 90 3c 9d bc 29 1f 80 bd 35 67 7d 3e
       0.18662469 -0.019193918 -0.06255943 0.24746402
0002e0 c5 b0 18 be d8 08 6b 3e e5 89 d8 bd 59 dc a6 bc
       -0.14911182 0.22952592 -0.10573176 -0.020368742
0002f0 e8 8d 1f 3c e4 0e 14 be ab 48 28 3d 76 6d 0f 3b
       0.009738423 -0.14458805 0.041084927 0.0021885312
000300 22 3f cb bc 40 0a 55 3e 09 79 2c be 4e b5 4e be
       -0.024810378 0.20804691 -0.16843046 -0.2018635
000310 07 cf 4f bd 24 e4 b6 3d b9 35 e5 3d 7f 5f 35 3e
       -0.050734546 0.08930233 0.111918874 0.1771221
000320 0a d7 5a 3d 0a e3 3a be 32 8c 56 3e 50 2c 83 bd
       0.053427733 -0.18250671 0.20951918 -0.06404936
000330 d8 f6 00 bd 30 5a dd bc fd 4a af bd ea 21 44 3e
       -0.03148541 -0.027020544 -0.08559225 0.19153562
000340 c7 1f ff 3c b6 d7 48 bd 9b 9d c8 bd cd 51 36 3e
       0.031143082 -0.049033843 -0.09795686 0.17804642
000350 db b7 3d be f0 75 be 3c e1 fe 35 be 57 bd 5e bc
       -0.18527167 0.023249596 -0.1777301 -0.013594947
000360 5e ca 9c bd cd 0d 27 be d3 fb e3 bd b4 1b 4f be
       -0.07655786 -0.16313858 -0.11132016 -0.20225412
000370 2a 20 90 bd 46 32 af 3d 41 06 57 3e 6c 25 ab 3d
       -0.07037385 0.08554511 0.2099848 0.08356747
000380 d4 84 25 bd ca 38 fa bd c6 f6 25 3d 3b 7d 8b bd
       -0.040409878 -0.12217863 0.040518545 -0.06810995
000390 d6 fc 9c bd d9 20 dc 3d 23 46 2e be 2e 7a c1 bc
       -0.07665412 0.10748453 -0.17018943 -0.02361783
0003a0 78 19 5a 3c 51 a0 41 3e 7b 27 33 3e 41 6a 22 bd
       0.013311736 0.18908812 0.1749553 -0.039652113
0003b0 4d df bb 3d 84 57 52 be ec 9a b3 3d 31 b3 d5 3d
       0.091734506 -0.20541197 0.087697834 0.10434569
0003c0 c4 3b f7 3c 6b 2f c5 3c 14 37 4d 3e 6a 58 20 3e
       0.030179866 0.024070462 0.20040542 0.15658727
0003d0 27 ff f5 bd e7 04 00 be 81 50 db bd 62 d1 f3 bd
       -0.12011557 -0.1250187 -0.10708714 -0.11905171
0003e0 39 7a c7 3d 1f cd d4 bd f3 0a 4e 3e e0 21 b3 3d
       0.09740109 -0.10390686 0.20121364 0.087466955
0003f0 b3 59 fa bc 7c 8e 36 3e 78 fd b4 b9 29 be 36 3d
       -0.03056035 0.17827791 -0.00034521124 0.044614945

bias f4 [128]
000000 b5 ea 92 3c aa 56 c1 3c 0c 06 aa b8 88 38 80 3b
       0.017934183 0.023600895 -8.107358e-05 0.003912989
000010 cc 09 77 b9 45 29 c7 3b 80 d5 96 3c 86 b2 63 3c
       -0.00023559405 0.0060779178 0.018412352 0.013897544
000020 0f a4 05 ba 00 00 00 00 35 81 ee 3b 5a 98 14 3c
       -0.0005097994 0.0 0.0072785863 0.009069527
000030 f0 3e 94 3c 1a 61 2d 3c 60 05 8b 3c d9 ce 11 3b
       0.018096417 0.010582233 0.016970336 0.0022248535
000040 61 5f a2 3b 34 ae ce 37 5b 3c 77 bb a7 07 34 bb
       0.0049552177 2.4638233e-05 -0.0037725184 -0.0027470381
000050 d5 6f 0d 3c d8 9a 16 3c 2d 58 91 3b de 07 cc 3b
       0.00863262 0.009192191 0.00443556 0.006226524
000060 21 d8 a6 ba fb e5 28 3b 8e 9d 4d 3c bc b9 3a bb
       -0.0012729206 0.0025771845 0.012549771 -0.0028492054
000070 b5 be bd 3a 08 3a 8f ba 16 1d d7 b9 94 71 b4 b9
       0.0014476391 -0.0010927329 -0.00041029666 -0.00034416898
000080 62 f4 a9 35 3e 1f 9b ba d4 2e 34 3c 3e 03 d7 39
       1.2662606e-06 -0.0011834872 0.010997493 0.0004101041
000090 a8 a1 11 3c 61 4b 60 b8 8b 3e 63 3b 91 48 15 3c
       0.0088886395 -5.3475964e-05 0.003467473 0.009111539
0000a0 8b 99 3c b8 b0 eb 5e 3c 9b 57 4a 3c f7 22 90 ba
       -4.496569e-05 0.013605997 0.012349988 -0.0010996748
0000b0 62 af 80 3c e5 06 31 3b 66 fb ba 3b af c6 8a bb
       0.015708629 0.0027012166 0.0057062386 -0.0042351107
0000c0 95 e1 a6 bb 99 96 6b 39 d4 65 74 ba 4a 3f b7 ba
       -0.0050928094 0.00022467448 -0.0009323035 -0.0013980654
0000d0 d9 48 e9 3a a1 31 e8 3b f8 50 f1 3b c3 f2 c3 ba
       0.00177982 0.0070859944 0.0073643886 -0.0014949668
0000e0 f1 a1 ba 3a 29 d1 74 3c 7f db 65 3c 7a 83 5a 3c
       0.0014238936 0.014942446 0.014029383 0.0133370105
0000f0 02 68 99 bb 2f aa 60 3c 1a 7d 81 b8 56 22 ae b9
       -0.004681588 0.01371245 -6.174501e-05 -0.00033213448
000100 11 46 60 3b 2d 25 2e ba d9 ef 23 3c b5 5b 40 3b
       0.003422145 -0.0006643113 0.010005915 0.0029351537
000110 76 ef 01 3c 62 37 b2 3b c9 bd b3 3a 08 fa 0f 3a
       0.007930627 0.005438731 0.0013713177 0.00054922746
000120 56 ac 5a bb ee cc 45 3b 4d 31 a1 3a 8f 12 73 ba
       -0.003336688 0.0030181962 0.0012298018 -0.000927248
000130 ed 4f 7b ba 6c 12 0e 3a 09 4a 2b 3c 00 00 00 00
       -0.00095868 0.0005419615 0.010454663 0.0
000140 af f7 9a 3b b1 5e a7 bb 83 19 99 bb d1 15 52 3a
       0.004729233 -0.0051077236 -0.0046722307 0.0008014115
000150 d5 b5 bd bb 04 a4 08 3d 42 ff 56 35 09 de 91 bb
       -0.0057894983 0.033359542 8.009266e-07 -0.0044515175
000160 bd c4 91 3b 78 52 18 3c 91 4c bd 3a af be 44 3c
       0.004448502 0.009297006 0.0014442374 0.012008353
000170 b5 8e f0 3b b3 36 db 3b e9 32 da 3a 52 79 99 b8
       0.0073412308 0.0066898703 0.0016647252 -7.318206e-05
000180 bc 90 49 bb e1 84 6a ba 33 db 01 39 c8 6c 26 3c
       -0.0030756434 -0.0008946192 0.00012384057 0.010157771
000190 b8 f1 1a 3c 67 16 1d 3c ea 60 7a 3b 40 04 05 3c
       0.009457044 0.009587861 0.0038204738 0.008118689
0001a0 cb 92 69 3a 29 2a 66 bb 34 2f c6 3c 27 4b 31 bb
       0.00089101185 -0.0035120344 0.02419243 -0.002705285
0001b0 70 3a 3a 3b 6b f2 c8 3b 29 dd 82 3c b1 c1 d1 bb
       0.002841618 0.006132414 0.015974598 -0.0064012636
0001c0 0b d1 97 3c b6 5e ee 3b ff 5e dd ba 80 b3 d0 bb
       0.018532297 0.007274474 -0.0016889273 -0.0063690543
0001d0 90 3a 4a 3b b0 73 b5 b8 88 7b 4e 3c 89 4e a6 3b
       0.003085766 -8.652301e-05 0.012602694 0.00507528
0001e0 6d 3e 06 bc ba 7d fa 39 00 21 c5 3a 13 06 62 bb
       -0.008193594 0.0004777739 0.0015039742 -0.0034488484
0001f0 6d e2 85 39 03 6f fc 3b 06 ce f7 3a 8f ef b6 b8
       0.00025536437 0.0077036633 0.0018906004 -8.7230575e-05

weight f4 [128, 128]
000000 5f 5f 19 3e f6 79 98 3d 50 49 e5 3c 59 4a 1d bd
       0.14977787 0.07445137 0.02798906 -0.03840098
000010 36 4d e4 3d 0c ff f2 3c 2d 10 41 3d 0a 42 27 bd
       0.11147539 0.029662631 0.047134567 -0.040834464
000020 41 b5 41 3d 0a 62 4c 3d 3a 81 c4 3d 5a a0 13 bd
       0.047291998 0.049898185 0.095949605 -0.036041595
000030 42 37 eb 3d 30 d9 99 3d 61 bb 68 3d fe eb 07 be
       0.11485149 0.07512128 0.056819323 -0.13273618
000040 2a 83 9f bc ab 8c 8c bd 36 ce 9d 3d b2 96 0f 3e
       -0.019471724 -0.06862768 0.07705347 0.1402233
000050 ef 78 34 bc 7b ac a2 3d 1c f8 04 3e 33 09 e0 bd
       -0.011015161 0.07943054 0.12985271 -0.109392546
000060 40 dd 14 be ae 36 03 3e fc 50 19 3c 02 84 0b 3c
       -0.14537525 0.12813827 0.009357687 0.00851536
000070 4b 48 cd bc 28 f6 b7 bd 18 45 10 be c7 6a 18 3e
       -0.025058886 -0.089824975 -0.14088857 0.14884482
000080 0a 81 ed 3b d4 ba d9 3d d0 9a e7 bd 32 4e 01 3e
       0.0072480487 0.10631338 -0.11308825 0.12627485
000090 7b b3 81 bd e0 2b 29 3b a2 07 d7 bd 1d 7a 60 3d
       -0.06333061 0.0025813505 -0.10499503 0.054803956
0000a0 3d 00 39 bd e1 87 80 3a 2a 90 01 be 47 27 11 bd
       -0.045166243 0.000980612 -0.1265265 -0.03543785
0000b0 c4 8b 03 be 09 48 38 3d 7a 9f 0b be 44 88 c9 bd
       -0.12846285 0.044990573 -0.13635054 -0.09840444
0000c0 c3 14 7a bc 07 5a 09 be 3c 8f 91 3c 02 f2 ef 3d
       -0.015263739 -0.13413249 0.017768495 0.11716081
0000d0 31 a0 04 bd fd fe bd 3d ac 71 0c 3e 35 90 4f bd
       -0.032379333 0.09277151 0.13715237 -0.050674636
0000e0 ea 56 df 3d f4 cb a9 3d 13 27 90 bd 69 80 18 bd
       0.109052494 0.08290854 -0.07038703 -0.037231836
0000f0 a9 55 d7 bc 17 6e f4 bd 6e 6c dd 3c c5 64 ca 3d
       -0.026285963 -0.119350605 0.027029242 0.098825015
000100 44 68 52 bc cb 79 d0 bd 16 89 8c 3d c4 7a ee 3d
       -0.012842242 -0.1017948 0.068620846 0.116445094
000110 3d 0e 0b 3e c2 4d 3c 3c 15 b2 f5 bd 32 86 02 be
       0.1357965 0.011493148 -0.11996857 -0.12746504
000120 9c 7c 9f 3b cc d9 c9 bd ab 2b 01 be 48 ac f4 bc
       0.0048671495 -0.098559946 -0.12614314 -0.029867306
000130 80 d5 d0 3d 82 09 1d 3b 2b 0c 02 be 1f 3e 9f bd
       0.10196972 0.0023961966 -0.12699954 -0.077755205
000140 00 1c 07 b5 34 9c bb 3d eb f7 85 bc 36 71 d0 3d
       -5.0332164e-07 0.09160653 -0.016353568 0.10177843
000150 8e 9a 16 3e fc 05 11 bd d7 da de bc 0c b5 b9 bd
       0.14707395 -0.035406098 -0.02720396 -0.09067735
000160 5f c3 f7 3d 75 89 4a 3d d2 64 fe 3d 6e 2a 17 be
       0.12097811 0.049447495 0.12421574 -0.1476228
000170 6f 94 25 3d a5 2d ef bd a9 b8 8e bd 4f b5 f7 3d
       0.04042476 -0.11678628 -0.06968815 0.12095129
000180 fe da e6 bd 46 63 14 be fc 4f 61 3d 3c 51 b9 3d
       -0.11272238 -0.14490995 0.05500792 0.09048697
000190 16 e7 d6 bd f6 de 8f 3d 5e ba ea 3d cf 1c ef bd
       -0.10493295 0.07024948 0.11461328 -0.11675417
0001a0 f1 c9 ae bd ab ad 04 3e 36 44 0c be d5 ab e5 bc
       -0.08534611 0.12956874 -0.13697895 -0.028036037
0001b0 63 10 cc bd 82 ed d2 3d 16 e5 cf 3c 30 a6 0e be
       -0.09964063 0.10299207 0.025377791 -0.13930583
0001c0 bb 3c a7 3c f5 e5 a0 3d f7 cb c9 3d 77 87 39 3d
       0.0204147 0.07856361 0.09853356 0.045295205
0001d0 c8 32 3b bd 90 28 ad 3d 7b a1 69 3c e1 a2 60 bd
       -0.045702726 0.08455002 0.014259691 -0.054842833
0001e0 71 6f de bd f8 b2 0c be 7d 75 90 bd b4 a7 93 3d
       -0.108610995 -0.13740146 -0.07053659 0.07209721
0001f0 8c 99 19 be c2 ad 6f 3d 04 a2 ae bd 40 84 0a 3e
       -0.1499998 0.058515318 -0.08526996 0.13527012
000200 ff 53 af 3c 55 cb ce 3d 3f 3e 34 bd 52 5f 3b 3d
       0.021402357 0.10097376 -0.044004675 0.0457452
000210 1e fe 03 3e e3 a6 1b 3d f0 ec d5 bd 44 b8 fb 3d
       0.12889907 0.038000952 -0.10445583 0.12291005
000220 ac 0e fd bd 16 ab e2 3d 91 f7 e6 3c e7 35 a5 3c
       -0.12356314 0.11067788 0.02819422 0.020167304
000230 c5 69 3b 3d f3 ce 55 3d 0a 26 0e 3e 34 5e d5 bd
       0.045755167 0.052199315 0.13881698 -0.104183584
000240 62 13 c6 3c ed b5 48 bd 24 9f 41 3c 5d 3a 5e bd
       0.024179164 -0.049001623 0.011817727 -0.05425488
000250 c9 5b 3b bd 8f fb d5 3d cd 60 d2 3d 0a 43 c7 3c
       -0.04574183 0.104483716 0.102723695 0.024323959
000260 f7 94 57 bd 58 ca e8 bd 8d b7 7c 3b 7e 5c ee 3d
       -0.0526323 -0.11366719 0.0038561553 0.11638735
000270 84 97 9e bb d5 6a c7 3d c0 31 0d be ec 2f 3c bb
       -0.0048398394 0.097371735 -0.1378851 -0.0028715087
000280 3e e1 c2 bd 48 c5 f2 bd c4 e6 11 3c 7a 71 cc 3d
       -0.09515618 -0.11854035 0.0089051165 0.099825814
000290 74 24 11 3d 99 70 0a bd d1 0a 83 3d 26 5e 98 bd
       0.035435155 -0.033798788 0.063985474 -0.074398324
0002a0 e1 83 d6 3c 8f 26 0d bd cc 88 14 3d a8 30 cd 3d
       0.026185932 -0.0344606 0.036263272 0.10019046
0002b0 00 05 e1 3d db 46 d8 bd ba 81 d3 3d e0 24 a4 bc
       0.10987282 -0.105603896 0.10327478 -0.020037115
0002c0 01 88 be bd 54 f6 66 3d 6c 25 03 3e e2 d3 43 bd
       -0.093032844 0.05638726 0.12807244 -0.04780949
0002d0 39 b9 de bd 0f 57 a7 bd 88 27 bb bc 9d 1a a0 bd
       -0.10875172 -0.08170902 -0.022845998 -0.07817576
0002e0 10 93 2b 3d 38 fe f0 bd d8 f9 fc 3c 14 60 a6 3d
       0.041888297 -0.117672384 0.030880854 0.08123794
0002f0 6c 01 81 bd e2 be cb 3d ca f1 4d 3d bb dd 62 bd
       -0.06299099 0.099485174 0.050279416 -0.05538724
000300 67 56 05 3e 53 4a d8 3d 71 52 fb 3d 1d eb b1 3d
       0.13021241 0.10561051 0.12271584 0.086874224
000310 5c a5 2a bd 9c 14 0b be 33 e9 b5 bd 2b 17 05 3e
       -0.041661605 -0.1358208 -0.0888237 0.12997119
000320 09 a9 a5 3d 21 23 86 3c a0 e5 9e 3d df 77 93 3d
       0.080888815 0.016374173 0.07758641 0.07200598
000330 3c da f1 3d 74 7d 49 3d 0e ae 03 be 50 53 2c b9
       0.11809203 0.049191907 -0.12859365 -0.00016434235
000340 81 88 2d 3c c5 90 f5 bc ce 3c 9e bd d8 22 31 3d
       0.010591627 -0.029976258 -0.07726441 0.04324612
000350 81 3d b2 bd f4 bd 46 bb 48 0f af 3a 2f 2e e8 bd
       -0.08703137 -0.0030325623 0.0013355995 -0.11336934
000360 85 ca e1 bd c7 a1 df 3b e9 5f 98 bd b0 42 1d bc
       -0.11024956 0.0068247053 -0.074401684 -0.009598419
000370 ab f6 96 3d 0b a8 16 3d 46 3f c1 bd 51 4b 04 3e
       0.07371267 0.036781352 -0.094358966 0.12919356
000380 c8 7d bf 3d 19 b8 aa 3d 78 75 14 bc 43 67 c5 3c
       0.09350163 0.08335895 -0.00906121 0.02409709
000390 fa 19 d7 3c a1 2d 55 3d 15 c6 06 be 49 23 18 3d
       0.026257504 0.05204547 -0.131615 0.037143026
0003a0 3b dd 12 3e 31 6b fc bd 3a cc 10 3d d9 60 c8 bd
       0.14342205 -0.12325133 0.035351016 -0.09784097
0003b0 40 7e 46 3d 63 0e 1a be f0 80 49 3d 67 9d 83 3b
       0.048460245 -0.1504455 0.04919523 0.0040165666
0003c0 b2 bb 17 3e 91 e3 08 bc d0 cc 08 3e 91 36 90 3d
       0.14817694 -0.008355037 0.1335938 0.07041658
0003d0 ac 10 c9 bd 6d a7 80 3d fe 79 9e 3d 9e 8c ed 3d
       -0.09817633 0.06281934 0.07738112 0.11599086
0003e0 30 91 90 3d 07 58 98 3d 32 28 3d 3d fc c2 87 bd
       0.07058942 0.07438665 0.04618091 -0.06628987
0003f0 85 b8 5b 3d 41 f1 17 bc 19 ae 3a 3d 21 e3 a7 3d
       0.05364277 -0.009273828 0.04557619 0.08197618

bias f4 [128]
000000 1a 06 54 3a 36 26 fb 3b a4 41 0b 3a 9d c2 32 38
       0.00080880674 0.007664467 0.00053122104 4.2619755e-05
000010 21 d0 9a 3b 1c fb e4 b8 21 aa bf bb 2e c0 54 3a
       0.004724518 -0.0001091866 -0.0058491384 0.0008115795
000020 3e 22 0b 3b 0e 2b 0b 3c c5 a7 8b 3c 2e c2 bc 3b
       0.0021230127 0.008494152 0.017047772 0.0057604527
000030 6b 87 94 3b 21 17 30 3c b3 3c a5 ba 8f 0b 7d 38
       0.0045327446 0.010747702 -0.0012606591 6.0330665e-05
000040 00 00 00 00 10 4e b7 3b 71 9c 29 ba 8a 26 ca 39
       0.0 0.0055940226 -0.000647015 0.00038557156
000050 05 ba 2d ba 6f 67 41 3a af 6c a1 bb 00 00 00 00
       -0.00066271453 0.00073777785 -0.004926286 0.0
000060 3f 8e 37 3c f0 63 95 3b 2f 96 48 3c 83 ba 11 3c
       0.011203348 0.0045590326 0.012242838 0.0088945655
000070 9b 4a db bb ea 4c 93 3b 00 00 00 00 69 b6 61 3c
       -0.0066922433 0.004495253 0.0 0.0137764
000080 4c 72 c0 3c 76 30 8d b8 bb 4d 48 bb da 80 0b 3c
       0.023492001 -6.7324305e-05 -0.003056391 0.008514607
000090 9c e6 10 3c fd 8b 7b 3b ec 87 1d b6 d5 a8 0f bc
       0.008844044 0.0038383 -2.347394e-06 -0.00876828
0000a0 84 c2 15 b9 c7 54 d3 b9 78 3c 66 b9 be d7 b0 b8
       -0.0001428221 -0.0004030822 -0.00021957036 -8.432519e-05
0000b0 2e 47 00 3c 84 b9 bf 3b 16 71 77 3c 33 d9 27 bb
       0.007829471 0.0058509726 0.015102645 -0.0025611639
0000c0 41 f9 1f 3c 72 67 63 ba f1 eb 6f 3c ec b6 64 3c
       0.009764017 -0.00086747773 0.014643655 0.013959628
0000d0 fb 11 10 3c 1f 88 29 3b 00 00 00 00 e5 d1 07 3b
       0.008793349 0.0025868488 0.0 0.0020724472
0000e0 49 7a b3 3b 00 00 00 00 b8 6e e9 3a 75 f6 5b 3b
       0.005477224 0.0 0.0017809486 0.0033563648
0000f0 19 75 68 37 da be 47 39 77 17 07 3b 9a 41 c1 3a
       1.38555415e-05 0.00019049217 0.0020613351 0.0014744282
000100 12 ed d9 bb 4b aa a5 3b d0 3f b6 3b 5a a5 1d 38
       -0.0066505754 0.005055701 0.0055618063 3.7585713e-05
000110 00 00 00 00 1d dd 35 36 74 51 9e 3b ed e4 a3 ba
       0.0 2.7099807e-06 0.0048314873 -0.0012504138
000120 4e c9 02 3a 64 26 3a ba 44 d4 cc b4 b2 92 91 3c
       0.0004989103 -0.00071010576 -3.8152405e-07 0.017770145
000130 56 22 67 3c a3 56 b0 b9 0f d6 12 3b 66 f9 6f 3c
       0.014107307 -0.00033633885 0.002240542 0.014646864
000140 e0 b0 4b 3b 3c cd 2b 38 4b ed 22 b8 15 c7 9d 3b
       0.0031080768 4.0960716e-05 -3.8844806e-05 0.004814992
000150 30 36 e4 3b 36 9a 88 3b 72 eb 44 3c 70 da ab b7
       0.0069644675 0.004168774 0.012019025 -2.0486506e-05
000160 38 65 72 3b c2 b4 41 b8 62 04 18 bc fe 33 bf 3b
       0.00369866 -4.618313e-05 -0.009278389 0.0058350554
000170 18 1a 3f 3c 91 39 57 bb 53 a4 94 3b 08 fc e4 3b
       0.011663936 -0.0032840709 0.0045361905 0.0069880523
000180 62 24 2f bb 00 00 00 00 b9 d9 84 3c 11 15 af ba
       -0.0026724567 0.0 0.0162171 -0.0013357719
000190 a2 11 58 3c 9b 6a 9f 3b 8e 08 22 3b 12 78 41 b6
       0.013187798 0.0048650033 0.0024724337 -2.8829131e-06
0001a0 e1 7a db 3a 8e 56 98 bb 4d e1 36 3c 63 8a 1d 3c
       0.0016744995 -0.00464899 0.011162114 0.0096155135
0001b0 7d 5a c3 3b 8d 0b cc ba f9 47 c0 b7 66 43 8b 3c
       0.005961715 -0.0015567407 -2.2921698e-05 0.016999912
0001c0 a7 23 34 3a b4 c5 98 bb 7f 29 7d b8 6e 38 8d ba
       0.00068717677 -0.00466224 -6.0358547e-05 -0.0010774264
0001d0 f5 aa 8c bb 98 08 c5 bb 1f e4 cf 3b 6d e8 65 b6
       -0.0042928406 -0.0060129873 0.006344333 -3.4258949e-06
0001e0 cf e0 1e b6 48 07 25 3b db e9 fc 3b ce c2 ee bb
       -2.367469e-06 0.0025181342 0.0077183074 -0.007286406
0001f0 d6 86 9f 38 52 36 3d bb 34 da 16 3c 1f 7f 61 3c
       7.606826e-05 -0.0028871489 0.009207297 0.013763218

weight f4 [128, 128]
000000 4b db 1b 3d 2d e4 8b 3d 30 3c f9 3d c3 ea 2e bd
       0.03805093 0.068306305 0.12169683 -0.042704355
000010 ec b5 ad 3d 98 99 e6 bc c2 78 50 bd f8 10 9b 3a
       0.084819645 -0.028149411 -0.050896414 0.0011830619
000020 37 bc b8 bd 9b 38 e2 3d 3b 9b ee 3d 89 ac 96 bc
       -0.09020274 0.11045953 0.116507016 -0.018392818
000030 88 c5 ba 3d e8 49 30 be ec 85 98 bc 90 65 8f 3d
       0.09119707 -0.17215693 -0.018618546 0.070017934
000040 80 8b 0a 3e 2e ed 02 3d cd bd 4e bd dd 86 94 bd
       0.13529778 0.031964473 -0.050473977 -0.07252286
000050 a3 d3 0b be c2 54 1a 3e 60 14 c3 bd 8d 49 2a 3d
       -0.13654952 0.15071395 -0.095253706 0.04157405
000060 5d 92 fb bd 95 95 6b 3d e0 8c 31 3e fa f3 cb bc
       -0.12283776 0.0575157 0.17338896 -0.02489661
000070 db fe be bc e2 73 a1 3d d8 00 76 bc 9f f2 32 3e
       -0.023314884 0.07883431 -0.01501485 0.17475365
000080 fb 96 e5 bd a8 9c d9 bd 96 c9 8c 39 97 e3 e3 3d
       -0.11210438 -0.10625583 0.00026853074 0.11127394
000090 7d 30 37 3e 4e 10 58 bd 1d 8d 3d bd ee 62 ea bd
       0.1788959 -0.052749924 -0.046277154 -0.114446506
0000a0 2a ab 18 be 0b 85 f5 3d 5e ec 3c bd 52 df 29 3c
       -0.14909044 0.119882666 -0.046123855 0.010368185
0000b0 a5 69 c3 3d a3 0e 9b 3d 3e 29 f8 3d a3 a5 70 bc
       0.095416345 0.07571151 0.12117241 -0.014687928
0000c0 2b 5e f1 3d 24 1d 12 bd 31 25 ca 3d 1f 97 f8 bc
       0.11785539 -0.035672322 0.09870375 -0.030345498
0000d0 f9 a2 e4 3c 3f 25 d5 3d 7f 77 8a bd 82 bd a0 bd
       0.027909743 0.10407495 -0.06761073 -0.07848646
0000e0 6b 74 e4 3d ec 5b 13 be 94 25 1c be 4e 6e 4b 3d
       0.111550175 -0.14390534 -0.1524871 0.04966574
0000f0 1b 52 e1 3d 7c 9c 9e 3c 01 46 e0 bd bd 04 0e bd
       0.110019885 0.019361727 -0.10950852 -0.034672488
000100 6e 9c 25 bd a9 7a 3a bd 25 2f ce 3d 05 18 81 3c
       -0.040432386 -0.045527134 0.10067586 0.015758524
000110 c6 28 15 3d c4 1e 9c bd a0 f7 05 be 8a 4c 8b bd
       0.036415838 -0.076230556 -0.13082743 -0.06801708
000120 f7 c3 22 bc 34 82 0d be 2c f1 09 bb f0 37 38 3e
       -0.009934417 -0.138192 -0.002104829 0.17990088
000130 66 0c e1 bd e0 0e cf 3d e9 8e 1c 3e 72 c7 03 3e
       -0.10988693 0.10110259 0.15288891 0.12869051
000140 42 d4 8e bd f8 7d ea 3d c6 60 8c 3d 5a c5 a4 3d
       -0.06974079 0.11449808 0.068543956 0.08045454
000150 75 fd e5 3d 94 70 2b 3d 51 8a 3a 3e 1c 3d 0d be
       0.11229984 0.04185541 0.18216826 -0.13792843
000160 ea 54 da 3d b9 28 ce 3d 41 2f 02 3e 66 df a9 3c
       0.10660727 0.10066361 0.12713338 0.020736407
000170 21 a7 59 3e e7 ea 92 bd eb a9 ea 3d 9c f8 17 3e
       0.21255161 -0.0717371 0.114581905 0.1484093
000180 39 f3 46 bd 8a 92 c4 3d 5e 0e 26 3e bc 46 0a 3a
       -0.0485718 0.095982626 0.16216418 0.00052748225
000190 88 62 0f bc 2e b7 71 3d 82 6f f0 3d df dc a5 bd
       -0.008751519 0.059012584 0.117400184 -0.080987684
0001a0 fd 2a cb bc 29 9c aa bd 50 03 10 3e 08 b4 76 3c
       -0.024800772 -0.083305664 0.14063764 0.015057571
0001b0 7c da 27 3e 29 ae 07 be 39 ea 95 3d 47 9f d8 3d
       0.16391939 -0.1325003 0.07320065 0.10577255
0001c0 17 20 ff 3d a9 80 65 bd b7 a7 3a bc 43 30 0f 3e
       0.124572925 -0.056030903 -0.011392525 0.13983254
0001d0 f7 6e 98 bd 00 60 a9 bd 1c 51 1e 3e d7 54 ad 3d
       -0.0744304 -0.08270264 0.15460628 0.084634475
0001e0 48 8a c6 bd 7f 6c a7 bd 17 a5 1d bd 02 5b 93 3d
       -0.09694344 -0.08174991 -0.03848752 0.07195093
0001f0 06 87 ce bd 73 07 d6 3d 92 45 39 3e f3 a2 c5 bd
       -0.100843474 0.104506396 0.18092945 -0.09650221
000200 5e 91 75 bd db 52 6a 3d 4c f3 15 bc 68 e5 10 3c
       -0.059953086 0.057207923 -0.009152245 0.008843757
000210 fd 1d a2 bd f2 1c de 3d fb c8 de 3b d9 4d 91 3d
       -0.07915876 0.10845365 0.006798861 0.070949264
000220 8a 13 8c bc 7a 24 19 be 91 6b 15 3e 6b d0 f6 3d
       -0.01709916 -0.14955321 0.14591815 0.12051471
000230 fc 39 db 3d c1 c6 8a bd ff e3 a5 3d 94 b2 0c bd
       0.10704419 -0.067761905 0.081001274 -0.034349993
000240 68 98 ad bd de 3d 17 be f5 7d a9 3d df 95 c3 bd
       -0.08476335 -0.14769694 0.082759775 -0.0955007
000250 57 0d b4 bd 89 ff ee bd b4 b8 0c be 6a eb b4 bc
       -0.08791607 -0.11669833 -0.13742334 -0.02208491
000260 39 a8 03 3e 31 fd d9 3d 65 d9 65 bd 0a 2e 0c be
       0.1285714 0.106439956 -0.056115527 -0.13689438
000270 ce 45 32 3d e5 6f fb 3d 4a ae 17 bd e2 cb 0c 3e
       0.043523602 0.122772016 -0.03703145 0.1374965
000280 38 81 ab 3c 9a f5 98 3d 49 a5 ad 3d 53 60 2b bd
       0.02093564 0.0746872 0.08478791 -0.04183991
000290 0d 9f c0 3d b0 de 5b bd ea cd 64 bd 75 ad c4 3d
       0.094053365 -0.05367917 -0.055860437 0.09603397
0002a0 38 16 ec 3d 83 09 ce b9 b3 aa 57 3d 51 cc 07 3d
       0.115276754 -0.0003929847 0.052653026 0.033153836
0002b0 38 f4 06 3e 2a 12 d1 3d 0f f8 c3 bd 86 ad 76 bd
       0.131791 0.10208543 -0.09568798 -0.06022408
0002c0 e4 1f d9 3d ce 78 2b bd a9 2c a0 bd a2 4b 58 3d
       0.10601786 -0.041863255 -0.07821018 0.052806504
0002d0 aa 5c d6 bd 01 ad bb bd 0e 3e b6 3c 8c 95 0d be
       -0.10466893 -0.09163857 0.022246387 -0.13826579
0002e0 c6 72 07 3e f1 73 49 bc 23 1b 80 ba 1a f0 1f bd
       0.13227376 -0.012295709 -0.0009773712 -0.039047338
0002f0 ec 82 0c be c2 a0 50 bd b9 e4 a1 bd 81 81 76 3d
       -0.13721818 -0.05093456 -0.079049535 0.0601821
000300 48 8b 9e bd 7c 7a 33 bd c0 97 5d bd 21 d4 bb 3b
       -0.077414095 -0.043817982 -0.0540998 0.005732075
000310 d6 3c 92 3d a7 37 94 bd 8b 24 c3 bd de 9c bc 3d
       0.0714051 -0.07237177 -0.095284544 0.092096075
000320 51 b9 ff bd c1 99 fe bd 84 ba a7 3d a0 79 38 bd
       -0.12486518 -0.1243167 0.08189872 -0.045037866
000330 21 ed bc bd cf 3d fd 3d 9b 23 d5 3d e4 cf ba 3d
       -0.09224916 0.12365305 0.10407182 0.09121683
000340 f7 88 6c bc 5b 98 1b 3e 1c 4a bb 3c 48 92 05 3e
       -0.014436952 0.15194838 0.022862487 0.13044083
000350 33 30 12 3e 8f c9 0c 3e 52 27 af bc 7d d8 30 3c
       0.14276199 0.13748764 -0.021381054 0.010793802
000360 13 df 09 3e 75 00 cc bc b1 ad aa bd f7 b9 00 be
       0.13464002 -0.024902562 -0.0833391 -0.1257094
000370 76 f1 c3 3d 5c 05 f2 3d d2 4b eb 3d 2a 93 a4 bd
       0.095675394 0.118174285 0.11489071 -0.08035882
000380 4c ab 2f bd 6b c3 1c be 64 62 0c 3e 6d 84 14 be
       -0.04288797 -0.15308921 0.13709408 -0.14503641
000390 dc 8a 86 3c d1 de 12 be ea ae fc 3d 37 2a 1a 3d
       0.016423635 -0.1434281 0.1233805 0.037637915
0003a0 b5 05 b2 bb 91 3f 49 bc ef e2 c8 3d 65 ce 8f 3c
       -0.0054328092 -0.012283222 0.09808909 0.017554471
0003b0 f9 59 44 bc fd 7c 49 bd d3 cc 10 3e de 01 1d 3d
       -0.011984342 -0.049191464 0.14140634 0.03833186
0003c0 05 de fd 3d ae 02 89 bd 31 f3 a0 3d 2d 5e 20 bc
       0.123958625 -0.06689964 0.07858885 -0.009788078
0003d0 f1 66 ea bd 29 0e 14 bd 9b 16 04 be 13 40 52 3d
       -0.11445416 -0.036146317 -0.12899248 0.051330637
0003e0 26 8e 1b 3e a9 87 f1 3d a5 f8 a1 3d 87 ef d8 bd
       0.15190944 0.11793453 0.07908753 -0.10592561
0003f0 eb 13 b2 bd bc 9b 18 be 14 93 18 be b2 73 71 3d
       -0.08695205 -0.14903158 -0.14899856 0.058948226

bias f4 [128]
000000 d7 54 9a 3c d5 b1 7f b9 8b 1b 54 3c 0d ea 4c 37
       0.018839283 -0.00024384943 0.01294602 1.2213842e-05
000010 f5 68 ab ba 3c ea e3 b9 ac 0b b4 3b f2 f7 48 38
       -0.0013077544 -0.00043471332 0.0054945555 4.7914633e-05
000020 73 8e da 3b 1f af 81 3b 69 b4 0f 3c 6a 90 8f 3b
       0.0066698133 0.0039576436 0.0087710405 0.004381229
000030 48 72 45 3c f0 b6 58 b5 a1 73 05 bc 19 86 c9 3b
       0.012051173 -8.073248e-07 -0.008145244 0.006150019
000040 7c aa 4f ba 8b fe 2f bb 14 1e f3 37 bd 85 14 b6
       -0.00079218275 -0.00268546 2.8981864e-05 -2.2131564e-06
000050 80 02 41 ba 17 ca 1d 3c f2 e3 1f 3c 98 bd fb 3b
       -0.0007362738 0.0096307015 0.009758936 0.0076825134
000060 2d 86 a0 ba 16 d0 22 3c 8b e8 4f 36 58 97 81 b9
       -0.0012247019 0.009937307 3.0980761e-06 -0.00024717557
000070 58 87 e3 ba 0e e9 7a 3c ee bb 05 b7 fd 74 96 bb
       -0.0017359061 0.015314354 -7.9711735e-06 -0.004591583
000080 00 00 00 00 00 00 00 00 28 c6 4e 3a 00 00 00 00
       0.0 0.0 0.0007887804 0.0
000090 10 6d 3a ba 4a 6f 05 3c 94 6d 95 37 42 1f 1f 3c
       -0.00071115885 0.008144209 1.781321e-05 0.009712042
0000a0 0e e8 97 b7 8a bf 12 3c 41 0b 20 3c 00 00 00 00
       -1.8108662e-05 0.008956799 0.009768308 0.0
0000b0 38 ab 01 3c af 45 2e ba 38 31 80 b6 3a 4d 9e 3c
       0.007914357 -0.0006647957 -3.820427e-06 0.019323934
0000c0 ad 52 15 bb e6 b7 4e bb 00 00 00 00 52 be fa 3b
       -0.0022784874 -0.0031542717 0.0 0.0076520825
0000d0 8b fc 20 38 96 47 0b 3c 2a 35 56 38 d9 97 0c 3a
       3.838217e-05 0.008500954 5.107109e-05 0.0005363203
0000e0 53 aa a8 ba dd ea 18 3c 00 00 00 00 64 85 13 3c
       -0.0012868143 0.0093333395 0.0 0.009003971
0000f0 d0 4b 16 3c 56 65 b3 3b c0 b6 29 3c 18 cd d9 3b
       0.009173349 0.0054747267 0.010358512 0.0066467635
000100 e3 9a 9d 3b 55 11 02 3b ab 95 ed 36 e2 8b cd b5
       0.0048097237 0.0019846756 7.080574e-06 -1.5314401e-06
000110 ac 39 d9 3b 9a e5 3c 3c 4e 98 39 b7 19 f2 8a 3b
       0.0066291895 0.011529351 -1.10623205e-05 0.004240286
000120 fe c9 e2 bb 00 00 00 00 5d 0d b1 bb 7e 15 70 bb
       -0.006921052 0.0 -0.0054032044 -0.0036633904
000130 e6 87 f3 bb 53 40 51 b9 4d 73 f3 36 d7 9e 41 3b
       -0.007431972 -0.00019955756 7.255387e-06 0.0029544139
000140 e9 51 bf bb 81 64 3d 3c e0 88 9b b5 00 00 00 00
       -0.005838622 0.0115596065 -1.1588236e-06 0.0
000150 b8 84 01 3c 39 48 97 bb 94 b7 7b b4 e2 c6 89 39
       0.007905178 -0.004616764 -2.3442982e-07 0.00026278856
000160 e2 d3 8c bb 8a cb ef 36 b0 5a 00 bb 8a 0f 53 bb
       -0.0042977193 7.14645e-06 -0.0019585304 -0.0032205307
000170 be 43 95 3c 30 f9 0b 3b 51 1b 90 3b 26 7b 0c b9
       0.018220779 0.0021358244 0.0043977876 -0.00013397317
000180 1a cf 7e 3a 19 e7 13 b6 00 00 00 00 49 3b 9f b8
       0.00097201916 -2.2039223e-06 0.0 -7.5927535e-05
000190 b1 78 5c bc ce c5 a2 3a 3f 44 1c 3a 18 3a e2 3b
       -0.013456509 0.001241857 0.0005961097 0.006903898
0001a0 13 d6 59 3a 2b 99 0b 3c c0 6c 53 3a f1 7f 0f 3c
       0.00083097926 0.008520405 0.0008065216 0.008758531
0001b0 9d f5 bc b6 b4 12 81 ba de d7 ae 39 be cd ba 3a
       -5.6314298e-06 -0.0009847493 0.000333487 0.001425199
0001c0 86 f5 fc 3b 49 aa b3 bb c4 35 fe ba 00 00 00 00
       0.0077196984 -0.005482946 -0.0019394686 0.0
0001d0 de c6 38 3c c4 74 1d 3c 12 5d df bb 1f f5 8b 3c
       0.011277882 0.009610359 -0.006816515 0.017084656
0001e0 60 1a e7 b9 24 c6 30 bb ee ff 2b 3b cb f4 02 bb
       -0.00044079404 -0.002697357 0.0026245075 -0.0019982334
0001f0 f4 3a 42 3c 4b 91 9d b8 29 21 4f bb 5a 3c c9 b9
       0.011854876 -7.513406e-05 -0.0031605458 -0.00038382673

weight f4 [128, 128]
000000 e8 dc 4c 3d 75 5a 8d bd 52 4d 04 3d 9b 72 c9 bd
       0.05001536 -0.06902019 0.0323003 -0.098363124
000010 1d 0f 06 be ad 42 f5 bd 4e 43 bf 3d be 6b d1 3d
       -0.13091703 -0.11975608 0.09339009 0.10225628
000020 93 1b 2d 3d 4a 44 17 bc dd 97 0f 3d 3b 54 0a 3e
       0.042262625 -0.00923259 0.035056937 0.13508694
000030 14 9c 14 bc 5d 63 eb 3d 95 a3 e8 3d 7d 8a 48 bd
       -0.009070415 0.114935614 0.11359326 -0.048960198
000040 a9 b5 86 3d 6f cd 2b bd 84 95 93 3d 44 62 f6 bc
       0.06577618 -0.041943964 0.07206252 -0.030076154
000050 e0 8b 0f 3e 92 11 b3 3d 6b 6a df 3d 6d 4c bb 3d
       0.14018202 0.08743586 0.109089695 0.091454364
000060 fd d4 aa 3d d9 45 55 bc ad b1 43 3d 07 4b a3 3d
       0.083414055 -0.013017141 0.047776867 0.07973295
000070 c1 23 e8 3d 9b 38 08 be e7 93 1a 3e 9e 2a f2 3b
       0.113349445 -0.13302843 0.15095483 0.0073903343
000080 9a 7c 05 bd ec d2 16 be 1f bf 3f bd 97 f5 1a be
       -0.032589532 -0.14728898 -0.046813127 -0.15132748
000090 b9 83 bb 3d 1e 9f 01 be 99 ce b8 bd 2a 57 00 be
       0.091559835 -0.12658355 -0.090237804 -0.1253325
0000a0 7e fd d8 bd 81 d9 1f 3d d8 9f c2 3d 21 d9 b5 bc
       -0.10595225 0.039025787 0.09503144 -0.022198262
0000b0 ed 43 9d bd b3 2d 0a be 3a ab ce bd 80 7f 16 be
       -0.076789714 -0.13493995 -0.100912526 -0.14697075
0000c0 54 ed a4 3d 93 4d c4 bd 30 01 ad 3d f4 b0 bf 3d
       0.08053079 -0.095851086 0.08447492 0.09359923
0000d0 41 a6 e7 3c a0 82 18 bd 57 cc b7 3d 35 0a 69 3d
       0.028277518 -0.03723395 0.089745216 0.0568945
0000e0 14 f6 a0 bd 7a 36 90 bd c2 f9 88 bd 9f 1b f2 3d
       -0.07859436 -0.070416406 -0.066882625 0.118216746
0000f0 d7 8a 18 be 2b 6c 82 b9 1d a1 99 bd b1 11 19 3e
       -0.14896713 -0.00024876124 -0.07501433 0.14948155
000100 f4 dc e3 bd 15 7c 09 3e 77 e6 14 be af fb cc bb
       -0.11126128 0.1342624 -0.1454104 -0.006255589
000110 e4 ab 17 be 43 45 81 3d 1d 7d db 3d f9 05 86 bd
       -0.14811665 0.06312039 0.10717223 -0.06544108
000120 f6 1a 17 be 2e 79 d3 bd ba 4e c4 bd 5f 98 a3 3d
       -0.14756379 -0.103258476 -0.095853284 0.07988047
000130 25 6a 1f bc 12 d0 85 bd 6e 18 29 3d 47 0b d8 bd
       -0.009729897 -0.06533827 0.041283064 -0.10549026
000140 4e 4e 08 3e 6a 00 06 3e 01 a7 c0 3d 4e 54 3f bb
       0.13311121 0.13086095 0.094068535 -0.0029194537
000150 b9 ff c1 bc 4d b2 73 bd 8f ee e3 bd a7 cc 52 bc
       -0.023681508 -0.059496213 -0.11129486 -0.012866176
000160 0f 4e eb 3d 3c 56 bd bc 30 04 08 3d 9e 4a 20 bc
       0.11489498 -0.023112409 0.03320712 -0.009783415
000170 9a 22 c6 3c 85 eb e6 3d 94 8e f0 3c 08 8f 8f bd
       0.024186421 0.112753905 0.029364862 -0.07009703
000180 81 24 c2 bb d1 d2 a2 3b 09 4c 15 be 8f 14 15 bd
       -0.0059247618 0.004968979 -0.14579786 -0.03639656
000190 9d fe 09 be 57 e4 d7 bd bd 08 62 3d 25 6f 96 bd
       -0.13476034 -0.10541599 0.055184115 -0.07345418
0001a0 04 b4 15 be 46 a4 04 bc ba 9c 17 bd b4 08 17 be
       -0.14619452 -0.008095806 -0.0370147 -0.14749414
0001b0 20 fc 1a be 3e 4e 09 3e df 2a 08 be 6c 4c 1b 3e
       -0.1513524 0.13408753 -0.13297604 0.15165871
0001c0 56 ca 9a bd 30 ad 96 3d 57 de a5 3d 14 ec db bd
       -0.07558124 0.07357252 0.080990486 -0.10738388
0001d0 d1 62 5d bd ae d1 02 3d 17 27 8a bc 1f c8 97 bb
       -0.054049317 0.031938247 -0.016864343 -0.0046320106
0001e0 c6 61 4d 3d 5d 23 ec bc 73 dd 61 3d a3 12 86 3d
       0.050142072 -0.028825456 0.05514283 0.065465234
0001f0 2f b1 5a bd 31 6b b2 bd 13 83 a5 bd a8 39 90 3b
       -0.05339163 -0.087118514 -0.08081641 0.0044014044
000200 35 06 d1 3d fa 94 54 3d 86 75 8d bd c3 cc 00 be
       0.10206262 0.051899888 -0.069071814 -0.1257811
000210 dc aa 4e bc 7f b6 ef 3c 71 83 0e 3d 73 63 9c 3c
       -0.012613978 0.029261826 0.03479332 0.01909039
000220 bc ac 12 3e 15 ad 4b 3d 57 03 9e bd de f8 d0 ba
       0.14323705 0.04972561 -0.07715481 -0.0015943309
000230 f8 d1 ed bd 5c 61 9b 3d 34 e4 fb bd 59 02 4a bd
       -0.11612314 0.07586929 -0.12299386 -0.049318645
000240 4a 20 68 3d 9c 27 e8 bd ec 0e fb 3a d8 43 ce 3d
       0.05667142 -0.1133568 0.0019154227 0.10071534
000250 54 4b 19 bd 80 55 c9 3d df 5d b5 3d cb 96 a5 ba
       -0.037425354 0.09830761 0.08855795 -0.0012633441
000260 94 ac 36 bc 4e 88 8f bd fc 5e 4a 3d 3e 2d 7a bd
       -0.011149544 -0.0700842 0.04940699 -0.061078303
000270 18 cf 90 bd 2a f5 e3 3d aa d4 cf bd bd f6 9b ba
       -0.0707075 0.11130746 -0.10147984 -0.0011899095
000280 f8 92 3e bd 06 28 04 3e 31 b2 20 3e 17 ce bc 3d
       -0.04652688 0.12905893 0.15692975 0.09218996
000290 61 86 06 be 30 96 42 3d 5c 69 df bd c6 dc 3d 3e
       -0.13137199 0.04750651 -0.109087676 0.1854125
0002a0 20 79 9d 3d 08 ad d0 3d df 39 02 be 5d 09 03 bd
       0.076891184 0.10189253 -0.12717389 -0.03199135
0002b0 a0 bf 8a 3c 91 32 8d bd 00 b2 12 3e 89 ce 4c bb
       0.016937077 -0.068944104 0.14325714 -0.0031251034
0002c0 4b 41 0b 3d 1f 89 b8 3d 3e a8 e2 bc 1c 69 9f 3d
       0.033997815 0.09010529 -0.027668115 0.0778372
0002d0 7e c4 d1 bd 22 1d c6 3d ff 30 17 3e 76 2c c8 bd
       -0.10242556 0.096735254 0.14764784 -0.09774105
0002e0 d7 60 84 bd 2c 48 c1 bd c7 db 1b be 1c 42 3a bd
       -0.06463783 -0.09437594 -0.15220557 -0.045473203
0002f0 d7 35 f6 3b 68 52 aa bd cf c8 83 3d 98 c0 ea 3d
       0.0075137424 -0.08316499 0.064347856 0.114625156
000300 83 f9 1a 3d 49 29 f3 3d dd bb 88 bd 5e b7 eb 3d
       0.03783561 0.11873109 -0.06676457 0.11509584
000310 f9 f1 9c bd f1 40 bd 3d 81 94 0d be e8 e2 45 bd
       -0.0766334 0.09240902 -0.13826181 -0.048312098
000320 f4 ec 16 be 82 00 dc 3a cb ed 06 bd 2f 25 80 39
       -0.14738828 0.0016784819 -0.03294162 0.00024441766
000330 39 3b 68 bc 40 fe 2b 3d 49 b7 0a be b6 b1 b6 3d
       -0.014174276 0.04199052 -0.1354648 0.089206144
000340 57 26 03 be 50 eb 88 3d 33 c0 93 3d 5f 02 8e 3d
       -0.12807594 0.06685507 0.072143935 0.06934046
000350 c0 97 2f bd be 16 09 be 54 e6 e0 3d 99 6e 98 3c
       -0.04286933 -0.13387582 0.109814316 0.018607425
000360 02 c3 b6 3d 98 8d 0f bd e8 9a a0 3d 25 2d 39 3d
       0.089239135 -0.035047144 0.07842046 0.04520907
000370 c0 4f 01 3e 3f ac 82 3d 1c 68 08 be 94 1b 27 3d
       0.12628078 0.063805096 -0.13320965 0.040797785
000380 18 49 db 3d 5e 4b 52 3d 3c a5 8b bc 67 86 0a 3a
       0.10707301 0.051341407 -0.017046563 0.000528431
000390 77 1b 05 be 0b 01 44 3c 27 7f da 3d b3 2f 04 be
       -0.12998758 0.011963139 0.10668784 -0.12908821
0003a0 60 11 b2 bd 88 65 da 3d 50 e6 f7 3c 52 e7 49 3d
       -0.0869472 0.10663897 0.030261189 0.04929287
0003b0 93 ef 16 3e 1a 11 d9 3d 1d 8f c1 bc 68 24 80 bd
       0.14739828 0.10598965 -0.023627812 -0.06256944
0003c0 05 bf 44 3d 99 f3 90 3d fe 0c 55 3d 4f 44 c5 3d
       0.048033733 0.070777126 0.052014343 0.096321695
0003d0 d4 67 64 bd 76 72 a4 bd bd 4e 92 3d 62 7e 0a 3e
       -0.05576308 -0.08029644 0.071439244 0.13524774
0003e0 1c b7 80 bc 7d 3f 09 be 16 2b 85 bd 77 89 2f bd
       -0.015712313 -0.13403125 -0.065023586 -0.042855706
0003f0 81 85 09 be 24 d6 88 bd a3 33 9c 3c 63 f2 41 3c
       -0.13429834 -0.06681469 0.019067591 0.011837575

bias f4 [128]
000000 03 03 bd b9 99 08 b3 3b c5 37 3d 3c 56 e7 65 bb
       -0.00036051133 0.0054636714 0.011548941 -0.0035080514
000010 56 54 e7 35 88 27 af 36 84 08 d6 3a 21 ee 04 3c
       1.7235386e-06 5.2200085e-06 0.0016329442 0.008113415
000020 5f e4 18 3c 5e ce 96 bb 0e b6 de 33 0d 8a 46 3c
       0.009331792 -0.0046022376 1.0370796e-07 0.012117875
000030 23 79 94 3b ba a7 e8 bb 5b 67 ca ba ba 8f 7d b8
       0.004531042 -0.0071000727 -0.0015442179 -6.0453756e-05
000040 fe 25 e9 37 00 00 00 00 96 92 4a bb 0c 71 a1 ba
       2.7793456e-05 0.0 -0.0030910126 -0.0012317016
000050 dd f9 40 3a 04 ba 32 3c 53 c9 98 3b 00 00 00 00
       0.0007361451 0.010908607 0.0046626716 0.0
000060 00 00 00 00 60 25 11 3c 32 b8 68 3c 00 00 00 00
       0.0 0.008859009 0.014204072 0.0
000070 b3 19 53 3c 7b 34 0b 3b b2 87 bb 3b 48 6f 0d 3b
       0.012884545 0.0021240998 0.0057229633 0.0021581221
000080 8b 8f ba 3b 00 00 00 00 5f b0 63 35 0b 6a 91 b9
       0.005693381 0.0 8.4820743e-07 -0.00027735563
000090 7a 52 ba bb 00 00 00 00 dc 2e 91 3b 10 8c 0f 3c
       -0.0056861015 0.0 0.004430635 0.008761421
0000a0 66 e9 88 ba 03 e7 03 3c 68 69 e4 3a 55 37 9f b9
       -0.0010445535 0.008050683 0.0017426433 -0.0003036807
0000b0 13 16 ab b9 f4 50 a8 b9 d7 63 85 39 2d 43 9b 37
       -0.00032632108 -0.00032103772 0.00025442123 1.8508721e-05
0000c0 c1 27 8b 3b df 80 b2 b9 d5 1f 04 3c 69 ee 0f 3c
       0.0042466824 -0.00034046822 0.00806423 0.008784869
0000d0 36 b6 65 3b df 24 1a b7 ee 71 55 3c 41 93 6b ba
       0.0035051233 -9.1877e-06 0.013027651 -0.0008986481
0000e0 00 00 00 00 ed 60 64 3c e7 2c 64 3b 7c c0 a9 3b
       0.0 0.0139391245 0.0034816803 0.0051804166
0000f0 8d 85 0f 37 22 84 a0 3a db 9c 04 b6 9c e9 cd 3b
       8.554559e-06 0.001224641 -1.9760835e-06 0.006283952
000100 68 cf 8c 3c c8 31 70 3c 78 81 4c 3c 5f 1b 35 b9
       0.017188743 0.014660306 0.01248204 -0.00017271702
000110 c7 45 49 bb 7a 67 02 b8 6d cb 33 b9 d0 33 36 bb
       -0.0030711757 -3.1090785e-05 -0.00017146552 -0.0027801879
000120 37 4d 14 3c 4d e5 a9 3b 99 02 2b bc 1c dc 3e 3c
       0.009051613 0.0051848055 -0.010437631 0.011649158
000130 c5 57 25 ba 18 55 61 3c c9 81 71 3c 83 3a 4d bb
       -0.0006307329 0.013753198 0.014740416 -0.0031315393
000140 b8 a8 6e 3b 00 00 00 00 30 7f c6 3b 00 00 00 00
       0.0036416482 0.0 0.0060576424 0.0
000150 2d bf 30 b9 5e 42 b2 ba e7 1a 81 bc 4a d2 0b 3c
       -0.00016855886 -0.0013600101 -0.015759898 0.008534024
000160 03 fe 95 3b 57 9d 57 bc d3 ea 51 bb d8 63 9e b9
       0.0045773997 -0.013160071 -0.0032030835 -0.00030210498
000170 1c 42 17 3c a9 08 8c ba b9 0b 80 3c 00 00 00 00
       0.00923207 -0.0010683733 0.01563059 0.0
000180 5e 60 e8 ba 00 00 00 00 07 a1 c3 ba c7 b5 5f bc
       -0.0017728915 0.0 -0.0014925309 -0.013654179
000190 96 ea a3 37 36 5a 7b 3a cd 88 9f 37 6d c0 9b bb
       1.9540352e-05 0.00095883326 1.901798e-05 -0.0047531636
0001a0 e5 c7 87 b7 6c ab 04 3c 36 ac 0d 3a 00 00 00 00
       -1.6186337e-05 0.008097511 0.00054043846 0.0
0001b0 44 5c 80 36 2b 59 bd 38 03 19 3a 38 85 69 73 ba
       3.8254384e-06 9.028831e-05 4.436915e-05 -0.0009285438
0001c0 b5 6e 73 3b 22 4a dc 3b 2b c6 1c 3c 50 7f 9d 3c
       0.0037144844 0.0067227045 0.009568731 0.019225746
0001d0 5a 22 e5 3b 96 85 a4 3b ee f6 e2 37 d7 fa 75 bb
       0.0069926204 0.0050208075 2.7056285e-05 -0.0037533545
0001e0 99 8f 95 bb 75 d4 5b ba 8c fc d0 bb db 34 a2 3b
       -0.0045642373 -0.00083858456 -0.006377762 0.0049501485
0001f0 33 a7 2e 3b ed ba 30 3c 5d a2 29 3b 37 99 db b4
       0.0026649951 0.010786754 0.002588413 -4.0903407e-07

weight f4 [128, 128]
000000 26 24 55 3d 1d 1c 77 3d 40 b0 56 bd 72 45 be 3d
       0.052036427 0.060329545 -0.05241418 0.092905894
000010 75 4e a2 bd 37 4e 95 bd a7 f2 01 be 6d ba 0c bd
       -0.07925121 -0.07290309 -0.12690221 -0.034357477
000020 e8 6b bf bd da e3 f6 3d e6 b3 ca 3c 67 f6 9f 3d
       -0.09346753 0.12055178 0.024743985 0.078106694
000030 5a 40 2f bd ea 9a 03 3e 9b 64 ca 3c 8b e0 0b be
       -0.04278598 0.12852064 0.024706176 -0.13659875
000040 55 bf 0d 3e cb 66 f6 bd 14 69 cc bc d1 d3 d5 bb
       0.13842519 -0.12031325 -0.024952449 -0.0065254946
000050 2b b6 61 3c a5 44 89 3d 6c 28 d7 bd 68 03 15 3e
       0.013776342 0.06702546 -0.10505757 0.1455208
000060 be ef c1 bd 28 f8 a5 3c ab 0c 5f 3d 61 d3 10 be
       -0.09469555 0.020259932 0.05445544 -0.14143135
000070 e9 a4 11 3e 29 4e 8b 3d 04 a4 d4 3d 44 a5 d0 bd
       0.14223064 0.06802017 0.10382846 -0.10187772
000080 1b c3 02 be e9 f9 eb 3d 32 9d 11 3d fd 4c 97 3d
       -0.1276974 0.11522276 0.035550304 0.07387731
000090 13 b4 b7 3d ef 8f d2 bd 46 03 da 3d 96 fc dd 3d
       0.08969893 -0.102813594 0.106451556 0.108391926
0000a0 77 f7 e3 3d 09 da 14 3e 3d 85 a8 3c ce b4 07 3d
       0.111311845 0.14536299 0.020571345 0.033131413
0000b0 5b 21 ae 3d ef ff 0b 3d 73 e2 d7 bd 84 3f f7 bd
       0.08502456 0.034179624 -0.10541239 -0.120726615
0000c0 30 0f 99 3d f8 60 77 3d 45 a2 cc bd 21 7c 13 3e
       0.074736 0.06039521 -0.09991888 0.1440282
0000d0 59 ec fc bd 59 a2 b6 bd 79 81 b1 3d f4 3f b0 3d
       -0.12349767 -0.08917684 0.08667273 0.08605948
0000e0 24 8d 02 be bd 07 b7 3b 73 8b 74 3d 4d 73 2a bd
       -0.12749153 0.0055856393 0.0597033 -0.041613866
0000f0 47 cf 39 3d 57 9a cf 3c 90 c0 ec bd 2e f7 de bc
       0.04536369 0.02534215 -0.11560166 -0.027217474
000100 63 da df 3b 13 ed fc 3d d9 cc b2 bc 6b 22 f2 3d
       0.0068314536 0.12349906 -0.021826195 0.11822971
000110 03 cc 2f 3c 00 62 11 3d 93 3f d8 bd 4e 00 e9 bd
       0.0107297925 0.03549385 -0.10559001 -0.11377011
000120 05 b9 d8 3d 2b 9d 0c 3c 66 c7 dd 3a 4d ed 9a bd
       0.10582165 0.008582394 0.0016920387 -0.07564793
000130 57 14 05 bd 12 d4 37 bd 84 c5 f8 3d 1e 5f e1 3d
       -0.0324901 -0.04487998 0.12147048 0.1100447
000140 36 73 10 3e 10 55 10 3d af 48 c6 bd b2 e1 b9 3d
       0.1410645 0.035237372 -0.09681832 0.09076251
000150 de 2f 98 3d 6f a4 c2 bd d6 c2 a4 3d e6 84 0f 3e
       0.07431005 -0.095040195 0.080449745 0.1401554
000160 fa 79 c9 3d 04 c7 35 bd cb 2a 10 3d ac 3e ed 3c
       0.09837718 -0.04437925 0.03519706 0.028960548
000170 0c d6 67 bd 9b dc 16 3e 04 48 60 3d 35 57 94 bd
       -0.056600615 0.14732592 0.05475618 -0.07243196
000180 46 70 eb 3d b5 9f 47 bc 95 4e ee bb 8b 2c b1 3d
       0.11496024 -0.012184073 -0.0072725513 0.08651074
000190 2c 38 e2 3d b2 13 b4 3d 7b 49 0c 3e 8f 21 5e bc
       0.1104587 0.08792819 0.13699906 -0.013557806
0001a0 60 8a 4c bd 02 1e bc 3d 72 3e 55 3d 0a 00 f1 bd
       -0.049936652 0.09185411 0.052061506 -0.117675856
0001b0 73 59 68 bd 2c 4b f9 3d 89 8b 83 bd c8 e7 37 bd
       -0.05672593 0.12172541 -0.064230986 -0.04489878
0001c0 82 b4 a8 3d 0d 54 ce 3d 31 5b c5 bc 11 82 64 3d
       0.08237554 0.10074625 -0.024091335 0.055788103
0001d0 e8 02 2b bd 9d d2 f4 3d ff 6a 17 3e f4 61 69 bd
       -0.04175082 0.11954234 0.1478691 -0.05697818
0001e0 02 bf 9b 3d 70 53 01 3d 8d 3c 0d 3e 1f 47 bc 3c
       0.07604791 0.031573713 0.1379263 0.022983132
0001f0 ec 95 62 bd c1 85 f3 bc 9f 92 dd bd 37 d5 15 3e
       -0.055318758 -0.029726865 -0.108189814 0.14632116
000200 66 c8 33 bd 1c d7 48 ba 00 61 aa 3d 8a 44 07 3b
       -0.043892287 -0.00076614483 0.083192825 0.0020640218
000210 bb b2 8f bd 98 fc 29 3d c6 61 f4 bd 32 5e 84 bd
       -0.07016512 0.041500658 -0.11932711 -0.06463279
000220 df 4b 01 3e 81 56 3c 3d f0 c3 87 bd a5 40 22 3e
       0.12626599 0.045980934 -0.06629169 0.15844972
000230 22 07 8d 3c 5d be 04 be 42 83 04 be e9 91 87 bd
       0.017215315 -0.12963243 -0.12940696 -0.06619627
000240 66 60 b1 bd 13 f0 35 bd 63 51 a0 bd a9 33 a1 3c
       -0.08660965 -0.044418406 -0.07828023 0.019677954
000250 78 04 f2 3d 86 07 36 bd 59 80 a0 3d 26 47 c4 bd
       0.118172586 -0.04444077 0.078369804 -0.09583883
000260 40 5f 0d bd 02 18 56 bd 8b be 75 3d 0b 6c f0 bd
       -0.034514666 -0.05226899 0.05999617 -0.117393576
000270 0e 63 89 3d a5 00 5c bd 77 19 f6 3d 6b 38 8b 3d
       0.06708346 -0.053711552 0.12016576 0.0679787
000280 9b e0 27 3d a7 f7 50 3d e7 61 32 3c 43 e7 15 3e
       0.040985685 0.05101743 0.0108876 0.14639
000290 99 68 70 3d c8 e9 02 3e 10 f8 85 bc 8f c2 c2 3d
       0.058693502 0.12784493 -0.016353637 0.09509765
0002a0 23 41 14 3e 1d 60 9e 3c 97 8f d4 bb 94 d5 14 3e
       0.14477973 0.01933294 -0.006486844 0.14534599
0002b0 a0 f7 71 3d 9e d7 f8 bd 92 75 01 3e 84 87 b3 3c
       0.059074044 -0.12150501 0.12642506 0.021915205
0002c0 63 06 1c be d7 e8 0f 3e ce 0f 3e 3d d8 e0 f1 3d
       -0.15236811 0.14053665 0.04640179 0.11810464
0002d0 3c 17 06 be 7d b1 47 bb 91 2d 65 3d 16 3d 00 bd
       -0.130948 -0.0030470781 0.05595166 -0.031308256
0002e0 3a 8b bb 3d ff e1 1b 3e 01 5e de 3d 60 4c 03 3d
       0.09157415 0.1522293 0.108577736 0.03205526
0002f0 f3 7c cd 3d eb 0d 7c 3d 65 c9 29 3c 21 de 90 3c
       0.10033598 0.06153671 0.010362958 0.017684044
000300 f2 df 05 be 48 57 00 3e 36 85 6f 3d 87 91 12 be
       -0.1307371 0.12533295 0.05847665 -0.14313327
000310 c2 dd 01 be 22 4b 05 3e 25 ed 0e 3e 95 1f bf bd
       -0.1268225 0.13016942 0.13957651 -0.09332196
000320 d0 c2 12 be ef ec c6 bd 3a c8 ed 3d dc 74 ba bd
       -0.14332128 -0.0971316 0.11610456 -0.091043204
000330 c5 08 04 be 52 ac 89 3c 3e 50 b4 bd 0b 55 e3 bd
       -0.1289397 0.016805802 -0.088043675 -0.11100205
000340 99 7c 84 bd 83 bc 6a bd 07 6e b0 bd 22 23 8e bd
       -0.064690776 -0.057308685 -0.08614736 -0.06940295
000350 94 cf a6 3d 9e 42 12 3e 6c 08 f5 3d 71 13 c8 3c
       0.08145061 0.14283225 0.11964497 0.024423333
000360 d1 dc 0b 3d 39 93 21 bd 9f 07 e5 bd 92 3c e7 bd
       0.034146134 -0.039447043 -0.11183094 -0.1129085
000370 d7 82 33 3d 64 04 d3 bd 5c 17 65 bd 3c 6b f8 3d
       0.04382595 -0.10303572 -0.05593048 0.12129828
000380 e4 12 81 bd 65 f3 d4 bd 45 7b e9 bd f8 24 48 3b
       -0.06302431 -0.10397986 -0.11400465 0.0030539613
000390 9d 0e 28 bd 69 a5 03 be f4 51 07 be ad 2f c9 3a
       -0.04102956 -0.12856068 -0.13214856 0.0015349291
0003a0 55 55 df 3d 5d 52 2f bd 48 4f 14 be 82 6f 01 3e
       0.10904948 -0.042803157 -0.14483368 0.12640193
0003b0 e8 e5 c2 3d 6c 89 6c bd 1d e0 f1 3d d4 e0 c1 3c
       0.095165074 -0.057748243 0.11810324 0.023666777
0003c0 4f 90 3e bd dc 8e 8d bd 53 8c c1 3d 99 5b 03 3e
       -0.046524342 -0.06912014 0.09450593 0.1282791
0003d0 c9 28 0c 3d a0 51 37 bd 9c ee c6 3d 4f 3f 8d bd
       0.034218583 -0.044755578 0.0971348 -0.06896841
0003e0 1b f0 3a bd 39 f8 db 3b 3e fe 00 be 6a 27 24 bd
       -0.04563914 0.00671294 -0.12596986 -0.04007665
0003f0 a1 a0 f4 3d 7b fd ef 3d 4b 59 a1 bd 77 2f ef bd
       0.119447 0.117182694 -0.078783594 -0.11678975
