MAMRL-TE/Static environments/MAMRL/B4/savemodels/baseline11.pth (torch, 1464 bytes, 1 tensors)

weight f4 [1, 18]
000000 98 30 94 3d e4 63 ec 40 67 50 44 bf a0 16 2e bf
       0.07235831 7.3871937 -0.76685184 -0.68003273
000010 66 d8 06 bf 3e e4 6b bf b1 1e 5c bf 71 4c 23 bc
       -0.5267395 -0.92145145 -0.8598433 -0.0099669555
000020 d7 2d c1 be 66 40 3f 3e 6f ce 2b 3e a3 c6 01 3e
       -0.37730286 0.1867691 0.16777967 0.1267343
000030 aa b3 69 3e b1 2d 5b 3e fb 1c eb 3b fe 74 3e 3a
       0.22822443 0.21404149 0.0071750856 0.0007265358
000040 98 76 a7 b6 24 f1 a7 c2
       -4.990794e-06 -83.97098
