MAMRL-TE/Dynamic environments/Baselines/Random/B4/task2/savemodels/baseline8.pth (torch, 1464 bytes, 1 tensors)

weight f4 [1, 18]
0	0x3cdf4b39	0.027257549
1	0xc0f6fcb0	-7.7183456
2	0x3d927e72	0.07153024
3	0x3f1bc8e3	0.60853404
4	0xbe9d03c9	-0.3066695
5	0xbfc95c7b	-1.5731348
6	0xbe4bbf0e	-0.198971
7	0xbb97cb46	-0.0046323864
8	0x3ecf8740	0.40532875
9	0xbd3545ee	-0.044256143
10	0xbe651055	-0.22369511
11	0x3dadcbc6	0.08486132
12	0x3f0032c6	0.50077474
13	0x3d295e16	0.041349493
14	0x3e7f4a94	0.24930793
15	0xbb82e81b	-0.0039949543
16	0x374f86e5	1.2369569e-05
17	0xc06f99b1	-3.7437556
