MAMRL-TE/Dynamic environments/Baselines/Random/B4/task2/savemodels/policy0.pth (torch, 275355 bytes, 12 tensors)

weight f4 [128, 7]
0	0x3f040d51	0.5158282
1	0xbefcb7ab	-0.49358878
2	0x3d9ebaee	0.07750498
3	0xbe06dca8	-0.13170111
4	0x3cb5b66b	0.02218171
5	0xbe0d6b26	-0.13810405
6	0x3dbf7e22	0.0935023
7	0xbdbb7618	-0.09153384
8	0xbd55dc3d	-0.05221199
9	0xbe3b4f92	-0.18292072
10	0x3af5a786	0.0018741942
11	0x3e4dd225	0.20099695
12	0x3dd3a3ca	0.10333975
13	0xbde41738	-0.11137241
14	0xbc4c5c0e	-0.012473119
15	0xbd143052	-0.036178894
16	0xbe2f8fe0	-0.17144728
17	0x3e1dedb0	0.15422702
18	0x38b99540	8.8492874e-05
19	0x3d237c46	0.03991344
20	0xbdb671f3	-0.08908453
21	0xbdd7f01c	-0.10543844
22	0x3d9a094c	0.075213045
23	0x3daa18ab	0.08305486
24	0x3d5339a0	0.051568627
25	0xbdc7b302	-0.0975094
26	0x3e57602e	0.21032783
27	0xbce3ca36	-0.027806383
28	0xbe041d76	-0.12901863
29	0xbdc95e25	-0.0983241
30	0x3e54cc79	0.20781125
31	0x385f30fe	5.321297e-05
32	0xbcea5958	-0.028607056
33	0xbdb39d47	-0.08770233
34	0xbd624909	-0.055245433
35	0xbe36ef0a	-0.17864624
36	0xbe2c736a	-0.16840902
37	0x3dfae38b	0.122504316
38	0x3e37bfe7	0.17944299
39	0x3e4d10ec	0.20025986
40	0xbe1c96f2	-0.15291956
41	0x3de8271f	0.11335587
42	0xbd1d50f2	-0.038407274
43	0x3e4238ea	0.18967023
44	0x3e1f9938	0.15585792
45	0x3e2dac6b	0.16960303
46	0x3e1f501d	0.15557905
47	0x3e0acbf5	0.13554366
48	0x3bfed40a	0.007776742
49	0xbcad1870	-0.021129817
50	0xbefa5f94	-0.48901045
51	0x3db2cdcc	0.08730659
52	0xbd96153a	-0.073282674
53	0xbba29c71	-0.004962497
54	0xbe3d8747	-0.18508635
55	0xbd67c823	-0.05658735
56	0xbdebd8fc	-0.11515996
57	0xbd9a000d	-0.07519541
58	0xbe0d1234	-0.13776475
59	0xbe4232bc	-0.18964666
60	0x3c264d77	0.010150305
61	0x3e088225	0.13330896
62	0x3e4069f7	0.18790422
63	0xbbd4734f	-0.0064834724
64	0xbe171fbe	-0.14758202
65	0xbe55c872	-0.20877245
66	0x3da69d7a	0.08135505
67	0x3df43cc9	0.11925656
68	0xbe39c922	-0.18143132
69	0x3d9c86b1	0.07642878
70	0x3dc8f54e	0.09812413
71	0xbef2524f	-0.4732842
72	0xbe0ddf3e	-0.13854691
73	0x3e1f106b	0.15533607
74	0x3d9de48c	0.077096075
75	0x3e01d546	0.12679014
76	0xbe1da7b8	-0.15396011
77	0x3faca748	1.348855
78	0x3d8474f0	0.064676166
79	0x3e41349c	0.18867725
80	0xbdd63356	-0.1045901
81	0x3ddfca82	0.10927297
82	0x3cc1e4ff	0.023668764
83	0x3d1dd2f8	0.038531274
84	0x3e461264	0.19342953
85	0x3e86cb5d	0.2632703
86	0xbdadf118	-0.084932506
87	0xbe4c179b	-0.1993088
88	0xbda34aa4	-0.07973221
89	0x3e2cae27	0.16863309
90	0xbd5efdb2	-0.05444116
91	0x3f650004	0.8945315
92	0xbe82016d	-0.25391713
93	0x3e1d1d12	0.1534312
94	0x3df4cfa3	0.11953666
95	0x3d93e82c	0.07222018
96	0xbde1c56d	-0.11023984
97	0xbe32b85c	-0.1745314
98	0x3affcc68	0.0019515874
99	0xbdec3dd2	-0.11535229
100	0x3e364f98	0.178038
101	0xbe4a7111	-0.19769694
102	0x3dccbcc9	0.099969454
103	0x3e5f94dc	0.21834129
104	0x3de30beb	0.110862575
105	0xbf1ebac9	-0.6200376
106	0xbeb8cee6	-0.3609535
107	0x3e539a7c	0.206644
108	0xbd0a88e0	-0.03382194
109	0xbe463325	-0.19355448
110	0x3e5954a6	0.21223697
111	0xbda7cd63	-0.08193471
112	0xbe705782	-0.23470882
113	0x3e83c646	0.25737208
114	0xbe13d576	-0.14436898
115	0xbe154c38	-0.14579856
116	0x3d17df07	0.03707793
117	0xbcd023d5	-0.025407711
118	0x3d566696	0.052343927
119	0xbe3e0e28	-0.18560088
120	0x3cc406da	0.023929048
121	0xbdc01128	-0.09378272
122	0xbdd456a8	-0.10368091
123	0xbe45a959	-0.19302882
124	0x3de4ef88	0.111784995
125	0x3d26655b	0.040624004
126	0xbe89bdf4	-0.26902735
127	0xbd5097b4	-0.050925925
128	0x3d857a6a	0.06517489
129	0x3d2beffb	0.04197691
130	0xbdfa64d8	-0.12226266
131	0x3d077a4e	0.033075623
132	0x3e5134b1	0.20430256
133	0x3f9d5181	1.2290498
134	0xbe958c2e	-0.2920851
135	0x3e33c6f1	0.17556359
136	0xbb721e58	-0.0036944356
137	0x3da9449f	0.082650416
138	0x3e1250a3	0.14288573
139	0x3e240767	0.16018449
140	0xbd3ac774	-0.04560037
141	0x3eb72b18	0.35775065
142	0xbe1276a4	-0.1430307
143	0x3c8c2ed1	0.017112168
144	0xbe16eb79	-0.14738263
145	0xbd3c34b6	-0.045948707
146	0xbc2017e5	-0.009771322
147	0xbd49b1b3	-0.049241733
148	0xbd5843ee	-0.052799158
149	0x3bfe123b	0.007753638
150	0x3e47e547	0.19521056
151	0x3de4ea66	0.111775205
152	0x3dd9af37	0.10629123
153	0x3d97b65d	0.0740783
154	0x3f483739	0.78209263
155	0xbf2a984f	-0.66638654
156	0xbadb42f8	-0.0016728332
157	0x3cae509c	0.021278672
158	0xbe47581d	-0.19467206
159	0xbe3f4439	-0.18678369
160	0x3c5fa526	0.013650214
161	0xbe53f757	-0.20699821
162	0x3e275011	0.16339137
163	0xbd82fe79	-0.06396193
164	0x3c7b2890	0.015329495
165	0x3def28d0	0.11677706
166	0xbdb73044	-0.08944753
167	0x3e15b714	0.1462062
168	0x3ec226a2	0.379201
169	0xbfa99263	-1.3247799
170	0xbe245d16	-0.16051134
171	0xbe2a7cfa	-0.16649237
172	0xbde5f471	-0.11228264
173	0xbda44103	-0.080202125
174	0xbc4d66e2	-0.012536736
175	0xbd51495b	-0.051095348
176	0xbdd9d5df	-0.10636496
177	0xbd8936a8	-0.06699878
178	0xbd9c3da9	-0.07628948
179	0x3e53f063	0.20697169
180	0xbda00a45	-0.07814459
181	0xbe1a902f	-0.15094064
182	0x3f2e9edf	0.6821117
183	0x3f314a3f	0.69253916
184	0x3e2f7d0b	0.17137544
185	0x3e12290a	0.14273468
186	0x3e4f2ff5	0.20233138
187	0xbe15719d	-0.14594121
188	0x3e14d2f3	0.14533596
189	0x3f3a75c8	0.7283597
190	0xbf096449	-0.5366865
191	0x3e31bf58	0.17358148
192	0x3e0f07dd	0.13967843
193	0xbc95e8c2	-0.018299464
194	0x3da54fa4	0.08071831
195	0xbdc2369a	-0.09483071
196	0xbe2d060a	-0.16896835
197	0x3cd630ee	0.026146378
198	0x3d822080	0.06353855
199	0xbe0d284a	-0.137849
200	0x3dd2e965	0.10298423
201	0xbe380539	-0.17970742
202	0x3e3acdb9	0.1824254
203	0x3df1a63c	0.11799285
204	0x3e4435a0	0.19161081
205	0xbe0066fe	-0.12539288
206	0x3de7b54e	0.11313878
207	0x3d3730b8	0.044724196
208	0x3d838a46	0.06422858
209	0x3da20f44	0.07913068
210	0x3f64802c	0.89258075
211	0xbf8653ef	-1.0494365
212	0xbd77b876	-0.06047865
213	0x3d2b69ef	0.041849073
214	0x3c4c1d63	0.012458178
215	0x3e1e4825	0.15457208
216	0xbdfa611c	-0.122255534
217	0xbd1496c8	-0.03627661
218	0x3c9add4b	0.018904349
219	0xbd69346f	-0.05693477
220	0x3e0fd035	0.14044268
221	0x3cb14280	0.021638155
222	0xbe4789c7	-0.19486152
223	0xbcc316a3	-0.023814505
224	0xbe016458	-0.12635934
225	0x3da7b31b	0.081884585
226	0xbcc8468e	-0.024447706
227	0xbe56230d	-0.20911808
228	0xbd1d3345	-0.038378973
229	0xbca4fc21	-0.020139756
230	0xbd7e7cd6	-0.06213077
231	0x3d8c15ff	0.06840133
232	0xbed31658	-0.41227984
233	0x3de6f390	0.112769246
234	0x3cea75ee	0.028620686
235	0xbe4d8738	-0.20071113
236	0x3cd08cef	0.025457827
237	0x3e1b27fa	0.15151969
238	0xbe0e58c2	-0.13901046
239	0xbe0cd409	-0.1375276
240	0x3e51ff28	0.2050749
241	0x3e2c0d75	0.16802008
242	0xbdf36c14	-0.11885849
243	0x3e00c276	0.12574181
244	0xbce6792d	-0.028133953
245	0xbe79f1dc	-0.24408668
246	0x3db43e05	0.08800892
247	0x3d8bdb35	0.0682892
248	0xbd80ecf6	-0.06295197
249	0x3d96e713	0.07368293
250	0xbe3857de	-0.18002269
251	0x3e15fee8	0.1464802
252	0x3f8dd1ee	1.107969
253	0x3cdba9f8	0.026814446
254	0x3c5cc000	0.013473511
255	0x3d33e2a4	0.043917313

bias f4 [128]
0	0xbe745c8c	-0.23863429
1	0x3a76dbfe	0.00094169367
2	0xbc317b55	-0.010832627
3	0x3cc0280a	0.023456592
4	0x3927aaa9	0.00015989937
5	0xba665724	-0.00087867887
6	0x3d0a0fd1	0.03370649
7	0xbe55e039	-0.20886315
8	0xbb8cb4fe	-0.004294037
9	0xbc91f0dc	-0.017815046
10	0xbe80dd9f	-0.25169083
11	0x3dc0dcad	0.094170906
12	0x3db7f330	0.08981931
13	0xbdb777ba	-0.08958383
14	0x3c0b5ce8	0.008506037
15	0xbd9cfdcc	-0.076655954
16	0x3d0e20c2	0.03469921
17	0x3c104ca8	0.008807339
18	0xbdddc757	-0.10829037
19	0xbd9e3910	-0.077257276
20	0x3db2237e	0.08698176
21	0xbc8e64ba	-0.017382015
22	0xbeaef6de	-0.3417272
23	0x3d940eba	0.07229371
24	0xbf1492cf	-0.5803651
25	0x395fbfcc	0.00021338387
26	0x3eb72a65	0.35774532
27	0xbe6cbb72	-0.2311838
28	0xbc544be2	-0.012957545
29	0x3d960796	0.07325666
30	0xbef97dfb	-0.48728928
31	0xbc3f6adc	-0.011683192
32	0x3cfbd4d7	0.030741138
33	0xbe4c3b76	-0.19944558
34	0xba9d6272	-0.0012007488
35	0x3d14534d	0.036212254
36	0xbd751c1a	-0.059841253
37	0x38bae603	8.912014e-05
38	0xbe9d726c	-0.3075136
39	0xbc63d650	-0.013906077
40	0x3d84511a	0.064607814
41	0x3e149d80	0.14513206
42	0xba217cd3	-0.0006160263
43	0x3bf7d393	0.0075630634
44	0xbe83af21	-0.2571955
45	0x38390018	4.4107524e-05
46	0xbd46bfd9	-0.048522804
47	0xbe9eff98	-0.31054378
48	0x3c2d3f48	0.010574169
49	0x3d5c6137	0.05380365
50	0xbe375086	-0.17901811
51	0x3e1a13ec	0.15046662
52	0xbb443be8	-0.0029942933
53	0xbc8359de	-0.016034063
54	0xbc50a6a8	-0.012735046
55	0xba72e2da	-0.0009265371
56	0xbbe2437c	-0.0069050174
57	0x3e3cad95	0.18425591
58	0xbeb30156	-0.34961957
59	0x3dba0163	0.09082296
60	0xb930ac68	-0.00016848894
61	0xbd4fa8ee	-0.050698213
62	0xbe21fe8d	-0.1581976
63	0x3cc24663	0.023715204
64	0xbe389f87	-0.18029605
65	0xbcef6fb2	-0.029228065
66	0xbe150dc0	-0.14556026
67	0xb956e171	-0.00020492614
68	0xbed160fd	-0.4089431
69	0xbebab36e	-0.3646502
70	0xbe91742d	-0.28408948
71	0xbd56efba	-0.052474715
72	0x3c1293b9	0.008946353
73	0x3c08c0ab	0.008346717
74	0xbe1c9ed3	-0.15294962
75	0x3c1549f7	0.009111873
76	0xbb206fd6	-0.0024480722
77	0xbcaa54a7	-0.020792319
78	0xbe0da71e	-0.13833281
79	0xbda5962b	-0.08085283
80	0xbe140b42	-0.1445742
81	0xbe298e1e	-0.1655812
82	0xbb9d757d	-0.0048052655
83	0xbf218a35	-0.6310151
84	0x3b6c54c0	0.0036061257
85	0xbbc0748e	-0.0058732694
86	0x3cb49360	0.02204293
87	0xbb82f7d0	-0.0039968267
88	0xbdab39e7	-0.08360653
89	0xbc22c933	-0.009935665
90	0x3dcaa7a4	0.09895256
91	0xbdc59e2b	-0.09649309
92	0xbe98c528	-0.29837918
93	0xbeba3ea9	-0.3637593
94	0xbefb2089	-0.4904826
95	0xbc49eba2	-0.012324246
96	0x3e15fd07	0.14647304
97	0xbdb374b6	-0.08762495
98	0x3c44cb50	0.012011364
99	0x3e2517be	0.16122338
100	0xbd40a8e8	-0.04703608
101	0xbf0cfd94	-0.5507443
102	0x3d714ab5	0.058909137
103	0xbdadc288	-0.084843695
104	0xbe1df3da	-0.15425053
105	0xbe079725	-0.13241251
106	0xbe7134b1	-0.23555256
107	0xbdaa76ba	-0.083234265
108	0xbdc379c6	-0.09544711
109	0x3e1efd06	0.15526208
110	0x369a1de9	4.5930396e-06
111	0xbb110d15	-0.0022133042
112	0xbf2095d2	-0.6272861
113	0xbdd59c40	-0.10430193
114	0xbdd475a8	-0.10374004
115	0xbe8a433e	-0.27004427
116	0xbe7df141	-0.24799062
117	0x38e35510	0.000108400476
118	0x3d45491e	0.048165433
119	0x38cc95b5	9.755363e-05
120	0xbd1a22c7	-0.037630823
121	0xbe8815aa	-0.26579028
122	0xbebedba8	-0.3727696
123	0xbb8085e4	-0.003922211
124	0xbad69850	-0.0016372297
125	0x3d8b5b79	0.068045564
126	0x3cdf2593	0.027239596
127	0x368943be	4.0908044e-06

weight f4 [128, 128]
0	0xbc9ad9aa	-0.018902618
1	0x3ca1401b	0.019683888
2	0xbdd301d1	-0.10303081
3	0xbdadf584	-0.08494094
4	0x3d88a450	0.06671965
5	0xbdb5613f	-0.08856439
6	0x3d2f7db6	0.042844497
7	0xbc94215b	-0.018082311
8	0x3dc6038d	0.09668646
9	0xbd1dcd6d	-0.038525987
10	0x3ddd00ce	0.10791169
11	0xbb85616e	-0.0040704524
12	0xbdae331b	-0.08505841
13	0x3cecc9fc	0.028904907
14	0xbdc0b6a6	-0.094098374
15	0x3d172c29	0.03690735
16	0xbd9680be	-0.073487744
17	0x3c9767e3	0.018482154
18	0xbcec4703	-0.028842455
19	0xbd225c97	-0.03963908
20	0xbe07480f	-0.13211082
21	0xbd528096	-0.05139216
22	0x3e02e2e7	0.12781869
23	0x3db0cb37	0.0863251
24	0xbd831c07	-0.0640183
25	0x3c93141a	0.017953921
26	0x3d1ce780	0.038306713
27	0x3dc09b3c	0.094046086
28	0x3dd5f60c	0.1044732
29	0xbdac1af4	-0.084035784
30	0xbd14e206	-0.036348365
31	0x3e00ad23	0.12566046
32	0x3c8050b1	0.015663477
33	0xbdad9f02	-0.08477594
34	0xbd9d9086	-0.07693581
35	0xbd9b5cf6	-0.0758609
36	0xbe13c656	-0.14431128
37	0xbdd268ac	-0.10273871
38	0x3e1bab42	0.15202048
39	0xbc970a27	-0.018437458
40	0x3dd12153	0.10211434
41	0xbe110a80	-0.14164162
42	0x3d93d863	0.07219007
43	0x3d71a53c	0.05899547
44	0xbe12acde	-0.14323756
45	0xbd17d18f	-0.037065085
46	0x3d2422ee	0.040072374
47	0xbdf65b37	-0.120291166
48	0x3d7119eb	0.058862608
49	0x3db6851a	0.08912106
50	0xbe0ea4f0	-0.13930106
51	0xbd716700	-0.05893612
52	0x3ddbeb66	0.10738258
53	0xbc5f595f	-0.013632148
54	0xbdb75bfc	-0.089530915
55	0x3d1cb8b6	0.03826209
56	0xbe01ee24	-0.126885
57	0x3d516446	0.05112102
58	0xbdb55072	-0.08853234
59	0x3d63d07a	0.05561874
60	0xbda69b2d	-0.08135066
61	0xbd3b6a3c	-0.04575561
62	0xbd918c99	-0.07106895
63	0x3da3e81b	0.08003255
64	0xbe0fc244	-0.1403895
65	0x3dbdd11b	0.09268399
66	0x3da2d9ef	0.07951724
67	0xbddcc91e	-0.107805476
68	0x3dd3b79f	0.10337757
69	0x3de89e1d	0.11358283
70	0xbdc58131	-0.09643782
71	0x3c651c45	0.013983791
72	0x3d1cf4c8	0.03831938
73	0xbcacac2f	-0.021078197
74	0x3de4181e	0.111374125
75	0xbd1f396d	-0.038873125
76	0xbd57104d	-0.05250578
77	0x3d31041e	0.043216817
78	0x3da871e9	0.08224852
79	0x3df7ab72	0.120932475
80	0xbe1c17f8	-0.15243518
81	0xbd1b93ff	-0.037982937
82	0xbd8ab7eb	-0.06773361
83	0xbd655eac	-0.05599849
84	0xbd2adfc1	-0.041717295
85	0xbdb080c1	-0.08618308
86	0xbdb91c17	-0.09038561
87	0xbda98969	-0.08278162
88	0xbdd4999e	-0.10380863
89	0x3d78c126	0.060731076
90	0x3dabe2c5	0.08392862
91	0xbd8eccdb	-0.06972667
92	0x3e13ee59	0.14446391
93	0x3d662833	0.05619068
94	0xbdeded7e	-0.11617564
95	0x3d950a64	0.072773725
96	0x3c5f31f3	0.013622749
97	0x3e0548dc	0.13016075
98	0xbc5ae29b	-0.013359691
99	0xbd7cdb19	-0.061732385
100	0x3df3d1ff	0.11905288
101	0xbe101aee	-0.14072773
102	0x3d8666cc	0.06562576
103	0xbe061a80	-0.13096046
104	0xbd16157e	-0.03664159
105	0xbc7bd71c	-0.01537111
106	0xbe1379ed	-0.1440198
107	0xbdae06da	-0.084974006
108	0xbd7aed64	-0.06126155
109	0xbcabd61f	-0.020976124
110	0x3d007341	0.031359915
111	0xbdd9d641	-0.10636569
112	0x3e000800	0.12503052
113	0x3cbe7338	0.0232483
114	0x3c9ad7b6	0.018901687
115	0x3d0ce8a9	0.03440157
116	0xbdc5eabe	-0.09663914
117	0xbb1c16d5	-0.002381732
118	0xbe0a7af8	-0.13523471
119	0x3e17e8ba	0.14834872
120	0xbd6b0006	-0.05737307
121	0xbe117278	-0.14203823
122	0x3c5d724e	0.013516022
123	0xbde58d8f	-0.11208641
124	0xbe06628f	-0.13123535
125	0xbddc9c54	-0.10772005
126	0xbcb993aa	-0.02265342
127	0x3d5d0da0	0.053968072
128	0xbdaec9b4	-0.085345656
129	0xbcbb220b	-0.022843381
130	0xbd113e97	-0.03546008
131	0xbd7ab019	-0.061203096
132	0x3d81c80d	0.06336985
133	0x3ddac61e	0.10682319
134	0x3cdc8bfa	0.026922215
135	0x3d2a2938	0.041543216
136	0x3d452595	0.048131544
137	0xbd8da0f1	-0.06915463
138	0x3dda0819	0.10646076
139	0x3e2f05c4	0.17092043
140	0xbd1c4b2a	-0.03815762
141	0x3e4aac38	0.19792259
142	0x3e192920	0.14957094
143	0x3de61435	0.11234323
144	0xbd4705dd	-0.048589576
145	0xbcf30abe	-0.029668208
146	0x3da2e2d2	0.07953419
147	0x3e12c692	0.14333561
148	0xbde07a1b	-0.1096079
149	0xbe09e8e1	-0.13467743
150	0x3e0069ac	0.1254031
151	0x3d25559b	0.040364843
152	0x3e70cb16	0.23514971
153	0x3ddebeb8	0.108762205
154	0x3d7b9188	0.061418086
155	0x3e711ce8	0.23546183
156	0x3dfcbb4b	0.12340411
157	0xbd7c3628	-0.061575085
158	0x3e85fb66	0.26168364
159	0xbd93d022	-0.072174326
160	0xbdbc1832	-0.091843024
161	0x3e0056cf	0.12533115
162	0xbdd40d30	-0.10354078
163	0x3ca62c08	0.020284668
164	0x3dee3b5e	0.11632417
165	0x3d3f604d	0.0467227
166	0x3c941b34	0.018079378
167	0x3db2188a	0.08696087
168	0x3e009530	0.1255691
169	0x3dc59759	0.09648008
170	0x3da26bea	0.07930739
171	0xbd95b0de	-0.07309125
172	0x3def1690	0.11674225
173	0xbdb74c7c	-0.08950135
174	0xbd3ca9ae	-0.046060257
175	0xbbddcee0	-0.006769046
176	0x3c00144a	0.007817337
177	0x3e1efd8d	0.1552641
178	0x3d884f87	0.06655794
179	0x3e2ede56	0.17077002
180	0x3d13e414	0.036106184
181	0xbd3f6d41	-0.046735052
182	0xbd3da124	-0.046296254
183	0xbc75ac4b	-0.014994691
184	0xbdc2e324	-0.0951598
185	0x3d9472ee	0.072484836
186	0x3e6456be	0.22298715
187	0x3dd70e1c	0.10500738
188	0x3dbfb89d	0.09361384
189	0x3e2776ae	0.16353866
190	0x3e13fb1f	0.14451264
191	0x3b196a50	0.0023409314
192	0xbdacef76	-0.08444111
193	0xbe020438	-0.12696922
194	0xbd8e60da	-0.06952067
195	0xbc07edfe	-0.008296488
196	0x3c95df6c	0.018295012
197	0xbd95734b	-0.07297381
198	0x3d5b205e	0.053497665
199	0xbd92730d	-0.071508504
200	0xbda7f868	-0.082016766
201	0xbdcb20f1	-0.099183924
202	0x3daa6917	0.083208255
203	0x3caa0344	0.02075351
204	0xbe1504be	-0.1455259
205	0xbdfa7d57	-0.12230938
206	0x3da76aae	0.081746444
207	0x3e43b608	0.19112408
208	0x3d6b3dc6	0.05743196
209	0x3dfbc772	0.122939005
210	0x3c29b80a	0.01035882
211	0x3e314878	0.17312801
212	0x3d9e991a	0.077440456
213	0xbda8e2ff	-0.08246421
214	0x3d9f6396	0.077826664
215	0x3cf7251a	0.030169059
216	0x3da1239f	0.07868122
217	0xbe0b36ca	-0.13595119
218	0x3cf83d24	0.030302592
219	0xbdf48cf5	-0.11940948
220	0x3c7dad5c	0.015483227
221	0x3e747739	0.23873605
222	0x3c35cdf0	0.011096463
223	0x3d1ff93f	0.03905606
224	0xbcab25d6	-0.020892065
225	0x3cfff153	0.031243002
226	0xbcaaa2fc	-0.02082967
227	0xbde1ece5	-0.11031512
228	0xbde179bb	-0.11009546
229	0x3e000ced	0.12504931
230	0xbe032535	-0.12807162
231	0xbd33a47c	-0.043858036
232	0x3dccdec6	0.10003428
233	0x3e49eee8	0.19720042
234	0xbc97195d	-0.018444711
235	0xbdc6d2af	-0.097081535
236	0x3e665fa7	0.22497426
237	0x3dde4584	0.10853103
238	0xbe02a541	-0.12758352
239	0x3dfd819e	0.12378238
240	0x3e8f7930	0.28022146
241	0x3e182a30	0.14859843
242	0x3e114fb0	0.14190555
243	0xbd76df95	-0.06027182
244	0x3c6fcc74	0.014636148
245	0x3e19acf7	0.15007387
246	0xbd6ba726	-0.057532452
247	0xbe147ae5	-0.14500006
248	0x3cee580a	0.029094715
249	0x3de0ffa3	0.10986259
250	0x3d9c79ec	0.07640442
251	0xbd389979	-0.045068238
252	0x3e0a384e	0.13498041
253	0x3dfb9bbd	0.12285564
254	0xbe1283a3	-0.14308028
255	0xbe1501b5	-0.14551432

bias f4 [128]
0	0x00000000	0.0
1	0xbdf22534	-0.11823502
2	0x3b0311a4	0.0019999528
3	0x00000000	0.0
4	0x3c15b9d8	0.009138547
5	0xb8911f06	-6.919917e-05
6	0xbdaa6615	-0.08320252
7	0xbb96c666	-0.0046012877
8	0x3e0d6a79	0.13810147
9	0xbc9e7de7	-0.019347144
10	0x3aaf1d58	0.0013360186
11	0x3e14652f	0.14491723
12	0xbbed0c10	-0.007234104
13	0xba474fce	-0.00076031394
14	0xbe011120	-0.12604189
15	0xba91f4b3	-0.0011135548
16	0x3e3c384e	0.18380854
17	0x3cc16918	0.023609683
18	0xbcac410a	-0.021027107
19	0xbe22f961	-0.15915443
20	0xbe9ca0a3	-0.30591306
21	0x3be44732	0.006966495
22	0x3db00140	0.085939884
23	0xbd171005	-0.03688051
24	0xbda1e99a	-0.07905884
25	0xbc540e32	-0.012942838
26	0xbea3a23b	-0.3195971
27	0xbe1933c4	-0.14961153
28	0x3c9cdc89	0.019148128
29	0xbd91d5b8	-0.07120842
30	0xbc54f030	-0.012996718
31	0xbe366f12	-0.17815807
32	0xbbbdd554	-0.005793253
33	0xb83a7d6e	-4.446267e-05
34	0xbdcadffd	-0.099060036
35	0xbe58dcde	-0.21178004
36	0x3d2dd42a	0.042438664
37	0x3897bbb9	7.235207e-05
38	0xbebc70d9	-0.36804846
39	0xbda1f669	-0.07908327
40	0x3c3d32e0	0.011547774
41	0x3dfa78a1	0.122300394
42	0x00000000	0.0
43	0x3d67d102	0.05659581
44	0xbda97528	-0.08274299
45	0xbbf4bd20	-0.0074688345
46	0xbe136f02	-0.14397815
47	0xbf160be1	-0.58611876
48	0x00000000	0.0
49	0xbeab9f83	-0.33520135
50	0xbd23369a	-0.039846994
51	0xbc64a157	-0.013954482
52	0xbe950caf	-0.2911124
53	0x3db6b868	0.089218915
54	0x3cbc6031	0.022995086
55	0x3d2fa9ed	0.042886663
56	0x3c86e266	0.016465377
57	0xbcfd2112	-0.030899558
58	0x3afd24a2	0.0019313286
59	0xbbae6e93	-0.00532324
60	0xbd277870	-0.040886343
61	0xbc42ff90	-0.011901751
62	0xbea0981f	-0.3136606
63	0xbc0f938f	-0.008763208
64	0x3d8962c8	0.06708294
65	0x3a87c418	0.0010358123
66	0xbe03386a	-0.12814489
67	0xbdabe97b	-0.08394142
68	0xbc9acc48	-0.018896237
69	0xbd889f82	-0.06671049
70	0x3c620e3f	0.013797342
71	0xbc0c49b8	-0.008562498
72	0xbc2a6675	-0.010400404
73	0xbe46b384	-0.19404417
74	0xbd76aba1	-0.06022227
75	0x380e93df	3.3993154e-05
76	0xb9830e8d	-0.00024997108
77	0xbe6895b6	-0.2271336
78	0xbe1561ba	-0.14588061
79	0xb9e1e66e	-0.00043087028
80	0xbbf50ab2	-0.0074780816
81	0x3a3861f7	0.0007033641
82	0xbd88a468	-0.06671983
83	0xbeb6d81a	-0.35711747
84	0xbc195149	-0.009357759
85	0xbe8c0cbf	-0.27353474
86	0x3adb4db8	0.0016731536
87	0x3d59ec74	0.053204015
88	0xb9f13c8c	-0.00046012213
89	0xbe8795b0	-0.2648139
90	0xbdc6d1aa	-0.09707959
91	0x3c958bf6	0.018255215
92	0xba6ee303	-0.0009112807
93	0xbb821e90	-0.0039709285
94	0x3c4c76f1	0.01247953
95	0xbe37aa16	-0.17935976
96	0xbe85d2e8	-0.2613747
97	0xbc12f52c	-0.008969586
98	0x3cde679a	0.02714901
99	0xbadd6bc5	-0.001689308
100	0xbe66c9db	-0.22537939
101	0xbdab5fa1	-0.08367849
102	0xbcd200cd	-0.025635147
103	0xbcb16824	-0.021656103
104	0xbbe26e25	-0.006910103
105	0x3e7c9a30	0.24668193
106	0xbcd7a412	-0.026323352
107	0xbcab119f	-0.020882426
108	0xbd19cb59	-0.037547443
109	0xbcdf0aad	-0.02722677
110	0xbb42b3f4	-0.0029709311
111	0xbd8f32d0	-0.069921136
112	0x35911293	1.0808748e-06
113	0x39b61cef	0.00034735302
114	0x3d3218f9	0.043480847
115	0xbd024ef3	-0.031813573
116	0x3d3283ef	0.043582853
117	0x3e21d703	0.15804677
118	0xbe68f158	-0.22748315
119	0xbc421518	-0.011845849
120	0xbe2a5a39	-0.1663598
121	0x3e42cd39	0.19023599
122	0xbb483f87	-0.0030555443
123	0xbe3e7a12	-0.18601254
124	0x3701bc24	7.732804e-06
125	0x3c475385	0.012165909
126	0xbe2159ba	-0.15756884
127	0x3c240e6e	0.010013206

weight f4 [128, 128]
0	0x3dccf738	0.10008091
1	0xbd8c6d34	-0.06856766
2	0x3de3df39	0.11126561
3	0x3dadb9c0	0.084826946
4	0xbcfdd24c	-0.030984066
5	0xbe0e3d7e	-0.13890645
6	0x3dc70b00	0.09718895
7	0xbe1b71de	-0.15180156
8	0x3bdc482e	0.0067224717
9	0xbc20c6ea	-0.00981305
10	0xbe02b1ce	-0.1276314
11	0x3a64c470	0.0008726781
12	0xbde3b1be	-0.11117886
13	0xbd498634	-0.04920025
14	0x3e16217d	0.14661212
15	0x3c9a6591	0.018847259
16	0x3d73a734	0.05948563
17	0xbdb2efce	-0.08737145
18	0x3d5b651c	0.053563222
19	0x3e0daf33	0.13836364
20	0xbcde0a8b	-0.027104637
21	0xbd9032ed	-0.07040963
22	0x3d9055a8	0.07047588
23	0x3d6cd1fe	0.05781745
24	0xbe215e53	-0.15758638
25	0xbd900bab	-0.070334755
26	0xbd38e4ea	-0.045140184
27	0xbdc81269	-0.097691365
28	0xbe18582e	-0.14877388
29	0x3c17d9a2	0.009268196
30	0xbd72f34f	-0.05931407
31	0x3c3deb27	0.011591709
32	0xbd41c4c9	-0.04730681
33	0x3df93525	0.1216834
34	0xbcd9d81b	-0.026592305
35	0x3cb52721	0.022113385
36	0xbdf5d9d5	-0.12004439
37	0x3b123036	0.0022306568
38	0x3c8a30d6	0.01686899
39	0xbd26ccdf	-0.040722724
40	0x3e0c14c0	0.1367979
41	0x3deb33df	0.11484503
42	0x3b6f7bfa	0.0036542402
43	0xbdcf9126	-0.10135107
44	0x3db35073	0.08755579
45	0xbdcdde07	-0.10052114
46	0x3e070afb	0.13187782
47	0x3d14ffdb	0.036376815
48	0xbe0d1301	-0.1377678
49	0x3c348464	0.0110178925
50	0x3be7f7c2	0.0070790956
51	0xbe19f92e	-0.15036461
52	0xbe19ce5b	-0.15020125
53	0xbde2dfc3	-0.110778354
54	0x3c8c188a	0.017101545
55	0xbdd01a61	-0.101612814
56	0x3e17ef15	0.14837296
57	0x3dcfd2de	0.101476416
58	0x3e05f475	0.13081534
59	0x3d7b6515	0.061375696
60	0x3d23312b	0.039841812
61	0xbc425c0c	-0.011862766
62	0xbb66296c	-0.0035119904
63	0xbdaf9a35	-0.085743345
64	0x3da8f841	0.08250476
65	0x3d8aad8e	0.06771384
66	0xbd8a722e	-0.06760059
67	0x3da5dbdd	0.08098576
68	0x3d19d520	0.037556767
69	0x3db80f22	0.08987261
70	0xbd6b48b0	-0.057442367
71	0xbdc319c4	-0.09526399
72	0x3dbf6a7f	0.093464844
73	0x3c59a41b	0.013283755
74	0xbdfa64c5	-0.122262515
75	0x3c85c643	0.01632989
76	0xbc50a2f7	-0.012734166
77	0xbcfcc1c2	-0.03085411
78	0xbd77a49c	-0.060459718
79	0xbe08444d	-0.13307305
80	0xbd8b2d29	-0.06795723
81	0xbd6f0c61	-0.058361415
82	0x3d01764d	0.03160696
83	0xbda84641	-0.08216525
84	0x3db52872	0.08845605
85	0xbe0c70f0	-0.13714957
86	0xbd9636c8	-0.073346674
87	0x3d13944c	0.0360301
88	0x3de09f62	0.109679
89	0xbdda0f46	-0.106474444
90	0x3dfc8972	0.12330903
91	0x3e14ea70	0.14542556
92	0x3d80c45e	0.06287454
93	0x3d9fe3df	0.07807135
94	0xbd143ab6	-0.036188804
95	0xbc706b8a	-0.014674077
96	0x3dda6fde	0.10665868
97	0x3bb2dd3a	0.005458501
98	0xbcbcc7da	-0.023044515
99	0x3dc58d73	0.0964612
100	0x3b7d8f84	0.0038690278
101	0x3c2ba684	0.010476712
102	0x3e1990f2	0.14996698
103	0xbd8601c9	-0.06543309
104	0x3d98ed65	0.074671544
105	0x3dbcbfbe	0.092162594
106	0x3c64622f	0.013939424
107	0xbcb2e15f	-0.021835981
108	0x3daa9896	0.08329885
109	0x3d667f8f	0.056273993
110	0x3c541573	0.012944567
111	0x3cf0199e	0.02930909
112	0x3dd06ab6	0.101766035
113	0x3de48f55	0.11160151
114	0xbd76a51c	-0.060216054
115	0x3c8e7d58	0.017393753
116	0x3e059d5d	0.1304831
117	0x3d95f2e8	0.07321721
118	0xbdf17dbc	-0.1179156
119	0x3e0347aa	0.12820306
120	0xbdffa44e	-0.124825105
121	0xbd6d579d	-0.057944883
122	0x3ca534cd	0.020166779
123	0xbd959d16	-0.073053524
124	0x3d657b0f	0.05602556
125	0x3c40e13f	0.011772453
126	0x3e06bfb9	0.13159074
127	0xbca53514	-0.020166911
128	0x3dfa0e87	0.12209802
129	0xbc9733b3	-0.01845727
130	0xbe041f0d	-0.1290247
131	0x3da742bf	0.08167028
132	0x3e01e169	0.12683643
133	0xbe171b5d	-0.14756532
134	0x3c79b296	0.015240332
135	0xbd356193	-0.044282507
136	0x3dbc5e68	0.09197694
137	0x3d8927cb	0.06697043
138	0x3d9a3e8c	0.07531461
139	0x3e0980c5	0.13428028
140	0x3e093a9e	0.13401267
141	0xbdb3d693	-0.08781161
142	0x3d81b6ee	0.06333719
143	0xbd0d1846	-0.034446977
144	0x3e1ebe4f	0.15502284
145	0xbdec5431	-0.11539496
146	0xbc0a58c5	-0.008444016
147	0xbdc800ee	-0.09765802
148	0xbe2c450c	-0.16823214
149	0xbe1b4f13	-0.15166883
150	0xbde851a7	-0.11343699
151	0xbcfb113f	-0.030647872
152	0x3da1be93	0.07897677
153	0xbe1c1668	-0.15242922
154	0x3d4fa409	0.050693545
155	0x3d5ffa36	0.05468198
156	0xbd8c0079	-0.06836028
157	0x39833760	0.00025027525
158	0xbd5fc025	-0.054626603
159	0xbd977883	-0.07396033
160	0xbd836ce5	-0.06417254
161	0x3dbed663	0.09318235
162	0xbdd1a167	-0.10235863
163	0x3d7b49d2	0.061349697
164	0x3d5ce13c	0.053925738
165	0x3e0393a5	0.1284929
166	0xbd317e2e	-0.043333225
167	0x3d94fa2e	0.072742805
168	0xbde9b497	-0.11411398
169	0xbc4ed42b	-0.012623827
170	0xbd046252	-0.032320328
171	0xbdc18f98	-0.094512165
172	0xbddc68aa	-0.107621506
173	0x3e0d9380	0.13825798
174	0x3c581d24	0.013190541
175	0x3c455da8	0.012046255
176	0x3cf86f5c	0.030326538
177	0x3d2387d3	0.039924454
178	0xbe286572	-0.16444948
179	0xbbd85012	-0.006601342
180	0x3d379531	0.044820014
181	0x3aea309e	0.0017867272
182	0xbd815550	-0.063151
183	0x3c0dfade	0.008665768
184	0xbdfbe5f0	-0.122997165
185	0x3d76a89a	0.060219385
186	0x3cd7b4ed	0.02633139
187	0xbdf9e732	-0.122023
188	0x3db2cf55	0.08730952
189	0xbe069d50	-0.13145947
190	0x3da03bcf	0.078239076
191	0xbdccc83a	-0.09999128
192	0xbe29d393	-0.16584615
193	0x3cca603a	0.024704088
194	0xbd192659	-0.037390087
195	0x3dd2b812	0.10289015
196	0xbd90972d	-0.070600845
197	0x3ded2428	0.11579162
198	0x3d190458	0.03735766
199	0x3c977a12	0.018490825
200	0x3cdfc26a	0.027314384
201	0x3cdc26d5	0.026873985
202	0x3da6613b	0.08124014
203	0x3c5553f0	0.013020501
204	0x3e0bd52f	0.13655542
205	0xbe1c22b1	-0.15247609
206	0xbdff07e2	-0.124526754
207	0xbd502db6	-0.050824843
208	0xbdd4ec28	-0.10396606
209	0xbde6509c	-0.11245844
210	0xbdc3b7e4	-0.09556559
211	0x3bb11e78	0.0054052435
212	0xbd011476	-0.031513654
213	0xbe26b25a	-0.16278973
214	0x3d93a145	0.07208494
215	0x3e1dc68c	0.15407771
216	0x3d6387aa	0.0555493
217	0xbdf43671	-0.119244464
218	0x3e179c1a	0.14805642
219	0x3c1e88e1	0.009676189
220	0xbc064304	-0.008194689
221	0x3c59bc3f	0.01328951
222	0x3e095096	0.13409647
223	0xbe045de5	-0.12926443
224	0xbe196c6a	-0.14982763
225	0x3d69cdbd	0.057080973
226	0xbdf1d653	-0.11808457
227	0xbd6ad486	-0.057331584
228	0xbc9f240e	-0.019426372
229	0x3de6f95b	0.112780295
230	0xbd4e37c1	-0.05034614
231	0xbb9cad91	-0.004781433
232	0xbe0c5b0d	-0.13706608
233	0x3cdeb140	0.027184129
234	0xbdfafbb4	-0.1225504
235	0x3b9b53be	0.0047402075
236	0x3d0f3f05	0.03497221
237	0xbd3db591	-0.046315733
238	0x3d1e79db	0.03869043
239	0x3cc3ea69	0.023915486
240	0xbdc24c6c	-0.094872326
241	0xbe01ad3b	-0.12663738
242	0x3e0d23b3	0.1378315
243	0xbe051c29	-0.12999023
244	0xbd7b5558	-0.061360687
245	0x3cec22e6	0.028825235
246	0xbda0186e	-0.078171596
247	0xbce64fd1	-0.028114231
248	0xbc337f2a	-0.010955611
249	0xbcb19b19	-0.021680402
250	0x3d892126	0.06695776
251	0xbdab416d	-0.08362088
252	0x3d17ef1b	0.037093263
253	0xbe137366	-0.1439949
254	0xbd07f7ff	-0.033195492
255	0x3deb3840	0.11485338

bias f4 [128]
0	0xbc881ee2	-0.016616289
1	0x3e1c5ee1	0.15270568
2	0xbdcdfe81	-0.100583084
3	0xbdb3bd3f	-0.0877633
4	0x3e215ac1	0.15757276
5	0xbd9c1ce4	-0.07622698
6	0x3e358f06	0.1773034
7	0xbca8dfa2	-0.020614449
8	0x00000000	0.0
9	0xbc12e652	-0.008966045
10	0x3a51e4fc	0.00080068386
11	0xbe51e34e	-0.20496866
12	0xbc01a9a4	-0.007913981
13	0x3e522238	0.20520866
14	0xbdfb15e9	-0.122600384
15	0xbe178be8	-0.14799464
16	0x3cc51597	0.024058146
17	0x3bea0500	0.0071417093
18	0xbd24a7b2	-0.04019899
19	0x3d9019b0	0.070361495
20	0x3e4a8607	0.1977769
21	0xbc148e51	-0.009067134
22	0x3e0fb8c1	0.14035322
23	0xb90a2c8d	-0.00013177302
24	0xbc5877a9	-0.013212123
25	0xbef12fe9	-0.47106865
26	0x00000000	0.0
27	0xbd2e70cf	-0.04258805
28	0x3e2db9c9	0.16965403
29	0x38eeba52	0.00011383429
30	0xbd3f2880	-0.046669483
31	0xbe212bac	-0.15739316
32	0xbb021767	-0.0019850375
33	0xbc86f6a6	-0.016475033
34	0x38a0d6a7	7.669377e-05
35	0x3d0f666f	0.035009798
36	0xbd4a642b	-0.049411934
37	0xbdc36b12	-0.095419064
38	0xbcb90f32	-0.022590254
39	0xbcd9db90	-0.026593953
40	0xbdb4c83f	-0.088272564
41	0xbbbec47d	-0.005821763
42	0x00000000	0.0
43	0x00000000	0.0
44	0xbc508019	-0.012725853
45	0xbe99e349	-0.30056217
46	0xbddc0d20	-0.10744691
47	0xbd922b16	-0.07137124
48	0xbe2b9425	-0.16755731
49	0x3d12ee5a	0.03587184
50	0xbea842fb	-0.32863602
51	0xbe19dc9b	-0.1502556
52	0xb71cde7d	-9.350127e-06
53	0xb9bd0e24	-0.00036059425
54	0xbd62c812	-0.055366583
55	0x3b47f5aa	0.0030511417
56	0xbca0e813	-0.019641912
57	0x00000000	0.0
58	0xbecc687e	-0.3992347
59	0x00000000	0.0
60	0xbc81f3ec	-0.015863381
61	0x3d8dd1e9	0.06924803
62	0x3d803725	0.06260518
63	0xbe163a5e	-0.14670703
64	0x00000000	0.0
65	0x3be5d2ce	0.0070136553
66	0xbc73994c	-0.014868092
67	0xbca70d50	-0.02039209
68	0xbae0f790	-0.0017163623
69	0x3ca8764f	0.020564226
70	0xbc07090f	-0.008241906
71	0xb8e9106f	-0.00011113367
72	0xbd3ab142	-0.045579202
73	0x3dc28316	0.09497659
74	0xba0a522f	-0.00052765285
75	0xbd22790e	-0.039666228
76	0x394f0581	0.00019743109
77	0xbcb91840	-0.022594571
78	0xbeaab321	-0.3333979
79	0xbca8bab6	-0.020596843
80	0xbc54e47e	-0.01299393
81	0xbeafedaa	-0.3436101
82	0x394e7572	0.00019689443
83	0x3dda1187	0.10647874
84	0xbca9b06c	-0.020714007
85	0xbc3d58b6	-0.011556795
86	0x00000000	0.0
87	0xbc83e76a	-0.016101558
88	0xbbf0cb90	-0.0073484853
89	0xbab94d95	-0.0014137501
90	0xbd254bc5	-0.040355463
91	0x2d77e8c0	1.4092005e-11
92	0xbc2c01fe	-0.010498522
93	0xbc068495	-0.008210321
94	0xbe55dcd2	-0.20885018
95	0xbdf44870	-0.11927879
96	0xbec68d65	-0.3877975
97	0x3c050e3b	0.008121069
98	0xbe390948	-0.18069947
99	0xbd3b6dc2	-0.04575897
100	0xbc912a1c	-0.017720275
101	0xbc820b34	-0.015874483
102	0xb9ac1da6	-0.00032828486
103	0xbe9ebc0e	-0.3100285
104	0xbc87a4ff	-0.016558168
105	0xbe0a450a	-0.13502899
106	0xbc36e6d1	-0.011163429
107	0x3c145a53	0.009054738
108	0x381d1340	3.7449645e-05
109	0xbd3ddb2a	-0.04635159
110	0xba57f212	-0.00082376704
111	0xbe688eba	-0.22710696
112	0xbc0f578e	-0.008748902
113	0xbb21d91b	-0.0024696055
114	0x00000000	0.0
115	0x3bd9182c	0.006625196
116	0xbc8804d4	-0.016603865
117	0xbd4bf986	-0.04979851
118	0xbd2d9a3e	-0.042383425
119	0xbb144260	-0.002262257
120	0xbe0b4fde	-0.13604686
121	0xbd1f8f3f	-0.03895497
122	0xbe9cadb4	-0.30601275
123	0xbddb1481	-0.1069727
124	0xbba6fa93	-0.0050957887
125	0xbbfcc732	-0.0077141756
126	0xbccaf704	-0.02477599
127	0x3dcd8abc	0.10036227

weight f4 [128, 128]
0	0xbdf92884	-0.12165931
1	0xbd9b963a	-0.07597013
2	0x3e40d912	0.18832806
3	0x3e500fbc	0.20318502
4	0x3d373cc2	0.044735678
5	0x3d3261d3	0.043550324
6	0xbe1d8ea6	-0.15386447
7	0xbd638dac	-0.05555503
8	0x3e1382d4	0.14405376
9	0xbdcf49b2	-0.10121478
10	0x3d1671d4	0.03672965
11	0x3e99b130	0.30017996
12	0xbbd9cb56	-0.006646554
13	0x3e556229	0.20838226
14	0x3d356322	0.044283994
15	0x3e0957ce	0.13412401
16	0x3e2b9557	0.16756187
17	0x3d403268	0.04692307
18	0x3dd53eda	0.104123786
19	0x3d369132	0.044572063
20	0xbd98d7c0	-0.07463026
21	0xbe025567	-0.12727891
22	0x3e22b766	0.15890273
23	0x3e137553	0.14400224
24	0x3dd2e4a1	0.10297514
25	0x3e7f34c0	0.24922466
26	0xbd23e222	-0.04001058
27	0xbd577e45	-0.052610654
28	0xbcb2bb4e	-0.02181783
29	0x3cd5ccfe	0.026098724
30	0x3ced7514	0.028986491
31	0x3e02649d	0.12733693
32	0x3dac5cad	0.08416114
33	0xbe1529a6	-0.14566669
34	0x3e15c348	0.14625275
35	0x3da961a9	0.0827058
36	0x3df9a896	0.12190358
37	0x3c979ed8	0.01850836
38	0xbd28684a	-0.041115083
39	0xbdc23446	-0.094826266
40	0x3e778a2c	0.24173802
41	0x3e01f9ce	0.12692949
42	0x3b8d8d72	0.00431984
43	0x3dacb445	0.08432821
44	0x3dc8d278	0.09805769
45	0x3e2b58fa	0.1673316
46	0x3e0c9c07	0.13731395
47	0xbd75c549	-0.0600026
48	0x3e3ead94	0.18620902
49	0x3e01f263	0.1269012
50	0x3e8db96b	0.27680525
51	0x3cf71876	0.030163031
52	0xbdb9aed1	-0.09066547
53	0xbdf72086	-0.1206675
54	0x3e0782c1	0.13233472
55	0x3e2d3696	0.16915354
56	0x3db4c3ae	0.088263854
57	0x3d3fd885	0.04683735
58	0x3e4d9822	0.20077565
59	0x3ca3550f	0.01993802
60	0xbe0d236c	-0.13783044
61	0x3e1f09f0	0.15531135
62	0xbd8948db	-0.06703349
63	0x3e420d7a	0.18950453
64	0xbd44935a	-0.047992088
65	0xbd6487e0	-0.055793643
66	0x3d2b26a8	0.041784912
67	0xbd550beb	-0.05201332
68	0x3e1b863a	0.15187922
69	0xbd66b560	-0.056325316
70	0x3cf799fc	0.030224793
71	0xbd2b44d7	-0.041813698
72	0x3e0dde43	0.13854317
73	0x3c44c36c	0.012009483
74	0xbcc0d6c7	-0.023539914
75	0x3d24639b	0.040134054
76	0x3df1bb60	0.11803317
77	0xbd39faa4	-0.045405045
78	0x3e77547c	0.24153322
79	0x3e109f59	0.14123286
80	0xba4cdbe0	-0.00078147464
81	0x3e7551fe	0.23957059
82	0x3a021940	0.0004962869
83	0xbdc61a4c	-0.096729845
84	0x3e1b24d6	0.1515077
85	0xbda90376	-0.08252613
86	0x3d8ec53b	0.069712125
87	0xbd3e6629	-0.046484146
88	0xbd906728	-0.070509255
89	0x3e1265f0	0.14296699
90	0xbd31a395	-0.043368895
91	0xbd0dc9f5	-0.03461643
92	0xbd9caa51	-0.07649673
93	0x3dc0ab80	0.09407711
94	0x3e60c076	0.21948418
95	0x3d25f754	0.040519074
96	0x3eb6c1d2	0.35694748
97	0x3d2e1ee6	0.042509936
98	0x3e0e8186	0.13916597
99	0x3e19f7e3	0.15035968
100	0x3df33a7a	0.11876388
101	0xbc9f8da8	-0.019476727
102	0xbdd8d4ce	-0.10587464
103	0x3e8668a1	0.262517
104	0xbd0911dc	-0.033464298
105	0x3e14a6d6	0.14516768
106	0x3d8a465b	0.067517005
107	0x3dcbfa3e	0.09959839
108	0x3dc42d5e	0.095789656
109	0xbdebeb7a	-0.11519523
110	0x3c505c43	0.012717309
111	0xbd3d2685	-0.046179313
112	0xbe0a007d	-0.13476749
113	0xbd228a99	-0.03968296
114	0x3e008b85	0.12553222
115	0x3d931c6e	0.07183157
116	0xbcebbe64	-0.028777309
117	0x3d190bd1	0.037364785
118	0x3d93c796	0.07215802
119	0x3d867bcc	0.06566581
120	0xbda46b94	-0.080283314
121	0x3da8ed04	0.08248332
122	0x3e0413a2	0.12898114
123	0xbd017198	-0.031602472
124	0x3d7c99b7	0.06167003
125	0xbe138005	-0.14404304
126	0x3e019aaf	0.12656663
127	0x3a0d40b0	0.00053883623
128	0x3da511c6	0.08060031
129	0x3dde2d02	0.10848428
130	0xbe017cc6	-0.12645254
131	0x3dc8a759	0.09797544
132	0xbd49e81f	-0.049293634
133	0x3ddd364d	0.10801373
134	0xbe1a90c6	-0.15094289
135	0x3cdf761d	0.027278
136	0x3dea0c4b	0.11428126
137	0x3deafc38	0.11473888
138	0x3df12187	0.11773973
139	0xbdaad0bd	-0.08340595
140	0xbdd2419a	-0.10266419
141	0xbdc61507	-0.096719794
142	0x3dd45935	0.103685774
143	0xbd335fb7	-0.043792453
144	0xbda6e758	-0.08149594
145	0xbd9b98b3	-0.075974844
146	0xbde54f06	-0.11196713
147	0x3db59d33	0.08867874
148	0xbe03b3c5	-0.12861545
149	0x3dfb17ae	0.12260376
150	0xbde1128b	-0.10989865
151	0x3de977f8	0.11399835
152	0x3cd00927	0.02539499
153	0xbcd356ce	-0.025798228
154	0xbde29857	-0.11064213
155	0xbc8e8f6a	-0.01740237
156	0x3d6c1f23	0.05764688
157	0x3d7474cf	0.05968171
158	0x3d3d7491	0.046253745
159	0xbddbf618	-0.10740298
160	0x3da45b87	0.0802527
161	0x3c14c934	0.009081174
162	0xbc187ea6	-0.009307539
163	0xbdfebf41	-0.124388225
164	0xbc5721e3	-0.013130638
165	0xbdb2205d	-0.08697579
166	0x3ddd076d	0.10792432
167	0xba9a3b85	-0.0011767006
168	0x3b7c6621	0.0038513022
169	0xb8a92278	-8.064968e-05
170	0xbd51672e	-0.05112379
171	0x3deed0aa	0.11660893
172	0x3def7e6e	0.116940364
173	0x3d9c80df	0.07641768
174	0xbd0333e2	-0.0320319
175	0x3d8e65e2	0.06953026
176	0xbe0619e3	-0.13095812
177	0x3dfb4294	0.12268558
178	0xbda982e9	-0.08276922
179	0x3dadf81f	0.08494591
180	0xbb78e566	-0.003797853
181	0x3e1372fa	0.14399329
182	0x3e190f47	0.14947234
183	0xbdd603fd	-0.104499795
184	0xbe03fa4b	-0.12888448
185	0x3c939ed8	0.018020079
186	0xbdfbbdc5	-0.12292055
187	0x3debbcfb	0.115106545
188	0xbbf01b09	-0.0073274416
189	0x3d17279e	0.036903016
190	0x3e111bfb	0.1417083
191	0x3d104c76	0.03522917
192	0xbe109f58	-0.14123285
193	0x3e170fa8	0.14752066
194	0xbcfeaf37	-0.031089408
195	0xbd8e7837	-0.06956523
196	0xbbd079ae	-0.0063621616
197	0x3be76a22	0.0070622126
198	0xbd2eb9c5	-0.042657632
199	0xbdb0857d	-0.08619211
200	0xbd729f74	-0.059234098
201	0xbde113b2	-0.10990085
202	0xbe0c50bf	-0.13702677
203	0x3cc12b83	0.023580318
204	0xbd0c084d	-0.034187604
205	0x3d9bc31c	0.076055735
206	0xbdf369f7	-0.118854456
207	0x3ddde819	0.10835285
208	0xbdcd96d5	-0.100385346
209	0xbda36f83	-0.079802535
210	0xbdb015a3	-0.08597877
211	0x3dfc1606	0.12308888
212	0x3dc4ce81	0.096097
213	0xbdf010cf	-0.11721956
214	0xbc0bc711	-0.008531348
215	0x3da0a526	0.078439996
216	0xbe160370	-0.14649749
217	0xbca8bd5e	-0.02059811
218	0x3c339256	0.010960182
219	0xbe129c20	-0.1431737
220	0x3a991fa1	0.00116824
221	0x3cd0afc3	0.025474435
222	0x3b61bbaa	0.0034444132
223	0xbe08618f	-0.13318466
224	0xbe003c54	-0.12523013
225	0xbe02f057	-0.12786995
226	0xbcd274d4	-0.025690474
227	0x3dc68264	0.09692839
228	0xbdf36387	-0.11884218
229	0xbdbd6692	-0.09248079
230	0x3dbc9cfa	0.092096284
231	0x3d9da95b	0.076983176
232	0xbe19f070	-0.15033126
233	0x3d45dac5	0.048304338
234	0xbd9739d1	-0.073840745
235	0xbd9a2fd6	-0.07528655
236	0xbddd0dc3	-0.107936405
237	0x3de5c691	0.11219514
238	0xbd9d6038	-0.07684368
239	0x3d70e705	0.058814067
240	0xbce77b8e	-0.028257158
241	0xbe0e60d2	-0.13904122
242	0x3df2fe8c	0.11864957
243	0x3d87f838	0.06639141
244	0xbbde68da	-0.0067874016
245	0xbd3b97e8	-0.045799166
246	0x3b3c9013	0.0028772398
247	0xbcd5007b	-0.026001206
248	0xbe0a7344	-0.13520533
249	0x3e16d8b7	0.14731108
250	0xbd532063	-0.05154456
251	0xbc8d50b0	-0.017250389
252	0xbdae437a	-0.08508964
253	0x3dea849d	0.11451075
254	0xbe18ffb3	-0.14941292
255	0x3e103797	0.14083706

bias f4 [128]
0	0xbeabcc0e	-0.3355412
1	0xb7cb2d17	-2.4220482e-05
2	0xba794be9	-0.00095099077
3	0xbc54ea6e	-0.0129953455
4	0x3e964e21	0.29356483
5	0xbce6cf4f	-0.028175024
6	0xbe38022a	-0.17969576
7	0x3d6e476f	0.058173593
8	0xb92d94d8	-0.00016554014
9	0xbc033cc0	-0.008010089
10	0xbc268f39	-0.010165983
11	0x3ca3ee23	0.020011013
12	0xbb686c34	-0.0035464885
13	0x3d149126	0.036271237
14	0xbe21fc33	-0.15818863
15	0xbea29f38	-0.317621
16	0xbdca4ec6	-0.09878306
17	0xbe214de6	-0.15752372
18	0x3ca2a3b7	0.019853456
19	0x00000000	0.0
20	0xb7e97b58	-2.78332e-05
21	0xbe45afca	-0.1930534
22	0xbe413ede	-0.18871638
23	0xbc799ad9	-0.015234672
24	0xbd92a1a4	-0.07159737
25	0xbba5b9fd	-0.005057572
26	0xb5ef9b5a	-1.7852101e-06
27	0xbe8783d7	-0.26467773
28	0xbe601c26	-0.21885738
29	0xbc6c2032	-0.014411973
30	0x3d3c7c4a	0.04601697
31	0xbbb89bbf	-0.0056338008
32	0x3ce81793	0.028331554
33	0xb7efeb43	-2.8600572e-05
34	0xbad8df0d	-0.0016545967
35	0xbbe34449	-0.0069356305
36	0x36ca91b4	6.037031e-06
37	0x3cbd6f96	0.023124497
38	0xbd0f2a77	-0.034952607
39	0xbd45ed02	-0.04832173
40	0xbac8ed42	-0.0015329497
41	0x390b2a7e	0.00013271903
42	0xbad7b8e7	-0.0016458303
43	0xbe79a000	-0.24377441
44	0xbd5417c8	-0.051780492
45	0x37e5c13e	2.7388913e-05
46	0xbd337bd2	-0.043819256
47	0xbe7e303b	-0.24823086
48	0x3c25853e	0.010102568
49	0x3bb58b9b	0.005540324
50	0xbf12373e	-0.5711554
51	0xbdfc2125	-0.12311009
52	0xbe1697c1	-0.14706327
53	0xbca44e2c	-0.020056807
54	0x3b0866d3	0.002081324
55	0xbe8615a0	-0.26188374
56	0xbd378863	-0.044807803
57	0xb7fd3b93	-3.0187692e-05
58	0x3a948418	0.0011330871
59	0x00000000	0.0
60	0x3b312f95	0.0027036418
61	0xbe8eb880	-0.27875137
62	0xbcd82eef	-0.026389567
63	0xbd3b1b46	-0.045680307
64	0x3c9c31d0	0.019066721
65	0xbdaf2f6c	-0.08553967
66	0xbe95896e	-0.29206413
67	0x3cecc37c	0.028901808
68	0xbe01a024	-0.12658745
69	0x3dea034f	0.11426412
70	0xbe37b85e	-0.17941424
71	0x3bb3d091	0.0054875095
72	0x38b23dc0	8.499203e-05
73	0x3b7d254b	0.0038626965
74	0xbd4c59ea	-0.049890436
75	0xbc7d99ae	-0.015478535
76	0xbe24b528	-0.1608473
77	0x00000000	0.0
78	0x3ca70b0f	0.020391015
79	0xbccdd0fd	-0.025124067
80	0xbb5a8a63	-0.0033346645
81	0xbcb11907	-0.02161838
82	0xbd44b1e4	-0.048021212
83	0xbdff215d	-0.124575354
84	0xbe793fbd	-0.2434072
85	0xbb205ba0	-0.0024468675
86	0x00000000	0.0
87	0x3c537fa9	0.0129088545
88	0xbdc71310	-0.09720433
89	0x3d15eb59	0.0366014
90	0xb6f4bd6b	-7.293818e-06
91	0xbd07bdf1	-0.033140127
92	0x3db3b934	0.08775559
93	0xbce0ac38	-0.02742587
94	0xbde3c9a7	-0.111224465
95	0xbdfc8804	-0.123306304
96	0xbc1622ed	-0.0091636
97	0xbd83b69a	-0.06431313
98	0xbb5c057f	-0.0033572612
99	0xbe248975	-0.1606806
100	0x3afdedae	0.0019373202
101	0xbd282a41	-0.04105592
102	0x3d82e35a	0.0639102
103	0xb7bb5ae4	-2.2334461e-05
104	0xbcf213e4	-0.0295505
105	0x00000000	0.0
106	0xba086ff3	-0.000520467
107	0x00000000	0.0
108	0xb9b525fb	-0.00034551308
109	0xbe5dd445	-0.21663006
110	0x3e7e2d7f	0.24822043
111	0xbe01053e	-0.12599656
112	0xb9ae8ea1	-0.00033294133
113	0xb89a18fb	-7.347945e-05
114	0x3d003728	0.0313026
115	0x3d580395	0.05273779
116	0xbda17e94	-0.07885471
117	0xb91a8cef	-0.00014739086
118	0x3ae27ce7	0.0017279655
119	0xbdeb3a83	-0.114857696
120	0xbbbf5a73	-0.00583964
121	0xb9071c06	-0.00012885043
122	0xbc3550ae	-0.011066599
123	0x00000000	0.0
124	0xbd1e5136	-0.038651668
125	0x3c02dda6	0.007987415
126	0x3af923e4	0.0019007889
127	0x3dec0726	0.11524801

weight f4 [128, 128]
0	0xbdffc9e4	-0.124896795
1	0x3dcd02c9	0.10010297
2	0x3dde841e	0.10865043
3	0xbd62243a	-0.05521033
4	0x3c3e93fe	0.011631964
5	0xbde7a7c8	-0.113112986
6	0xbcdfbadc	-0.027310781
7	0x3e10c10a	0.14136139
8	0xbdeab1e9	-0.11459715
9	0xbd92254e	-0.071360216
10	0x3da0fb72	0.078604594
11	0xbd027b20	-0.031855702
12	0x3dbf3a1e	0.09337257
13	0x3de4701d	0.111541964
14	0x3c9066fe	0.017627236
15	0xbd88bd18	-0.06676692
16	0xbe0d24c6	-0.13783559
17	0x3dfe384e	0.12413083
18	0xbd394fc2	-0.04524208
19	0x3d87486e	0.06605612
20	0x3dd11c73	0.102105044
21	0x3e1a1a87	0.15049182
22	0xbd6218c7	-0.05519941
23	0x3d8299c1	0.063769825
24	0x3e1b2958	0.1515249
25	0xbd42e097	-0.047577467
26	0x3c3cfca4	0.011534844
27	0xbd358f7e	-0.044326298
28	0xbdcd437b	-0.100226365
29	0x3cfc13f4	0.030771233
30	0x3ca6edff	0.020377157
31	0x3db24335	0.08704225
32	0xbd589638	-0.052877635
33	0xbd212d72	-0.03934998
34	0x3e12ddaa	0.1434237
35	0x3dd44980	0.103655815
36	0xbdf0d607	-0.117595725
37	0x3c8bb259	0.017052816
38	0xbde564eb	-0.11200889
39	0xbd2a540f	-0.04158407
40	0xbd32c20c	-0.04364209
41	0xbdc9fdab	-0.098628365
42	0xbd8b15b8	-0.06791252
43	0x3e1b18e5	0.15146215
44	0xbdf87855	-0.121323265
45	0xbda4b0c8	-0.08041531
46	0xbbe7b8aa	-0.007071574
47	0xbe198be8	-0.14994776
48	0x3b400d2f	0.0029304733
49	0x3c997606	0.018733036
50	0xbe06b885	-0.13156326
51	0x3dcb3096	0.099213764
52	0xbe1758fa	-0.14780036
53	0xbd671581	-0.056416992
54	0x3dbf4cf4	0.093408495
55	0x3dea7772	0.11448564
56	0xbd9dba43	-0.07701542
57	0xbdbb49be	-0.091449246
58	0xbe0b632a	-0.13612047
59	0xbcac44b1	-0.021028848
60	0x3d442602	0.04788781
61	0xbd8f6c9a	-0.07003136
62	0xbc9d06d8	-0.019168302
63	0xbddc21c1	-0.107486255
64	0x3d1937cd	0.03740673
65	0x3cbecc57	0.023290796
66	0xbcf735a4	-0.030176945
67	0xbdc9dce8	-0.09856588
68	0xbdcbe5d3	-0.09955945
69	0x3d2c15f4	0.042013124
70	0xbd81c4af	-0.063363425
71	0xbddb822e	-0.10718189
72	0xbd21bfea	-0.039489664
73	0xbdcc6192	-0.099795476
74	0x3cd76aa6	0.026295971
75	0x3dfcb92a	0.12340005
76	0xbd001e20	-0.03127873
77	0xbd1d85a5	-0.03845753
78	0x3c7c11da	0.0153851155
79	0x3ca7a4ca	0.02046432
80	0xbdf4c652	-0.11951889
81	0x39f023fa	0.00045803172
82	0x3de84163	0.113405965
83	0xbdd629f1	-0.104572184
84	0xbc4e3c66	-0.012587642
85	0xbd5529d2	-0.052041836
86	0x3e1645ec	0.1467511
87	0xbe149236	-0.145089
88	0x3dcdd179	0.10049719
89	0x3dcfbf19	0.10143871
90	0x3c9fc7c9	0.019504445
91	0x3e0c677d	0.13711353
92	0xbbb55feb	-0.005535116
93	0xbc102c94	-0.008799691
94	0xbd0414ee	-0.032246523
95	0x3d39dd98	0.045377344
96	0x3de534b2	0.111916915
97	0xbd9b43f6	-0.07581322
98	0xbc231259	-0.009953105
99	0xbc0c23ab	-0.008553426
100	0x3dbaab1e	0.09114669
101	0xbe1c44db	-0.15260641
102	0xbd5401bc	-0.051759467
103	0x3ddfe605	0.109325446
104	0xbdbeda1a	-0.09318943
105	0x3e0e8a84	0.13920027
106	0xbd049c52	-0.03237564
107	0xbde343f7	-0.11096948
108	0xbd3a3765	-0.045462985
109	0x3d771dc5	0.060331125
110	0xbe0e7d8c	-0.1391508
111	0xbc94f49b	-0.018183043
112	0x3c4b26ff	0.012399434
113	0x3da61281	0.08108998
114	0xbe03d8aa	-0.1287562
115	0xbe091950	-0.13388562
116	0xbdc7218f	-0.09723198
117	0xbe071200	-0.1319046
118	0xbd837ed3	-0.06420674
119	0xbdaf8bd0	-0.08571589
120	0x3dfa2f45	0.12216047
121	0x3d905475	0.07047359
122	0xbd4213e1	-0.04738224
123	0x3d38814d	0.045045186
124	0x3db338fe	0.08751105
125	0xbd884c60	-0.066551924
126	0xbdc0dad0	-0.09416735
127	0x3e0ae433	0.13563614
128	0xbdf3524a	-0.1188093
129	0xbd01fd5f	-0.031735774
130	0x3ddc06d7	0.10743492
131	0x3ce9eeed	0.028556312
132	0xbd6c50a8	-0.057694107
133	0xbc2a181f	-0.0103817275
134	0xbd15831e	-0.036501996
135	0x3d8638d2	0.06553806
136	0x3e12ffe1	0.14355423
137	0xbd966ecd	-0.07345352
138	0xbe182ffe	-0.14862058
139	0xbd61736f	-0.055041727
140	0xbd90035e	-0.07031892
141	0xbe17ec81	-0.14836313
142	0xbe01b7bb	-0.12667744
143	0xbcf3cd27	-0.02976091
144	0x3d7ad534	0.061238483
145	0xbd3e5649	-0.046469007
146	0xbcf7cd63	-0.030249303
147	0xbdc1e6c9	-0.09467847
148	0x3ce6332a	0.028100569
149	0xbdf6c8eb	-0.12050041
150	0xbe07c383	-0.13258176
151	0xbd0b312b	-0.033982437
152	0x3d8df6f5	0.06931869
153	0xbd34b228	-0.044115216
154	0x3d46a059	0.048492763
155	0xbda681f2	-0.08130254
156	0x3c40f555	0.011777242
157	0x3de0a586	0.10969071
158	0xbd5c0366	-0.05371418
159	0x3cafb3ad	0.02144798
160	0xbe141b80	-0.14463615
161	0x3d6b920f	0.05751234
162	0xbd205fbf	-0.03915381
163	0xbddb2b82	-0.10701658
164	0x3d91b224	0.07114056
165	0xbc31d067	-0.01085291
166	0x3cc04eba	0.02347504
167	0x3da6391f	0.08116364
168	0x3e09bfa8	0.13452017
169	0xbe17ba2d	-0.14817114
170	0xbd76e0a0	-0.060272813
171	0xbe1c5c13	-0.15269499
172	0x3d1c94a8	0.038227707
173	0xbe16cbad	-0.14726134
174	0x3da7c9cb	0.08192786
175	0x3df4a440	0.11945391
176	0xbdbafe2b	-0.0913051
177	0x3d78e714	0.06076725
178	0x3e0718dc	0.13193077
179	0x3e0aa1b8	0.13538253
180	0x3cc6e9a4	0.02428133
181	0x3d8aaf71	0.06771744
182	0xbdb72ca2	-0.0894406
183	0xbdb72034	-0.08941689
184	0xbd9639fa	-0.07335277
185	0xbc92ab59	-0.01790397
186	0x3bdc6bfb	0.0067267395
187	0x3e1897ae	0.14901611
188	0xbcb2a4a0	-0.021807015
189	0x3d6cd487	0.05781987
190	0x3dc50752	0.09620537
191	0xbe10ec7a	-0.14152709
192	0xbc9fd66c	-0.019511424
193	0x3e08abda	0.13346806
194	0x3dd92e76	0.10604565
195	0xbde6a441	-0.11261798
196	0xbd5a036f	-0.05322593
197	0xbcce85f1	-0.025210353
198	0x3891ab08	6.945996e-05
199	0xbd1c54f4	-0.038166955
200	0xbd9c36c1	-0.07627631
201	0xbcc140ce	-0.023590472
202	0x3b975b90	0.0046190694
203	0xbd9aafeb	-0.07553085
204	0x3dde7f76	0.10864155
205	0x3e1a9249	0.15094866
206	0x3d66ca9d	0.05634557
207	0x3d803c83	0.06261542
208	0xbd8af3f6	-0.06784813
209	0x3db0640f	0.08612835
210	0x3ba48b92	0.005021521
211	0xbd806fcc	-0.062713236
212	0xbd80a61e	-0.06281684
213	0x3e0129b6	0.12613568
214	0xbd59d27c	-0.05317925
215	0xbd83ef71	-0.06442154
216	0x3da94e6c	0.08266911
217	0xbe145879	-0.14486875
218	0x3e06f8fb	0.13180916
219	0x3e117a83	0.14206891
220	0xbe0d3cd2	-0.13792732
221	0xbbbba16d	-0.0057260306
222	0xbd9f6da8	-0.07784587
223	0xbd90b56a	-0.07065852
224	0x3db7cde3	0.08974817
225	0x3d403ace	0.04693108
226	0xbe1aeca2	-0.15129331
227	0xbcb2bdd9	-0.021819042
228	0xbbffa21a	-0.0078013064
229	0xbd1146a4	-0.03546776
230	0x3da2e961	0.0795467
231	0x3cc4542a	0.023965914
232	0xbc1a5a8f	-0.009421005
233	0xbdda5a95	-0.106618084
234	0x3d855bc9	0.06511647
235	0xbd6a7772	-0.05724282
236	0x3db41e84	0.08794883
237	0xbdfe96c6	-0.124311015
238	0x3e16a0fe	0.14709851
239	0x3beeebc3	0.0072912886
240	0xbc95f814	-0.01830677
241	0xbdb89c09	-0.09014136
242	0x3dd0f2ea	0.10202582
243	0x3d297c81	0.0413785
244	0xbdd9217b	-0.10602089
245	0x3c062d46	0.008189505
246	0xbaed3f1a	-0.0018100471
247	0xbdc5497c	-0.09633157
248	0x3d5b542a	0.053547062
249	0xbd850b7d	-0.06496332
250	0xbdc92d9b	-0.09823152
251	0x3dbf513c	0.09341666
252	0xbc2d7b78	-0.010588519
253	0x3e1184b0	0.14210773
254	0x3cdb95ba	0.026804794
255	0x3d4b932c	0.0497009
