MAMRL-TE/Dynamic environments/Baselines/Random/B4/task2/savemodels/policy9.pth (torch, 276379 bytes, 12 tensors)

weight f4 [128, 7]
000000 18 1d b0 bd af 5d 55 3d 1d c1 ab bc 84 a2 08 be
       -0.08599299 0.052091297 -0.020966107 -0.13343245
000010 02 61 c7 bc 6b 4a 6a bb 74 c3 10 be 51 22 04 3e
       -0.02433825 -0.0035749923 -0.1413706 0.12903716
000020 18 5c d5 bd bb 47 56 bd 13 f8 80 bd 46 9d 4c be
       -0.10417956 -0.0523145 -0.062973164 -0.1998187
000030 6c e9 ca ba 30 cb 1e be 1c 92 47 3e 07 5d 67 bd
       -0.0015480942 -0.15507197 0.1948933 -0.056485202
000040 a4 c4 f8 3d 95 35 f8 3d 66 ac 57 3e 65 33 56 3e
       0.12146881 0.12119595 0.21061859 0.20918043
000050 46 3b 0e 3e 9b d3 9b bd 16 97 4c be 13 2d f5 3d
       0.13889799 -0.0760872 -0.1997951 0.11971488
000060 98 77 e2 bd 47 85 3c be 88 8b 4e be be d0 c5 bd
       -0.11057967 -0.18410216 -0.20170414 -0.09658955
000070 3d 07 a4 bc 62 74 a2 bc 20 03 7a 3d 23 22 48 be
       -0.020022983 -0.019830886 0.061038136 -0.19544272
000080 39 36 05 be 70 39 48 3e e5 8e e0 3c 1f 84 46 be
       -0.13008966 0.1955316 0.027411887 -0.19386338
000090 17 27 8d bc 75 e8 87 bd 20 a5 24 be d0 8c 2a 3e
       -0.017230554 -0.066361345 -0.16078615 0.16655278
0000a0 29 04 06 be 3b 71 96 bd 38 0f 74 be d3 26 bd 3d
       -0.13087524 -0.07345816 -0.2383393 0.09235921
0000b0 7f 59 f5 bd d2 e0 08 be 3b 0d 7c bd 6a 55 ee bc
       -0.11979961 -0.13367012 -0.061536055 -0.029093463
0000c0 df 29 1b 3d db b3 d0 bd c4 ac 45 be 1f 9e f9 bd
       0.03788173 -0.10190555 -0.19304186 -0.12188362
0000d0 ad 62 d4 bd 23 a3 3c 3e 65 fb 40 3d 2a d0 62 bc
       -0.103703834 0.18421607 0.04711475 -0.0138435755
0000e0 a6 7c 00 3e ad 26 88 3e 3b 0d c5 3d 8c a7 19 be
       0.1254755 0.26592007 0.09621664 -0.1500532
0000f0 cd 87 5b be cf c3 dc bc 48 8a 30 bd ac ab 0f 3e
       -0.21438523 -0.026948838 -0.043100625 0.14030331
000100 b4 14 0e 3e 5c f9 3e be 4b cf d0 3d fc d7 29 be
       0.13875085 -0.1864981 0.10195788 -0.16586298
000110 9e 98 0c 3e 62 0a f1 bd 92 5f a0 bd e9 cc eb 3d
       0.13730094 -0.117695585 -0.078307286 0.11513693
000120 47 ea 18 3e f0 97 e3 bd cc 4d 2b 3e 3d ed 67 3d
       0.1493312 -0.11112964 0.16728896 0.056622732
000130 34 c9 ba bb 6b 22 11 bc 4c e1 7c bd 51 f9 15 3e
       -0.005700255 -0.008858304 -0.061738297 0.14645888
000140 5d c2 e8 bd 0b a6 40 3e 48 4e f5 bd 2b 84 b2 bd
       -0.11365197 0.1881334 -0.119778216 -0.08716615
000150 ed b7 cd ba 2a e6 63 bc 61 c4 29 3e b9 53 ec bd
       -0.0015695073 -0.013909856 0.16578819 -0.11539406
000160 f9 be f8 3c 23 21 35 be 08 52 cf 3d cb b8 c6 bd
       0.0303645 -0.17688422 0.10123068 -0.09703215
000170 e1 8d 05 3e cb 45 b8 3d ab 52 4d be de ac 64 3c
       0.13042404 0.08997687 -0.20051067 0.01395723
000180 c5 21 ba bd f0 5c d0 bc b9 a8 0c be f4 5f 2c bd
       -0.09088472 -0.025434941 -0.13736238 -0.042083696
000190 13 09 04 be 36 37 2b be 32 4d 58 bd 2f e8 52 be
       -0.12894087 -0.1672028 -0.052807994 -0.20596384
0001a0 83 88 fa bd 19 5b 46 3d ea 69 24 3e 56 13 3f 3e
       -0.12233069 0.04842672 0.16056028 0.1865972
0001b0 11 20 92 3d f1 2a 02 3e fe 7c 4c 3c 36 96 4b be
       0.071350224 0.12711693 0.012480972 -0.1988152
0001c0 88 c8 a1 bd af ed de bc 1a 3f a9 3d 16 fb 07 3d
       -0.078995764 -0.027212946 0.08263989 0.03319844
0001d0 a8 77 fe bd 1a ff 32 3e 9f 25 ff 3d d0 1e bc 3d
       -0.12425166 0.17480126 0.124583475 0.091855645
0001e0 d5 6d 95 bd 3b 93 cc 3d 04 47 81 3d 23 38 14 3e
       -0.072963394 0.099890195 0.06312373 0.1447454
0001f0 11 ad 9d bd bb 29 bb bd 22 6f 1b bc 28 d0 34 be
       -0.076990254 -0.09138819 -0.009486945 -0.1765753
000200 f0 ea 4d 3d 60 3c ce 3d 83 38 12 3e 61 66 16 3d
       0.050272882 0.10070109 0.1427937 0.03671873
000210 24 cb 41 3e 91 a1 51 be 17 ae 28 be c4 4a 46 3e
       0.18925148 -0.20471789 -0.1647266 0.19364458
000220 dc 48 3b be 05 a9 bc bd 1a 6f 32 bd 7c 19 0f 3d
       -0.18289512 -0.092119254 -0.043562986 0.034936413
000230 b2 c2 13 3d 71 12 82 bd de 43 2b 3d e3 58 9f 3d
       0.036074348 -0.06351174 0.04181277 0.07780626
000240 a9 a9 0e 3c d1 40 ba bd dc 8d f9 bd 03 92 4e be
       0.008707442 -0.09094394 -0.12185261 -0.20172887
000250 36 25 b3 bd 9b b9 0e 3e b4 12 5a 3d 5b b9 0e be
       -0.08747332 0.1393799 0.053240493 -0.13937895
000260 24 20 0e 3e 84 c0 fb 3d 0f eb 29 3c 26 01 95 bd
       0.13879448 0.12292579 0.010370984 -0.0727561
000270 78 41 00 3e 7f be 0c 3b fc 35 2d be f2 c0 9d 3c
       0.12524974 0.002147585 -0.16915125 0.019257043
000280 71 4a a6 3d 23 bf 29 be 9f 3b 17 be ea 0f cd 3d
       0.08119667 -0.16576819 -0.14768837 0.10012801
000290 22 fb d6 3d 00 35 78 bd 07 98 2f 3e 63 f8 2c be
       0.104971185 -0.06059742 0.17147838 -0.16891627
0002a0 f1 1d c8 bd 70 c0 f2 bd 85 f4 3d 3e cb d3 40 be
       -0.09771336 -0.11853111 0.18550308 -0.18830793
0002b0 14 0b 56 3d 73 5e ca bd aa 91 6b bd c4 65 a8 3d
       0.05225666 -0.09881296 -0.057511963 0.08222535
0002c0 85 4c 0f 3e ea 6c a9 3a 32 ba 30 bc b3 b6 f6 bc
       0.13994034 0.0012926136 -0.01078658 -0.030116415
0002d0 8b a7 27 3e 59 72 a8 bb 49 57 06 be 95 ed 81 bd
       0.16372506 -0.0051405844 -0.13119234 -0.06344143
0002e0 2d 0d 09 bc 1b eb db bd 2a 3f 23 3e 63 43 50 3d
       -0.008364958 -0.10738202 0.15942064 0.050845515
0002f0 24 3d 51 3e 24 9b dd 3d 1b 21 b9 bc 3b d0 19 3e
       0.2043348 0.10820606 -0.022598794 0.1502084
000300 39 6f 24 3e 7b 69 1a 3e e7 e4 bf bb d1 99 1f 3d
       0.16058053 0.150793 -0.0058561447 0.03896505
000310 f5 ba 1c 3d eb eb c5 3d fe 71 4a be 9e f4 c7 3d
       0.038264234 0.096641384 -0.19770047 0.09763454
000320 1e f6 ef bc 62 5a 26 3e 2c 97 2a 3e 2f f4 86 bd
       -0.029292163 0.16245416 0.1665923 -0.06589543
000330 2b 6c f2 3b 42 3e 10 3e 6b 07 38 bd 62 69 95 bd
       0.0073981485 0.1408625 -0.04492895 -0.07295491
000340 26 89 a1 bc 08 81 29 bd 3e 9b b6 3d e7 e8 56 3c
       -0.019718718 -0.04138282 0.08916329 0.013117052
000350 b3 34 37 be 36 a5 2f 3e f7 93 52 be a9 17 08 be
       -0.17891197 0.17152867 -0.20564257 -0.13290276
000360 91 54 28 bc af a4 14 be 34 4c fd bd 05 b7 30 be
       -0.010274068 -0.14515947 -0.1236805 -0.17257316
000370 10 d2 a4 3b 61 89 e7 bd 07 b5 cc 3d 84 f3 7c bd
       0.005029924 -0.113055 0.09995466 -0.061755672
000380 32 47 c6 3d 86 b6 0d bd b7 28 1d be 64 d6 c5 bd
       0.09681548 -0.034597896 -0.15347563 -0.096600324
000390 d2 fd 54 3e 17 e9 22 3e 93 74 3e be 37 16 3d be
       0.2079995 0.15909229 -0.18599157 -0.18465506
0003a0 6c 99 07 be b4 8f 89 3d ff 59 31 3e 97 47 e2 3d
       -0.1324212 0.06716862 0.17319487 0.11048811
0003b0 c4 97 13 3e e2 68 5d 3c 72 c1 14 be 07 ad 0f 3e
       0.14413363 0.013513776 -0.14526919 0.14030848
0003c0 a3 d4 e7 bd a5 b8 15 3d af ec 3c 3e 89 a8 be 3d
       -0.11319854 0.036553044 0.18449663 0.09309489
0003d0 63 f7 36 3c ef 36 ef 3b 64 a3 2f 3e 5b 7f 5e 3e
       0.01116738 0.0073002498 0.17152172 0.2172827
0003e0 70 a9 43 3e 57 bb 15 3e a1 6d e8 bd 90 5f e1 3c
       0.19107604 0.14622246 -0.11349035 0.027511388
0003f0 a4 c6 fa bd 8f 51 69 bd c3 7e 4e 3d 6a f2 f1 bd
       -0.12244919 -0.056962546 0.05041386 -0.11813815

bias f4 [128]
000000 cd 69 cb bb 77 05 21 bb 58 bf e7 bb 00 00 00 00
       -0.006207681 -0.0024569908 -0.0070723705 0.0
000010 0a 32 d3 bb 6e e6 e1 b8 86 56 26 bc 00 00 00 00
       -0.006445174 -0.00010771757 -0.010152465 0.0
000020 01 fa 01 3c f3 e3 0b bc 8e bf 85 bc 2e 74 d8 b9
       0.007933141 -0.008538234 -0.016326692 -0.0004128529
000030 ed 10 47 bb 67 2d c7 bb 00 00 00 00 a0 55 e8 ba
       -0.0030375079 -0.0060784104 0.0 -0.0017725714
000040 ff 0a 17 bc b1 f3 0e bd 7b e4 c9 bb 00 00 00 00
       -0.00921893 -0.03490037 -0.00616127 0.0
000050 ea 6e 4e ba 36 b0 5d bb 85 2c 2e bb d4 e6 d8 b6
       -0.0007874804 -0.0033826954 -0.0026576829 -6.4641736e-06
000060 00 00 00 00 fb d2 44 ba 3a 0b e3 b8 fd ae 5d bc
       0.0 -0.0007508245 -0.000108262946 -0.01353049
000070 5f 4b 46 bc 23 1a fb 39 ad 1a a1 ba 00 00 00 00
       -0.012102931 0.00047893924 -0.0012291275 0.0
000080 63 9a 9c 3a 5b 22 cd ba 6a 7c e7 bb 2f 74 7f 3c
       0.0011947866 -0.0015650498 -0.007064392 0.015591665
000090 2e b0 21 38 40 75 80 bc 6e 48 15 bb 65 94 ea 3b
       3.854947e-05 -0.01568091 -0.0022778767 0.0071588033
0000a0 00 00 00 00 c7 0b 5b bc 39 a5 2f bc 41 31 c2 bb
       0.0 -0.013369507 -0.0107205445 -0.0059262817
0000b0 e3 63 b9 ba 25 04 45 3a 3c e7 30 bc 00 00 00 00
       -0.0014144148 0.0007515571 -0.010797318 0.0
0000c0 5a d8 8b ba a2 0c b3 bb d9 93 c8 ba 1e 70 7f bb
       -0.0010669336 -0.0054641524 -0.0015302851 -0.003897674
0000d0 71 2f 92 bb dc 50 66 3b bd 2c e7 b7 00 3f 70 3a
       -0.004461222 0.003514341 -2.7558179e-05 0.0009164661
0000e0 89 af b4 bb a3 75 ec b8 6b 07 12 bc 66 65 f9 38
       -0.0055140895 -0.000112752685 -0.008912901 0.00011892132
0000f0 94 df 6a bb 13 ef c5 b8 94 b3 ab b8 fc e2 51 bb
       -0.003583883 -9.438223e-05 -8.1873644e-05 -0.0032026162
000100 c4 10 28 3c 0c 89 55 3c bc a1 d2 39 eb 1e 75 ba
       0.0102579035 0.013033163 0.00040174823 -0.00093506154
000110 3d 19 23 bb 00 00 00 00 ea 2a b8 b9 18 51 f8 ba
       -0.002488687 0.0 -0.00035127188 -0.0018945066
000120 50 7e b6 bb 38 fe 60 bb 7a 6b f6 ba e1 3c 7b 3b
       -0.005569257 -0.0034331214 -0.0018800341 0.0038335847
000130 7c cf 91 ba 40 df d9 3a 84 a9 9f b8 38 88 1f ba
       -0.0011124457 0.001662232 -7.6132856e-05 -0.0006085667
000140 00 00 00 00 9d 11 12 3c ac 4b 72 3b 6d f4 38 ba
       0.0 0.008915332 0.0036971373 -0.0007055465
000150 f2 81 ea bb 07 51 9d bb 57 73 59 bc 81 e1 cc 3b
       -0.007156604 -0.004800919 -0.013272128 0.006252468
000160 50 f6 e5 3b 0b bc 6b 3c 18 69 85 bb 3a 9a 2d bc
       0.007017888 0.014388095 -0.004071366 -0.0105958525
000170 bf 10 0b 3c 13 36 70 bb 00 00 00 00 f4 73 a0 bb
       0.008487879 -0.0036653324 0.0 -0.004896635
000180 00 00 00 00 41 de 05 bb 00 00 00 00 00 00 00 00
       0.0 -0.0020426663 0.0 0.0
000190 bd fe 99 37 00 00 00 00 5a 70 72 3b bf 76 10 bc
       1.8357643e-05 0.0 0.0036993236 -0.008817374
0001a0 2b 38 65 bb e6 92 5d 3c 00 00 00 00 07 a8 ff bb
       -0.0034976106 0.013523793 0.0 -0.007802013
0001b0 5b 9d 0c bb c7 29 32 bb 75 f8 9d bb 00 00 00 00
       -0.0021456096 -0.0027185546 -0.004820878 0.0
0001c0 48 26 de bb 34 1c ae b9 31 95 73 bb cf d1 29 3b
       -0.006779466 -0.0003320888 -0.0037167782 0.002591241
0001d0 86 84 5f bc 90 c3 5b bb 19 bb 02 bc 80 57 13 bc
       -0.013642436 -0.0033533312 -0.007979178 -0.00899303
0001e0 00 00 00 00 ce 7c ab 3c cd e6 9e b7 9c 8b eb ba
       0.0 0.020933535 -1.8942543e-05 -0.0017970684
0001f0 4e b9 26 bc e6 82 71 3c 2a ca 12 3b 4c 8c 2c 3b
       -0.010176016 0.014740681 0.0022398331 0.002632874

weight f4 [128, 128]
000000 01 71 60 3d 7e f3 f6 3c 98 5a 04 bd 26 09 2f bd
       0.05479527 0.030145403 -0.03231296 -0.042733334
000010 29 1f 8c bd 2d 49 83 3d bc 5f a5 bd a0 2f b2 3a
       -0.06841881 0.064104415 -0.080749005 0.0013594516
000020 4e 33 27 bd 19 f9 ed bd 12 2d 98 bd f3 c3 c3 3d
       -0.040820412 -0.11619777 -0.074304715 0.09558859
000030 c8 ee f2 bd 6d 64 e2 bc 5e a7 8f 3d 5e 6d eb 3d
       -0.1186195 -0.027635777 0.07014345 0.114954695
000040 7d b7 e6 3d 37 b0 01 be 18 9c 8d bd f4 44 06 3e
       0.11265466 -0.12664877 -0.06914538 0.13112241
000050 49 6c 3e bd 51 8f 68 3d a9 6d 0b 3d f2 85 b6 bb
       -0.046489988 0.056777302 0.034040127 -0.0055701667
000060 32 db fb bd 07 fd 5e bd 8d fc 81 3c c3 96 4a 3c
       -0.122976676 -0.054440524 0.015867496 0.012365046
000070 0a ce cb 3d a5 50 04 3e 86 53 96 3d 45 0a ad bd
       0.09951408 0.12921388 0.073401496 -0.084492244
000080 d2 24 10 3e 53 e5 33 3d a1 cb 21 be 28 49 0a be
       0.14076546 0.043919872 -0.15800335 -0.1350447
000090 bc e5 8f 3d 1e de 95 3d ff a4 b4 3d 43 4c d1 3d
       0.0702624 0.07317756 0.08820533 0.10219624
0000a0 a9 2c a1 bc 35 67 85 3d 11 f8 6e 3d c9 34 0e 3e
       -0.019674616 0.06513826 0.058342043 0.13887323
0000b0 de 8f f6 3d 50 20 96 bd 7c 2e c7 b8 36 3f cd 3d
       0.12039159 -0.07330382 -9.497718e-05 0.10021822
0000c0 86 82 37 3c 38 f8 ca bb 4b ce c1 3c 26 42 21 3d
       0.011200553 -0.0061941408 0.023657938 0.039369725
0000d0 17 7b 11 3e 4a c0 2a 3d d0 2f f7 bd 71 f2 f9 3c
       0.14207111 0.041687287 -0.120696664 0.030511113
0000e0 49 20 8d bd 48 45 06 be 54 da ef 3c e4 fb 0c 3e
       -0.068909235 -0.13112366 0.029278912 0.13767964
0000f0 a0 1e a0 3d 0f 8a 44 3d ea fb 7e bd c8 96 27 bd
       0.07818341 0.047983225 -0.062251963 -0.04091528
000100 82 20 5f bd 25 12 1f bd 37 9e 01 3e b6 71 f0 3d
       -0.05447436 -0.038835663 0.1265801 0.11740439
000110 3d 7e 9f 3d f1 3a f7 3d b5 48 da bc 08 c6 d1 bd
       0.0778775 0.12071789 -0.026645998 -0.102428496
000120 5b 90 79 3d 2d fe 20 be cb 8e 28 3c 0e 6f c2 ba
       0.060928684 -0.1572196 0.010287951 -0.0014834122
000130 69 5f bb bd 88 6d 4c 3d e6 7b ea bd 1b cd 17 bc
       -0.091490574 0.049909145 -0.11449413 -0.00926521
000140 7e b3 dd 3d 96 f9 97 3d 2f 6d 08 3e d4 92 b7 3d
       0.10825251 0.074206516 0.133229 0.08963552
000150 58 ca e6 3d de e5 44 bc b0 41 f4 bd ef dc fe bc
       0.11269063 -0.012017695 -0.119265914 -0.031111209
000160 91 dd a0 bc f3 81 97 bd 50 34 5f 3d da fc 26 be
       -0.019636901 -0.07397833 0.05449325 -0.16307393
000170 7b e8 5f 3c 22 6e a9 3c e1 7d 3c 3c b2 33 86 bd
       0.0136662675 0.020682398 0.011504621 -0.06552829
000180 57 6c 3b 3d 1a 72 f5 bd 11 1b 05 be 50 7f 6c bd
       0.045757618 -0.11984654 -0.12998606 -0.057738602
000190 63 de a5 bd 67 56 18 bc 94 5a 11 be df 29 00 be
       -0.080990575 -0.009297944 -0.14194709 -0.12515973
0001a0 1c 4c ba 3d 8c 6d dc 3c ab fc f0 3d 83 dc c8 bd
       0.09096548 0.026907705 0.117669426 -0.09807684
0001b0 d6 c9 fa bd 03 a4 1d bd 7d 7f ee bd 1b 55 a1 3d
       -0.122455284 -0.038486492 -0.1164541 0.07877561
0001c0 ea 25 ff 3c bf e9 d0 bc 59 c5 c5 3d 3a d5 0c 3e
       0.031146009 -0.025502084 0.09656782 0.13753214
0001d0 85 0d e4 3b 3a 47 8f bc 39 44 9d 3d 1b 20 e0 3d
       0.0069596195 -0.017490018 0.07679028 0.10943624
0001e0 5f be 59 3d 98 f6 99 bd 69 61 00 be 3b 50 bb 3c
       0.053160068 -0.07517737 -0.12537159 0.022865405
0001f0 05 be 25 3d 28 b9 e6 3d 57 54 49 bd 22 87 06 be
       0.04046442 0.112657845 -0.0491527 -0.13137487
000200 3e fb 70 bd 46 88 a3 bc 0d 64 e6 bb d4 76 91 bd
       -0.058833353 -0.019962441 -0.00703097 -0.07102743
000210 06 9a 0c be 13 cd e9 3c 84 d4 f5 3d 1b 8c e9 3c
       -0.1373063 0.02854017 0.12003425 0.02850919
000220 07 91 0d 3d 9f 1a 7a 3d 3c b5 05 3e d7 ca e0 3d
       0.034562137 0.061060544 0.13057417 0.10976189
000230 1f ea 50 3d b4 2f 08 bb 92 88 dc 3c 03 63 05 3e
       0.051004525 -0.0020780386 0.02692059 0.13026051
000240 b3 ae c0 3d 7f 94 02 3e 29 5f 1c 3d ac 21 c6 3d
       0.09408321 0.1275196 0.03817669 0.09674391
000250 0b 00 d3 3c c6 19 ec 3d 99 4f 0f bc f6 7c b7 bd
       0.025756856 0.115283534 -0.008747005 -0.08959381
000260 82 a6 78 bc 90 82 10 be 62 66 eb bc b1 7a fa 3c
       -0.015176417 -0.14112306 -0.028735343 0.030576082
000270 83 7f d4 3d 33 18 87 3b cc d4 9a 3d 89 18 e0 bd
       0.103758834 0.004122758 0.07560119 -0.1094218
000280 39 0d 53 3d 5d a1 81 bd c1 3b 23 be b4 33 a5 bd
       0.051526282 -0.06329606 -0.15940763 -0.08066502
000290 fd cb 11 3d f6 3f ea 3d cb 7c 01 be ae ac a3 3a
       0.03559493 0.11437981 -0.12645261 0.0012487376
0002a0 d5 9e d3 3d 55 8c df bd ad c5 b6 3d 38 d7 fb 3d
       0.10333029 -0.10915438 0.089244224 0.12296909
0002b0 a5 8a b6 3c 53 ec 8f bd 9a 15 e0 3d d7 94 b6 3d
       0.022282908 -0.07027497 0.1094162 0.08915108
0002c0 0d 61 f9 3d ed 6c ce bd b5 e7 8d 3d 08 4d 69 3d
       0.12176714 -0.1007937 0.0692896 0.05695823
0002d0 32 52 81 bd 81 1a 1a 3e a1 ef 1a bd 6d 15 7b bd
       -0.06314506 0.15049173 -0.037826184 -0.06129973
0002e0 05 6d 37 3d dc 8d 08 3e 4f c0 16 bd be 5d b7 3d
       0.044781704 0.13335365 -0.036804494 0.08953427
0002f0 d6 f2 53 3d 86 36 ae 3d 48 78 21 3d eb c7 9d 3d
       0.05174526 0.08506493 0.03942135 0.07704147
000300 0e b2 db bd a6 d2 e0 3d 53 33 09 3e b8 46 b5 bd
       -0.107273206 0.10977678 0.13398485 -0.08851379
000310 6f bd c2 bd 55 95 5e 3c 01 85 67 bb 7d cb 41 bb
       -0.09508788 0.013585408 -0.003532708 -0.0029570751
000320 f5 74 18 3e 24 61 03 bd 7c f0 92 3d ae 81 eb bd
       0.14888366 -0.032075062 0.07174775 -0.11499344
000330 e1 18 db bd df 7e 63 bd 29 a2 18 3e 0c 6f c5 3d
       -0.10698105 -0.055540916 0.14905609 0.09640321
000340 b6 c5 16 3e c1 81 8a bd 40 82 12 3e f3 5b 62 bd
       0.14723858 -0.0676303 0.14307499 -0.05526347
000350 be 56 cd bc ae 9e c9 3d dd 76 1b be 8d ef b2 3d
       -0.025065776 0.09844719 -0.15182061 0.08737097
000360 e4 ed d2 bd b6 39 c4 3d a4 28 4b bd 2d 75 9f 3d
       -0.1029928 0.0958132 -0.049599305 0.077860214
000370 b5 58 0e be 3f be de 3d 03 7e 0b 3e 5e 2d 27 3d
       -0.13901027 0.1087613 0.13622288 0.04081475
000380 9d 73 71 3d 16 c4 e8 3c 9c 6a c1 3d 02 9b df 3d
       0.058948148 0.028413814 0.09444162 0.10918237
000390 c4 f3 99 3d b8 52 17 3d 8b a2 f3 3d 6f 6e 8d 3d
       0.07517198 0.03694412 0.11896237 0.06905829
0003a0 9d 7a 57 3d e9 d3 e8 bd 00 63 6d 3c 43 eb a5 bd
       0.052607168 -0.11368544 0.0144889355 -0.08101513
0003b0 e6 8b a6 3d 88 3f 5c 3c 09 eb ac bd 69 3f 18 be
       0.08132152 0.013442881 -0.08443267 -0.14867939
0003c0 e4 6d d0 bc 9f e7 0e 3d 1c f7 67 3d ee aa ea 3b
       -0.025443025 0.03488886 0.056632146 0.0071614897
0003d0 e8 bd 65 bc 66 05 bf bc a0 f6 0a be 2d b4 f3 bd
       -0.014022328 -0.023318004 -0.13570642 -0.118996
0003e0 b2 a6 06 be 68 a9 65 3d 98 13 1b bd fa 80 e5 bd
       -0.13149527 0.05606976 -0.037860483 -0.11206241
0003f0 24 a8 f7 bd ed 65 62 bd 68 4c 1d be 47 cd 48 bd
       -0.12092617 -0.055272985 -0.15361178 -0.049023893

bias f4 [128]
000000 07 1f 8c bc d6 cb e1 bb 57 ff a7 bb 98 01 d7 ba
       -0.017104639 -0.006890754 -0.0051268744 -0.0016403673
000010 a3 6f 49 bc de 38 43 bc 46 95 58 bb 00 00 00 00
       -0.012294683 -0.011915414 -0.0033047958 0.0
000020 cb 9f 7c 3b 96 4a 0a 39 99 f8 a1 ba d0 57 54 3c
       0.0038547392 0.00013188491 -0.0012357413 0.012960389
000030 c2 67 b0 39 27 6a f9 b8 8d 39 29 bc 98 6f 7b 3b
       0.00033646642 -0.00011893018 -0.010328663 0.0038366076
000040 63 0f 29 bb 19 4b 8d 3a 00 00 00 00 8a f4 79 bc
       -0.0025796525 0.0010779827 0.0 -0.015256057
000050 46 04 8d bb f2 4a 91 3a 5f 02 03 bc 78 a8 a5 bb
       -0.004303488 0.0011084958 -0.007996171 -0.0050554834
000060 00 00 00 00 29 70 de bb 02 21 4a bc 84 4c 2c bc
       0.0 -0.006788273 -0.012336971 -0.01051629
000070 35 47 3f 39 76 28 bd 3c 7f b6 e2 bb 9d 30 82 bb
       0.00018241706 0.023090582 -0.006918728 -0.0039730803
000080 52 3e 14 bb 88 75 2e bc fc 34 33 bb 59 0e b6 38
       -0.0022620154 -0.010648139 -0.0027344814 8.681109e-05
000090 65 e3 01 bc 03 7c 65 bb 55 60 c6 ba fc 9e 8e bb
       -0.00792775 -0.0035016544 -0.001513491 -0.0043524485
0000a0 2b 2c d0 bb be 5c a4 bc e6 87 79 bc e4 42 10 bb
       -0.0063529215 -0.020063754 -0.015230155 -0.0022012526
0000b0 ec d8 e2 3a ec 2f 0a bc a5 92 24 bc 4c fe 84 3b
       0.0017307079 -0.008434277 -0.010044728 0.004058635
0000c0 13 b7 d3 ba 8e e6 a7 bb 28 32 33 bc 14 d5 f3 bb
       -0.0016152583 -0.00512392 -0.010937251 -0.0074411724
0000d0 1e d2 ae bb 05 ec 4c bc 59 90 40 bc 00 20 b8 bb
       -0.0053351065 -0.012507443 -0.011753165 -0.005619049
0000e0 e3 96 d6 3b 2f 92 53 bc c7 49 0d 3d 4e cb 19 3b
       0.006548749 -0.012913271 0.034494188 0.0023467126
0000f0 00 00 00 00 b8 0d 74 bc c6 de ec ba d0 c1 9d bc
       0.0 -0.014895849 -0.0018071763 -0.019257456
000100 aa 88 3c bb f5 cd 0b b8 5f 53 86 3c a1 56 ed bb
       -0.0028767982 -3.3331995e-05 0.016397176 -0.007242993
000110 ca 04 02 bc d1 b1 ef bb c5 a6 80 3c 32 47 46 bc
       -0.007935712 -0.0073148985 0.015704522 -0.012101935
000120 03 d4 2d bc 41 b6 5d bc 00 00 00 00 cf 42 90 bc
       -0.01060963 -0.013532222 0.0 -0.017609982
000130 00 00 00 00 fb 7d ac bb 41 f7 48 bb 61 28 a4 3c
       0.0 -0.0052640415 -0.0030664953 0.020038785
000140 00 e1 1c bc 12 5d 67 bb 8e 09 7e ba 67 cb 61 bb
       -0.009575129 -0.0035303277 -0.0009690755 -0.0034453513
000150 cb 61 97 bc ac bb cb bb cf 8d c2 b9 00 00 00 00
       -0.018479249 -0.0062174406 -0.0003710822 0.0
000160 20 95 13 3c 46 b4 ef ba ee 60 2d bb 01 98 ba 3c
       0.009007722 -0.0018287979 -0.002645548 0.02277756
000170 d8 36 26 bc 48 1b ca 39 ab c4 9e bb 77 72 9a bb
       -0.010144912 0.00038548768 -0.004845222 -0.0047133523
000180 43 99 c6 ba ee e3 4c bc b1 d3 72 bc c9 a7 4f 3c
       -0.0015151877 -0.012505515 -0.014820979 0.01267428
000190 44 2b 14 bc 8b 5f c6 3c 6f 64 93 bb 00 00 00 00
       -0.009043518 0.02421548 -0.0044980566 0.0
0001a0 00 00 00 00 40 81 9e bc e0 63 4a bb 7c f7 0f 3b
       0.0 -0.01934874 -0.0030882284 0.002196758
0001b0 a1 bf 4f bc 55 10 b8 ba 48 40 3b bb 66 40 d6 bb
       -0.012679965 -0.0014042953 -0.002857225 -0.0065384386
0001c0 0f 18 b9 ba 71 dc 52 bc 3b 35 e4 bb 00 00 00 00
       -0.001412155 -0.01286994 -0.0069643534 0.0
0001d0 60 41 35 bb b6 73 3d 3c 00 00 00 00 fb d1 ac b9
       -0.0027657375 0.011563232 0.0 -0.00032962844
0001e0 68 e1 d2 bb fc c0 45 39 75 a7 25 b9 e9 1b 76 bc
       -0.006435562 0.00018859276 -0.00015798009 -0.015021303
0001f0 1d 64 5c bb 09 a1 b3 bb 15 42 5f bb fd d3 66 bc
       -0.0033629008 -0.0054818434 -0.0034066488 -0.014088628

weight f4 [128, 128]
000000 e4 82 f1 bd 48 f4 49 3d 05 b1 0b be b1 ae 85 3d
       -0.117925435 0.04930523 -0.13641746 0.0652746
000010 3a a1 02 be 6a 85 b4 bd d0 4f ba bd 7b b9 c0 3d
       -0.12756816 -0.08814509 -0.09097254 0.094103776
000020 75 d3 e7 bd 44 f4 e5 bc e7 26 a3 bd 45 12 df 3d
       -0.11319629 -0.028070576 -0.079664044 0.108921565
000030 82 e8 bc 3c 46 e3 da 3d 39 a7 93 3d 93 67 4f 3d
       0.023060087 0.1068788 0.072096296 0.050635885
000040 7e 30 08 be c1 d6 50 3d 67 d0 50 bd 7e f1 40 bd
       -0.13299748 0.050986055 -0.050979998 -0.047105305
000050 d6 0a 85 3d 7d 3f 77 3c 5d 72 96 bc 76 6e b2 3d
       0.064962074 0.01509082 -0.01836508 0.08712475
000060 66 84 c6 3d ea 9e c4 3d 17 0b a5 bd 5d cb d9 3d
       0.09693222 0.09600623 -0.08058756 0.106344916
000070 24 55 8c bd bd 9f d3 bc 3e 2e f8 3d 01 5d ef 3d
       -0.06852177 -0.025833005 0.12118195 0.11687661
000080 49 d4 a3 3d 9c 6a e1 3d cc 28 1c be 06 09 38 bd
       0.079994746 0.11006662 -0.15249938 -0.04493048
000090 18 1e 08 3e 71 cc a5 3d be de a2 bd 3c fa bd 3c
       0.1329273 0.08095635 -0.07952641 0.02319061
0000a0 de c5 c8 3d d6 da ff 3d 7a 89 41 bb 8b aa 5a bd
       0.09803365 0.124929115 -0.0029531405 -0.0533853
0000b0 c0 01 00 be 59 55 cd bd a9 ed 6a 3d 6d dc 96 3d
       -0.12500668 -0.100260444 0.057355557 0.07366262
0000c0 f0 e3 c4 3d 8a 62 f6 bd 20 86 05 bd 42 0e 86 3c
       0.09613788 -0.120305136 -0.032598615 0.01636422
0000d0 b2 6d 4b 3d cc 86 56 3d 2b 08 c3 3d 5c 8f e1 bd
       0.04966516 0.052374646 0.09523042 -0.11013672
0000e0 d1 bf 72 bd c0 2b ab 3d 60 9a 08 3e ae 7e 00 3d
       -0.05926496 0.08357954 0.1334014 0.03137081
0000f0 71 22 7f bd 16 e0 73 bd de 9f db bb 39 6e 09 be
       -0.062288705 -0.059539877 -0.0067024073 -0.13420953
000100 c6 b0 06 be 3e f0 0e be c4 d1 34 bd 1f 37 ae 3d
       -0.13153371 -0.13958833 -0.04414536 0.08506607
000110 9b 3d 07 be 48 40 8f bc cd 06 fc ba 50 9a b3 bb
       -0.13207094 -0.017486706 -0.0019228101 -0.005481042
000120 19 6f 0b be 32 e5 0d 3d 5a da cc 3b 48 a6 f9 3c
       -0.13616599 0.034642406 0.0062516155 0.030474797
000130 19 fa 46 bd 9e 16 a4 3d 8c c1 63 3d 7c 57 d6 bd
       -0.048578355 0.080121264 0.055604503 -0.10465905
000140 4f 55 a7 3c 4a f5 ed bd 38 20 a6 3d f2 27 14 be
       0.02042642 -0.11619051 0.08111614 -0.14468363
000150 10 13 0d be 0f 12 cd bd 6b 57 d7 3d 0d fb b8 3d
       -0.13776803 -0.1001321 0.105147205 0.09032259
000160 93 d5 8b bd 80 a4 1a be d3 93 68 bd 66 0e 0d be
       -0.068278454 -0.15101814 -0.0567816 -0.13775024
000170 d8 3b 77 bc 13 69 b6 bd 70 ec d1 bd f8 fe 0d be
       -0.015089951 -0.0890676 -0.10250175 -0.13866794
000180 77 a0 5c 3d 05 8c 0b 3d c1 07 81 bd 7d f7 f0 3d
       0.05386397 0.03406908 -0.06300307 0.11765955
000190 4d 77 e9 3d 8a 12 ef 3d fc b9 8a bd 74 15 c2 b8
       0.11399708 0.11673458 -0.06773755 -9.254637e-05
0001a0 d5 41 98 3d 9a ff f6 3d 92 be d9 bd 67 bb 0c be
       0.074344315 0.12060471 -0.106320515 -0.13743363
0001b0 37 88 e1 bb db f0 ad 39 90 b0 12 bd 7b 74 13 3e
       -0.006882693 0.00033176583 -0.035812914 0.14399903
0001c0 08 e6 b7 3d 23 db cc bd 6f 7a 9b 3c 1e 0b 5b bd
       0.08979422 -0.100027345 0.01897928 -0.0534774
0001d0 d7 7c 17 bc a6 18 52 3d 4b ea 03 3d fc e9 f6 3d
       -0.009246073 0.051293038 0.03220586 0.12056348
0001e0 12 28 5c 3d df 36 fa bc 00 40 31 bd 8c 91 06 3e
       0.05374915 -0.030543743 -0.043273926 0.13141459
0001f0 a3 8d b0 3d 34 cf 09 be bf 86 9b bd 8d 07 0d be
       0.08620765 -0.13457948 -0.0759406 -0.13772412
000200 59 ea 91 3d 5d 8e e6 ba b3 ea c5 bd d1 ef 10 3d
       0.071247764 -0.0017590035 -0.09663906 0.035384957
000210 92 c5 de 3d f4 89 a2 3d 59 58 c8 bd 91 b3 bc 3d
       0.10877527 0.07936469 -0.09782476 0.09213937
000220 04 63 52 bc fe 78 dd 3d 60 cf 3e bc 6c db 2f 3d
       -0.01284099 0.10814093 -0.011646122 0.042933866
000230 4f 5c f3 3c f5 f0 4b bc ea 5b 4d bd df 8b 92 bd
       0.029707102 -0.012447585 -0.050136484 -0.071555845
000240 d1 bc e5 bd 32 02 fa 3d 29 0f 06 3e b8 d2 02 be
       -0.112176545 0.1220745 0.1309172 -0.12775695
000250 9f 4e f3 3d 70 60 b4 bd 50 9d b2 3d e5 e0 f1 3c
       0.1188023 -0.088074565 0.08721411 0.029526183
000260 99 6b 5e bd 6a 4e 14 be 73 e9 68 3d b4 af 17 3d
       -0.054301832 -0.14483038 0.05686326 0.037032798
000270 34 e1 24 bd 75 00 7c 3d 02 f0 f1 bd 36 68 09 be
       -0.040253833 0.061523873 -0.11813356 -0.1341866
000280 3c c0 ab bd e1 e7 9f bc 94 71 b7 3d 3d 3f 4a 3d
       -0.08386275 -0.019519748 0.0895721 0.049376715
000290 f8 82 08 bc c3 db 6f bd 98 69 a6 3d 72 64 0f bd
       -0.008332007 -0.05855919 0.08125609 -0.0350079
0002a0 4b d5 13 bd 14 45 38 bd d6 90 01 be 9c 11 84 3d
       -0.036092084 -0.044987753 -0.12652907 0.06448671
0002b0 dd 4e 12 bd 8f c9 08 be 43 99 83 bc 74 2a b9 3d
       -0.03571974 -0.13358139 -0.016064292 0.090413004
0002c0 7f 65 bf bd fb 06 9a bd 21 68 00 3d 08 b2 0f 3e
       -0.09345531 -0.07520863 0.031349305 0.14032757
0002d0 6e 1b 6e bd 6a f6 07 3d 29 98 d6 bd eb 83 97 bd
       -0.058131628 0.033193983 -0.10478241 -0.07398208
0002e0 5b 63 d1 3b 88 d3 00 be 48 74 22 3e 8e 86 04 3d
       0.006390018 -0.12580693 0.1586467 0.032354884
0002f0 d1 7a c0 bd ed ff 1a be d7 95 9e 3d cf ed 24 bd
       -0.09398425 -0.1513669 0.077434234 -0.040265854
000300 3d 6d 01 be 57 1f a5 3d 41 18 42 bc 81 60 5c bc
       -0.12639327 0.08062618 -0.011846603 -0.013450743
000310 f2 71 d3 3d 79 a1 dd 3d a9 93 0b be b1 c8 41 3d
       0.10324468 0.10821814 -0.13630547 0.047310535
000320 ef 8f 39 3c 3e f2 49 3d 45 3b 4a 3d e7 dc 96 bc
       0.01132582 0.049303286 0.04937293 -0.018415881
000330 c6 78 b4 bd 69 0d a6 bb 00 a5 a9 bc b8 6e 57 3d
       -0.08812098 -0.0050675166 -0.020708561 0.052595824
000340 ee f8 8f 3d 92 a5 84 bd ad 8f 87 3c cb cb a9 bd
       0.070299014 -0.064768925 0.016548002 -0.082908235
000350 2f fe bb 3d e8 0f 3d 3d 75 c0 c9 bd dc b1 01 3e
       0.09179341 0.046157748 -0.098511614 0.12665504
000360 2f b0 c9 bc 61 09 94 3c 2c 9b 7d bc 96 96 c9 3c
       -0.024620144 0.018070878 -0.01547889 0.024607938
000370 89 92 89 bd f5 13 5b 3d 0c 0a 75 3d 30 e9 9e bd
       -0.067174025 0.05348583 0.059824035 -0.07759321
000380 0d 2b 83 bd 2a a5 18 3e 3c 88 e5 3d ac b6 01 3e
       -0.06404696 0.14906755 0.11207625 0.1266734
000390 30 83 da 3d 4e 1d dc 3d 1f bf 99 3c 04 29 ed 3d
       0.10669553 0.10747777 0.018767891 0.11580089
0003a0 b8 c2 cd bd 7e d5 71 3c 7d 19 09 3d 31 d3 ea bc
       -0.10046905 0.014760373 0.033471573 -0.028665157
0003b0 80 a3 1c bd 06 69 64 3d 0c 73 99 3d 62 8f 01 be
       -0.038241863 0.05576422 0.074926466 -0.12652352
0003c0 08 ec f2 bd f2 59 e6 bd 02 76 54 bd fb d6 72 bd
       -0.11861426 -0.112476245 -0.051870354 -0.059287053
0003d0 eb f6 15 be e7 6b fc bd 55 7e 9a bd 20 5b 0a bd
       -0.14644973 -0.12325268 -0.07543627 -0.03377831
0003e0 6f 32 0f be 1b 3c d4 bd 8f 34 1a 3e 20 8b 2f 3d
       -0.13984083 -0.10363027 0.15059112 0.04285729
0003f0 cd 48 9f bd 26 56 0d be 24 eb 1a 3d 3f df 01 3e
       -0.077775575 -0.13802394 0.037821904 0.12682818

bias f4 [128]
000000 fb 55 33 3b 09 9a d7 bb c4 5e 1c bb 77 cc 56 bc
       0.002736448 -0.0065796417 -0.0023860196 -0.013110272
000010 75 27 a8 bb 7e 15 c6 bc 3a 62 e3 bc 87 09 fb bc
       -0.005131657 -0.02418017 -0.027756799 -0.030644191
000020 c4 96 91 3c 81 ea 0a 3c aa f5 d2 3c c8 4f 4d bc
       0.017772086 0.008478762 0.025751907 -0.012531228
000030 d5 2c 06 bd 1a a1 0e bd 3d ec 60 bc 9e 45 56 3c
       -0.0327576 -0.034821607 -0.013728199 0.0130781215
000040 a4 37 63 bc 79 50 3d 3a a5 4e 8e bc 51 35 1d bd
       -0.013868246 0.0007221769 -0.017371485 -0.038380925
000050 d8 95 01 bc 6b 1f 3e bb 80 48 88 bc e3 bc 69 bc
       -0.007909261 -0.0029010426 -0.016636133 -0.0142662255
000060 55 66 e8 bb bd a1 ca 3c 24 69 68 bb 07 8b 5b 3d
       -0.007092277 0.024735326 -0.003546306 0.053599384
000070 ff c9 22 3d aa 3a 2d bc 2a 14 26 bd be 6d 86 bc
       0.03974342 -0.010573069 -0.040546574 -0.016409751
000080 4a c3 ef 37 aa cb 29 bc 80 a5 ba bc f0 5d 37 bb
       2.8581959e-05 -0.010363499 -0.022783995 -0.0027979575
000090 c3 3a 2b bd 5d 6d 43 bc 43 24 02 3a 1a 01 29 bd
       -0.041804086 -0.01192793 0.000496451 -0.041260816
0000a0 2f 51 e9 bc 7b 06 af ba 68 bb 83 bc 2a 0a 2c bb
       -0.028481094 -0.0013353372 -0.016080573 -0.0026251175
0000b0 a1 66 0c bd 16 15 7c bb c6 00 21 bc 4e 38 55 3c
       -0.034277562 -0.0038464717 -0.009826845 0.013013912
0000c0 bb 80 4f bc 8c 82 ab bc 65 4e a6 3c b1 70 59 bc
       -0.012664969 -0.020936273 0.020301053 -0.013271497
0000d0 e3 0b 86 39 f8 c6 b2 3c d4 e0 65 bc 93 3f 8c bc
       0.00025567328 0.021823391 -0.014030654 -0.017120158
0000e0 aa ea da bb e7 09 87 bc 5f f3 f4 ba 85 60 e9 bc
       -0.006680806 -0.016484214 -0.0018688253 -0.028488407
0000f0 eb f7 e1 bc c1 14 be 3b 8f f6 fe 3b ea 26 9c 3c
       -0.027584037 0.005800814 0.007780857 0.019061524
000100 d8 4c ff bb 17 56 92 3b ca 47 ac bc 03 20 6e bc
       -0.007791143 0.004465829 -0.021030325 -0.014533999
000110 6e eb a8 bc 88 12 06 3c 09 55 ca bc b7 2e 1d bd
       -0.020620074 0.008183129 -0.024698751 -0.03837463
000120 74 8c 55 bc 11 d3 80 bb 79 86 6d ba b7 b1 f0 bc
       -0.013033975 -0.003931411 -0.00090608705 -0.029381616
000130 28 7c f5 bc 93 6c f4 bc 60 ab d4 bc f2 a9 7e bb
       -0.029966429 -0.029836928 -0.025960624 -0.003885862
000140 05 9a 14 3c 74 9d 77 3d 40 7c b7 bc bf 0c 37 bc
       0.009069924 0.060452893 -0.022398114 -0.0111724725
000150 23 32 36 bc 7b 4c d8 bc 28 11 44 bd 3f 7a 20 bc
       -0.011120352 -0.026403656 -0.047867924 -0.009794771
000160 dc 56 84 3d 21 90 6b bc 75 93 d6 bc 7a 8c 10 bc
       0.064618796 -0.014377625 -0.02619336 -0.008822555
000170 0b 31 32 bd 1c 4b 75 bc f8 cf eb bb 74 e6 9f bc
       -0.043503802 -0.014971521 -0.0071964227 -0.019519068
000180 9a 2b 3c bd 60 5c 4a 3b 21 c6 b0 bc 96 c0 42 3b
       -0.04594002 0.0030877814 -0.02157885 0.002971684
000190 04 0c c4 bc 48 3a 42 bc a9 7a e9 bc 3c ed de bb
       -0.02393151 -0.011854716 -0.028500872 -0.006803183
0001a0 de 58 2c 3d 26 9e 21 3c c9 a0 c4 bc 53 61 87 bb
       0.042076938 0.009864366 -0.02400245 -0.004131475
0001b0 e0 b2 9b bc 27 be 25 3b e3 41 d8 bc 1c a1 35 39
       -0.019006193 0.0025290342 -0.026398605 0.00017321523
0001c0 ef ed 11 bd 51 e1 12 bc 7c ef fb bb 83 38 c3 bc
       -0.0356273 -0.008964852 -0.007688461 -0.023830658
0001d0 83 3c 60 3d 56 10 91 bb 94 29 35 3d d2 42 3f bc
       0.05474521 -0.004426996 0.044229105 -0.011673646
0001e0 46 70 af 3c 7d 27 2f 3a 4f 5a 46 bb a2 2d d8 3b
       0.02141584 0.00066816044 -0.003026623 0.0065972367
0001f0 a6 a5 da 3c a0 d3 c7 39 35 9a 26 3d b7 db 94 bb
       0.026690315 0.0003811391 0.040674407 -0.0045427936

weight f4 [128, 128]
000000 3d e3 8f bd 65 70 09 bd 32 08 e4 bd 6f 64 a7 3a
       -0.07025764 -0.033554453 -0.11134376 0.001277102
000010 63 f8 16 be 15 76 0c be 53 36 0e be 02 48 dc 3d
       -0.1474319 -0.1371692 -0.1388791 0.10755922
000020 45 df f5 bd 2c b1 28 bc b3 f6 e1 3d 3e 6c 90 bd
       -0.12005476 -0.010296147 0.11033382 -0.070518956
000030 78 c6 a1 3d e3 bd d3 bd f0 77 c9 3c 8c b3 e5 bd
       0.07899183 -0.103389524 0.024593323 -0.112158865
000040 7f 4b bc bd d8 68 db 3c fd 39 a9 3d a9 57 86 3c
       -0.09194087 0.026783392 0.082630135 0.016399221
000050 aa 31 bc bd 8e 76 9e 3d 47 be 32 bd dd 05 00 be
       -0.0918916 0.07737456 -0.043638494 -0.12502237
000060 36 f5 29 3d 51 d2 b3 3b ce 7b d2 bd ee a7 12 3e
       0.041493617 0.005487718 -0.1027752 0.14321873
000070 4b 1c 8a 3c 03 2b b5 3c ae 7c f9 bd 31 89 05 be
       0.016859194 0.022115236 -0.12181984 -0.13040616
000080 a0 e6 96 bd e9 e1 e6 3c 50 21 3e bd e9 dc a5 3d
       -0.07368207 0.028183894 -0.046418488 0.08098776
000090 17 9f a8 3c 70 5c 69 3d 53 30 bf bd c4 f1 09 be
       0.020583672 0.05697292 -0.09335389 -0.13471133
0000a0 09 c0 e8 3d eb 54 92 3d 7e cf 81 bd af 40 04 be
       0.11364753 0.07145103 -0.06338404 -0.129153
0000b0 f3 cf ba bd e6 ac 79 39 95 e4 1b be 43 68 ab 3c
       -0.091216944 0.000238109 -0.15223916 0.02092374
0000c0 b7 64 d9 bd f2 50 af 3b be fd 0b 3e e1 e9 10 be
       -0.10614913 0.0053502256 0.13671014 -0.14151718
0000d0 8e 34 c8 3d 10 eb ce 3d e5 31 1a be df ce e5 bd
       0.09775649 0.10103428 -0.15058096 -0.11221098
0000e0 e0 8f da 3d c3 55 b8 3c 95 fd da bc c2 24 e3 bd
       0.10671973 0.022501832 -0.026732245 -0.11090995
0000f0 8a 27 cc 3d 42 82 ee 3c e2 f1 0f be 0a 18 f2 bd
       0.09968479 0.029114846 -0.14057115 -0.11820991
000100 7e e6 19 3e 82 e8 17 bd f2 1f f3 bd be 35 05 3e
       0.15029332 -0.03708697 -0.118713275 0.13008782
000110 26 b6 e5 3d 48 bf e7 3d e6 a3 d0 3d 26 a7 b1 3d
       0.11216383 0.11315781 0.10187511 0.08674459
000120 29 3b 9a 3a d7 a7 c6 bd 95 52 21 bd e8 90 db 3d
       0.0011766899 -0.09699982 -0.039385397 0.10720998
000130 94 8f e9 3c 31 f6 05 be 23 dd 7b 3d c4 ca 1e bc
       0.028510846 -0.13082196 0.06149019 -0.009691898
000140 c6 07 da 3c 74 d3 04 bd d2 b2 18 3e 32 3b 95 bd
       0.026615035 -0.03242822 0.14911965 -0.07286681
000150 3c 54 16 3e c5 a1 0e be 7f 6a 15 3e de bc 5b 3b
       0.1468057 -0.13928898 0.14591406 0.0033529322
000160 3f 09 9f 3d 13 39 02 3e a1 79 07 bd 43 22 ed bd
       0.077654354 0.12717085 -0.03307498 -0.115788005
000170 d1 c5 ae bd e7 43 e7 3d 0d ec e6 bb aa 82 0d be
       -0.08533824 0.11292248 -0.0070471824 -0.13819376
000180 3e aa dc bd 47 cd 89 3d ed 38 ab bd 3d e9 13 3e
       -0.107746586 0.06728607 -0.08360467 0.14444442
000190 d9 3d 2c bd 40 af bc 3d 36 18 ad 3d cd 44 3d 3d
       -0.04205117 0.09213114 0.084518835 0.04620819
0001a0 f1 c0 e9 bd 55 e1 6c bd 02 dd d8 bd da 5a ff bd
       -0.11413754 -0.05783208 -0.10589029 -0.124685004
0001b0 eb 5b 47 3d 0d f7 00 3e 4f 39 36 bd 6c a5 81 bd
       0.048671644 0.12594242 -0.044488247 -0.0633038
0001c0 cb 68 a1 3d 94 d1 98 3d 3b 77 7c 3d c2 8a 59 3c
       0.07881316 0.07461849 0.061637145 0.013277711
0001d0 2f f6 28 bd a7 9c 00 3e bd 09 89 3d 54 8f 90 bd
       -0.041250404 0.12559758 0.066913106 -0.07058588
0001e0 2c 32 86 3d 76 34 02 bd 23 76 eb 3d ad bf 0f 3e
       0.06552538 -0.031788312 0.11497142 0.14037962
0001f0 dc 77 c5 3b 43 9d a1 bd a7 fa c7 3c 49 89 87 bd
       0.0060262512 -0.078913234 0.024411513 -0.06617982
000200 e3 14 6a bd 4b 2e fd bd bb 15 86 3d 2d f0 6b bb
       -0.057148825 -0.12362345 0.065471135 -0.003600131
000210 9e f0 21 bd 4d 6d 03 be 5f a3 e0 3d 5f aa 12 be
       -0.03953611 -0.12834664 0.109686606 -0.14322804
000220 4f 52 fa bc 55 4c 1a 3e 0f 0c 7c bd 5e f2 67 bd
       -0.030556826 0.15068181 -0.061534937 -0.056627624
000230 c4 6c 9a 3d 9a f8 eb 3c ee 59 0d bc ef 3c 29 bd
       0.07540277 0.028805066 -0.008627398 -0.041317876
000240 7e fe 50 3c cd 99 93 bc d8 31 ad 3d be c4 86 3d
       0.012755988 -0.018017674 0.084567726 0.06580494
000250 97 e0 12 bd b1 70 d7 bd ae 2b 12 be f4 6b d3 bc
       -0.035858717 -0.10519541 -0.14274475 -0.025808312
000260 0e 58 30 bd eb 7e 07 3e 6e 10 09 3e 51 f1 18 3e
       -0.043052725 0.13232009 0.13385174 0.14935805
000270 e0 69 13 3e 0d 3d af 3d 5d 77 af 3d 74 00 b0 3d
       0.14395857 0.085565664 0.085676886 0.085938364
000280 6e 8c d2 39 ae 4e 2b bd 46 53 91 3b e4 81 56 3d
       0.0004015895 -0.04182308 0.004434976 0.052369967
000290 70 00 9b 3b 9f 9b 54 3d 7e 35 fb 3d 5d 08 92 3c
       0.0047302768 0.051906224 0.12266062 0.017826254
0002a0 e8 6f e2 3d 1b 7a 7a bb 4c 18 ad 3d a4 df 17 bd
       0.11056501 -0.0038219753 0.084519 -0.037078515
0002b0 16 b2 56 3d ac c9 b7 3d b5 7f 6d 3d 39 f6 63 bb
       0.05241593 0.08974013 0.05798312 -0.0034784211
0002c0 5a 49 2a bd 2d 54 6a bd 8f 29 19 bd 9c 13 12 be
       -0.04157386 -0.057209183 -0.03739315 -0.14265293
0002d0 d7 63 38 3d 71 0e 2b bd 50 43 6f bd 08 01 c6 bd
       0.04501709 -0.04176182 -0.058413804 -0.096681654
0002e0 96 42 f5 3d b8 db b0 3d d6 0e 0e be 95 af 0c 3d
       0.11975591 0.08635658 -0.13872847 0.034347136
0002f0 62 c4 19 be 7b d4 05 3e 34 d2 e9 bd 53 dd 10 3e
       -0.1501632 0.13069336 -0.11417046 0.14146928
000300 9b 6c 7e 3d 16 39 17 be 35 0b fd bd d7 75 cc bb
       0.062115293 -0.1476787 -0.12355653 -0.0062396335
000310 cf e5 87 3b f3 ca 9b 3d ea fd c2 bd 45 77 8f bd
       0.0041472684 0.07607069 -0.095210865 -0.07005171
000320 5b 8a b2 bd af 2f f0 3d bc 96 0a 3b c2 59 e1 bd
       -0.087177955 0.11727845 0.0021146974 -0.11003448
000330 75 92 98 3d b3 c4 d5 bb c9 8b ce bd 32 e2 c0 bd
       0.074498095 -0.0065236925 -0.10085256 -0.09418143
000340 a1 05 9a 3d 12 5f 77 3d d7 e1 76 3d b7 68 ee bd
       0.07520605 0.0603934 0.06027397 -0.116410665
000350 fc 9a 35 bd 0f 18 94 3d fd bd 48 bb cf 07 f7 3c
       -0.044337258 0.07231151 -0.003063082 0.03015509
000360 ef 37 d3 3d 53 67 14 be e7 48 3c 3c 3f 16 8b bd
       0.10313403 -0.1449254 0.011491991 -0.067913525
000370 b1 bd 10 3e 88 ff 6b bd 76 59 16 3d dc 06 13 3e
       0.14134862 -0.05761674 0.03670641 0.14358085
000380 29 d2 f3 bc c4 fb b6 bc 08 5c 08 be 0e 65 8d 3d
       -0.029763298 -0.022336848 -0.13316357 0.0690404
000390 80 34 f2 bd 03 3c 73 3d 23 1d c1 3c c6 e8 fe bd
       -0.1182642 0.059383404 0.023573464 -0.12446742
0003a0 21 fe 0f 3e 99 3a d1 bb ad 68 07 bc 38 63 8a 3d
       0.14061786 -0.006385159 -0.008264703 0.06757206
0003b0 2b c8 67 3d 15 bf 15 3e 39 c0 fc 3c 8c 3f dc bc
       0.05658738 0.14623673 0.030853378 -0.02688577
0003c0 9f 45 10 3e 6f 93 58 3c 8d ad c2 bd e7 e9 06 3e
       0.14089058 0.013218745 -0.095057584 0.13175164
0003d0 fb 70 e4 bd 6c fc af bd c4 ae cd 3d 81 32 12 bb
       -0.11154362 -0.085930675 0.100430995 -0.0022307935
0003e0 33 30 04 3d 8e 19 0a be 01 93 bf bc 17 62 07 bd
       0.03227253 -0.13486311 -0.023385527 -0.03305253
0003f0 54 e3 01 bd 56 cd 00 be 99 00 18 3e 0d 3a c8 bb
       -0.031710938 -0.1257833 0.14843978 -0.006110436

bias f4 [128]
000000 42 b7 9c 3b b8 68 60 3d dd 2e 13 ba fb 18 56 bd
       0.004782588 0.054787368 -0.0005614588 -0.052269917
000010 4c a0 b1 bc 5f 1d 95 ba 8c 31 4a bd 66 cb 3f bd
       -0.02168288 -0.0011376551 -0.049363658 -0.046824835
000020 1c 5b e3 bc 12 d1 ec 3c c9 7f 3a bd 86 a9 3a bd
       -0.027753405 0.028908286 -0.04553202 -0.045571826
000030 63 a7 61 bd 04 24 10 bc c3 b9 a7 bd 4c b6 a8 bc
       -0.055091273 -0.008797649 -0.08189728 -0.020594738
000040 a5 b5 26 3d 3c ea 2e bd 54 0e 65 3b 92 e0 15 bd
       0.040700573 -0.042703852 0.0034951167 -0.03659112
000050 d1 64 30 bc 22 3a e5 bc 05 af 49 bd d7 5e 29 bd
       -0.010766224 -0.027981821 -0.049239177 -0.041350212
000060 41 a7 bd bc 6b fa 98 bd ad ec b3 bc 27 f6 3c bd
       -0.023151042 -0.074696384 -0.021963442 -0.046133187
000070 2b 2c 64 bd 46 8e 5a bb b2 05 1a 3b 33 d9 56 bd
       -0.055706184 -0.0033348962 0.002350193 -0.05245323
000080 53 95 a6 3c 0a ff b0 bd 02 19 f5 3b b2 1a a5 3d
       0.020334875 -0.08642395 0.007479788 0.08061732
000090 4e f0 65 bd 93 16 1f bc b8 6a 11 bd 0a 73 55 bd
       -0.056137376 -0.009709972 -0.035502166 -0.052111663
0000a0 a9 e0 81 3d 70 17 82 3d f3 14 3d bd 8a 4e fd bc
       0.06341679 0.063521266 -0.046162557 -0.03092124
0000b0 13 d1 48 bd 89 b8 fe bb 70 29 90 bd c7 3f 24 bd
       -0.049027514 -0.007773463 -0.070391536 -0.040099885
0000c0 75 e5 fc 3c 9b 74 cd bc 27 ec d0 3d da 97 4d bd
       0.030871132 -0.025080016 0.102012925 -0.050193645
0000d0 b4 c9 36 3d 06 8e 5d bd be 02 f5 bc 34 1d 4b bd
       0.044625953 -0.054090522 -0.029908534 -0.049588397
0000e0 b6 48 e2 bc b1 ce 73 bc ee 28 14 bd 25 eb 15 bd
       -0.027622562 -0.014880822 -0.036171846 -0.036601204
0000f0 0e e0 d0 3d 8b b4 95 bc 10 17 3e 3d b7 c9 35 3b
       0.10198985 -0.018274566 0.046408713 0.002773864
000100 5f d6 2f bb ca 9c d3 bc 3a af dd bc 48 10 53 bd
       -0.0026830656 -0.025831599 -0.027061094 -0.0515292
000110 d2 69 78 3b f9 18 82 bd 68 33 3c bd 0a 5a 86 bd
       0.003790487 -0.063524194 -0.045947462 -0.06560142
000120 54 ba 28 bc 3f fc 21 bd 0b ad ee bc 13 9f 6d 3d
       -0.01029833 -0.0395472 -0.029135248 0.058013033
000130 df fe 9e bc 2d 53 4b 3c 81 83 88 3d 3c 89 ae bd
       -0.019408641 0.012409967 0.066657074 -0.08522269
000140 5b 70 18 bd 98 61 8a 3d 80 83 1c 3c 8d 2f aa bc
       -0.037216526 0.06756896 0.009552836 -0.020774627
000150 f9 b8 35 3d dd 98 97 bd fc fd eb bc 71 9c f7 3c
       0.044365857 -0.07402203 -0.028807633 0.030225964
000160 fc 9a 89 bd 56 37 fb bc 07 68 8b bb fd dc e3 3b
       -0.06719014 -0.030666035 -0.0042543444 0.006953834
000170 db 24 cc bc 28 1e ad bb 82 b8 1c 3d 1e 79 d4 3c
       -0.024919918 -0.005283136 0.038261898 0.02593666
000180 b0 63 1c bd c2 5c eb 3d 68 47 24 bb 97 02 06 bd
       -0.038181007 0.114923015 -0.0025066976 -0.032717314
000190 5c 01 10 bc bd 70 c2 3c bb f9 f0 bc e1 fd e0 3c
       -0.008789387 0.023735398 -0.029415956 0.027464809
0001a0 36 a6 5e 3c 46 4c 14 bd f2 1d 18 bd 1d 3b 12 3d
       0.013589432 -0.036205553 -0.037137933 0.035700906
0001b0 36 ee f2 bb d6 58 2d bd af 58 2c bd 7a ec b3 3c
       -0.007413651 -0.04232105 -0.042076763 0.021963347
0001c0 5f a1 2b bd 08 55 62 bd 51 c5 b1 3d f9 a8 ee 3c
       -0.041901942 -0.055256873 0.08680213 0.029133307
0001d0 28 87 8f bb 0e 3f 95 bd a1 e2 5a bc ae 43 56 bd
       -0.0043801256 -0.07287417 -0.013359697 -0.052310638
0001e0 12 29 da bc 37 3d a4 ba 2a bb c2 bc 21 2a c4 bb
       -0.026630912 -0.001253045 -0.023770887 -0.0059864675
0001f0 36 5b fc bc 02 27 01 3d 7f 96 63 bd 12 61 a8 bc
       -0.030805212 0.03153134 -0.055563446 -0.0205541

weight f4 [128, 128]
000000 b0 fb ce 3a c3 f8 2a 3c eb 28 58 3d 35 52 34 bd
       0.0015791561 0.010435286 0.052773397 -0.04402371
000010 48 40 92 bd fd c6 b8 bb f0 3e 4d 3c 42 9e 2f bd
       -0.07141167 -0.0056389556 0.0125272125 -0.042875536
000020 66 18 52 3d fe be 95 3c 11 40 d1 bd 86 f6 ee 3d
       0.0512928 0.018279549 -0.10217298 0.11668114
000030 6a 52 28 bb 83 e6 1b 3e 5e 64 cd 3d ae eb 7e 3d
       -0.0025683888 0.15224652 0.10028909 0.06223648
000040 76 fd 1d be 53 31 f7 bd 68 c8 a8 3c 85 f2 eb bd
       -0.15428719 -0.12069955 0.020603374 -0.11520866
000050 37 be c1 3d bb 4d 65 3d 7b a6 06 3e 4f 9b f0 bd
       0.09460109 0.055982333 0.13149445 -0.11748373
000060 d3 15 f7 3a 92 0b 05 3e 0a 92 31 bd 1e 0c 96 3b
       0.0018851109 0.12992695 -0.043352164 0.004579081
000070 e1 4c 46 3c a2 01 0d 3e 25 d6 12 bd 43 29 47 bd
       0.01210329 0.13770154 -0.035848755 -0.048623335
000080 13 98 fe 3d fc cc 4a bd 41 53 f6 3d e8 21 08 3d
       0.124313496 -0.049511895 0.12027598 0.03323546
000090 13 c8 de 3d 08 d5 1a bd 7b d2 bc 3d be cb cf 3c
       0.10878005 -0.03780082 0.092198335 0.025365707
0000a0 c3 a0 f9 3d f8 f0 2a 3e 39 c7 ae bd 4f 3e a9 3c
       0.12188866 0.16693485 -0.085340925 0.020659594
0000b0 64 47 85 ba dc 46 06 3e d7 50 b2 3d e8 d0 1c 3b
       -0.0010168371 0.13112968 0.08706825 0.0023928229
0000c0 00 83 9e 3d 3b 85 56 bd 29 3a 16 be 29 af f1 3d
       0.0773983 -0.052373152 -0.14670624 0.11800987
0000d0 86 58 93 bd a6 c3 02 be 0c 54 0c be 47 ea cf 3d
       -0.07194619 -0.12769946 -0.13703936 0.10152107
0000e0 cc 7c c2 3d ae 60 00 3e b2 06 11 3e 35 b0 d6 bd
       0.09496459 0.1253688 0.1416271 -0.104828276
0000f0 53 9e 08 bc b8 a7 ae 3d ad 1d 21 3e aa ab b4 3c
       -0.008338529 0.085280836 0.15733977 0.022054512
000100 bc 69 fe 3d f1 17 1b 3e 6d 62 87 3d da c1 98 bd
       0.12422511 0.15145852 0.0661057 -0.07458849
000110 ba de 92 3d cc be 03 3e 38 44 0c be 9b a0 f0 bd
       0.07171388 0.12865752 -0.13697898 -0.11749383
000120 9a c0 11 3e 07 0f 0b bd 88 10 85 bd cd 82 17 3e
       0.14233628 -0.033949878 -0.06497294 0.1479599
000130 40 42 e6 bd 7e 06 84 3d c0 5b 95 3c 20 1e 71 bd
       -0.11243105 0.06446551 0.018232226 -0.05886662
000140 77 fd e8 3d 9d a7 93 bd 96 b7 0e 3d 16 59 bd 3d
       0.113764696 -0.07209704 0.03484305 0.092455074
000150 6b 30 c7 3d e7 25 93 bd 0d 59 e3 bd c4 23 cf bd
       0.09726032 -0.07184964 -0.111009695 -0.101142436
000160 04 6a ff bd 9d 58 18 3e ac d9 c2 bb e9 1d 15 bd
       -0.12471393 0.14877553 -0.0059463587 -0.036405478
000170 8a 05 80 bc db 12 a1 3b ae 56 e8 3c 5b 5e 86 bd
       -0.015627641 0.004915578 0.028361645 -0.065609656
000180 a3 de cb ba 0c 64 80 bc fd 31 5c 3d 72 e7 84 bd
       -0.0015554022 -0.015672706 0.05375861 -0.06489457
000190 ab c4 96 bd b1 89 e5 bd e4 45 c2 3d ce 63 ae bd
       -0.0736173 -0.11207903 0.09485987 -0.0851513
0001a0 53 3c e2 bd f7 9c c7 bd 33 64 82 bd 4f 75 f2 3d
       -0.11046662 -0.097467355 -0.06366768 0.11838781
0001b0 be 43 b6 3d da 70 a0 bd 1f b2 33 3d c5 ce e5 3d
       0.088996395 -0.07834025 0.04387104 0.11221079
0001c0 50 70 bc bb 01 de 5a bd 8a 51 d9 3c a9 bc 01 3e
       -0.0057506934 -0.053434376 0.026528139 0.12669624
0001d0 da a7 9c 3b 1b 2b a7 3a de 38 f4 bc 20 5b 0a 3e
       0.0047807517 0.0012753935 -0.029812273 0.13511324
0001e0 2f c4 ae bc 7e a1 25 3e fe c8 cb 3b 61 aa 09 be
       -0.021333782 0.16174886 0.0062190285 -0.134439
0001f0 18 eb 7d bd 1c e1 bc bc 47 5c 45 bd 7a c6 7c 3c
       -0.06199178 -0.02305656 -0.048183706 0.01542818
000200 1f 2c 15 bd 55 e6 ea 3d 17 f3 d0 3d 1d 3e 02 3d
       -0.03641903 0.114697136 0.10202616 0.031797517
000210 4a c4 c2 bc df e4 19 be 96 ad 8b 3d 3d 0a b1 bd
       -0.023775239 -0.15028714 0.06820218 -0.08644531
000220 28 84 15 3e 8f 8f d3 bd 2a 27 77 bc ee 4d 10 3d
       0.14601195 -0.10330116 -0.015085021 0.03523057
000230 01 25 47 bb 5d 83 46 3c ce 00 9d 3d ce 1a 73 3d
       -0.0030387046 0.01211628 0.07666169 0.059351735
000240 f8 3d 8d bd 2d 8e 70 3d 65 cb 0f 3e 67 66 0c 3d
       -0.06896585 0.05872934 0.14042433 0.034277346
000250 f9 18 55 3d c1 27 a2 bd 59 b3 8d 3d 5a f6 42 bd
       0.05202577 -0.07917739 0.069189735 -0.04759822
000260 80 66 79 3d 94 d9 5c 3d 9c 2a b4 3d 6e 47 40 3d
       0.060888767 0.053918436 0.087971896 0.04694312
000270 7f df bb bd 95 69 e0 bd 5d 63 93 3d a4 20 78 3d
       -0.09173488 -0.10957638 0.071966864 0.060578004
000280 7c 62 dd bd 0a a7 0d be 7f e1 b8 3d 4b c8 1a be
       -0.108098 -0.13833252 0.09027385 -0.15115468
000290 06 be 07 bd 55 d2 29 3d 18 77 c7 bb 87 8f e8 3d
       -0.033140205 0.041460354 -0.006087195 0.11355501
0002a0 67 e5 b8 bc f4 06 23 3d f4 62 c7 bd bd 8a 85 3d
       -0.022570325 0.039801553 -0.09735671 0.06520603
0002b0 cb 6a cb 3d 77 1e 03 3d 0d 8f 60 3b d8 6b 16 3e
       0.099324785 0.032011475 0.0034264952 0.14689577
0002c0 b4 d7 10 3e e4 d5 0c 3e 71 dc 1d be 01 25 cf 3d
       0.14144784 0.13753468 -0.15416123 0.1011448
0002d0 21 c4 8b bc bd 0b a3 bd c5 f0 c2 bd 34 fc 98 bc
       -0.017061295 -0.07961223 -0.095185794 -0.018674947
0002e0 7d 88 a6 3b 7e b1 16 be 6e cd bb 3d e7 39 13 be
       0.0050821886 -0.14716145 0.09170042 -0.14377557
0002f0 8d b7 b1 bd e4 bb 7e bd 58 69 0d be 27 b5 5a bd
       -0.08677588 -0.062190905 -0.13809717 -0.053395417
000300 37 17 fc bd 04 c9 90 ba 73 6a 8a bd 66 ce fe 3d
       -0.123091154 -0.0011046235 -0.06758585 0.12441711
000310 ac e6 24 bd 73 00 d7 bc 81 02 ab bc ea b1 e7 bd
       -0.04025905 -0.026245331 -0.020875217 -0.11313231
000320 8a fb 5f bb 6b 45 f5 bc 8a ee 04 3e 8b 03 7e bd
       -0.0034177029 -0.029940328 0.1298162 -0.062015098
000330 6f 93 18 bb 25 b1 0b bc d0 57 c8 3d 1e 54 9e 3d
       -0.0023281237 -0.008526121 0.09782374 0.07730888
000340 fc db f9 bd b6 fe 99 3d 35 91 f1 3d 50 d5 a8 bd
       -0.12200162 0.075192854 0.11795274 -0.08243811
000350 2e 62 62 3d 85 ed fb bc 19 ff 3e bd b4 61 5f bc
       0.055269413 -0.030752907 -0.04663 -0.013634134
000360 8d df f3 bd 40 38 6d 3d f3 46 fa bd 4e cb 3d bd
       -0.11907873 0.057914972 -0.12220564 -0.046336465
000370 6d b5 6d bd 4b 10 2f 3d 3f d3 bd bd 61 5c ce 3d
       -0.05803435 0.042740148 -0.092688076 0.10076214
000380 ff c0 fa bd 89 50 a8 3c b6 2b 28 3d 2e 54 8f bd
       -0.12243842 0.020546215 0.04105731 -0.06998478
000390 e1 e7 c1 bd 11 a2 af bd 7f a2 f3 bd a6 cf 14 bd
       -0.094680555 -0.085758336 -0.11896228 -0.03633084
0003a0 c8 ec 0d 3d c5 9a 82 3c 38 f8 54 bc 26 db e1 3d
       0.03464964 0.01594294 -0.012998633 0.11028127
0003b0 30 5c 5b bd 9a c0 12 be 70 ca 59 3d 6e 36 b1 bd
       -0.053554714 -0.14331284 0.053171575 -0.0865296
0003c0 b3 8c 15 3c 7c c7 fc bd c1 99 10 3c f9 05 f9 bd
       0.009127784 -0.12342736 0.00882572 -0.12159342
0003d0 fc 67 e8 3d 5e 6a 88 bd 28 b8 8d bd f8 12 64 bd
       0.113479584 -0.06660913 -0.06919891 -0.055682153
0003e0 88 f6 f7 3d 61 56 01 3d 7e a7 4c 3d 09 1a 25 3c
       0.12107569 0.031576518 0.04996442 0.010077008
0003f0 5c 58 be 3d c6 75 2e 3c 16 e2 0d 3e 48 22 a2 bd
       0.09294197 0.010648197 0.13855776 -0.07916695
