MAMRL-TE/Dynamic environments/Baselines/Random/ATT/task2/savemodels/baseline19.pth (torch, 1464 bytes, 1 tensors)

weight f4 [1, 18]
0	0xbf4f6293	-0.8100979
1	0x422f21cf	43.783016
2	0x3c2a8f89	0.010410198
3	0x3bfb16c6	0.007662627
4	0xbc7b2432	-0.015328454
5	0x3c91cb1e	0.01779705
6	0xbd012bab	-0.031535786
7	0x3d05a5fc	0.032629
8	0xc024ceec	-2.5751295
9	0xbb112427	-0.0022146793
10	0xbb42d99b	-0.0029731754
11	0xba48f767	-0.00076662604
12	0xbb31c664	-0.0027126307
13	0x3a987dbc	0.0011634151
14	0x3e8d1ef8	0.2756269
15	0xbc9caa45	-0.01912416
16	0x396b8cf2	0.00022463853
17	0xc2decb37	-111.396904
