MAMRL-TE/Dynamic environments/Baselines/Random/ATT/task2/savemodels/baseline1.pth (torch, 1464 bytes, 1 tensors)

weight f4 [1, 18]
-0.08536512 -0.26121688 -0.024718342 -0.029967137 -0.029336808 -0.037438374 -0.038533807 0.0034747797
0.016686814 0.0023391992 0.0029114091 0.0025705835 0.0032501728 0.0031531062 0.13878445 -0.014534133
0.00018625642 -72.37974
00000000: e8d3 aebd 38be 85be 1f7e cabc a47d f5bc
00000010: bf53 f0bc fb58 19bd a0d5 1dbd 21b9 633b
00000020: c9b2 883c 404d 193b 57cd 3e3b 3c77 283b
00000030: da00 553b 58a4 4e3b 831d 0e3e 9220 6ebc
00000040: d44d 4339 6dc2 90c2
