MAMRL-TE/Dynamic environments/Baselines/Random/ATT/task2/savemodels/baseline18.pth (torch, 1464 bytes, 1 tensors)

weight f4 [1, 18]
0	0x3c5c127c	0.013432141
1	0x3fb0358d	1.3766342
2	0xbb8e1c74	-0.004336888
3	0xbc41b363	-0.011822554
4	0xbc8a172d	-0.016856754
5	0xbc50930f	-0.012730374
6	0x3a67162b	0.0008815254
7	0x3a4b3895	0.0007752267
8	0xbe044dc8	-0.12920296
9	0xbad0ac0e	-0.0015920417
10	0xb95fbc74	-0.00021337142
11	0xb9281b22	-0.00016031836
12	0xba626d7a	-0.0008637529
13	0xbb0cb600	-0.0021470785
14	0xbd45c3b8	-0.048282355
15	0xbc0d6e91	-0.008632318
16	0x390ffbce	0.00013731347
17	0xc2764cd8	-61.575043
