MAMRL-TE/Dynamic environments/Baselines/Random/ATT/task2/savemodels/baseline23.pth (torch, 1464 bytes, 1 tensors)

weight f4 [1, 18]
0	0x3e069c1e	0.13145491
1	0xbff91d9f	-1.9462165
2	0x3efb9a78	0.49141288
3	0x3e4a5619	0.19759406
4	0x3f81b3f5	1.0133044
5	0xbe92b3f9	-0.28652933
6	0xc0d12116	-6.535289
7	0xbbce2798	-0.006291341
8	0x3d850074	0.06494227
9	0xbdd6d2c9	-0.10489423
10	0xbdd53c45	-0.10411886
11	0xbeee6f96	-0.46569508
12	0xbdc8977a	-0.09794517
13	0x404baaa3	3.1822898
14	0x3d8f0dfc	0.06985089
15	0xbc5074f5	-0.012723197
16	0x393995c3	0.00017698765
17	0xc26d698c	-59.353073
