MAMRL-TE/Dynamic environments/Baselines/Random/ATT/task2/savemodels/baseline3.pth (torch, 1464 bytes, 1 tensors)

weight f4 [1, 18]
-0.033299837 1.3985927 0.10680307 0.10197638 0.11014157 0.06098646 0.09915668 0.0017693726
-0.07683755 -0.012209312 -0.0116694635 -0.012620427 -0.0038511523 -0.011140768 0.13778378 -0.013769563
0.00017973073 -78.8264
00000000: 6965 08bd 1605 b33f 91bb da3d fed8 d03d
00000010: e791 e13d f0cc 793d a812 cb3d 4bea e73a
00000020: 015d 9dbd 9109 48bc 4731 3fbc e8c5 4ebc
00000030: 9d63 7cbb c587 36bc 3117 0d3e bc99 61bc
00000040: 1a76 3c39 1ea7 9dc2
