MAMRL-TE/Dynamic environments/Baselines/Random/ATT/task2/savemodels/baseline8.pth (torch, 1464 bytes, 1 tensors)

weight f4 [1, 18]
000000 d6 60 0a 3e 10 f3 15 bf 31 0a 65 3e 3d b9 80 3e
       0.13513502 -0.5857401 0.22367169 0.25141326
000010 13 e8 69 3e 64 5b 8d 3e 2c e9 90 3e 53 57 d2 bb
       0.22842436 0.27608788 0.28302896 -0.0064191013
000020 2c 5c 7d 3c 43 47 20 bd 4c 45 37 bd 87 64 26 bd
       0.01546387 -0.03913046 -0.04474382 -0.040623214
000030 f5 78 54 bd c8 9b 4f bd 87 8f 83 3d 8e 6e 3e bc
       -0.051873166 -0.050685674 0.0642386 -0.011623038
000040 be f9 28 39 60 50 8d c2
       0.00016114765 -70.65698
