MAMRL-TE/Dynamic environments/Baselines/Random/ATT/task2/savemodels/baseline10.pth (torch, 1464 bytes, 1 tensors)

weight f4 [1, 18]
00000000: 7aff 20be 0ffd b9c0 afb5 e13c bcc6 133d
00000010: 85eb 283d 551d f03c 976a 153d edcd d83b
00000020: dd9a a83e 259c 61ba 6e5c ceba 1915 38bb
00000030: f93f d9ba 4f37 b7ba 00ac 073d 5cd1 2fbc
00000040: 663b 2639 3ed4 4cc2
-0.15722457 -5.812141 0.027552454 0.0360782 0.041240234 0.029310862 0.036478605 0.006616345
0.3293065 -0.0008606336 -0.0015744099 -0.0028088747 -0.0016574851 -0.0013978275 0.033123016 -0.0107310675
0.00015853121 -51.207268
