MAMRL-TE/Dynamic environments/Baselines/Random/ATT/task2/savemodels/policy4.pth (torch, 277403 bytes, 12 tensors)

weight f4 [128, 7]
000000 a3 35 6e 3c c2 99 c5 bd c6 39 46 3e 55 2c 65 bd
       0.014539155 -0.096484676 0.19357976 -0.05595048
000010 bd e9 4f be a5 db 50 be ca 88 a4 3d 71 08 fd 3d
       -0.20304008 -0.20396288 0.08033903 0.12355126
000020 32 73 43 3e f4 98 8f bb 05 d6 ad bd ac 88 02 bc
       0.19086912 -0.004382247 -0.084880866 -0.007967155
000030 f2 e3 bb 3d 06 92 ae 3b 1c b2 91 3d 0a 1d 5f 3e
       0.091743365 0.005327466 0.0711405 0.21788421
000040 09 d8 46 3e f4 1b a7 bd 0a 64 a7 3d b7 6d ff bd
       0.19418348 -0.081596285 0.08173378 -0.12472098
000050 fe f0 22 be bf a2 0b 3e ea 74 d1 bd a8 98 22 3e
       -0.15912244 0.13636301 -0.10227378 0.15878546
000060 b0 df e4 bd 94 1b 30 be 7f 5a 51 3d a2 62 66 3d
       -0.111754775 -0.1719802 0.051111694 0.056246407
000070 ff 59 c9 bd df 7b 17 bc 40 e4 03 be 51 2a 01 bd
       -0.098316185 -0.009245842 -0.12880039 -0.031534497
000080 dc da 47 3e 0e a9 e7 3a 64 f9 5d 3e 92 4b c7 3d
       0.19517082 0.0017674284 0.21677166 0.09731211
000090 3b ba ff 3d af e2 10 3d fa b3 cc 3d cb 8f 06 be
       0.124866925 0.035372432 0.09995265 -0.1314079
0000a0 79 8b 4c be a9 49 ab bd b4 12 13 be 78 53 1e 3e
       -0.1997508 -0.08363659 -0.14362603 0.15461528
0000b0 18 dd 31 3e 0d 07 1f be 4e 46 d8 bd da 5f 68 3d
       0.17369497 -0.15530033 -0.105602846 0.056732036
0000c0 aa 7e 58 be e3 d1 4e be 08 94 90 39 0b ff 7d 3d
       -0.21142069 -0.20197253 0.00027576112 0.062010806
0000d0 bc bc a7 3d 80 7b f8 3d 82 28 d8 3b e2 d1 3c 3e
       0.08190295 0.12132931 0.006596626 0.18439439
0000e0 16 8f 9e bd 00 ce 57 3e 49 75 d6 bd 6b 49 0b bd
       -0.07742135 0.21074677 -0.10471589 -0.034005564
0000f0 94 4f 6f 3d 33 21 43 3e 97 c3 73 bd 60 51 f7 bd
       0.0584255 0.19055633 -0.0595127 -0.12076068
000100 3d 11 55 bd 20 1c 41 be 55 a3 8b 3d 42 2a e6 3d
       -0.052018393 -0.18858385 0.068182625 0.11238529
000110 e6 35 54 be 23 61 05 be 43 f8 36 be 32 2d 02 be
       -0.20723686 -0.13025336 -0.17868142 -0.12712553
000120 fb d9 42 be 4f 7a 4f 3e ac 65 38 bd 18 bc 4b be
       -0.19028465 0.20261501 -0.045018837 -0.19895971
000130 44 47 26 3e 82 86 20 3e 86 15 a7 bd 74 b3 11 be
       0.16238123 0.1567631 -0.08158402 -0.14228612
000140 d8 5c 3f 3d 41 3c 9f bd 8b 3e fe 3d be 75 42 be
       0.046719402 -0.077751644 0.12414273 -0.18990228
000150 4a d0 6d 3d 84 c4 e0 3d 60 0e f5 3c d7 84 fc 3d
       0.058059968 0.109749824 0.029914081 0.12330025
000160 ef 6e 26 be 3d 27 76 3c cf a1 43 3e bb 86 e3 bd
       -0.16253255 0.015024004 0.19104694 -0.11109682
000170 cc 63 97 3d 77 45 83 3c ad fc d5 3d f1 ab 3c be
       0.073920816 0.016024334 0.10448585 -0.18424965
000180 1f 1d ec bc 3d 92 b1 bd 15 2c 0f 3e ac dc 28 3d
       -0.02882248 -0.08670471 0.1398166 0.041226074
000190 ee 4d 41 3e aa 89 34 3e f9 55 18 be 53 67 82 3d
       0.18877384 0.1763064 -0.14876546 0.06367364
0001a0 d2 0c 2e 3e e3 a2 8f 3d da f5 38 be 03 a5 10 3e
       0.16997078 0.0701349 -0.18062535 0.14125447
0001b0 26 4d a6 3c 91 26 32 3e 05 03 dd 3d 8c bf 2b 3d
       0.02030046 0.17397524 0.107915916 0.04193072
0001c0 48 9c 96 3c 2f ae 3a 3e e8 8b 10 be 3b 49 b7 bc
       0.018385068 0.18230508 -0.1411587 -0.022373786
0001d0 98 b8 5c 3b 83 5c 02 be 5c 68 3f 3e 34 9a 2d bd
       0.0033679362 -0.12730603 0.18692154 -0.042383388
0001e0 92 40 43 be 46 8f 5b 3d 35 f2 c8 bd 30 8a 80 bc
       -0.190676 0.053603433 -0.09811822 -0.015690893
0001f0 5a fa 26 3d 7e e3 27 be 36 6b 2b bc 92 ed 49 3d
       0.040766098 -0.16395375 -0.010462573 0.04929883
000200 d7 ea b8 3c 9a 66 f4 bd dd f4 04 be 47 4d 1c be
       0.022572918 -0.11933632 -0.12984033 -0.15263854
000210 d2 e7 34 3e 8e 83 39 be aa f5 95 3d d6 cf 28 be
       0.17666557 -0.1811659 0.07322247 -0.16485533
000220 bb a0 a5 3d c1 06 ab 3d 9a ec 86 bd bd 32 50 3e
       0.080872975 0.083508976 -0.06588097 0.20331855
000230 a4 c4 e6 bd 85 71 20 3e a7 27 96 bc ee 75 33 3e
       -0.11267975 0.15668304 -0.018329455 0.17525455
000240 91 b2 0f 3e b2 ce 11 3e ce 38 2e be 77 ad 06 be
       0.14032961 0.14239004 -0.17013857 -0.13152109
000250 d4 8d 58 3e 32 bb 49 be 31 8f 03 be b9 25 ec 3d
       0.21147853 -0.19700316 -0.12847592 0.115306325
000260 34 56 d0 3b 27 da 4a 3b bc eb 53 3e 66 3e 36 3e
       0.0063579325 0.0030952783 0.20695394 0.1779724
000270 53 1e 05 3e 8c 0f 59 bd 8d 08 9e 3d 5b 3c 4d be
       0.12999849 -0.052993342 0.07716475 -0.20042555
000280 14 ad c8 bc 87 29 35 be 7c 0c 50 be 49 ad 02 3e
       -0.024496593 -0.17691623 -0.20317262 0.12761416
000290 a1 8f cc 3c 91 0d e2 3d bf 31 09 3e 0a 56 26 be
       0.024970831 0.11037744 0.13397883 -0.16243759
0002a0 c3 b9 f6 bd b4 28 52 bd 89 9b d1 bd 65 d8 0f 3d
       -0.1204715 -0.05130835 -0.10234744 0.03511848
0002b0 d9 23 c9 3d 06 18 0f be a6 3f 4f be a5 31 67 bd
       0.098212905 -0.13974008 -0.20239124 -0.05644383
0002c0 65 71 35 3e e1 7f 39 bd 8e b0 bf bd 72 8a bb bc
       0.17719038 -0.04528797 -0.09359847 -0.022893164
0002d0 27 35 04 3e 38 86 1d bd 1e fa ae bd e9 40 9f 3d
       0.12910901 -0.03845808 -0.085438 0.077760525
0002e0 0c 17 17 bc 2b 7f 0d be 43 8c 15 3e e8 41 b7 3c
       -0.009221803 -0.13818042 0.14604287 0.022370294
0002f0 e4 1c 62 3d 10 c2 62 3d ff 20 1d 3e 2d bc 41 bd
       0.055203333 0.055360854 0.15344618 -0.0472986
000300 42 7e 25 be 66 0f 71 3d fb d3 53 3e 0a 8d e6 bd
       -0.16161445 0.058852576 0.20686333 -0.1125737
000310 3b 54 47 3e 7e 2c ef bd 05 e2 e6 3d ae db d6 bd
       0.19465725 -0.11678408 0.112735786 -0.10491119
000320 56 01 01 3e 93 b8 34 3e eb f0 1e 3e 70 18 cb bd
       0.12598166 0.17648534 0.1552159 -0.099167705
000330 1e 3f 30 bd 54 40 26 be e8 e4 ae bd 62 88 7f 3a
       -0.043028943 -0.16235477 -0.08539754 0.00097478007
000340 7c 3c cc 3d 65 d1 24 be 7a ea 73 3d 95 f9 36 3e
       0.09972474 -0.16095503 0.059549786 0.17868645
000350 fe fb 0a 3d 5f dd 06 be 55 91 bc 3c ab d0 38 be
       0.033931725 -0.13170384 0.023018518 -0.1804835
000360 72 6f 49 be 0a 83 40 bd 87 09 c0 bd 69 9e 7a 3d
       -0.1967142 -0.04699997 -0.09376817 0.061186228
000370 67 de fb bd 04 85 ee bd d2 21 23 3e 4b 83 bf bd
       -0.12298279 -0.116464645 0.1593087 -0.09351214
000380 4f 68 95 3d b8 20 2f bd d5 c0 42 be 7d 1a 04 3e
       0.07295286 -0.042755812 -0.19018872 0.1290073
000390 28 9f 4c be 95 ec e7 bb 77 0f 2e bd 29 9c 7f bd
       -0.19982588 -0.0070777633 -0.042495217 -0.062404785
0003a0 e1 ed 08 be cf fc 32 3e 20 bc b2 3d ac 16 9b 3d
       -0.13371994 0.17479251 0.08727288 0.07572684
0003b0 0f 78 36 be a8 f2 ef bc 9f 3c 42 bd eb 4c b1 bc
       -0.17819236 -0.029290512 -0.047421094 -0.021643123
0003c0 fa 48 4e be d7 65 57 be d9 ea 57 3e bb 9d 30 be
       -0.20145026 -0.21034943 0.21085681 -0.1724767
0003d0 fc 7c 55 bc 9a 74 32 3d 88 f5 14 be 86 8e e9 bd
       -0.013030287 0.04356823 -0.14546788 -0.11404137
0003e0 bb 04 63 bd 5c 78 1d 3e 15 25 c5 bc 51 8a 19 be
       -0.055424433 0.15377945 -0.024065534 -0.1499417
0003f0 29 b0 07 bd f0 d5 cd 3d 12 df 4c 3e 69 b4 05 3e
       -0.033126984 0.10050571 0.2000697 0.13057102

bias f4 [128]
000000 8f 20 94 b8 3e a3 81 3a 02 43 d7 3a fb 96 d2 b9
       -7.0632545e-05 0.0009890569 0.0016423168 -0.0004016681
000010 4d f5 93 3a 0d d6 0d b9 8b cc 35 ba a8 a9 25 3b
       0.0011288315 -0.00013526548 -0.00069350813 0.0025278125
000020 c9 2c 58 3a ce 0a 70 b6 f6 61 75 b6 7c e9 03 3a
       0.00082464196 -3.5769076e-06 -3.6564866e-06 0.00050320453
000030 54 74 74 3a f6 b9 a2 b9 85 5f 80 3a d8 4b a9 b9
       0.00093251956 -0.000310376 0.0009794092 -0.000322907
000040 94 fe cd 39 00 00 00 00 d3 cb 86 b9 16 53 ba b8
       0.00039290322 0.0 -0.00025710333 -8.884647e-05
000050 4e e8 90 3a f1 13 77 3a 86 5f 8e ba b7 ba 48 b7
       0.001105556 0.0009425274 -0.0010862208 -1.1964402e-05
000060 ad b3 8e 35 d3 1a 30 39 90 59 d9 3a d8 e0 48 3a
       1.0632117e-06 0.00016794661 0.0016582478 0.0007662899
000070 d5 35 02 39 11 7b 81 35 4a 59 75 b9 e0 59 d4 35
       0.0001241782 9.647066e-07 -0.00023398284 1.5821388e-06
000080 ea db 1b 39 a4 b2 8b b8 0e f8 ca 37 ac fb ad b7
       0.00014863876 -6.661311e-05 2.4195786e-05 -2.0740401e-05
000090 88 f4 ed 3a 8b 62 bc b9 e0 39 59 b9 38 e3 ab ba
       0.0018154541 -0.00035931575 -0.00020716293 -0.0013113981
0000a0 38 22 02 b6 b1 88 4d b6 1e df 40 b9 45 02 db 3a
       -1.9391427e-06 -3.0626945e-06 -0.00018393665 0.001670905
0000b0 a5 e3 1d 37 64 c5 b7 b8 90 8f 80 37 94 83 67 b9
       9.410932e-06 -8.762887e-05 1.532564e-05 -0.00022078893
0000c0 3a 32 05 39 a0 de a4 b7 d6 46 9a 38 60 a6 3d 37
       0.00012702579 -1.9653991e-05 7.3564865e-05 1.1304015e-05
0000d0 f0 4a 2e 3a 91 c2 43 37 a0 bb 81 b9 00 00 00 00
       0.000664874 1.1668207e-05 -0.0002474459 0.0
0000e0 8f 06 30 3a 93 a3 be 38 af 85 0d ba 21 77 ce 3a
       0.00067148445 9.090374e-05 -0.00053986436 0.0015752056
0000f0 46 ee 00 3a 3a 79 c7 39 00 00 00 00 dc 0a 46 39
       0.0004918318 0.0003804656 0.0 0.00018886797
000100 66 36 84 b9 14 67 de b9 99 48 95 b8 6e 9c 1e b8
       -0.00025217532 -0.0004241994 -7.118396e-05 -3.7815822e-05
000110 47 96 25 33 6c db 1e 3b 00 07 6a b4 d7 e0 8f b9
       3.8553733e-08 0.0024239672 -2.1795495e-07 -0.00027442604
000120 a5 83 c8 b6 4c a8 bb b8 9e 61 20 3a f1 2a c6 b9
       -5.97579e-06 -8.9482026e-05 0.0006118062 -0.00037797497
000130 00 00 00 00 03 72 a6 39 3a 4c d7 b9 a6 3f dc 39
       0.0 0.00031746933 -0.0004106479 0.00042009092
000140 c2 8d 3c b8 90 05 c7 b8 6f 66 ac 39 ad c4 01 3a
       -4.4954715e-05 -9.4900955e-05 0.00032882715 0.00049502664
000150 0a ac e2 3a 58 48 e3 36 60 dc fe b8 64 83 28 ba
       0.0017293703 6.773549e-06 -0.00012152712 -0.000642827
000160 ca f9 13 3a 76 85 b4 b8 a2 59 a1 b9 1a 7c 1d 39
       0.00056448265 -8.607928e-05 -0.00030775095 0.00015018918
000170 c6 6c 9e b7 00 69 99 b8 12 3c ba 39 1b 86 ca b9
       -1.888572e-05 -7.315166e-05 0.0003552144 -0.0003862836
000180 0a 64 60 39 5a f1 16 3a 02 95 88 b9 3b cc 8b 3a
       0.00021399572 0.000575801 -0.0002605096 0.0010665724
000190 d6 b5 64 38 48 e5 cf 39 50 5d 3d 39 6c 93 58 b9
       5.4528784e-05 0.00039652945 0.00018059206 -0.00020654284
0001a0 00 00 00 00 00 00 00 00 d1 55 c8 3a 60 53 de 39
       0.0 0.0 0.0015284364 0.0004240526
0001b0 06 04 4c b6 76 08 ee 39 64 4d ea 37 38 fa f3 b6
       -3.040071e-06 0.000454012 2.7931012e-05 -7.2710936e-06
0001c0 00 00 00 00 18 2b c8 39 00 00 00 00 14 c5 8b 39
       0.0 0.0003817908 0.0 0.0002665898
0001d0 c4 4c 27 37 ec c7 ff 39 9a 79 16 39 93 15 45 b7
       9.971849e-06 0.00048786344 0.00014350415 -1.1747138e-05
0001e0 2a 45 57 b9 8b 61 fc b9 a3 8e c5 32 ed 55 fc 36
       -0.00020529763 -0.0004813786 2.2998682e-08 7.5201883e-06
0001f0 f4 13 1b 3a 04 0b 9b b7 44 01 92 b9 a1 15 09 bb
       0.0005915754 -1.848257e-05 -0.00027848233 -0.0020917433

weight f4 [128, 128]
000000 0b 00 eb bd b5 44 9d bd 3e 75 03 3e 54 3f 0b bd
       -0.114746176 -0.076791205 0.12837693 -0.03399594
000010 2d 7c ef 3d 9f b5 10 be 5c e3 19 be 65 5f 0e bd
       0.116936065 -0.14131783 -0.15028137 -0.034758944
000020 09 a0 03 3e 91 27 01 3e b9 6a be bc 83 c4 da bd
       0.12854017 0.1261275 -0.023244249 -0.10682013
000030 6e bb 9a bd 42 ba c6 bd 05 8a 9d 3d 37 71 1b 3e
       -0.075552806 -0.097034946 0.07692341 0.15179907
000040 d0 5e f5 bc 45 da ba bd bf 10 5b 3d 7d b3 0d 3d
       -0.029952437 -0.09123663 0.053482767 0.034595
000050 de 07 11 be 39 19 0d be ae d3 79 bd 28 16 04 be
       -0.14163157 -0.13779153 -0.06099289 -0.12899077
000060 49 d1 a7 bd 92 0e 09 be 14 8c 4d bd 54 1e 14 3e
       -0.08194215 -0.13384464 -0.050182417 0.14464694
000070 c2 0a 98 bd 9d 7f 0c 3e 38 e5 bb bd 51 70 9b 3d
       -0.07423927 0.13720556 -0.091745794 0.07589782
000080 6e 57 b9 3d df 8c bb 3c 13 c0 09 be 7b 1d f1 bd
       0.09049879 0.022894321 -0.13452177 -0.11773201
000090 5c 94 d1 3d bc 39 ad bd 9d 91 e1 3c e1 7d 07 be
       0.102333754 -0.084582776 0.027535254 -0.13231613
0000a0 47 e4 bb 3d e0 3c 7c bd 39 a6 f6 bc 2e cf 75 bd
       0.091744 -0.061581492 -0.030108558 -0.060012035
0000b0 05 45 e0 bc bd 9c cc 3c ff 97 a8 3b 95 21 c7 3d
       -0.027376661 0.024977082 0.0051450725 0.09723202
0000c0 29 b2 ab 3c f9 0a f6 bd 7e 3c f7 3d fb 5b 5f 3b
       0.020958977 -0.120138116 0.12072085 0.0034081924
0000d0 a7 19 07 bd aa 02 09 3e a3 c8 13 3e 62 22 32 3c
       -0.03298345 0.13379923 0.14432006 0.010872455
0000e0 d9 de b5 3b ac 6d ae bd d3 f7 a1 3d 7f a5 10 bd
       0.005550247 -0.08517012 0.07908597 -0.03531408
0000f0 70 c7 89 3d d4 e2 b3 bd b2 78 c4 3d bb 49 63 bd
       0.06727493 -0.087834984 0.09593333 -0.055490237
000100 64 8c 4a bd 22 14 1a bd 0e 0a d8 bd 36 6b d2 3d
       -0.049450293 -0.037616856 -0.10548793 0.10274355
000110 ad 75 88 bd 45 90 09 3e c4 a6 0d bd 5d 4d 99 3d
       -0.0666307 0.1343394 -0.03458287 0.07485459
000120 87 45 e9 3c 88 ad de bd a8 0c 15 be 3d 2c 68 bd
       0.028475536 -0.10872942 -0.14555609 -0.056682814
000130 59 f6 c3 3d fe 93 06 be 15 8b 08 be ba e5 c2 bd
       0.095684715 -0.13142392 -0.13334306 -0.09516473
000140 8e 95 0b bd 1e bd 0e 3e ab 90 d0 3d d9 6d 37 bd
       -0.034078173 0.1393933 0.10183843 -0.044782493
000150 e4 be a1 bd a8 90 0c 3e a1 e3 9f bd ae a5 4b 3d
       -0.078977376 0.13727057 -0.07807089 0.04971855
000160 c2 e1 4f bc 66 a9 c8 3c ab e2 d8 3c 12 d3 95 3d
       -0.012688102 0.024494838 0.026475271 0.07315649
000170 3f f8 e9 3d 87 ca 69 bd ed 32 21 bd 29 4b b5 3d
       0.11424302 -0.05707791 -0.039355207 0.08852226
000180 7a 5e 1a 3e dd 52 d1 3d c4 ae d3 bd 70 56 ce 3c
       0.15075102 0.10220883 -0.10336068 0.025187701
000190 49 e3 28 bb 98 46 4c 3d 69 73 53 3d 98 0d 07 3e
       -0.0025770238 0.04987201 0.051623736 0.1318878
0001a0 4f 64 99 3d 77 63 96 3d fd 04 e0 bc e3 ff 08 bc
       0.074898355 0.0734319 -0.027346129 -0.008361789
0001b0 09 9f 07 be 92 a0 fd 3d e1 bd 1c bd 63 84 97 bd
       -0.13244261 0.12384142 -0.03826702 -0.07398298
0001c0 b1 ee 8f 3d e7 5c a5 bd 0a 4d 66 3d 1b dc f1 3c
       0.07027949 -0.0807436 0.056225814 0.0295239
0001d0 1d 5c 09 be d0 91 aa 3d 91 f8 8d bd c5 4b a4 3d
       -0.13414045 0.08328593 -0.06932176 0.080222644
0001e0 3e 73 97 bd 74 4e d4 bd fe c1 b1 3d 62 10 df bc
       -0.073950276 -0.10366526 0.08679579 -0.027229492
0001f0 a8 4d ce 3d 7b ac 46 3d 37 c6 72 3d 4e 7f 9d 3d
       0.100734055 0.048504334 0.059271064 0.07690297
000200 7b 75 42 3d 47 c2 c8 bd 88 5e 86 3d e9 06 13 3e
       0.04747532 -0.098026805 0.06560999 0.14358105
000210 61 71 19 be 3e 97 d2 3c 4b 6e 1c 3e bd ac af bd
       -0.14984657 0.025706884 0.15276448 -0.08577869
000220 b2 77 9f bc 10 9d a8 3b 89 ac c4 3d e1 bc 12 3e
       -0.019466255 0.0051456764 0.09603221 0.14329864
000230 3f c8 10 3e cc 30 1b 3e 02 20 13 be c7 4f d1 bd
       0.14138888 0.15155333 -0.14367679 -0.102202944
000240 5f fb 43 3b ef 4e 51 3d 7f 8e 65 bd be e5 e8 bd
       0.0029904468 0.051100668 -0.056044098 -0.11371945
000250 64 e2 10 be c7 1c bc bd 4f 5c 04 3d 17 8b 16 3e
       -0.14148861 -0.09185176 0.032314595 0.14701496
000260 c7 d9 ca 3d ed 5f fe bd 1a d5 a2 3d 7b 8e be 3d
       0.09904819 -0.1242064 0.07950802 0.0930452
000270 b5 18 aa 3d b6 f1 0a 3d 3d 90 9d bd 24 5f 60 bd
       0.08305494 0.03392192 -0.07693527 -0.054778233
000280 4b 4d 78 bd ca d9 66 3d a7 f9 53 bd e8 78 95 bd
       -0.060620587 0.056360044 -0.05175176 -0.07298452
000290 ba e0 16 be 35 b8 42 bd 35 17 4b bd d1 2d fb bd
       -0.14734164 -0.047538955 -0.04958268 -0.12264598
0002a0 41 14 41 bc 99 fb 8a bd 29 ef 0b be 8b 64 3c bc
       -0.011784614 -0.0678627 -0.13665451 -0.011498581
0002b0 c6 5d cd bd 17 17 c4 3d 52 f8 f9 bd b1 24 ee bd
       -0.100276515 0.095747165 -0.122055665 -0.11628092
0002c0 d3 6a 02 be d4 62 9f bd a9 c4 60 bd 00 b7 15 3e
       -0.12736063 -0.07782522 -0.05487505 0.1462059
0002d0 8e 9a be bd d7 ac 0e 3e 26 a8 84 bc 8f 05 ef 3c
       -0.09306823 0.1393312 -0.01619346 0.029177455
0002e0 a6 1a ae bd ed 49 74 3c 9c ec fd 3d 83 06 0a be
       -0.085011765 0.014910203 0.12398645 -0.13479047
0002f0 6c 0f 1a be 18 b1 07 3d f0 ec 07 be 30 f1 ed bc
       -0.15044945 0.033127874 -0.13273978 -0.029045671
000300 be 58 08 3e 83 24 05 be 45 b7 0c 3c a3 42 33 3d
       0.13315102 -0.1300221 0.008588617 0.04376472
000310 19 04 ca bd b1 d8 15 be 14 ef 06 3e 63 84 c4 3c
       -0.09864063 -0.14633442 0.13177139 0.023988908
000320 9b 81 0d be 17 28 a3 bd 9c 47 5f 3c ce df c6 bc
       -0.13818972 -0.07966631 0.013627913 -0.02427664
000330 bf 97 81 bd 03 b0 0f 3e 09 db 8e 3d 6f 0c 9e bd
       -0.063277714 0.14031987 0.069753714 -0.07717215
000340 c4 22 18 be 76 9b b4 bc c6 d4 80 3c 9c 41 5a bd
       -0.14857012 -0.022046786 0.015726458 -0.053285226
000350 d5 e7 9a 3d f9 0d 4c bc 62 67 0b 3c 62 06 ac 3c
       0.0756375 -0.012454503 0.008508535 0.020999137
000360 d7 06 8c bd 60 9b 86 bd dc b0 29 bd 8b 91 d8 bd
       -0.06837242 -0.06572604 -0.041428432 -0.10574635
000370 b3 85 c7 3d 21 b6 a0 3d 3d 31 5d bc b7 a8 bc 3d
       0.09742298 0.07847238 -0.013500509 0.09211867
000380 92 fa fc 3d 87 a2 a9 bd be 3e 36 bd f2 06 d5 bd
       0.1235248 -0.08282953 -0.04449343 -0.10401715
000390 bd 61 d3 3d 26 8b ec 3d 12 f1 1e 3d 63 0a 85 3d
       0.103213765 0.11549978 0.03880412 0.06496122
0003a0 ba 43 fd 3d a0 14 86 3c 59 24 17 3e a6 30 02 be
       0.123664334 0.016367257 0.1475996 -0.1271387
0003b0 c6 7c 5f 3d 0e 7c 30 bd 59 6f 13 3d 21 93 d1 3d
       0.054562353 -0.043087058 0.03599486 0.10233141
0003c0 41 e1 9f 3c 73 91 c2 bd 48 d6 91 3c 22 5a 94 bd
       0.01951659 -0.095003985 0.017802373 -0.07243754
0003d0 f4 ad de 3d 97 9e 7c bd bf ce b0 bc 7a d0 03 bd
       0.10873023 -0.06167468 -0.02158296 -0.03218124
0003e0 b4 e1 0c 3e 87 e3 75 bd 60 be 0f 3e 0e a8 a7 bd
       0.13757974 -0.06003144 0.14037466 -0.08186351
0003f0 f9 c3 cd 3b 0d 13 f0 bd fd a1 ec bc ef cb 66 3d
       0.0062794653 -0.11722384 -0.028885836 0.05634683

bias f4 [128]
000000 52 df ed 34 00 00 00 00 14 7a f2 b8 3e 24 92 3a
       4.4307177e-07 0.0 -0.00011562198 0.0011149717
000010 58 0a 8c 39 9d c7 3b 3a 61 88 4b 37 d1 89 2f b9
       0.00026710588 0.00071632286 1.2131496e-05 -0.00016740641
000020 d5 22 85 38 0b 91 ec b8 e9 bd a9 35 62 08 78 3a
       6.348422e-05 -0.00011280373 1.2646752e-06 0.00094616984
000030 0d 0f 40 3b cc 29 f8 39 79 da 3a 36 5b 8c 91 3a
       0.0029305846 0.00047333387 2.7843328e-06 0.0011104451
000040 00 00 00 00 c0 82 1b 37 0d c3 67 3b 19 bf a6 38
       0.0 9.269163e-06 0.0035364062 7.9510915e-05
000050 e4 15 b6 39 10 bc ae 39 1a 27 80 38 0e e5 58 ba
       0.00034730055 0.00033327984 6.110799e-05 -0.0008273878
000060 00 00 00 00 e6 8d 31 3b 45 73 14 b7 29 2e db ba
       0.0 0.0027092635 -8.848326e-06 -0.0016722131
000070 96 36 06 b8 a3 b7 be b7 62 6f d9 39 48 48 0f 3a
       -3.1998927e-05 -2.2735278e-05 0.00041472452 0.0005465788
000080 39 81 f3 b8 d2 48 c5 b9 05 bb 82 3a 00 00 00 00
       -0.000116112125 -0.00037629023 0.0009973949 0.0
000090 ee d0 44 38 29 32 53 3a 00 00 00 00 c0 da bb 3a
       4.6924622e-05 0.00080564857 0.0 0.001433216
0000a0 eb f3 08 3a a2 b0 43 ba 6b 51 4a 3b 97 84 1f b7
       0.0005224335 -0.000746498 0.0030871283 -9.5080095e-06
0000b0 a0 92 f1 ba 5e d7 1d 36 00 00 00 00 0c 44 47 3b
       -0.0018430538 2.3520183e-06 0.0 0.003040555
0000c0 8a 3a ac ba f4 ab 21 b9 28 85 04 3a 53 4f d5 b9
       -0.0013140005 -0.00015418214 0.0005055242 -0.00040685627
0000d0 40 4d 4a 38 44 4d 38 b9 44 e6 65 37 1c 99 86 3a
       4.8232498e-05 -0.00017576391 1.3703077e-05 0.0010269019
0000e0 5c d4 d7 39 aa 4b 0f 3a e1 61 70 b9 a4 76 8c 39
       0.00041166216 0.0005466292 -0.00022924646 0.00026791275
0000f0 b3 b6 d8 b9 2f ba 38 39 cb 4d 2c 3b b6 88 15 38
       -0.00041334852 0.00017616966 0.0026291485 3.565169e-05
000100 ac d8 9b 37 6a a0 90 b9 04 82 b6 ba 00 00 00 00
       1.8578336e-05 -0.00027585338 -0.0013924246 0.0
000110 e0 37 14 37 4e 9f 61 b9 f5 0b 67 3a 07 e8 b2 b9
       8.834497e-06 -0.00021517018 0.00088137324 -0.0003412368
000120 d9 26 4a b8 aa 54 bd b9 01 01 98 39 70 df 87 3a
       -4.8196733e-05 -0.0003611197 0.00028992447 0.0010366272
000130 2e 76 a8 ba 3c ca 72 3a aa 92 19 ba bd 82 40 3b
       -0.0012852603 0.00092617027 -0.00058583415 0.00293748
000140 25 f2 8e ba 61 ff aa b8 84 c2 ab 3a a7 68 c0 b6
       -0.0010905905 -8.1538e-05 0.0013104235 -5.734229e-06
000150 5f f9 9f b5 54 aa f4 3a 0f de 1d b9 66 7f b7 b7
       -1.1919e-06 0.0018666484 -0.0001505541 -2.1874625e-05
000160 33 29 d3 ba 7d a1 77 ba 1d b4 da b9 15 e9 7f b9
       -0.0016110301 -0.0009446366 -0.00041714395 -0.00024405525
000170 fc 2d 0d 38 20 03 70 ba c2 e7 4e ba 7d 0f af 3a
       3.3659846e-05 -0.0009155739 -0.0007892811 0.0013356056
000180 2d 95 51 39 b1 b7 8d b9 87 23 8d ba a5 99 63 3b
       0.00019987366 -0.00027030476 -0.0010768034 0.003472903
000190 00 c1 6d 38 c7 29 df 3a be 30 32 bb a7 53 f5 ba
       5.668495e-05 0.0017026 -0.0027189697 -0.0018716947
0001a0 72 63 e7 b6 c9 92 a3 b6 00 00 00 00 fe 1a bd b6
       -6.8959134e-06 -4.8748666e-06 0.0 -5.6357812e-06
0001b0 02 08 04 3a e1 45 bd ba fa 5a 5c ba 56 2e ec ba
       0.00050365936 -0.0014440381 -0.00084058905 -0.001801918
0001c0 09 22 a4 3a ef b5 b8 b9 c7 c4 b4 ba 27 ed 45 3a
       0.001252235 -0.00035230766 -0.0013791554 0.0007550292
0001d0 a2 68 82 ba a6 3d e8 b9 d0 c0 fa ba 56 ec c5 b9
       -0.0009949396 -0.0004429642 -0.0019130949 -0.00037750852
0001e0 90 12 42 b9 00 00 00 00 02 7a 17 b8 d3 11 2b 3a
       -0.00018508197 0.0 -3.6114834e-05 0.00065257883
0001f0 00 f1 d6 b6 b2 52 cb 38 9d 81 b3 b8 29 a7 13 b3
       -6.405753e-06 9.6951975e-05 -8.5595275e-05 -3.4378136e-08

weight f4 [128, 128]
000000 1d 59 e9 3d 44 9f 06 be 58 72 7b 3d 3b 01 53 bd
       0.1139395 -0.13146693 0.061388344 -0.051514845
000010 7a 2f 11 be 6a 7d cb 3d 26 5a 61 bd a2 8a 56 3d
       -0.14178267 0.0993603 -0.055017613 0.052378304
000020 e6 d2 62 bd 56 e8 f2 3b 76 c4 ad bd e3 16 91 bb
       -0.05537691 0.0074129505 -0.084847376 -0.004427777
000030 ca 0f 0b 3e db f4 0c bc 3a 3f 40 bc 91 31 ab 3d
       0.13580242 -0.0086033 -0.011733824 0.083590634
000040 48 50 f9 3d 51 8a 3a bd b7 f6 59 bd ed 12 9f 3d
       0.121735156 -0.045542065 -0.0532138 0.07767282
000050 cf 48 f1 bd 54 fe d0 3d 0f b9 03 be c4 4f 1b 3e
       -0.11781465 0.10204759 -0.12863563 0.15167147
000060 83 f7 c4 bb 41 a0 eb bd c9 ec bc bd 2d c1 f0 3a
       -0.006010951 -0.115051754 -0.09224851 0.0018368118
000070 65 39 02 3e ac fd 8d bc 52 36 84 3c b7 cc 8e bb
       0.12717207 -0.017332874 0.016139183 -0.0043579
000080 0a 5b e1 3d 6f 04 8d 3c 0d 2e 72 3d ed 2c 79 bd
       0.110036924 0.017214028 0.05912595 -0.06083386
000090 f7 2f b3 3d 1e ad b2 bd eb 62 ab 3d 28 6e f5 3d
       0.08749383 -0.08724426 0.083684765 0.11983901
0000a0 eb 6e 0a 3e a6 3d a5 bd be 72 85 bc 1a a3 4e bd
       0.13518874 -0.08068399 -0.016290065 -0.050448515
0000b0 39 6a 63 3d 04 fe 06 bd b8 bd 05 3e be 57 dc bd
       0.055521224 -0.032957092 0.13060653 -0.10758923
0000c0 04 ff 9f bc 7e f4 fa bd 28 32 e9 bc c3 02 d5 3d
       -0.01953078 -0.122536644 -0.0284663 0.104009174
0000d0 b8 b4 b2 bd c2 0f c1 bd da 3a 0b be 13 34 44 bd
       -0.087258756 -0.09426834 -0.13596669 -0.047901224
0000e0 69 e1 84 3d b7 a6 0f be 2b b7 02 be 66 75 c9 bd
       0.06488306 -0.1402844 -0.12765186 -0.09836845
0000f0 79 ed 49 bb bf 75 42 3d ec c2 d2 bd 0b c0 fd 3d
       -0.003081171 0.047475573 -0.10291085 0.12390145
000100 17 61 b1 3d 07 30 96 bc b6 64 8c ba dd bb a7 3c
       0.086610965 -0.018333448 -0.0010711167 0.020475322
000110 ac aa fe 3c e8 cc a5 bd cd cc 36 bc dc a1 68 bd
       0.031087242 -0.080957234 -0.011157227 -0.056794986
000120 10 b0 a2 bc 21 5e 90 3d 7b cf fd 3d 4a 74 15 bb
       -0.019859344 0.07049204 0.123930894 -0.002280491
000130 94 52 15 3e 51 37 6e 3c 0f 0a 4e 3c 68 71 b1 bd
       0.14582282 0.014539556 0.01257564 -0.08664209
000140 52 8a 6c 3b 0f c3 06 be 6f 87 8f bd fd 52 7b 3c
       0.0036093188 -0.13160346 -0.07008254 0.01533961
000150 f0 91 42 bd 61 72 c3 3d bb 6b c2 bb c7 df 11 bd
       -0.047502458 0.095433004 -0.0059332526 -0.0356138
000160 e6 b3 e1 bd 11 ac 35 bd 49 82 c1 3d 50 44 9f bd
       -0.11020641 -0.04435355 0.09448678 -0.077767015
000170 86 53 dd 3d 19 33 08 3e d0 5a e3 bd 11 88 b9 bd
       0.108069465 0.13300742 -0.111013055 -0.09059156
000180 2d a3 81 bd 26 13 b2 bd af 95 5d 3d f8 76 92 bd
       -0.063299514 -0.086950585 0.054097828 -0.07151598
000190 be 54 0e 3e 91 55 96 3d 9a 4b 13 bd d0 57 17 be
       0.13899514 0.07340539 -0.03596077 -0.14779592
0001a0 b2 62 31 bc 81 16 0c 3d f8 68 4c 3d af 7d 2a 3d
       -0.010826753 0.03420115 0.049904794 0.041623767
0001b0 3c a9 01 be ee eb e4 bd a4 ad 19 3d 07 0b a3 bd
       -0.12662214 -0.111778125 0.037519112 -0.07961088
0001c0 65 ac 45 bd 38 42 07 be 70 95 07 be 2b 85 c6 3c
       -0.04826011 -0.13208854 -0.132406 0.024233421
0001d0 b5 ad 55 bd b8 9c 1a 3d 17 f5 35 bc c1 8d 19 3e
       -0.052167613 0.037747115 -0.011105797 0.14995481
0001e0 bc 63 fe 3c c1 fc d5 3d 52 56 cb bd 2c e5 9e bd
       0.031053416 0.104485996 -0.09928574 -0.07758555
0001f0 0e c5 34 bd c4 76 c3 3d 52 b3 1a be fc 6e 0a 3e
       -0.04413324 0.09544137 -0.15107468 0.135189
000200 3b 1f 13 3e d5 ad 1b 3e a7 8d 54 bd 4e a7 7e bc
       0.14367382 0.1520303 -0.051892903 -0.015542818
000210 5a 3f 13 3e 6f 07 95 bd 99 ca 95 bd 05 87 55 bc
       0.14379635 -0.072768085 -0.07314033 -0.013032679
000220 5e aa f7 3b e6 bc 21 bd b6 a1 8d 3d 06 fc 9b 3d
       0.007558151 -0.03948679 0.069156095 0.07616429
000230 5f d9 3b 3b 4b 6d 15 3e eb 42 74 bc b3 a3 2d bd
       0.0028663499 0.14592473 -0.014908533 -0.042392444
000240 6d 89 54 bd 33 04 af 3d 9f b8 8a 3b 10 42 58 3d
       -0.051888872 0.08545723 0.0042334343 0.052797377
000250 e4 36 89 bd eb fb e0 3c f8 58 33 3c 49 ba fd 3d
       -0.06699923 0.027463874 0.010946505 0.12389047
000260 66 4b a6 3d c1 cd 94 3d 63 ee d9 bd f8 1c 12 3e
       0.0811985 0.07265807 -0.10641172 0.14268863
000270 e3 d0 b6 3d 17 6a f5 bd 8f 5b 06 3e 75 d7 78 bd
       0.08926561 -0.11983126 0.13120864 -0.06075235
000280 63 1a ad bb 1f 71 14 be 48 03 c0 3c 3b 80 6a 3d
       -0.0052826866 -0.14496277 0.023439065 0.057251196
000290 7e 09 87 bd 03 65 b4 3d 77 1c f6 bd 1d 42 dd 3d
       -0.06593607 0.08808329 -0.12017148 0.10803626
0002a0 a7 7e 15 3e df b9 b8 3c 52 1a 1a bc 3a 45 00 3e
       0.14599095 0.022549568 -0.009405689 0.12526408
0002b0 48 5e 73 bb 00 d9 ae 3d ae fe 45 bb d8 fa 28 bd
       -0.0037135053 0.08537483 -0.0030211615 -0.04125485
0002c0 7f 8b f9 bd f4 86 8a 3c 48 f4 ae 3c 49 2c 1a 3e
       -0.1218481 0.016910054 0.021356717 0.15055956
0002d0 f0 e8 b6 3d 62 9d be bd 78 b9 89 bd f1 4c 5e bd
       0.08931148 -0.09307362 -0.067248285 -0.054272596
0002e0 a6 b4 dc bd 5f fb 19 3e 3c 21 a9 bc 04 4d fb bb
       -0.107766435 0.15037297 -0.02064573 -0.007669093
0002f0 9f ef 01 bb c2 ec 63 bd 38 e0 0f 3e 9f 29 af bd
       -0.0019826663 -0.05564571 0.14050376 -0.085528605
000300 23 35 6b bd b3 33 a1 bd 77 bc 8a bd 2a 6f a9 3d
       -0.057423722 -0.07871189 -0.06774228 0.08273156
000310 04 15 6e bd d0 7d 7c 3d 92 ed b1 bd a1 63 2e bc
       -0.05812551 0.06164342 -0.08687891 -0.010643871
000320 53 98 d7 3d df 1f 36 bd c1 cb dc 3c 14 db ca 3d
       0.105271004 -0.04446399 0.026952626 0.09905067
000330 2e ce 56 bd 5f ff 40 3d 27 6d fe bd d2 30 9c 3d
       -0.052442722 0.04711854 -0.12423163 0.07626499
000340 03 64 b5 3a 1a 46 f0 3c 5f 0c 87 bd d1 86 0a 3e
       0.001383901 0.029330302 -0.065941565 0.13527991
000350 62 d1 d8 3d b0 59 ad 3d db bb db 3c 8f f1 a8 bc
       0.105868116 0.08464372 0.026822975 -0.020622997
000360 23 3e 0e be 0b a6 04 3e 4c 2c 1c be a2 c9 ff 3d
       -0.13890891 0.12953965 -0.15251273 0.1248963
000370 a8 5d fa 3c bc 17 ec bd ab 79 e6 3d d6 1c a5 3b
       0.030562237 -0.115279645 0.11253675 0.005038838
000380 92 e5 d0 3d 6b 53 b5 3d cc 54 84 3d 0a b1 ce 3d
       0.10200037 0.08853801 0.06461486 0.10092361
000390 90 99 07 3d f2 e4 02 bd 0c aa 97 bd 99 21 c9 3d
       0.033105433 -0.03195662 -0.07405481 0.09820861
0003a0 98 94 92 bd e6 e9 fd bd 92 39 22 3c 27 ac b7 bd
       -0.07157248 -0.12398128 0.009901421 -0.08968382
0003b0 ce db ee bc b5 a9 d6 3d 7f bc 9e 3d 46 9c c6 bd
       -0.029157545 0.10481588 0.077507965 -0.096977755
0003c0 d4 6c 18 3d 31 c5 a4 3d 83 d1 bb bd 62 41 af bd
       0.03721316 0.08045424 -0.091708206 -0.08557393
0003d0 78 75 a5 3d 2d 78 c3 bd 2a 30 df bd f4 27 0b bd
       0.08079046 -0.09544406 -0.108978584 -0.03397365
0003e0 e5 06 ff bd b1 42 c2 bd de 35 80 3c 07 88 66 bd
       -0.12452487 -0.094853766 0.015650686 -0.05628207
0003f0 de cc 12 3e 23 94 94 bd 98 5f ff bb 2f f8 9d bd
       0.14335963 -0.07254817 -0.007793378 -0.07713353

bias f4 [128]
000000 05 83 cb 37 36 6e d6 3a d3 8a 9b 3a 53 8e 11 bb
       2.4260497e-05 0.001635975 0.0011866934 -0.0022210076
000010 87 61 86 b3 fe 99 16 39 48 ea 9f 39 54 3f 72 ba
       -6.2576014e-08 0.00014362481 0.00030501396 -0.0009241004
000020 3f 74 c7 ba 37 2d ee 3a 2d 81 ca 3a d6 d1 51 bb
       -0.0015217139 0.0018171434 0.0015449874 -0.003201594
000030 45 ec 7f 3a a9 92 23 bb 69 d5 a5 3a be 55 d0 b9
       0.0009762685 -0.0024959242 0.0012652102 -0.00039736734
000040 59 6f cc 38 63 9d 5c 3b 16 32 3d 3a 00 00 00 00
       9.748218e-05 0.0033663146 0.0007217241 0.0
000050 ba e4 99 b9 00 00 00 00 34 9e 70 ba 00 00 00 00
       -0.0002935285 0.0 -0.00091788475 0.0
000060 c1 c4 ca b5 c2 53 3b bb ea a3 48 39 d6 1c 86 bb
       -1.5107436e-06 -0.002858386 0.00019134549 -0.004092793
000070 fe 61 55 3b c1 94 b1 b9 6f 16 e4 3b 97 45 2b 3b
       0.0032559629 -0.000338709 0.006960682 0.0026134008
000080 2c 44 13 38 3f 40 a2 ba b6 9c 47 3a 8d 90 9d 3a
       3.511102e-05 -0.0012378766 0.00076145993 0.0012021229
000090 a4 80 7d 3b 41 1d 85 b8 ab bf f1 b6 b8 c2 2d ba
       0.0038681412 -6.347383e-05 -7.204673e-06 -0.00066284416
0000a0 b2 ce 13 3b ea d6 df b7 e2 1d 62 39 0f 86 eb 32
       0.002255362 -2.6683749e-05 0.00021564172 2.7418563e-08
0000b0 9b 94 79 35 f9 8d 8b 3a 6c 35 bb 3a 5e b6 c8 b8
       9.297598e-07 0.001064717 0.0014282889 -9.570712e-05
0000c0 3b 73 85 ba ea 48 e7 b9 8a de 95 3b a2 cc 75 37
       -0.0010181436 -0.0004411408 0.004573648 1.4650783e-05
0000d0 9b 74 ab 3a 5e 33 36 3a c0 df 04 3b 49 3d 29 3a
       0.0013081016 0.00069504033 0.0020274967 0.00064559706
0000e0 00 00 00 00 14 38 65 3b 6e 66 8f 3b 54 ed 17 bb
       0.0 0.0034976052 0.0043762242 -0.002318223
0000f0 45 04 4f 39 09 85 e0 b9 3d 7f 91 39 40 88 d1 b8
       0.00019742649 -0.00042823728 0.00027751355 -9.991275e-05
000100 3e be 7b 34 e3 93 11 ba a5 e8 50 ba 7a 56 83 ba
       2.3445406e-07 -0.0005553348 -0.0007969237 -0.0010020279
000110 31 2a 39 bb 2a 88 15 39 2e f1 42 ba f9 ce 98 3a
       -0.0028253908 0.00014260472 -0.0007436451 0.0011658362
000120 00 00 00 00 10 27 9b ba 88 19 87 39 e3 56 16 35
       0.0 -0.0011837203 0.0002576823 5.600579e-07
000130 53 73 6f ba c3 25 3d b9 a5 7e 34 ba c2 40 47 3a
       -0.0009134311 -0.00018038512 -0.00068853266 0.0007600897
000140 6f 4d 53 39 4e 1e f6 36 6c 0a 5b ba 21 5e 5b b9
       0.00020151374 7.3348992e-06 -0.000835574 -0.00020920533
000150 d8 54 4d 3b 41 3f 87 3b ab de 28 3b 92 48 23 3b
       0.0031331088 0.0041274135 0.0025767486 0.0024915081
000160 08 e2 eb 36 5e 91 49 3a 47 fe e7 34 64 30 5d 39
       7.0298593e-06 0.0007689203 4.3212114e-07 0.0002109423
000170 6a 7b d9 b9 a6 6d 1a b9 6e 7e 2e b9 e3 a0 0a 39
       -0.00041481416 -0.00014727432 -0.00016641032 0.0001322064
000180 0a c2 46 3a 7c af 2a bb cb 51 ec 3a cf 83 df 3a
       0.00075820147 -0.0026044538 0.0018029747 0.0017052832
000190 e8 fd 8a ba 88 c3 43 b7 c2 47 c6 39 2c 5e 07 b9
       -0.0010604234 -1.1668431e-05 0.00037818967 -0.00012909685
0001a0 95 97 86 39 18 52 ae 39 15 74 0c b9 ad 85 29 b7
       0.0002567141 0.0003324903 -0.00013394684 -1.0104309e-05
0001b0 0b 5e 05 3b fc 55 da b5 5f e9 23 37 4b 3d b8 ba
       0.0020350243 -1.626729e-06 9.769893e-06 -0.0014056353
0001c0 fb 91 a2 36 6f 15 15 ba 53 fa 3d b9 cd 11 96 b9
       4.8449706e-06 -0.0005687093 -0.00018117698 -0.00028623492
0001d0 8b 12 b8 3a d3 36 40 36 34 f9 8d b8 8d e0 5b 3b
       0.0014043612 2.8642141e-06 -6.7698216e-05 0.003355059
0001e0 38 07 b3 ba 14 d2 fe 39 32 0c 6d ba 7e 65 1b 3a
       -0.0013658768 0.00048603176 -0.000904265 0.0005927904
0001f0 50 2f 15 39 08 b3 76 3a 21 90 ca ba a0 3c 96 3a
       0.00014227373 0.0009410833 -0.0015454331 0.001146216

weight f4 [128, 128]
000000 ee 27 24 bc 63 4f 28 3d 31 b8 11 3d 69 99 26 bc
       -0.010019286 0.041091334 0.03557605 -0.010168412
000010 6a 6a ef 3d 26 e3 17 be f2 f5 e8 bd 27 8b 1f bc
       0.11690219 -0.14832744 -0.11375035 -0.009737766
000020 82 19 f3 bd 2f db 92 3d d9 3d fd bb 24 6c 72 3c
       -0.118700996 0.07170712 -0.00772832 0.014796291
000030 6d 15 00 3d cb 67 b3 3c 24 19 9b bd ca 12 ab 3d
       0.031270433 0.021900078 -0.075731546 0.08353193
000040 55 ca 0a 3e 36 4e 85 3c f2 d8 04 3e ef 37 e8 3d
       0.13553746 0.016272645 0.12973383 0.113387935
000050 95 87 fc 3c 92 11 35 bd f5 ff b3 bd 52 8f 09 3d
       0.03082637 -0.04420621 -0.08789054 0.033583947
000060 4a 99 8d 3d a0 b4 0a 3e 2a 56 bf bc 21 5d 0b 3e
       0.06914003 0.13545465 -0.023356516 0.13609745
000070 ff 1d 57 bd 85 17 99 bd fc 81 a6 bd 2a 3e 28 3d
       -0.05251884 -0.07475189 -0.08130261 0.04107491
000080 c1 11 3a 3d 0c 0a 48 3d 65 69 bd 3d 2a db ec 3c
       0.045427088 0.048837706 0.09248618 0.0289131
000090 3c 53 35 3c 09 96 e4 bd 7a 40 d5 3d a5 f0 01 3e
       0.011067208 -0.111614294 0.104126886 0.12689455
0000a0 28 b9 0d 3e 07 fe ff bc eb 8a 39 3d b4 08 e8 3c
       0.13840163 -0.03124906 0.045298498 0.028324462
0000b0 7a e4 0b be d2 e1 90 bd e8 95 d8 3c 71 14 b7 3d
       -0.13661376 -0.07074322 0.026438668 0.08939446
0000c0 cb 5e 02 be 15 63 99 3d 75 cb 83 bd 8b f4 74 bd
       -0.12731473 0.074896015 -0.06435291 -0.059803527
0000d0 28 0d f5 3d 5b 9e 14 be 1d ac f4 bd b0 65 c1 bd
       0.119654 -0.14513533 -0.119468905 -0.094432235
0000e0 43 d5 b1 3d 11 08 03 bd 43 4a 17 be 67 5c c6 bd
       0.086832546 -0.031990115 -0.14774422 -0.09685593
0000f0 86 45 11 3e b3 46 32 3d f9 82 99 bc 2a b6 00 be
       0.14186677 0.043524455 -0.01873921 -0.1256949
000100 9a 64 d8 bd 4e 3c 5b 3d e5 88 ec bd 7b 5e e6 bd
       -0.10566063 0.053524308 -0.11549548 -0.112484895
000110 8d f7 c0 bd 8f 3e e8 bd cf 8c 09 be f5 01 0b 3e
       -0.094222166 -0.11340057 -0.1343262 0.13574965
000120 2a bc 77 bd 9e ee 47 3d ac 21 a3 bd 5d 8e e6 3d
       -0.06048218 0.048811547 -0.07965407 0.112576224
000130 5b f9 02 3e a7 67 9d 3d a1 3a 00 3e d3 c7 e0 bd
       0.12790434 0.07685786 0.12522365 -0.109756134
000140 aa 27 d2 3d 50 fe 1a 3e 45 57 15 be ca e2 0e be
       0.102614716 0.15136075 -0.14584072 -0.139537
000150 ba f7 b9 3d 75 c7 3b bd 46 5b 65 3d 5d 15 0c 3d
       0.09080453 -0.045844514 0.05599525 0.03420006
000160 c5 1b 89 3d b1 40 db 3c 19 f8 d7 bd 27 e1 d7 bc
       0.0669475 0.026764246 -0.10545368 -0.026352478
000170 ec 3f 03 3e f9 f2 0f 3b a8 e2 d7 bd 1c 85 0f be
       0.12817353 0.0021964891 -0.10541278 -0.14015621
000180 c2 b9 d5 bc 04 45 39 3d cc 35 80 bc ea 90 81 bd
       -0.026089553 0.045231834 -0.015650652 -0.06326468
000190 3f a1 59 3d 2f 2a 15 3d 6e 09 57 3c b7 c7 55 3c
       0.053132292 0.036417183 0.013124807 0.013048104
0001a0 a3 ab 10 3d ad 6d 2a bd 0f 9a ad bd 8b 42 df 3d
       0.035319936 -0.0416085 -0.0847665 0.10901364
0001b0 c2 34 f4 bd 6f 9b ca bd 33 47 08 3d f4 a2 15 3e
       -0.11924125 -0.09892928 0.033271026 0.14612943
0001c0 96 9c bb bc e2 20 8c bd e4 96 9e bd 22 f8 18 3e
       -0.022901814 -0.068422094 -0.07743624 0.14938405
0001d0 9c 08 d7 bc 89 65 54 3d 11 53 52 bd 05 6b 07 3e
       -0.026249222 0.051854644 -0.05134875 0.13224418
0001e0 fc 95 7f bd 4a 1d c5 3d de 7b 0e 3e 94 dd 49 3d
       -0.062398896 0.09624727 0.13914439 0.04928358
0001f0 fd f6 44 bd 23 06 57 3d 88 e2 a8 bc dd b2 96 3d
       -0.04808711 0.052496087 -0.020615831 0.07358334
000200 8d 45 ac 3d 68 2b 7e 3c 8d 84 19 be af c2 14 3e
       0.08411703 0.015513279 -0.1499197 0.14527391
000210 76 0c 82 3d 80 16 8a bd 88 e7 88 bc 1a 3d dc bd
       0.06350033 -0.06742573 -0.016711965 -0.10753842
000220 ac c6 88 bd 6c 4d fd bd 57 db 3c 3c f7 8d dd bd
       -0.06678519 -0.12368283 0.011526904 -0.10818093
000230 2c a4 02 be 7f 45 f6 3d 1a 19 10 be 51 c0 04 3e
       -0.12757939 0.12024974 -0.14072075 0.12963988
000240 5e 49 0e bc b0 df 0f 3e b1 68 cd 3c 5c 00 ec bd
       -0.008684484 0.14050174 0.025074335 -0.11523506
000250 5f 9f 76 3d a4 2d de bd c4 e8 07 be 64 a2 0a bd
       0.060210582 -0.10848549 -0.13272387 -0.033846274
000260 2b 37 89 3d 6f ba b4 bd 82 2a 09 be ae f1 af bc
       0.066999756 -0.08824622 -0.13395122 -0.021477547
000270 50 65 9e 3d d9 eb 3b bd 01 63 f4 bd f8 08 b6 3c
       0.077341676 -0.04587922 -0.11932946 0.022221074
000280 d4 b1 b0 3d 10 6d 35 3d 1c 4d 54 3d 1b cf 11 3e
       0.08627668 0.044293463 0.05183135 0.1423916
000290 15 97 a9 3d 15 93 05 3e 3c f6 48 bd f4 80 00 bb
       0.0828077 0.13044389 -0.049062952 -0.0019608112
0002a0 95 53 32 bd 41 21 13 be 6d b2 ea bc ce 66 fd 3d
       -0.04353674 -0.14368154 -0.028649533 0.12373124
0002b0 15 11 fe 3d bb d4 17 3e dc 1a 0a be 38 dd 14 3e
       0.12405602 0.14827244 -0.13486809 0.14537513
0002c0 36 43 e4 bd 4b 78 10 3d 4f ec 13 bd 96 e0 d9 bd
       -0.11145632 0.03527097 -0.036114033 -0.106385395
0002d0 2b f0 b2 3d db 0a 12 be d8 d0 bd bd 2b 9c 38 3d
       0.08737215 -0.14261954 -0.092683494 0.04507081
0002e0 2e 37 de bd e2 91 fc bc fe 9c fd 3d 4d d9 fa 3d
       -0.108503684 -0.030831281 0.123834595 0.12248478
0002f0 5d ab 9c bd bf 2c 7e bd 10 5c bc bd 47 50 15 3e
       -0.076498725 -0.062054392 -0.09197247 0.14581405
000300 b0 ad 06 3e 5f 1a 46 bd 91 4f 07 be bf 84 3a bd
       0.13152194 -0.048364993 -0.13213946 -0.045536753
000310 99 2a f7 bd 02 43 c7 bc 7f e8 0b bd e4 f7 cd bd
       -0.12068672 -0.024323944 -0.034157272 -0.10057047
000320 f4 56 a3 bd 0f f3 52 bc 13 7e b2 bd c2 fb d0 3d
       -0.07975569 -0.0128753325 -0.08715453 0.10204269
000330 6f 03 d6 bc 6d 61 61 3d 57 cd cf 3d 76 e2 a9 bc
       -0.026124684 0.055024553 0.10146587 -0.020737868
000340 e3 57 fb bc f5 f2 27 bd 1f df 39 3d e1 86 61 3d
       -0.030681556 -0.041003186 0.0453788 0.05506027
000350 01 0b 15 be 03 cc 07 be db ff c3 bd 64 44 b8 3d
       -0.14554979 -0.13261418 -0.09570285 0.089974195
000360 e4 f3 68 bd 4b fa d1 bd 2a 94 73 bd 45 78 86 bd
       -0.056873217 -0.10252818 -0.059467472 -0.06565908
000370 ad 16 bc bd 2b ab a8 bd 65 bc d1 bc 0b b1 43 bd
       -0.091840126 -0.08235773 -0.025602529 -0.047776263
000380 a8 64 8a 3b fb 4a 03 bb b3 b2 16 bc 1f d2 12 bd
       0.004223425 -0.0020033706 -0.009197879 -0.03584492
000390 76 ea 11 be 2b a9 76 bd 54 dd cf ba ea a7 0f bd
       -0.14249596 -0.060219925 -0.0015858808 -0.035072245
0003a0 bb 90 c6 3b b6 dd e7 bd 62 90 d4 bd 7a 46 bd 3d
       0.0060597337 -0.11321585 -0.10379101 0.09241958
0003b0 c2 39 cd 3d 69 c8 45 3d 02 34 4f 3c 53 7b eb bb
       0.10020782 0.04828683 0.012646677 -0.0071863323
0003c0 20 c3 90 3d 81 c9 b7 3d 5c b0 e8 3d 79 d7 08 3e
       0.07068467 0.08973981 0.11361763 0.13363446
0003d0 02 2e 35 bc 1b 10 64 bd f4 f1 24 bd 05 0e e0 bc
       -0.011058332 -0.055679422 -0.040269807 -0.027350435
0003e0 4f 36 91 bd ab 36 eb bd ec 07 5d bd 4b b1 f7 bc
       -0.07090437 -0.114850365 -0.053962633 -0.030235907
0003f0 37 5a 84 3d dd 17 59 bd 9d c5 41 3c 20 ce fd bd
       0.064625196 -0.053001273 0.0118269 -0.12392831

bias f4 [128]
000000 b2 47 93 39 00 00 00 00 69 af a5 3a a0 dc 61 b8
       0.00028091442 0.0 0.0012640777 -5.3849653e-05
000010 88 0e ac 3b 0c c8 73 3b 90 55 a4 3b 43 c1 4f ba
       0.0052507557 0.0037198095 0.0050150827 -0.00079252216
000020 06 a2 25 bb 10 a0 65 b7 9d 6d 4c 39 02 4f 02 bb
       -0.0025273575 -1.3686731e-05 0.0001949579 -0.0019883518
000030 a1 2c 45 3b 25 c9 88 b7 db ee a6 3a f3 aa 6e 3b
       0.0030086415 -1.6306129e-05 0.0012735979 0.0036417812
000040 23 ac fd 3a b8 72 14 b8 12 ec 63 3b 8e 09 78 3b
       0.0019353669 -3.539279e-05 0.003477816 0.0037847492
000050 e6 ae 8d bb fa d6 cb 3b 43 30 8f b8 69 d3 79 37
       -0.004323828 0.0062206956 -6.827761e-05 1.4890779e-05
000060 16 48 bd ba af e5 cf ba 3c b8 15 b9 6c 9c 09 3b
       -0.0014441039 -0.0015861298 -0.0001427838 0.0020997776
000070 8e b1 12 bb 00 00 00 00 2c fd a4 3b da a0 07 3a
       -0.0022383663 0.0 0.0050350633 0.000517381
000080 61 53 b4 b7 da ab 63 3a b1 9b 41 ba 00 00 00 00
       -2.1496498e-05 0.00086849707 -0.00073855656 0.0
000090 2f 17 2b b4 9c 4c cb 38 ad dc 02 3b 4e 60 1e bb
       -1.593405e-07 9.694064e-05 0.0019967959 -0.0024166289
0000a0 5d af 02 ba 9e 09 ec b9 fe 45 86 bb 30 32 d5 b9
       -0.00049852376 -0.00045020593 -0.004097699 -0.00040663918
0000b0 0a ef 69 3a 54 d1 56 39 0b df 39 39 b8 bf 55 b9
       0.0008923864 0.00020486611 0.00017726065 -0.00020384684
0000c0 30 af ff 38 0d 82 10 3c d1 b4 0b 3b c0 2d 87 36
       0.00012191979 0.008820069 0.0021317492 4.0286395e-06
0000d0 98 a3 3d 37 7a 90 09 39 00 00 00 00 00 00 00 00
       1.13033675e-05 0.0001311916 0.0 0.0
0000e0 ab fe 9d b8 48 87 fa 3a eb 65 84 b3 ff c2 ba ba
       -7.533779e-05 0.0019113803 -6.165268e-08 -0.0014248787
0000f0 fa 4e 8e 3b bf d5 fa ba 86 c3 af ba 86 2b 73 ba
       0.004342911 -0.0019137188 -0.0013409711 -0.00092762
000100 4e 35 b9 3b 64 35 12 bb 32 a3 ea b2 d2 bd 10 bb
       0.0056521064 -0.0022309655 -2.7315398e-08 -0.0022085798
000110 f1 a9 b1 3a 00 00 00 00 38 a0 1e 3b 50 dc 87 b9
       0.0013554675 0.0 0.0024204385 -0.00025913352
000120 00 00 00 00 95 c0 d2 3b 00 00 00 00 b2 63 7e bb
       0.0 0.006431649 0.0 -0.0038816747
000130 26 aa e8 ba 14 55 ed ba 74 65 29 bb 11 21 98 3b
       -0.0017750903 -0.001810702 -0.0025847824 0.0046426137
000140 e6 a4 57 39 4e 9a 0a ba f2 a1 08 b5 f7 97 89 b7
       0.00020565427 -0.00052872754 -5.089961e-07 -1.6402437e-05
000150 c1 0a 22 3b a5 fa 80 38 28 90 ec 38 93 8e 8b 38
       0.0024725648 6.150202e-05 0.00011280208 6.654593e-05
000160 1e 39 d2 b8 38 17 9c ba 0a 4b 80 ba fc 54 2d ba
       -0.00010024219 -0.0011908775 -0.0009787988 -0.000661209
000170 00 00 00 00 09 e5 22 ae 03 2e d0 ba 00 00 00 00
       0.0 -3.703796e-11 -0.0015882853 0.0
000180 90 16 53 b9 d5 bd 0d 3b 7c c5 e1 3b 00 00 00 00
       -0.00020130933 0.0021628041 0.006889997 0.0
000190 99 b6 dd 3b 7c e8 99 3b fb f5 bb 39 33 67 a0 b9
       0.006766152 0.0046969038 0.0003585069 -0.00030594468
0001a0 32 f6 86 ba f5 7d 9e ba 4c 8d 2e 3a b5 59 4b 3b
       -0.0010296761 -0.0012091981 0.0006658628 0.0031028811
0001b0 74 52 53 37 21 0b d1 b9 1e 9f 4e ba c8 77 4a bb
       1.2595778e-05 -0.00039871878 -0.00078819867 -0.003089415
0001c0 00 00 00 00 8e 85 ee 3a d0 cc 2d 3b ce f5 49 bb
       0.0 0.0018197761 0.0026519783 -0.0030816677
0001d0 e8 83 62 bb 00 00 00 00 8e 6d b8 b7 ed 03 48 b9
       -0.0034563486 0.0 -2.1985525e-05 -0.00019074949
0001e0 55 b6 5f bb 6f db 63 ba 0f e4 c8 ba b6 ab 50 ba
       -0.0034135778 -0.0008692061 -0.0015326756 -0.0007960157
0001f0 6d ba 28 ba 0e 0c 97 b8 93 0a a1 ba b4 ae 95 ba
       -0.0006436471 -7.2024864e-05 -0.0012286477 -0.0011419863

weight f4 [128, 128]
000000 6c 3b 10 be af 52 1b 3d d6 3e 36 3d 02 5d 98 3d
       -0.14085168 0.03792065 0.04449352 0.07439615
000010 12 94 81 3d 86 4f 9f 3b c7 54 b2 bc 10 de 86 ba
       0.0632707 0.004861775 -0.02176894 -0.0010289568
000020 8b bf 95 3c 04 cb c5 bd c7 31 69 bd a2 28 5a 3d
       0.018279811 -0.09657863 -0.056932237 0.053261407
000030 67 21 be bd eb 38 11 be 14 67 18 be 95 82 d1 bd
       -0.09283715 -0.14181869 -0.14883071 -0.10229985
000040 52 2d a6 bd 68 6d eb bb f1 16 c6 3c 47 3f 0c be
       -0.08114113 -0.007184673 0.024180861 -0.13696013
000050 2f 12 95 3d c1 0c 12 3e ec 11 13 3e d0 42 92 bd
       0.07278859 0.14262678 0.14362305 -0.0714165
000060 d6 e9 16 3e 31 29 de 3b 3a 45 c3 bc 0a 8a 13 be
       0.14737639 0.0067798127 -0.02383672 -0.14408126
000070 18 d4 b0 bc 29 7d ee 3d 08 f3 91 3c b4 45 94 bd
       -0.02158551 0.11644966 0.017816082 -0.07239857
000080 71 87 18 3e a7 c6 08 3d 7f b9 aa 3d 9f ce 15 3e
       0.14895417 0.033392575 0.08336162 0.14629601
000090 72 eb ef bd d1 2a a8 3b 2e fa 62 3d e8 fe a8 3d
       -0.117148295 0.0051320572 0.05541437 0.082517445
0000a0 4a 02 07 3e 9f bc 4a 3d 44 bd bd bd c2 c7 14 be
       0.13184467 0.04949629 -0.09264615 -0.14529327
0000b0 04 31 b9 bc 8a a1 10 3d 52 58 7d 3d ef 71 6d bd
       -0.02260638 0.035310306 0.061851807 -0.057969984
0000c0 e4 77 79 bd 1c 65 0f be 20 28 3e 3d b3 c3 cc 3d
       -0.060905352 -0.14003414 0.046424985 0.09998264
0000d0 21 e5 bd bd 5d b2 82 bc 1b 08 91 bc 68 3b bc 3d
       -0.092722185 -0.01595419 -0.01770406 0.09191018
0000e0 7e 72 ec 3d d1 40 d0 3d ab de f6 3c d0 a0 4a 3d
       0.11545275 0.10168613 0.030135473 0.04946977
0000f0 cb b4 00 be 0e cf 10 3d 01 12 e7 3d 79 cc d0 bd
       -0.12568967 0.035353713 0.11282731 -0.1019525
000100 f8 e2 04 be 72 2a c1 3c 85 c8 6d 3d 09 e3 5c 3d
       -0.12977207 0.02357981 0.05805256 0.053927455
000110 a7 ef 14 3e 6a 70 7e 3d 88 43 71 3d 9a a1 74 3b
       0.14544545 0.062118925 0.058902293 0.0037327767
000120 70 7f 07 be 6f fb f0 3d 8a 11 c1 3c f5 c0 5b bd
       -0.13232207 0.11766707 0.023567934 -0.053650815
000130 19 bb 0d 3e 18 2c b0 3c 29 ab f6 3d 4e e7 18 bd
       0.13840903 0.0215054 0.12044365 -0.037329964
000140 f9 4e db bd f3 8f f7 3d 82 39 16 be db 94 02 be
       -0.10708422 0.12088003 -0.14670375 -0.12752096
000150 e8 2e 17 3e ef 83 aa 3d 11 0a 98 bd 12 c9 d8 bc
       0.14763987 0.083259456 -0.07423795 -0.026463065
000160 44 d5 f0 3d aa 1d 00 be b4 04 44 3d 69 55 0f be
       0.11759427 -0.12511316 0.047856048 -0.13997425
000170 2e c7 18 3e 76 88 a6 3d 24 1a 7e 3c cc 37 e7 bd
       0.14919731 0.081314966 0.015509162 -0.11289939
000180 e1 59 a9 bc 85 36 96 3d 6f 28 1f be a7 f4 c3 bd
       -0.02067274 0.073346175 -0.15542768 -0.09568148
000190 40 f4 90 bc bc 51 98 bd 3f 81 4f bd f8 ac 05 be
       -0.017694592 -0.074374646 -0.050660368 -0.13054264
0001a0 f1 f0 b1 bc 59 10 89 bd f1 e3 12 3e 18 f2 10 3e
       -0.021721335 -0.06692571 0.14344765 0.14154851
0001b0 64 43 90 bd 39 fd 43 bd 2c 16 04 be 6a 9e 12 bd
       -0.07044104 -0.047848914 -0.12899083 -0.035795607
0001c0 60 19 dd bd 18 7d 97 3d 47 c5 01 3e d0 b1 fa 3d
       -0.107958555 0.073969066 0.12672912 0.12240946
0001d0 be 5d e1 bd 48 9a 31 bd f0 29 0e 3e b1 ba 09 3e
       -0.11004208 -0.043360025 0.13883185 0.13450123
0001e0 e4 f4 12 3e e1 da 48 bb 61 bd 7a bc 0a 28 0b be
       0.14351231 -0.003064804 -0.0153039405 -0.13589492
0001f0 26 d4 97 bd 91 a5 03 3d 0a b2 fe bd 2a 84 fc 3d
       -0.07413511 0.03214032 -0.12436302 0.12329896
000200 a5 ee f2 3d 37 f5 05 be 62 e4 15 bc a8 02 09 be
       0.11861924 -0.13081823 -0.009148689 -0.1337992
000210 c4 e5 85 bb a2 81 cb 3d 99 e1 84 3d 04 88 08 be
       -0.004086228 0.09936835 0.06488342 -0.13333136
000220 37 8a 1a bd ea 25 14 be d5 3b 08 be be 6b cb bd
       -0.03772947 -0.14467588 -0.13304074 -0.099326596
000230 5d 04 a7 bd f6 7d da 3d ad c1 83 3d 68 e6 21 3e
       -0.08155129 0.106685564 0.06433425 0.1581055
000240 35 6d 8d 3d e3 46 c0 bd 9c 5c 88 3d cd 54 e0 3d
       0.06905595 -0.093885206 0.06658289 0.109536745
000250 bb 2d 18 3b 3d 7a a4 3d 16 82 f2 3d e8 5d 7d bd
       0.0023220617 0.080311276 0.11841218 -0.061857134
000260 d5 31 07 3e 6e df d5 bd 46 5d 7f bd 21 66 5f 3c
       0.13202603 -0.104430065 -0.06234481 0.013635189
000270 41 d1 09 be 67 a9 88 3d 0e 51 91 bc d7 28 07 3e
       -0.1345873 0.06672936 -0.017738845 0.13199173
000280 7d 26 96 3d 58 91 ad bd 4e 5b 02 3d 4a ca 1b 3b
       0.0733156 -0.08474988 0.031825356 0.0023771697
000290 ac 57 18 bd 7c 4f 9f 3d a2 f7 a3 bd 74 d7 7d 3d
       -0.037192985 0.07778832 -0.080062166 0.06197305
0002a0 f6 00 f2 3d 84 78 53 3d 09 c2 fa bb 44 8b fc 3d
       0.118165895 0.051628605 -0.0076525253 0.1233125
0002b0 32 1e 84 bd b2 c9 1e 3c b2 28 05 3c 5d 32 15 bd
       -0.06451072 0.009691643 0.008127378 -0.036424983
0002c0 dc 5c be bd db f7 f6 3d c8 87 2a 3e 42 cc 44 3d
       -0.09295055 0.120589934 0.16653359 0.048046358
0002d0 ce bb 9c bc 8e 74 b2 3b 9b 09 08 3e 1b 9e 12 3d
       -0.019132521 0.0054460233 0.13284914 0.035795312
0002e0 06 45 b1 3c cd 83 a7 3d 96 aa 18 3e d1 77 c7 bd
       0.021639358 0.08179436 0.14908823 -0.0973965
0002f0 16 c2 d6 bc ce 60 fd bd 49 9f 93 3d 28 36 9d 3d
       -0.026215594 -0.1237198 0.072081156 0.07676345
000300 a1 9c 08 bd c9 be 89 3d f8 22 d2 bd 97 e9 80 3d
       -0.033352498 0.067258425 -0.10260576 0.06294554
000310 de 27 c3 3d fa 2f 99 3d 3d 2a 0e 3e a6 12 82 3d
       0.095290884 0.07479854 0.138833 0.06351213
000320 d9 02 d0 3d 85 fd b0 bd 55 c0 26 bd 76 49 c8 3d
       0.10156793 -0.08642105 -0.040710766 0.097796366
000330 5f 09 46 bc 6d b0 1b 3e a8 b2 c6 3d 47 05 22 3d
       -0.012087195 0.1520402 0.09702045 0.039555814
000340 5c e2 d8 bd d7 eb e9 bd 60 7a 15 be 2d 90 b7 3d
       -0.105900496 -0.11421936 -0.14597464 0.08963046
000350 2a 0b 56 bd cb ea de bc 84 ee 15 be 08 70 4d bb
       -0.05225674 -0.027211567 -0.14641768 -0.0031347293
000360 16 6b ee 3d 67 f7 0a be 8d 51 1c 3c 6c af f9 bd
       0.11641519 -0.13570939 0.009540928 -0.12191662
000370 ee 09 be 3d 3e b1 18 be 94 3c 07 3d 07 7c f8 bc
       0.09279238 -0.14911363 0.033016756 -0.030332578
000380 23 93 52 3d c9 ae 96 bd c0 a6 b5 3d fc b9 88 3c
       0.05140985 -0.073575564 0.08869696 0.016690247
000390 3d f9 17 be 74 21 f2 3d 4f 5b f8 3d 57 f6 17 3e
       -0.1484117 0.11822787 0.12126791 0.14840065
0003a0 7a 81 0c be 3b bb ab 38 87 df 1c 3e 34 d5 21 3d
       -0.13721266 8.18879e-05 0.15319644 0.039509967
0003b0 77 2b f7 3d 0a d4 d4 bd f1 8f 3b 3d f3 4f 57 3d
       0.12068837 -0.10392006 0.04579157 0.05256648
0003c0 f7 46 05 bd 9f 03 9b bc 13 03 8c 3d af b8 93 bd
       -0.03253838 -0.018922625 0.06836524 -0.0721296
0003d0 be f1 48 3d 99 2f 0b 3e 1b 8f 10 be 63 a2 ec 3d
       0.04905867 0.13592376 -0.1411709 0.1155441
0003e0 c2 a8 04 3d 96 31 65 3d f8 ca c0 3c 6b 9e ba bd
       0.032387502 0.055955492 0.023534283 -0.09112247
0003f0 97 d8 52 bc c4 81 12 3e 65 e0 31 bc bf 14 c3 3c
       -0.012869022 0.14307314 -0.0108567225 0.023813603
