MAMRL-TE/Dynamic environments/Baselines/Random/ATT/task2/savemodels/policy12.pth (torch, 279451 bytes, 12 tensors)

weight f4 [128, 7]
-0.078078955 -0.07618396 0.17728467 0.18727592 0.14070405 0.15345888 -0.14615674 -0.09112978
0.16234247 -0.15099475 -0.1063539 -0.12365541 0.17272565 0.19889109 0.072259724 -0.006308788
0.1564343 -0.06525762 0.15560167 0.056231964 0.00011691038 0.0026992736 0.0020223383 -0.008018172
-0.1103483 0.15792377 0.015910063 -0.0865675 -0.14776102 -0.21215035 0.17997916 0.015091921
0.11537019 -0.12485827 0.14207713 -0.032096136 0.08749894 -0.14645214 0.19017498 -0.18885331
0.08947564 -0.19857486 0.020138348 0.032101057 -0.1234986 0.20568281 0.09416021 0.17139433
-0.037187245 0.12812126 0.045797423 -0.0029823708 0.017393323 0.07078952 -0.2020802 0.15927915
-0.1650429 -0.025105372 -0.059394747 0.12846532 -0.029810855 0.04105743 0.06771249 0.08418053
0.034358528 -0.0030065058 -0.05024075 -0.16147389 0.06440253 0.060020193 0.20976008 0.1706171
0.0037517252 -0.094777055 0.17367844 -0.090089895 0.14756098 0.0155535145 0.0792474 -0.006442119
0.19790949 0.10534156 -0.11200833 -0.02220388 0.042929642 0.10566636 0.023972444 -0.19225031
0.07272958 -0.11291263 0.20225713 0.02297732 -0.0019172211 -0.18869534 -0.1327571 0.20637397
-0.11727079 -0.03813799 0.0030921022 -0.13330851 -0.028846918 -0.08637703 0.120987475 -0.10965247
-0.099742875 0.10651947 0.12963828 -0.1797839 0.19076079 -0.15229635 -0.10087677 0.0331033
-0.17337966 0.18850861 0.030115854 -0.07442863 -0.17222276 0.1020355 0.12994623 -0.07283343
0.09937319 -0.1704843 0.18646735 -0.026198942 -0.09808405 0.06075304 -0.15102798 0.13958241
-0.20173673 -0.08732287 -0.10147079 -0.0040943925 -0.14976414 0.21495183 0.08741236 0.114808194
0.097157255 -0.19260913 0.109013654 -0.06587751 0.05164744 0.20085627 0.09218879 0.1724067
-0.059292156 0.1877361 -0.03251933 -0.18764558 -0.058955077 -0.066537894 0.10405754 0.10605602
0.12858286 0.13950524 -0.07871203 -0.044745665 0.18640162 0.02093639 -0.20861033 0.18597166
-0.061761964 -0.03500502 -0.1080106 -0.030421862 -0.18736605 -0.118198335 -0.10292408 -0.14269027
0.117157154 0.18533044 0.10718262 -0.18405122 0.113701284 -0.0778903 0.06768994 -0.06358639
-0.0023438463 0.20387207 -0.016145036 -0.058496144 -0.14014609 0.057886213 -0.13192968 -0.17452355
-0.09605201 0.012359056 -0.20090234 -0.0030167883 0.07866301 -0.06006191 0.022106234 0.03647175
0.14626785 -0.18346323 0.008309925 -0.061301738 0.2139114 0.035002172 0.03292501 -0.10025884
0.07999652 -0.0025876465 -0.122697234 -0.005448034 0.06343437 -0.07239138 -0.06418589 0.05756504
-0.061713006 0.17103119 -0.050976664 -0.050827127 0.09876031 -0.13069056 -0.071434915 -0.17428562
0.03255021 0.07933022 0.061866663 0.08860658 -0.17116241 -0.0044139093 0.03121225 0.16016471
0.07456619 -0.0475635 0.092583574 0.12299461 0.020911673 0.1961786 -0.10062339 -0.1195702
-0.045420945 -0.19858044 0.20778628 -0.09901422 0.13507514 -0.08117483 -0.20393646 0.04761508
0.14937168 -0.045044128 0.11870419 -0.13615327 0.030056544 -0.1065555 -0.066080965 0.016113164
-0.10433081 0.11944226 -0.202528 0.11749301 -0.022277324 0.084507845 -0.12551104 -0.17878266
00000000: dce7 9fbd 5606 9cbd 1d8a 353e 42c5 3f3e
00000010: b914 103e 5324 1d3e 1daa 15be 40a2 babd
00000020: 1b3d 263e 5e9e 1abe 13d0 d9bd 0c3f fdbd
00000030: fede 303e 1baa 4b3e e8fc 933d f3b9 cebb
00000040: 5030 203e c9a5 85bd 0b56 1f3e 7d53 663d
00000050: c82d f538 4ce6 303b 3589 043b a75e 03bc
00000060: 4afe e1bd c5b6 213e d255 823c 4d4a b1bd
00000070: aa4e 17be f13d 59be 754c 383e 1b44 773c
00000080: 3547 ec3d b1b5 ffbd ab7c 113e 3d77 03bd
00000090: a532 b33d 8df7 15be 3bbd 423e c362 41be
000000a0: 013f b73d 3557 4bbe 2df9 a43c 667c 033d
000000b0: d6ec fcbd 849e 523e 11d7 c03d ff81 2f3e
000000c0: a751 18bd 3832 033e 1496 3b3d e173 43bb
000000d0: 717c 8e3c 19fa 903d 1dee 4ebe 131a 233e
000000e0: 0201 29be c8a9 cdbc e847 73bd 6a8c 033e
000000f0: e535 f4bc d62b 283d d9ac 8a3d d766 ac3d
00000100: 87bb 0c3d cc08 45bb 3fc9 4dbd 6959 25be
00000110: 79e5 833d bcd7 753d 59cb 563e 40b6 2e3e
00000120: 81df 753b 791a c2bd c3d8 313e 0d81 b8bd
00000130: 3a1a 173e 2bd4 7e3c 764c a23d 6918 d3bb
00000140: c9a8 4a3e 51bd d73d a064 e5bd e9e4 b5bc
00000150: fed6 2f3d 9b67 d83d dc61 c43c 44dd 44be
00000160: 3ff3 943d bd3e e7bd 7e1c 4f3e ef3a bc3c
00000170: 444b fbba 5a39 41be 7af1 07be b353 533e
00000180: ab2b f0bd 9536 1cbd dea4 4a3b 0782 08be
00000190: 5f50 ecbc 71e6 b0bd 48c8 f73d 7991 e0bd
000001a0: fe45 ccbd e126 da3d e6bf 043e 4519 38be
000001b0: cc56 433e 93f3 1bbe 7b98 cebd 5397 073d
000001c0: 708a 31be 6708 413e 86b5 f63c 0a6e 98bd
000001d0: 2a5b 30be fdf7 d03d a010 053e b129 95bd
000001e0: 2c84 cb3d 7093 2ebe 4cf1 3e3e 2a9f d6bc
000001f0: 4ae0 c8bd 2ed8 783d 14a7 1abe b1ee 0e3e
00000200: 1394 4ebe 55d6 b2bd ebcf cfbd 412a 86bb
00000210: c55b 19be 551c 5c3e 4005 b33d 8f20 eb3d
00000220: 62fa c63d 543b 45be 8d42 df3d caea 86bd
00000230: 448c 533d 44ad 4d3e 7acd bc3d 628b 303e
00000240: 55dc 72bd e43d 403e fd32 05bd 2a26 40be
00000250: e17a 71bd 0545 88bd 1f1c d53d e633 d93d
00000260: 3aab 033e 76da 0e3e c633 a1bd 3b47 37bd
00000270: 11e0 3e3e cb82 ab3c f29d 55be 5b6f 3e3e
00000280: 1dfa 7cbd 6d61 0fbd a934 ddbd 4537 f9bc
00000290: e3dc 3fbe f811 f2bd dcc9 d2bd 661d 12be
000002a0: 17f0 ef3d 43c7 3d3e 9082 db3d ec77 3cbe
000002b0: 38dc e83d f384 9fbd 06a1 8a3d 9539 82bd
000002c0: 379b 19bb d7c3 503e 9842 84bc a799 6fbd
000002d0: 7582 0fbe 181a 6d3d 9318 07be 4db6 32be
000002e0: ebb6 c4bd a37d 4a3c 58b9 4dbe 4fb5 45bb
000002f0: 121a a13d 7a03 76bd 2218 b53c 6763 153d
00000300: 3dc7 153e c9dd 3bbe 5a26 083c 8817 7bbd
00000310: 970b 5b3e 705e 0f3d 60dc 063d 8254 cdbd
00000320: 37d5 a33d 8195 29bb b048 fbbd 6c85 b2bb
00000330: e1e9 813d ef41 94bd e473 83bd 52c9 6b3d
00000340: c7c6 7cbd cd22 2f3e e8cc 50bd 1b30 50bd
00000350: d842 ca3d bfd3 05be 784c 92bd ee77 32be
00000360: 5e53 053d e277 a23d e667 7d3d 5e77 b53d
00000370: 3345 2fbe 8ea2 90bb d5b0 ff3c 3802 243e
00000380: 29b6 983d f2d1 42bd 759c bd3d 99e4 fb3d
00000390: f54e ab3c 0be3 483e a313 cebd 39e1 f4bd
000003a0: 500b 3abd ac58 4bbe edc5 543e f8c7 cabd
000003b0: 2351 0a3e fd3e a6bd b8d4 50be 0808 433d
000003c0: e4f4 183e 3180 38bd 2f1b f33d c36b 0bbe
000003d0: 2439 f63c c539 dabd 7555 87bd c1ff 833c
000003e0: 64ab d5bd 259e f43d 8063 4fbe 2da0 f03d
000003f0: ef7e b6bc 7312 ad3d f785 00be cd12 37be

bias f4 [128]
-0.00061776396 -0.0008270045 -0.011610665 0.0038822964 -0.0014489967 0.0021602837 -0.0039491733 0.00094972295
-0.00077732705 0.0015500325 0.0124254655 -0.005976215 0.0017880067 0.00047032195 0.00018393365 -0.003197463
0.0027918895 -0.00028796168 -0.00047661638 0.005618657 0.0052644773 0.0019455319 -0.00026339147 0.0
0.0044549145 0.002957636 0.0 0.0045757373 -3.763786e-05 -0.0039366367 -0.0004565758 -0.001660951
-0.0027393475 2.96314e-05 -0.00023745824 0.0011619378 -0.0070437775 -0.0013863443 0.00016427378 -0.0033938142
3.9048085e-05 -0.0011394345 -0.0029428122 9.6213786e-05 -0.0002089405 -0.0042727445 0.0015315773 -0.0024576366
-0.00016849593 -0.0010005576 0.005157323 -0.00023516855 0.00015970095 -0.00069771043 0.0 0.0035116768
0.0013777285 0.0030960443 0.0004390246 -0.0006704635 0.00037399697 0.0036710105 0.0019003507 -0.00032442578
0.000102907245 0.0021461963 -0.005524788 0.0 0.00038645772 -0.0013511907 -0.0028120235 -0.0011446889
0.0016456029 0.00069941534 0.00048677888 -0.0017122575 -0.00089653564 0.0 0.0008140781 -0.00045434583
-0.0026098213 0.0002841568 0.0015337578 -0.012503957 0.00060257246 0.0009813365 0.00039702593 -0.002597827
0.00051897584 0.003952809 -0.0014518492 -0.0017630316 -0.0025242039 0.00039288765 0.0014819327 0.0010761982
-0.00043973018 0.0003985045 0.00075846177 0.0006505073 -0.0023698027 -0.0070893103 -0.0019224267 0.00033629365
0.00033173166 0.0041775275 0.005123573 -1.5468439e-06 0.0030312778 0.0009118156 -0.00093713345 -0.00093549956
-0.0069549945 -0.00045590504 -0.0036791093 -0.0011037489 -0.0007122725 -0.0029596724 0.0048704655 -0.0010291805
-0.003998777 -5.1836623e-06 -0.0005164998 -0.0024579894 0.0005113944 0.00015225481 -0.0036848187 -0.00039014983
00000000: 70f1 21ba 55cb 58ba a93a 3ebc 206e 7e3b
00000010: 43ec bdba 8c93 0d3b 1168 81bb d4f6 783a
00000020: 89c5 4bba 762a cb3a 2e94 4b3c 20d4 c3bb
00000030: 8d5b ea3a 8b95 f639 50de 4039 878c 51bb
00000040: 22f8 363b 90f9 96b9 5ee2 f9b9 b61c b83b
00000050: a381 ac3b 3801 ff3a ce17 8ab9 0000 0000
00000060: 88fa 913b e6d4 413b 0000 0000 11f0 953b
00000070: 58dd 1db8 e7fe 80bb 9160 efb9 44b4 d9ba
00000080: a086 33bb f290 f837 36fe 78b9 2a4c 983a
00000090: 7dcf e6bb ffb5 b5ba e840 2c39 c16a 5ebb
000000a0: 90c7 2338 1459 95ba 32dc 40bb 62c6 c938
000000b0: 0a17 5bb9 6102 8cbb 35bf c83a 4d10 21bb
000000c0: 48ae 30b9 2425 83ba c3fe a83b 9497 76b9
000000d0: 6675 2739 8ee6 36ba 0000 0000 2924 663b
000000e0: e694 b43a 01e7 4a3b e22c e639 0bc2 2fba
000000f0: 0615 c439 5695 703b 3015 f93a b117 aab9
00000100: e8cf d738 33a7 0c3b 4809 b5bb 0000 0000
00000110: 7a9d ca39 701a b1ba ed49 38bb 6309 96ba
00000120: 45b1 d73a f858 373a 5b36 ff39 d46d e0ba
00000130: 7d05 6bba 0000 0000 db67 553a 4435 eeb9
00000140: 8909 2bbb e1fa 9439 5f08 c93a 66dd 4cbc
00000150: f4f5 1d3a 30a0 803a eb27 d039 4e40 2abb
00000160: e10b 083a 9186 813b fa4b beba 8615 e7ba
00000170: 1d6d 25bb 7dfc cd39 693d c23a 380f 8d3a
00000180: 968b e6b9 5eee d039 82d3 463a ce86 2a3a
00000190: b14e 1bbb 724d e8bb f0f9 fbba 9250 b039
000001a0: 45ec ad39 a4e3 883b a5e3 a73b 279d cfb5
000001b0: 67a8 463b e906 6f3a f6a9 75ba 503c 75ba
000001c0: b9e6 e3bb 8a06 efb9 361d 71bb abab 90ba
000001d0: ccb7 3aba 10f7 41bb 6d98 9f3b 91e5 86ba
000001e0: 2c08 83bb 52ef adb6 b765 07ba 3816 21bb
000001f0: 190f 063a 97a6 1f39 007d 71bb 068d ccb9

weight f4 [128, 128]
0.05427202 -0.06076397 0.08908212 -0.031554896 0.008509548 -0.13237973 0.10014961 0.12612031
0.11554332 -0.12735614 -0.062599756 0.025355292 -0.06935392 0.002001131 0.032615587 0.1447734
0.115452945 0.060183443 -0.11496713 -0.051834587 0.08755577 0.06662815 0.1359466 -0.09967915
-0.13871019 -0.043218236 0.11088325 0.08470585 0.09867709 -0.05346402 -0.048209973 -0.021487797
-0.0006324338 0.12401855 -0.016671555 -0.09399529 0.07063703 0.034842018 0.027214546 0.10351422
0.07985238 -0.07148888 -0.017873183 -0.02186661 0.11267152 -0.14568537 0.0057050665 -0.053926148
-0.11544183 0.110198624 0.08132839 0.05142784 0.055120982 0.053935606 0.059472766 0.0332075
-0.09477768 0.065710746 -0.13275994 -0.060170047 0.13783057 -0.10823958 0.09403812 -0.14694092
-0.12974413 0.021985153 -0.1417973 0.08148495 0.14950992 -0.028181048 0.14461093 0.14062291
-0.08860772 0.023385968 -0.12564579 -0.11381901 -0.025340747 0.03476462 0.014597736 -0.07905906
-0.018189171 0.13561346 -0.085641965 -0.051809605 0.06533923 -0.01751528 0.04375271 -0.026663927
-0.09853499 0.04719031 -0.10058929 0.04905538 -0.0691225 -0.02612097 0.0052924044 0.063861825
0.053482685 0.077380165 0.101120844 0.12805194 -0.117969796 -0.07832275 0.09791594 0.012373714
0.15095739 -0.02179545 0.05714995 -0.13559592 -0.059140876 0.035221934 0.054704476 0.09125234
-0.07290098 -0.086448565 -0.031008324 -0.13446249 0.09551738 -0.09420621 0.13453591 -0.028349176
0.13664992 -0.003002142 -0.12880658 -0.096101165 0.073019505 -0.11499821 -0.027463323 0.06921704
-0.022649867 0.017475987 0.015559353 -0.0928715 -0.027752511 0.066632204 -0.07636215 0.10003593
-0.0009152017 0.0373878 -0.0026596363 0.150033 0.010698795 0.074543275 0.03973514 -0.040664304
-0.12501483 0.10230357 0.022624927 -0.09247315 -0.14089526 -0.14468245 -0.012920945 0.117654465
-0.038860213 0.09106 -0.12810667 0.0052016717 0.022929695 0.11665284 0.03704716 -0.017882405
0.08067316 0.05836131 0.012632659 0.14121032 -0.034182187 0.11965598 -0.11805055 0.024538588
0.08788177 0.013213876 0.02586622 -0.1379056 -0.037610352 0.0055999574 -0.007027091 -0.10179479
-0.00958819 0.13432331 0.1108787 0.11656775 0.09500037 0.109035134 -0.020868924 0.06430978
-0.095047295 -0.013935295 -0.006043922 -0.15253845 0.10218725 -0.022236368 -0.0948404 -0.0516868
0.06893019 -0.1180717 -0.10030575 -0.115591 0.0017932679 0.11381471 -0.15059341 0.02121864
0.03970899 -0.06664497 0.14800975 -0.08838076 0.01703488 0.016790422 -0.05797367 -0.08296777
0.011192258 -0.12855722 -0.10186625 0.13004431 -0.15034734 0.043454472 -0.12597328 0.092460126
0.12861755 -0.1263336 0.03645234 -0.121336795 -0.06770643 0.12799191 0.07698752 -0.020932144
-0.11485609 -0.03435067 -0.124571495 -0.03021836 0.1399679 0.045071576 0.117932215 -0.04977699
-0.13812603 -0.12065518 -0.05559719 -5.0414994e-05 -0.0139628025 -0.051383454 0.015257661 0.05400188
0.08805559 0.036594357 0.022801867 -0.1263104 -0.13061051 0.12876362 0.005821142 0.01942008
-0.05847763 0.1432658 0.14008653 -0.07877916 -0.11576262 0.08127132 0.11653302 0.0008600471
00000000: 564c 5e3d a4e3 78bd b070 b63d b53f 01bd
00000010: a26b 0b3c 8d8e 07be 3d1b cd3d af25 013e
00000020: faa1 ec3d a669 02be 4d34 80bd e7b5 cf3c
00000030: 6e09 8ebd 6825 033b ec97 053d 7a3f 143e
00000040: 9872 ec3d ea82 763d e373 ebbd 8150 54bd
00000050: 7150 b33d 5774 883d 9635 0b3e 9524 ccbd
00000060: 0b0a 0ebe 9b05 31bd c216 e33d 437a ad3d
00000070: 3717 ca3d 17fd 5abd d277 45bd 2d07 b0bc
00000080: eac9 25ba 70fd fd3d c992 88bc 9a80 c0bd
00000090: 26aa 903d 81b6 0e3d 0af1 de3c 43ff d33d
000000a0: a589 a33d c368 92bd c86a 92bc 9b21 b3bc
000000b0: 53c0 e63d 8c2e 15be 91f1 ba3b aae1 5cbd
000000c0: c46c ecbd d1af e13d 808f a63d 00a6 523d
000000d0: 8ac6 613d 95eb 5c3d b799 733d 9604 083d
000000e0: cd1a c2bd 5b93 863d 39f2 07be de74 76bd
000000f0: 7523 0d3e b7ac ddbd 0f97 c03d ae77 16be
00000100: a5db 04be 351a b43c 5033 11be 95e1 a63d
00000110: 2119 193e f1db e6bc e314 143e 74ff 0f3e
00000120: f777 b5bd ee93 bf3c 4aa9 00be f119 e9bd
00000130: 6697 cfbc 5965 0e3d 582b 6f3c b7e9 a1bd
00000140: 7501 95bc 41de 0a3e 0e65 afbd 4f36 54bd
00000150: 93d0 853d 347c 8fbc 0b36 333d 4f6e dabc
00000160: b6cc c9bd a04a 413d c201 cebd 4bee 483d
00000170: 1990 8dbd a5fb d5bc e86b ad3b fdc9 823d
00000180: a910 5b3d 7e79 9e3d 7218 cf3d 0c20 033e
00000190: 269a f1bd ae67 a0bd 2788 c83d 1ebb 4a3c
000001a0: 9394 1a3e 5f8c b2bc 1116 6a3d a8d9 0abe
000001b0: b43d 72bd e044 103d cd11 603d 82e2 ba3d
000001c0: 1c4d 95bd f20b b1bd 2b05 febc 89b0 09be
000001d0: 9e9e c33d 2fef c0bd c8c3 093e 883c e8bc
000001e0: f5ed 0b3e 96bf 44bb dfe5 03be b0d0 c4bd
000001f0: 408b 953d 2e84 ebbd c3fa e0bc aac1 8d3d
00000200: 378c b9bc cd29 8f3c a8ec 7e3c 6a33 bebd
00000210: 3c59 e3bc 7776 883d c263 9cbd a3df cc3d
00000220: 25ea 6fba f323 193d 4b4d 2ebb 40a2 193e
00000230: 004a 2f3c 25aa 983d 50c1 223d 9d8f 26bd
00000240: e303 00be 8984 d13d e957 b93c 9062 bdbd
00000250: d946 10be a327 14be 5fb2 53bc d3f4 f03d
00000260: e32b 1fbd aa7d ba3d 652e 03be c972 aa3b
00000270: 0ed7 bb3c afe7 ee3d c3be 173d 1f7e 92bc
00000280: f837 a53d 450c 6f3d 36f9 4e3c 7099 103e
00000290: 9f02 0cbd 320e f53d 7dc4 f1bd 2605 c93c
000002a0: 5cfb b33d 037f 583c 65e5 d33c 2037 0dbe
000002b0: 500d 1abd d97f b73b 8343 e6bb c979 d0bd
000002c0: c917 1dbc 0d8c 093e 5f14 e33d 13bb ee3d
000002d0: 8e8f c23d d04d df3d 4ef5 aabc d9b4 833d
000002e0: 28a8 c2bd dd50 64bc 180c c6bb 0a33 1cbe
000002f0: 8d47 d13d 0b29 b6bc af3b c2bd 8ab5 53bd
00000300: 452b 8d3d 93cf f1bd 1a6d cdbd f9ba ecbd
00000310: 160c eb3a b017 e93d 2935 1abe b7d2 ad3c
00000320: e5a5 223d 287d 88bd de8f 173e f900 b5bd
00000330: bc8c 8b3c 118c 893c cd75 6dbd 02eb a9bd
00000340: bc5f 373c 81a4 03be 419f d0bd 562a 053e
00000350: a7f4 19be 51fd 313d 24ff 00be bc5b bd3d
00000360: 52b4 033e 985d 01be 0d4f 153d 6d7f f8bd
00000370: aba9 8abd 5010 033e a2ab 9d3d e379 abbc
00000380: ab39 ebbd 4ab3 0cbd 571f ffbd 7e8c f7bc
00000390: bf53 0f3e f99c 383d 7286 f13d f5e2 4bbd
000003a0: e970 0dbe 101a f7bd e1b9 63bd b074 53b8
000003b0: 3dc4 64bc 7577 52bd 45fb 793c 1331 5d3d
000003c0: 7d56 b43d f7e3 153d fbca ba3c 8357 01be
000003d0: c3be 05be 9cda 033e 47bf be3b dc16 9f3c
000003e0: 3d86 6fbd 45b4 123e d872 0f3e f856 a1bd
000003f0: f414 edbd 9471 a63d dda8 ee3d c974 613a

bias f4 [128]
0.007925849 -0.0058304504 -0.00023600107 0.008250898 0.0030255765 0.0051056175 -0.002355255 0.0038112707
-0.0013109294 -0.0008720524 0.0032333983 0.009382008 0.004772913 -0.0014139647 0.008840643 -0.0031547376
0.0041724527 0.00018571853 -0.011866127 0.0014893526 -0.0022413225 0.0059548304 0.0029631262 -0.0026715521
0.0033506812 -0.00030166644 -0.0009361448 0.002860608 -0.0009558193 0.0009330675 8.23133e-05 -0.0004812477
0.005875393 -0.00019363075 0.0 0.0020006443 -0.004679702 -0.00989257 0.00078682473 0.0067092045
0.004066618 -0.00010765951 0.0 -4.6628295e-05 0.0015099442 4.2917778e-05 -0.00024588994 0.0066380976
0.0012326267 -0.0011602589 7.268634e-05 0.0075249374 0.0009890944 -0.0022033197 3.2430416e-05 -0.0021184587
0.0049551367 -0.008411811 -0.0013069129 -0.0036388556 -0.0017370027 -0.015406319 0.00045277108 0.009706543
0.009716631 -0.00043743404 0.00011655221 0.00044617328 0.016665546 -0.00096186675 0.004087572 -0.009760635
-0.0007351105 -0.00035327708 0.0032372298 -0.0032437644 -0.0030929502 -0.014699873 -0.0023861597 -0.0020566336
-0.0015318958 -0.00037748006 -0.003693586 0.0040915003 -0.0016060891 -0.00032923813 -0.00079910015 -2.5783487e-07
-0.0014555306 0.004276679 0.0024117439 -0.00035226866 0.009917996 -0.0012015239 0.0 -0.0039641326
3.7285395e-06 0.0036550981 -0.009105484 -0.012446537 -0.0001460536 -0.0015503784 -0.011086984 0.002945857
-0.0019534961 -0.0006303862 -0.0028955059 -0.0044508795 0.00027729443 -0.0043773972 -0.014351316 0.0034720006
-0.0021408545 -0.0004978456 0.0 0.00057350216 0.0011119286 0.009911895 0.0007997312 0.0009505754
-7.329022e-05 -0.0009833836 -0.0038822228 -0.0018125292 -0.001835871 0.0012374327 -0.0039328514 -0.0008099883
00000000: 6cdb 013c 5d0d bfbb 0e77 77b9 c62e 073c
00000010: c048 463b 064d a73b 9f5a 1abb 83c6 793b
00000020: 7ed3 abba 729a 64ba 6ce7 533b feb6 193c
00000030: 1966 9c3b c854 b9ba 58d8 103c b7bf 4ebb
00000040: 12b9 883b 70bd 4239 256a 42bc 6136 c33a
00000050: 27e3 12bb bd20 c33b 0231 423b 3515 2fbb
00000060: 1a97 5b3b fc28 9eb9 9d67 75ba 0a79 3b3b
00000070: f38f 7aba 1a99 743a 9e9f ac38 f94f fcb9
00000080: 5e86 c03b 5c09 4bb9 0000 0000 3e1d 033b
00000090: 3058 99bb 7214 22bc ea42 4e3a e3d8 db3b
000000a0: 4441 853b 42c7 e1b8 0000 0000 c092 43b8
000000b0: 52e9 c53a 9d02 3438 caea 80b9 6684 d93b
000000c0: 1790 a13a d413 98ba 2f6f 9838 c093 f63b
000000d0: 80a4 813a 9265 10bb e505 0838 d7d5 0abb
000000e0: b35e a23b b1d1 09bc b84c abba de79 6ebb
000000f0: 24ac e3ba c96a 7cbc e861 ed39 3108 1f3c
00000100: 8132 1f3c 6757 e5b9 7e6d f438 5dec e939
00000110: 2f86 883c c925 7cba 0af1 853b 12eb 1fbc
00000120: 6eb4 40ba 0c38 b9b9 b427 543b 5695 54bb
00000130: 18b3 4abb bcd7 70bc 1e61 1cbb 96c8 06bb
00000140: e5c9 c8ba 84e8 c5b9 1710 72bb fe11 863b
00000150: 6883 d2ba 989d acb9 b47a 51ba 8e6c 8ab4
00000160: 81c7 beba 6223 8c3b 590e 1e3b b3b0 b8b9
00000170: 177f 223c 747c 9dba 0000 0000 8ee5 81bb
00000180: d237 7a36 5f8a 6f3b 2b2f 15bc 8fec 4bbc
00000190: f725 19b9 1136 cbba 2ea6 35bc 470f 413b
000001a0: 3a06 00bb 8040 25ba 87c2 3dbb afd8 91bb
000001b0: d461 9139 4570 8fbb c821 6bbc 818a 633b
000001c0: 944d 0cbb da81 02ba 0000 0000 1457 163a
000001d0: 22be 913a 8065 223c 0da5 513a 0930 793a
000001e0: 63b3 99b8 e1e4 80ba e46c 7ebb 6392 edba
000001f0: 9ca1 f0ba 5a31 a23a 26df 80bb 6555 54ba

weight f4 [128, 128]
0.06419722 0.12881082 0.01841853 -0.08606456 -0.07233823 -0.011912786 0.13871081 0.12129034
-0.10964368 0.13166858 0.038092047 -0.06070478 0.019574352 -0.08127193 0.009347834 -0.13315167
-0.13339637 -0.1546131 -0.14038293 0.07673005 -0.008742762 -0.016664442 -0.13538407 -0.07252783
-0.058330595 -0.08943146 -0.038838465 -0.052083287 0.04344789 -0.051473465 -0.031184796 -0.14869317
-0.10083616 -0.12744269 0.072920606 0.10979582 -0.14939952 0.0095411455 0.022799505 -0.111532144
0.053099338 -0.12438402 -0.04797174 0.06923601 0.14385046 0.13939288 -0.12810428 0.13951099
-0.031081641 -0.06749727 -0.122419976 -0.12292707 0.13556898 0.12608027 -0.039735455 0.13889422
-0.10882141 -0.08018117 -0.059086762 -0.018760914 0.07009835 0.031727932 0.10456516 0.12182031
-0.029179575 0.14511715 -0.004468535 0.09915397 0.017885104 -0.084554516 0.120351695 0.07203281
0.08006369 -0.014876144 -0.14099391 0.08255287 0.046059106 0.0068994607 0.089936055 -0.13925728
-0.15293176 -0.011151705 -0.14972802 0.13140878 0.13336483 -0.08605608 0.004117551 0.031963244
-0.12521487 0.030092485 0.035393793 -0.054360233 -0.11303637 0.08959749 0.022722278 -0.10641916
-0.08844007 -0.12511158 0.08433624 -0.118404195 -0.14710797 -0.031731773 0.021922829 0.093029335
0.04405735 0.12117797 0.1273382 -0.067099564 -0.13105151 0.035823554 -0.09233816 0.021999963
0.13821195 -0.0981396 -0.027295886 -0.012189444 -0.06463718 -0.055483393 -0.044302028 -0.036012407
-0.12490532 0.07340481 0.059672754 0.13328932 -0.150681 -0.0058237775 -0.0061959866 0.0118275825
0.14954482 -0.036834493 -0.08114221 0.14771657 0.13671012 0.02626958 0.099915154 -0.00800566
0.08116135 -0.13056399 0.080976516 0.08490022 -0.13404004 0.11923958 -0.13546407 -0.03686035
0.077197745 -0.13324328 0.0049014324 -0.09145314 0.090489954 -0.010905135 -0.056859966 0.06820835
-0.018214162 -0.14463873 -0.037767123 0.061575823 0.02696184 -0.14061807 0.07180033 0.08884428
-0.008476979 -0.13466494 0.083930045 0.021312304 0.09509952 -0.029977534 0.08636964 -0.10152151
-0.060392804 0.10907212 0.15184973 0.008306019 -0.12135124 0.08770421 0.0028782908 -0.053034782
-0.013811474 -0.06708392 -0.11025288 0.13916801 0.05238319 -0.14277232 0.058480825 0.049392004
-0.045847535 -0.017578494 0.14852832 -0.1478047 -0.024729967 0.09185718 0.058223426 0.056713454
0.14969935 -0.13666916 -0.08612934 -0.12034454 0.021670097 0.13179937 0.044259794 -0.027984181
0.022196883 0.1139464 -0.10614454 -0.012044852 -0.08123341 -0.10449065 0.1399509 0.04050477
0.023392705 0.04050416 0.053183272 -0.108896434 0.012742177 0.11336218 -0.14610112 0.123381495
-0.04094453 -0.12265872 -0.11355874 -0.118556015 -0.14188424 0.14109026 0.0030498144 -0.029563714
0.1244203 -0.0012491285 0.095526546 -0.022137647 -0.13365027 -0.09747731 0.13951683 0.049847513
-0.111336485 0.06619509 0.0076225847 -0.06495785 -0.10972604 -0.011666889 0.05314111 -0.061121263
0.037742555 -0.054635357 0.024138158 -0.093084306 -0.0013592315 0.026876932 0.073191024 0.14413337
-0.031663753 0.12357384 0.061556824 0.048879713 0.042962193 0.03762522 0.017209621 -0.03816269
00000000: d579 833d fce6 033e 75e2 963c 9e42 b0bd
00000010: 1126 94bd d92d 43bc 350a 0e3e 1267 f83d
00000020: de8c e0bd 21d4 063e 6806 1c3d 93a5 78bd
00000030: 645a a03c e671 a6bd a827 193c e958 08be
00000040: 0f99 08be e652 1ebe 8bc0 0fbe a524 9d3d
00000050: cd3d 0fbc de83 88bc 1fa2 0abe 7989 94bd
00000060: 10ec 6ebd d727 b7bd 1515 1fbd 4955 55bd
00000070: 6af6 313d d7d5 52bd 4277 ffbc 0643 18be
00000080: 3083 cebd 5680 02be 6657 953d a2dc e03d
00000090: 30fc 18be 7752 1c3c 07c6 ba3c f76a e4bd
000000a0: b17e 593d 0dbd febd 047e 44bd 9ccb 8d3d
000000b0: 894d 133e 02bd 0e3e c52d 03be f8db 0e3e
000000c0: ed9e febc 023c 8abd 53b7 fabd 30c1 fbbd
000000d0: 98d2 0a3e 301b 013e a5c1 22bd 493a 0e3e
000000e0: c2dd debd 0636 a4bd f604 72bd 7db0 99bc
000000f0: b98f 8f3d 26f5 013d 4226 d63d ed7c f93d
00000100: 010a efbc 9799 143e ca6c 92bb 3d11 cb3d
00000110: c883 923c eb2a adbd f37a f63d f085 933d
00000120: 6ff8 a33d 12bb 73bc b560 10be 7b11 a93d
00000130: 79a8 3c3d df14 e23b 6530 b83d 7699 0ebe
00000140: 259a 1cbe a4b5 36bc 4d52 19be 0690 063e
00000150: ca90 083e 2c3e b0bd 85ec 863b e4eb 023d
00000160: 5438 00be 8484 f63c 15f9 103d d6a8 5ebd
00000170: 9d7f e7bd e47e b73d 1224 ba3c 4af2 d9bd
00000180: 1120 b5bd 401d 00be 7bb8 ac3d e67d f2bd
00000190: 79a3 16be 2df9 01bd 8197 b33c 2a86 be3d
000001a0: 7b75 343d 282c f83d f264 023e 7f6b 89bd
000001b0: 5e32 06be b8bb 123d ca1b bdbd 4439 b43c
000001c0: 6f87 0d3e 6afd c8bd 9f9b dfbc 3cb6 47bc
000001d0: 7f60 84bd 8e42 63bd 0b76 35bd bf81 13bd
000001e0: 5cce ffbd 4355 963d 6b6b 743d ff7c 083e
000001f0: 1f4c 1abe 63d5 bebb b407 cbbb 7ac8 413c
00000200: 4722 193e c4df 16bd e32d a6bd 0343 173e
00000210: bdfd 0b3e 4d33 d73c 51a0 cc3d 2c2a 03bc
00000220: ec37 a63d 91b2 05be 04d7 a53d 2be0 ad3d
00000230: cb41 09be e233 f43d 18b7 0abe e1fa 16bd
00000240: da19 9e3d ed70 08be 329c a03b c94b bbbd
00000250: cc52 b93d 74ab 32bc ffe5 68bd d2b0 8b3d
00000260: de35 95bc 2d1c 14be b3b1 1abd ee36 7c3d
00000270: 14df dc3c 2ffe 0fbe 0d0c 933d fdf3 b53d
00000280: 07e3 0abc 9be5 09be 84e3 ab3d 2497 ae3c
00000290: 8ac3 c23d 7293 f5bc 91e2 b03d 82ea cfbd
000002a0: 725e 77bd 3461 df3d 7f7e 1b3e f815 083c
000002b0: 0087 f8bd 449e b33d b5a1 3c3b 003b 59bd
000002c0: 8549 62bc 4b63 89bd 43cc e1bd 0f82 0e3e
000002d0: c18f 563d e832 12be 9789 6f3d 454f 4a3d
000002e0: a0ca 3bbd c600 90bc cf17 183e 1e5a 17be
000002f0: 8096 cabc 9e1f bc3d b07b 6e3d 5e4c 683d
00000300: c94a 193e 00f3 0bbe 9464 b0bd 3377 f6bd
00000310: 7d85 b13c 6af6 063e c249 353d 153f e5bc
00000320: 3dd6 b53c bb5c e93d 4f62 d9bd c557 45bc
00000330: b45d a6bd 32ff d5bd 4a4f 0f3e 54e8 253d
00000340: 0fa2 bf3c b1e7 253d b4d6 593d 1805 dfbd
00000350: 90c4 503c 6e2a e83d 889b 15be 70af fc3d
00000360: 74b5 27bd 7f34 fbbd 7c91 e8bd 7fcd f2bd
00000370: 1a4a 11be f779 103e 65df 473b 9a2f f2bc
00000380: 12d0 fe3d ccb9 a3ba 6ca3 c33d 035a b5bc
00000390: 9edb 08be 2fa2 c7bd 80dd 0e3e e82c 4c3d
000003a0: 6204 e4bd 4b91 873d e0c6 f93b 9f08 85bd
000003b0: 0cb8 e0bd 7b26 3fbc 7eaa 593d 4a5a 7abd
000003c0: f097 1a3d 53c9 5fbd 63bd c53c fca2 bebd
000003d0: 3e28 b2ba 032d dc3c 2de5 953d b397 133e
000003e0: dab1 01bd 4814 fd3d 0223 7c3d 1836 483d
000003f0: 20f9 2f3d e71c 1a3d 31fb 8c3c 7b50 1cbd

bias f4 [128]
-0.0080186445 0.0047417847 0.009566229 -0.0054498306 0.018484503 -0.000404003 -0.0015461559 -0.007802191
-0.0010392648 0.002420293 -0.0060381256 -7.026849e-07 0.0025440035 0.02355227 -7.151022e-05 0.005143583
0.01028649 -0.00244504 -0.00473355 0.0017670337 -0.0048455414 -0.0053740307 -0.0023358355 4.2756194e-05
-0.02270223 0.0 -0.007811661 0.0022827687 -0.0057876566 -0.007038643 0.013155185 0.008702948
-0.00035978903 2.3597571e-05 0.00058659445 0.0036102678 0.0017910972 -0.004906733 0.019969724 -0.007861771
0.011705738 -0.00011575439 -0.00063204695 0.0046159877 -0.0015166111 0.015211354 0.0041070944 0.0012939976
-0.0003824754 0.005614392 -0.0001772516 0.007829165 -0.0023844198 -0.0072834385 -0.0021618889 4.797182e-05
-0.009625486 -0.00044559478 -0.000242392 -0.01084455 -0.0023333174 -0.0012281119 -0.006235302 0.015120094
0.0027580103 0.0 -0.011879307 0.011905499 -0.012273579 0.00505458 0.0035662283 -0.0018093291
-0.0015948701 0.00032684318 -0.0055287 0.005849226 0.0070526795 -0.0004332703 0.00364011 -0.009167015
-0.0023554435 0.0049920944 -0.015682902 0.0050109997 0.01015976 -0.024885848 1.2614934e-05 -0.0051474418
0.0135825025 0.011660436 -0.012862853 0.003910379 -4.5954308e-05 -0.0027919593 -0.0013232625 0.005575775
0.009093005 -0.020542832 -0.002734925 -1.3585534e-05 0.0012973889 -0.0019475864 -0.016467135 0.006277983
0.0011358042 -0.019759681 -0.013640871 -0.03283488 -0.0047251047 0.00087813655 -0.010108078 0.0027622015
-0.00080239034 0.0005574919 -0.0034891109 -0.00013171154 0.000118495955 -0.003838685 -0.009572377 0.007571059
-0.0018480425 6.284648e-05 0.0032115323 0.0015637103 0.008171739 -0.004619365 0.037016015 -0.0004227579
00000000: a260 03bc f960 9b3b acbb 1c3c 7e94 b2bb
00000010: d06c 973c 5dd0 d3b9 62a8 caba 86a9 ffbb
00000020: f137 88ba c79d 1e3b 78db c5bb 23a0 3cb5
00000030: 4cb9 263b b1f0 c03c c2f7 95b8 808b a83b
00000040: ab88 283c f73c 20bb e51b 9bbb d09b e73a
00000050: 59c7 9ebb a318 b0bb d114 19bb 1d55 3338
00000060: 07fa b9bc 0000 0000 f6f8 ffbb 819a 153b
00000070: 62a6 bdbb 6ba4 e6bb d888 573c cf96 0e3c
00000080: 11a2 bcb9 66f3 c537 b0c5 193a 3e9a 6c3b
00000090: 40c3 ea3a a9c8 a0bb 8c97 a33c a8ce 00bc
000000a0: 6cc9 3f3c 2ac1 f2b8 f4af 25ba b641 973b
000000b0: 06c9 c6ba 0b39 793c ce94 863b 5b9b a93a
000000c0: fb86 c8b9 eff8 b73b 9ddc 39b9 e645 003c
000000d0: ed43 1cbb e9a9 eebb 7aae 0dbb 5935 4938
000000e0: 37b4 1dbc b89e e9b9 9b2a 7eb9 57ad 31bc
000000f0: 92ea 18bb 99f8 a0ba 8151 ccbb 45ba 773c
00000100: bcbf 343b 0000 0000 6da1 42bc 480f 433c
00000110: 1f17 49bc e4a0 a53b 62b7 693b 0327 edba
00000120: f60a d1ba 265c ab39 192a b5bb ddaa bf3b
00000130: 2a1a e73b 8e28 e3b9 e98e 6e3b 3f31 16bc
00000140: c95d 1abb b994 a33b 6e79 80bc 5033 a43b
00000150: 1f75 263c 68dd cbbc bba4 5337 dfab a8bb
00000160: 2589 5e3c 6a0b 3f3c b7be 52bc a322 803b
00000170: 10bf 40b8 4ef9 36bb 5271 adba feb4 b63b
00000180: d4fa 143c 7149 a8bc 6d3c 33bb 6ded 63b7
00000190: 260d aa3a 2846 ffba 16e6 86bc 8ab7 cd3b
000001a0: 44df 943a 0edf a1bc f67d 5fbc de7d 06bd
000001b0: 0dd5 9abb bf32 663a 5a9c 25bc 0d06 353b
000001c0: 8157 52ba a624 123a 91a9 64bb 0c1c 0ab9
000001d0: 0881 f838 7392 7bbb 76d5 1cbc a516 f83b
000001e0: 043a f2ba 72cc 8338 9278 523b 69f5 cc3a
000001f0: c2e2 053c 0b5e 97bb 1b9e 173d 9ba5 ddb9

weight f4 [128, 128]
-0.1245022 -0.032514945 0.1553752 0.020347862 -0.08785658 -0.12325014 -0.04594391 -0.06501323
-0.12217251 0.09851976 -0.0919276 0.018053802 -0.12542063 0.11759727 -0.04677463 0.00021860597
0.122433625 0.10743744 -0.072767094 -0.069453694 -0.1345784 0.14914006 0.09630883 -0.12766944
0.047139723 0.07358341 0.05023722 0.1320322 -0.048447214 0.12652133 -0.031566605 -0.0074269585
-0.09665287 0.13647951 -0.094443366 0.020806177 0.119785205 0.074006274 -0.026086451 6.847974e-05
0.08515112 0.07591193 -0.14833961 -0.11114816 -0.12646168 -0.011287208 -0.027558262 -0.12232625
-0.033769675 -0.0735896 -0.100933194 0.10444691 0.10603197 -0.14392391 -0.08055582 0.068792254
0.05269401 -0.08278786 -0.11880701 0.021358745 -0.08859834 -0.003767217 -0.12727036 0.002777195
0.09342509 0.069446914 0.12829207 0.15610778 -0.08124077 -0.082299404 0.10929382 -0.02479387
0.006618022 -0.05291671 0.08826753 0.06599286 0.1326078 -0.13916408 0.08029431 0.09161646
0.09115464 0.15410161 -0.014605373 0.12553376 -0.0954953 0.13982397 0.011152954 0.06193979
-0.049638506 -0.054240912 -0.13114782 -0.052306265 0.07361769 0.14257623 0.13096781 -0.11210788
0.088109024 0.052486274 -0.030878514 -0.101874754 0.038915567 0.0993916 0.08593608 0.07906929
0.042315867 0.10266829 -0.0014345426 -0.027564408 0.06647087 -0.07378313 -0.14597988 -0.13094693
0.12056463 0.05826968 -0.10699662 0.018203296 -0.057091977 -0.0655219 -0.05181783 -0.1304805
0.000526862 0.020034218 -0.098044656 -0.12547548 -0.11064084 -0.021091452 0.0575414 -0.068896815
0.002320866 -0.05332701 0.1221979 0.13424863 -0.13295844 -0.06687921 -0.14708875 0.029182177
0.051384427 0.033693276 -0.04955775 0.13182743 0.037165906 -0.04013305 -0.1527569 0.10020468
0.05903883 -0.05520686 0.10326215 0.083035275 -0.031330124 -0.1107127 0.08673292 0.11534707
-0.15764587 -0.13085769 0.1237942 0.015224653 -0.10602603 0.13636096 0.08731737 0.098783836
0.11745167 -0.13475694 -0.05164493 -0.14621332 -0.041849747 -0.14253016 -0.0071624424 -0.117812574
-0.07360815 0.10323304 -0.053571373 0.15096268 0.13412336 0.031172156 -0.051389087 0.029669804
0.051074605 0.14497809 0.11782972 -0.005806738 0.05257913 0.092559814 -0.021705195 0.13560286
0.081462525 0.15131189 -0.0056065964 -0.07440802 -0.044862777 0.049456522 0.14731953 -0.07663609
-0.0691507 0.06773401 -0.025765292 0.12691969 0.09262768 0.018478192 0.042910393 -0.10108311
0.055293582 -0.10512392 -0.053550445 -0.044519283 0.11614033 -0.08298141 -0.037955243 -0.010943494
-0.063921064 0.090142705 -0.10849456 0.09869498 0.019429028 0.12620206 0.03806999 -0.04484174
0.081901655 0.058143497 -0.03136337 0.089864746 0.06466295 -0.043105528 0.14547385 -0.1343841
-0.008138567 0.07765516 -0.10022885 0.13210098 -0.057162743 -0.04169845 -0.03410368 0.020829696
0.10890419 0.14175193 0.08269466 -0.005627721 -0.059412874 -0.046114255 -0.10347001 0.09793101
-0.05731685 -0.14316386 -0.14095569 -0.14675133 -0.041355785 -0.05007712 -0.043618344 -0.10907063
-0.02711905 -0.040597726 -0.043755908 0.02539979 -0.003475098 -0.040619247 0.118277945 0.037557814
00000000: 02fb febd 642e 05bd ad1a 1f3e 8fb0 a63c
00000010: 27ee b3bd 926a fcbd ae2f 3cbd a825 85bd
00000020: 9535 fabd bac4 c93d 8a44 bcbd 91e5 933c
00000030: 446e 00be d6d6 f03d c196 3fbd 9839 6539
00000040: 7bbe fa3d 2908 dc3d ea06 95bd bd3d 8ebd
00000050: ecce 09be 2cb8 183e 903d c53d c7bb 02be
00000060: 9515 413d e6b2 963d 8bc5 4d3d 7333 073e
00000070: 9670 46bd cf8e 013e fc4b 01bd d85d f3bb
00000080: f1f1 c5bd 49c1 0b3e 866b c1bd b771 aa3c
00000090: f251 f53d 9a90 973d 41b3 d5bc c89c 8f38
000000a0: b663 ae3d b777 9b3d 57e6 17be a6a1 e3bd
000000b0: 2c7f 01be fbed 38bc ddc1 e1bc 2f86 fabd
000000c0: 1252 0abd 25b6 96bd 10b6 cebd 43e8 d53d
000000d0: 4a27 d93d ca60 13be 73fa a4bd f4e2 8c3d
000000e0: add5 573d ae8c a9bd 1751 f3bd 89f8 ae3c
000000f0: 0c73 b5bd 6ae3 76bb 2953 02be 9a01 363b
00000100: a755 bf3d 2f3a 8e3d ff5e 033e b8da 1f3e
00000110: 9061 a6bd 978c a8bd 70d5 df3d 841c cbbc
00000120: fedb d83b 31bf 58bd 9bc5 b43d 4427 873d
00000130: 57ca 073e 0781 0ebe 5871 a43d 69a1 bb3d
00000140: 49af ba3d d0cc 1d3e 604b 6fbc ec8b 003e
00000150: 0a93 c3bd 042e 0f3e e1ba 363c 94b4 7d3d
00000160: bf51 4bbd b82b 5ebd 9d4b 06be 183f 56bd
00000170: dfc4 963d 81ff 113e 6d1c 063e d198 e5bd
00000180: 8172 b43d d9fb 563d f0f4 fcbc b6a3 d0bd
00000190: ee65 1f3d d38d cb3d 41ff af3d 14ef a13d
000001a0: 6753 2d3d c143 d23d 4307 bcba c1ce e1bc
000001b0: e121 883d 9c1b 97bd c07b 15be f416 06be
000001c0: 97ea f63d 30ac 6e3d 0b21 dbbd 141f 953c
000001d0: 47d9 69bd 5930 86bd ef3e 54bd ae9c 05be
000001e0: 1c1d 0a3a cd1e a43c a3cb c8bd a57c 00be
000001f0: aa97 e2bd fbc7 acbc 88b0 6b3d c619 8dbd
00000200: ac19 183b 6c6d 5abd e542 fa3d 7978 093e
00000210: 4226 08be f8f7 88bd 6f9e 16be 760f ef3c
00000220: 7a78 523d f601 0a3d 11fd 4abd c5fd 063e
00000230: 473b 183d 8e62 24bd 4e6c 1cbe 1c38 cd3d
00000240: b3d2 713d 9720 62bd 1b7b d33d 660e aa3d
00000250: 0454 00bd 57bd e2bd 07a1 b13d 163b ec3d
00000260: eb6d 21be 8fff 05be d087 fd3d d370 793c
00000270: 2d24 d9bd 35a2 0b3e 73d3 b23d 2e4f ca3d
00000280: 808a f03d b9fd 09be a289 53bd f2b8 15be
00000290: a46a 2bbd 6df3 11be ecb2 eabb b847 f1bd
000002a0: dfbf 96bd d86b d33d a86d 5bbd f695 1a3e
000002b0: a257 093e c05c ff3c 5d7d 52bd 170e f33c
000002c0: 9b33 513d 2375 143e b550 f13d 7346 bebb
000002d0: 375d 573d 0090 bd3d 18cf b1bc 7adb 0a3e
000002e0: d3d5 a63d 81f1 1a3e 8ab7 b7bb 3b63 98bd
000002f0: 08c2 37bd ec92 4a3d eeda 163e 62f3 9cbd
00000300: e29e 8dbd 21b8 8a3d bc11 d3bc 3cf7 013e
00000310: 95b3 bd3d 945f 973c cfc2 2f3d a904 cfbd
00000320: 867b 623d 364b d7bd b657 5bbd da59 36bd
00000330: fbda ed3d 28f2 a9bd f576 1bbd 574c 33bc
00000340: 0ce9 82bd bd9c b83d 6532 debd 9820 ca3d
00000350: a029 9f3c 1d3b 013e 47ef 1b3d f9ab 37bd
00000360: 0ebc a73d e027 6e3d e176 00bd 020b b83d
00000370: 026e 843d 6c8f 30bd 19f7 143e fc9b 09be
00000380: a057 05bc ab09 9f3d c944 cdbd 7b45 073e
00000390: 7b23 6abd fecb 2abd 4db0 0bbd 0aa3 aa3c
000003a0: 2909 df3d 6b27 113e d15b a93d bf68 b8bb
000003b0: ea5a 73bd 4de2 3cbd 16e8 d3bd 0e90 c83d
000003c0: 13c5 6abd 8c99 12be b056 10be fb45 16be
000003d0: af64 29bd ab1d 4dbd 26a9 32bd 6c60 dfbd
000003e0: c528 debc cd49 26bd 6539 33bd 3813 d03c
000003f0: 78be 63bb 5e60 26bd b53b f23d 39d6 193d

bias f4 [128]
-0.0002921019 0.011926133 -0.011098917 -0.015058684 0.0065181577 0.023474773 0.00035544529 -0.0057847537
0.0022799815 0.00092560763 -0.0018831373 -0.015117131 -9.2763396e-05 -0.000941011 -0.029228982 -0.009792074
-0.002008521 -0.019920578 0.005454364 -0.013910899 -0.0068430076 0.0 -0.0034080108 0.0015489212
0.052852094 -0.000654572 5.1191822e-05 0.025652183 0.0 -0.0012257869 -0.01567554 -0.0018481424
0.0031556913 6.3024454e-05 -0.01925931 0.0026007744 0.018630188 -0.021242267 -0.016062189 -0.0016183942
0.002532674 -0.018174572 -0.007135735 0.00298037 -0.02116476 0.06951017 -0.001055213 -0.021146197
-0.0015012687 0.007101598 0.0023207662 0.0 -0.026972154 -0.010038981 -0.0027364336 0.060001805
0.069558375 0.00081782363 -0.00021446368 0.04217811 -0.0032041154 -0.019544305 -0.0010989053 -0.034655362
-0.041658863 -0.0033337767 -0.00068551657 0.0044994983 0.0 0.030228037 -0.022355268 -0.0003913648
-0.014208405 0.001433254 0.0023337638 -0.01099201 -0.027673852 -0.004688412 -0.003985156 0.014172045
0.0023369463 0.0023700553 0.01956606 -0.011672317 0.008375196 0.0059799543 -0.0053620664 -0.014791663
-0.0043296507 0.0021108403 -0.0067210547 -0.0013076368 0.017039564 -0.0043663345 0.012362073 -0.00067895406
0.0013384244 0.0061365194 -0.041690297 -0.013068972 0.0029044496 0.0011557811 0.011371344 0.0025500997
0.0016452563 -0.0060481764 -0.006150202 0.00034278585 -0.017138496 -0.015664984 -0.0072675524 -0.015994517
-0.003861715 -0.006865518 -0.0021163214 -9.780126e-05 -0.016872674 -0.0026480102 0.010070868 0.027730446
-0.0027754835 -0.015557281 -0.0030605602 -0.006684696 0.0 -0.00469997 -0.028503435 0.0
00000000: 4125 99b9 d465 433c 3bd8 35bc b3b8 76bc
00000010: 4596 d53b 2b4e c03c 0f5b ba39 088e bdbb
00000020: be6b 153b 7aa4 723a 9ad3 f6ba d8ad 77bc
00000030: f889 c2b8 2eae 76ba 9e71 efbc ef6e 20bc
00000040: 64a1 03bb 7b30 a3bc 86ba b23b 8aea 63bc
00000050: 4f3b e0bb 0000 0000 ef58 5fbb 2c05 cb3a
00000060: 707b 583d 9597 2bba cdb6 5638 8724 d23c
00000070: 0000 0000 95aa a0ba fd69 80bc 5e3d f2ba
00000080: b7cf 4e3b ff2b 8438 b3c5 9dbc c171 2a3b
00000090: 569e 983c 4304 aebc da94 83bc 4c20 d4ba
000000a0: 38fb 253b d7e2 94bc e2d2 e9bb 5052 433b
000000b0: b861 adbc 595b 8e3d 134f 8aba ca3a adbc
000000c0: 38c6 c4ba 86b4 e83b ff17 183b 0000 0000
000000d0: b5f4 dcbc 8a7a 24bc bd55 33bb 74c4 753d
000000e0: 9f74 8e3d 3763 563a a8e1 60b9 f4c2 2c3d
000000f0: 23fc 51bb 611b a0bc 2509 90ba c8f2 0dbd
00000100: 7ca2 2abd 7e7b 5abb 3db4 33ba 8770 933b
00000110: 0000 0000 caa0 f73c 6522 b7bc 1830 cdb9
00000120: 5fca 68bc 06dc bb3a 0ff2 183b d517 34bc
00000130: 46b4 e2bc 40a1 99bb e995 82bb dd31 683c
00000140: 7427 193b ee52 1b3b 0049 a03c 3f3d 3fbc
00000150: 1e38 093c 7ef3 c33b 46b4 afbb bb58 72bc
00000160: bedf 8dbb 0656 0a3b 4b3c dcbb 0365 abba
00000170: 8e96 8b3c 7813 8fbb 4b8a 4a3c d6fb 31ba
00000180: 126e af3a db14 c93b 72c3 2abd 3e1f 56bc
00000190: 9458 3e3b 947d 973a e04e 3a3c 931f 273b
000001a0: a4a5 d73a c82f c6bb a287 c9bb f0b7 b339
000001b0: 0866 8cbc da53 80bc a624 eebb ef06 83bc
000001c0: d414 7dbb 24f8 e0bb fbb1 0abb a71a cdb8
000001d0: 9038 8abc 3d8a 2dbb 4800 253c f62a e33c
000001e0: e3e4 35bb f7e3 7ebc ae93 48bb 4b0b dbbb
000001f0: 0000 0000 3502 9abb 0980 e9bc 0000 0000

weight f4 [128, 128]
0.092597745 0.06937684 0.06773269 -0.09400527 0.10858169 0.1125835 0.062382005 0.095140055
0.077603 0.15536577 0.06675711 0.14275315 0.06794952 0.1508437 0.05592531 0.07741841
0.025576118 0.07532304 -0.040075753 0.06206506 -0.06437652 -0.057740483 0.08694779 -0.088485956
0.12443123 -0.060948666 -0.056275316 0.17556901 -0.04165906 0.005832762 -0.021617953 -0.037571654
-0.10383307 0.035662223 0.038088866 -0.06156753 0.14029972 -0.011215096 -0.024897747 -0.09218646
0.1365341 -0.09323545 0.10575009 0.08700886 -0.09692563 0.19078693 0.06554066 0.11340491
-0.026985867 -0.04229103 0.022535637 0.09873389 0.12241447 0.026064854 0.007882898 0.18893014
0.1459946 0.12447613 0.11314485 -0.00719557 -0.08585168 0.10978473 -0.13561936 -0.12955873
0.06369472 0.101077795 -0.13125184 -0.10557869 0.03617988 0.12513877 -0.10831837 0.10169859
-0.0165486 -0.024151161 -0.09188243 -0.09856928 -0.07563149 0.018116686 0.003340728 0.1757582
0.13536613 0.062731676 0.047428124 0.11848621 0.122096024 0.040926665 -0.0085060205 -0.102919124
0.14063169 0.037634216 -0.07271484 -0.052070506 0.07479259 -0.12257213 -0.12099413 0.0486417
-0.0163336 0.12605987 -0.02812185 0.09218495 0.19156583 0.13162613 0.07393213 -0.10229279
-0.08872102 0.07682536 0.07140133 0.15408637 0.012608088 -0.002891305 0.07120079 0.06506817
0.013180061 0.13889895 -0.0883824 0.13295288 -0.14088728 -0.14914173 0.15755717 0.15401788
-0.04662528 0.07097468 0.067266695 -0.082835734 0.063481934 0.099872 -0.11362359 -0.059469298
0.12529522 -0.056557782 0.051075313 -0.062295184 0.08966469 -0.13287546 0.07183255 -0.08558758
0.10781498 0.039790444 0.117785424 -0.102513924 0.021248799 0.13177156 -0.013243682 0.08560477
-0.052848056 0.13201118 0.10936584 0.06544717 0.10559018 0.14483865 0.06746834 -0.14619166
0.10457141 -0.01844884 0.109722726 0.0031446693 0.13685472 -0.023997257 -0.07669642 0.023493944
0.07307295 0.11314176 -0.10744345 0.10277636 -0.014985199 0.09710152 -0.0031702605 0.0060905083
0.07166052 0.025607798 -0.072254986 0.020994702 -0.087665044 -0.0030412253 0.020044109 -0.1366732
-0.06373992 -0.008944366 -0.14762866 0.023068683 -0.0626502 -0.011903319 0.1170181 -0.054286618
-0.13773476 -0.13081291 -0.06668928 -0.07221213 -0.020341648 -0.013276921 -0.09172304 0.13493194
-0.11332468 0.03901898 -0.11586344 0.05428407 0.13604002 -0.041133676 -0.069265775 -0.079353295
0.14099063 0.08047803 0.11500099 -0.049865462 -0.1426319 0.025281556 0.011358137 -0.13329136
-0.054080643 -0.03866884 0.11562933 -0.14386426 -0.061556626 0.07385483 0.09894587 0.0059419046
-0.08325656 -0.012322574 0.09811508 0.04312788 0.14751445 -0.1537652 -0.0735525 0.07607775
0.08267943 0.044526443 0.13149947 -0.02327481 0.13601491 -0.13116695 0.11842614 0.0313013
-0.123109624 0.033540733 0.12014921 -0.094360314 -0.06645816 0.08198939 -0.091123715 0.12756471
0.10047274 0.049660616 -0.13317157 0.02851894 -0.07429744 -0.12857904 -0.10085813 -0.106818
0.09586993 0.12720525 -0.0376084 -0.054682437 -0.007577596 0.059218954 0.14023532 0.025061524
00000000: e3a3 bd3d 7215 8e3d 70b7 8a3d d685 c0bd
00000010: 1460 de3d 2e92 e63d 4684 7f3d cad8 c23d
00000020: 52ee 9e3d 3418 1f3e f4b7 883d e22d 123e
00000030: 1e29 8b3d c576 1a3e f011 653d 8b8d 9e3d
00000040: 0285 d13c f742 9a3d 7926 24bd ef37 7e3d
00000050: d6d7 83bd 4981 6cbd af11 b23d 2038 b5bd
00000060: cdd5 fe3d 4fa5 79bd f280 66bd 5dc8 333e
00000070: b1a2 2abd c120 bf3b 2218 b1bc bce4 19bd
00000080: 6fa6 d4bd 8d12 123d 1203 1c3d 3c2e 7cbd
00000090: bbaa 0f3e 86bf 37bc 5cf6 cbbc 41cc bcbd
000000a0: 98cf 0b3e 3af2 bebd 8193 d83d b431 b23d
000000b0: f280 c6bd a65d 433e 2e3a 863d d540 e83d
000000c0: 7711 ddbc 5c39 2dbd a89c b83c fe34 ca3d
000000d0: 70b4 fa3d f685 d53c 4527 013c e776 413e
000000e0: 9c7f 153e 57ed fe3d 7db8 e73d d1c8 ebbb
000000f0: 01d3 afbd d1d6 e03d cddf 0abe 0bab 04be
00000100: 6172 823d e001 cf3d e266 06be a439 d8bd
00000110: 5b31 143d 6124 003e 06d6 ddbd 5a47 d03d
00000120: ee90 87bc a8d8 c5bc db2c bcbd b1de c9bd
00000130: afe4 9abd 7269 943c 1ef0 5a3b f5f9 333e
00000140: 6b9d 0a3e 7779 803d fe43 423d e6a8 f23d
00000150: 7b0d fa3d b8a2 273d d65c 0bbc 43c7 d2bd
00000160: c101 103e 5626 1a3d 85eb 94bd e247 55bd
00000170: dc2c 993d 1907 fbbd c5cb f7bd 853c 473d
00000180: 0bce 85bc d715 013e cb5f e6bc 77cb bc3d
00000190: d529 443e 00c9 063e bb69 973d e27e d1bd
000001a0: 5eb3 b5bd 9d56 9d3d dc3a 923d d1c8 1d3e
000001b0: 2792 4e3c 0c7c 3dbb b8d1 913d 7642 853d
000001c0: 2ff1 573c 873b 0e3e d501 b5bd cd24 083e
000001d0: c144 10be 9cb8 18be ab56 213e ddb6 1d3e
000001e0: 26fa 3ebd 2c5b 913d 1fc3 893d c8a5 a9bd
000001f0: d102 823d b189 cc3d 7cb3 e8bd 1496 73bd
00000200: 644d 003e 22a9 67bd 5934 513d 3c29 7fbd
00000210: 1fa2 b73d 8110 08be f21c 933d 8b48 afbd
00000220: 1ace dc3d 4efb 223d 7c39 f13d d2f2 d1bd
00000230: f611 ae3c 20ef 063e 07fc 58bc 8e51 af3d
00000240: 3477 58bd f02d 073e 33fb df3d 2a09 863d
00000250: aa3f d83d 9550 143e d72c 8a3d 44b3 15be
00000260: 8929 d63d 0622 97bc 4fb6 e03d cc16 4e3b
00000270: a523 0c3e e595 c4bc 0313 9dbd 5f76 c03c
00000280: 45a7 953d deb6 e73d 500b dcbd 6a7c d23d
00000290: 7b84 75bc 29dd c63d 25c4 4fbb e392 c73b
000002a0: c0c2 923d 72c7 d13c 6cfa 93bd 15fd ab3c
000002b0: bb89 b3bd 4b4f 47bb 8b33 a43c 0ff4 0bbe
000002c0: 138a 82bd 648b 12bc f82b 17be 89fa bc3c
000002d0: c04e 80bd 2306 43bc 30a7 ef3d a55b 5ebd
000002e0: 570a 0dbe d2f3 05be 6494 88bd f4e3 93bd
000002f0: 87a3 a6bc 7187 59bc 4ad9 bbbd 992b 0a3e
00000300: c516 e8bd 5ed2 1f3d d049 edbd f958 5e3d
00000310: 134e 0b3e c97b 28bd 37db 8dbd fb83 a2bd
00000320: d95f 103e aad1 a43d a485 eb3d ba3f 4cbd
00000330: 190e 12be 441b cf3c 7b17 3a3c 887d 08be
00000340: aa83 5dbd 3863 1ebd 12cf ec3d 2751 13be
00000350: cd22 7cbd 3341 973d 22a4 ca3d 4fb4 c23b
00000360: 6a82 aabd 9fe4 49bc 8ff0 c83d dca6 303d
00000370: 070e 173e a074 1dbe b1a2 96bd a7ce 9b3d
00000380: d553 a93d 5c61 363d cca7 063e d0aa bebc
00000390: 7e47 0b3e a150 06be 6789 f23d cb35 003d
000003a0: e620 fcbd 0262 093d ca10 f63d fb3f c1bd
000003b0: 371b 88bd 0eea a73d 129f babd 53a0 023e
000003c0: a7c4 cd3d ee68 4b3d 215e 08be 8da0 e93c
000003d0: 4229 98bd 39aa 03be b58e cebd 65c3 dabd
000003e0: 7457 c43d 1842 023e 440b 1abd b1fa 5fbd
000003f0: 7c4d f8bb 938f 723d d999 0f3e d34d cd3c

bias f4 [128]
0.12688792 -0.049095344 0.00071830413 0.06032179 -0.024995 -0.02436421 -0.027889207 -0.006541695
-0.020160275 0.0276784 0.042545903 9.661209e-06 -0.019393139 0.054482102 -0.028625807 -0.039561976
0.0065542688 -0.06084028 0.08642376 0.01864765 -0.037704762 0.011501765 -0.02469184 0.00013911458
0.010129612 -0.0055156955 -0.044590063 -0.020382771 -0.033175014 -0.0015566493 0.0536987 -0.0023807045
-0.052943088 -0.0035944842 -0.027486898 -0.04862494 -0.028615698 -0.0018313458 -0.0027944457 0.015012999
0.022392403 -0.00033307882 0.01964871 0.0015640482 0.00095538574 -0.06657763 0.0054997005 -0.01799373
-0.008450085 -0.002468132 -0.0018852843 -0.009843723 -0.015961422 -0.012166019 0.021533031 -0.027510282
0.005785373 -0.012144971 -6.0388586e-05 -0.0024076756 -0.032963023 0.00083238655 -0.0084615685 -0.03957397
0.0104827555 -0.01570197 0.0010157768 -0.016446302 -0.013233338 -0.004033536 -0.013624541 -0.028146163
0.025034804 -0.007079574 0.0003800251 -0.015837973 0.010572665 -0.027004564 -0.005995466 -0.00028467155
-0.013041949 0.002925963 -0.00429533 -0.01829497 0.006226547 -0.0102991415 -0.04947101 -0.03335392
0.059021663 -0.016625369 0.00087028166 0.011730721 0.054863367 -0.05280877 -0.020690504 -0.0012494236
-0.034596805 0.0046014 0.0006241092 0.039796036 -0.003485152 -0.0024197153 0.05305586 0.0037844605
-0.00836941 0.0074473405 -0.0037750895 -0.047215965 -0.00072350015 -0.0015403712 0.0023188738 0.031192034
0.031815384 -0.0060302033 -0.0064177546 -0.03692272 0.00078663265 0.070800126 -0.005095592 -0.023534425
0.05660585 -0.020004084 -0.00010481753 -0.0003758049 -0.0008812784 0.0069307797 -0.009071023 0.029892907
00000000: e8ee 013e 3318 49bd 934c 3c3a fb13 773d
00000010: 50c2 ccbc 7497 c7bc e877 e4bc b75b d6bb
00000020: 2927 a5bc d0bd e23c 9d44 2e3d 9416 2237
00000030: 5cde 9ebc a028 5f3d ab80 eabc bd0b 22bd
00000040: 31c5 d63b a833 79bd f1fe b03d f5c2 983c
00000050: 4f70 1abd e671 3c3c 8b46 cabc 49df 1139
00000060: acf6 253c 02bd b4bb 12a4 36bd c5f9 a6bc
00000070: 86e2 07bd 7c08 ccba 2bf3 5b3d 9805 1cbb
00000080: dada 58bd 7091 6bbb 342c e1bc f22a 47bd
00000090: 786b eabc c509 f0ba 0523 37bb 15f9 753c
000000a0: 4670 b73c 15a1 aeb9 55f6 a03c c000 cd3a
000000b0: da72 7a3a da59 88bd d536 b43b 9667 93bc
000000c0: 3a72 0abc 62c0 21bb a51b f7ba 9147 21bc
000000d0: 87c1 82bc fb53 47bc 0a66 b03c 3e5d e1bc
000000e0: 3a93 bd3b b3fb 46bc c049 7db8 18ca 1dbb
000000f0: 3c04 07bd 8434 5a3a 64a2 0abc 5118 22bd
00000100: ddbf 2b3c 6ba1 80bc d023 853a 65ba 86bc
00000110: a4d0 58bc c12b 84bb 7839 5fbc c892 e6bc
00000120: ca15 cd3c c5fb e7bb 1b3e c739 a3be 81bc
00000130: f938 2d3c ad38 ddbc 9d75 c4bb f83f 95b9
00000140: e6ad 55bc 83c1 3f3b d7bf 8cbb 55df 95bc
00000150: 1008 cc3b bbbd 28bc 1da2 4abd 1f9e 08bd
00000160: b3c0 713d ed31 88bc 9d23 643a 3632 403c
00000170: 69b8 603d 024e 58bd 227f a9bc b3c3 a3ba
00000180: 61b5 0dbd 57c7 963b 429b 233a 2b01 233d
00000190: 2667 64bb 1694 1ebb 1a51 593d b604 783b
000001a0: da1f 09bc d208 f43b 7e67 77bb 8765 41bd
000001b0: 46a9 3dba 48e6 c9ba 3ff8 173b 7086 ff3c
000001c0: d950 023d 0399 c5bb 074c d2bb 473c 17bd
000001d0: 0636 4e3a a8ff 903d ecf8 a6bb 44cb c0bc
000001e0: 89db 673d 9bdf a3bc 7cd1 dbb8 ae07 c5b9
000001f0: 9805 67ba 981b e33b a19e 14bc f8e1 f43c
