MAMRL-TE/Dynamic environments/Baselines/Random/ATT/task2/savemodels/policy19.pth (torch, 275867 bytes, 12 tensors)

weight f4 [128, 7]
00000000: a0ab 9a3d e6cc 7f3e 278b a23d 16d1 0e3d
00000010: a00b bdbd 7bf6 b43d 34a7 873d fb6e 743c
00000020: d032 14be 16dc 50be 43d4 203e 5bcd 0abd
00000030: 9fd5 00be 7915 953d 73ff 1fbe 5dbb bdbc
00000040: cb2e 4dbe af54 fe3d 238e 293d f55e ef3d
00000050: 6f70 e4bd 7115 06be c857 5f3e 9a08 14be
00000060: 1b14 85bd 097f 42be 5c06 4fbe 4963 1b3d
00000070: 156a 49bd d266 87bd ff84 2dbb 8369 ec3d
00000080: 500d 4fbe 4f7e dbbd b9dc 27bc b515 d4bd
00000090: 39ff 1bbd be4f 2fbe a232 6f3e 422f 103e
000000a0: 333f b33d febe 23be 3c37 c7bd 64d7 6a3c
000000b0: 8eaf 373e d692 dfbd 168d 0bbc 14b8 48be
000000c0: 7ec6 3ebd 114c e3bd ccca 23bb e5e4 83bd
000000d0: 445d 05be f8a0 803d b4c8 c83d f62d e9bd
000000e0: 6e35 893a 4e79 40bd d716 d1bd 39bb 9ebd
000000f0: ee58 4fbd 49be d13d 83f6 0bbd 2067 28be
00000100: 542a e6bc 803f 3f3e 4e90 0d3e 9a93 ed3c
00000110: e9ed cebd d28e 923d 597c 3bbe 7bfb 1f3d
00000120: 3d2e 49be 670b 6d3d 4dff cf3c a19d 34be
00000130: 177c 2ebe fffc 753d eaf4 56be 1caf 6f3d
00000140: be00 1c3e c343 44be 8519 ecbc b54b 4c3a
00000150: 4ed7 4bbe 2ca9 c43d 28bc a7bd 8816 4dbd
00000160: 617d 57bd ea7a 14be ccd7 7cbc 1762 61be
00000170: c08e 79bd ad89 e13d 74c7 003c dbf3 3abe
00000180: a5fd 1d3e 26a4 96bd dd97 d9ba 95c3 07be
00000190: fd46 49be 109c f5bd 5322 0e3e 6375 85bd
000001a0: 6503 cbbb 14f2 2cbe 0e6b c03d b021 a93d
000001b0: 014f bb3c 3c4d b2bd 1865 0fbe 4bc1 ec3d
000001c0: 4d55 51be a70b 4bbe 6da3 b53d 3c6e d5bd
000001d0: beb8 53be 6432 443e 0a12 23be bc89 ea3d
000001e0: 9470 97bd 315e 4f3d 8def 1a3e 6d56 35bc
000001f0: 772f 90bd 832c e0bc 1d78 8bbd a826 a6bd
00000200: 6df4 533e 3ef7 d23d e687 dd3d 2397 743d
00000210: 6631 12bd 7c26 4bbe 48a9 46be 61dd 393d
00000220: 4f31 b43d b98e 01be 7c49 573c 682a a3bb
00000230: 2db2 f83d 7286 a2bd 624e 22be 5030 aabd
00000240: 541c 483e c163 38be 364e 27be 22f4 0c3e
00000250: c1c0 3d3e 401d c13d ec62 0e3e 98c1 693e
00000260: 20b1 dabd 00e8 b3bd 3159 3ebe 40d4 d23d
00000270: 290d eabd 9318 283e 17b4 14be 7d76 3ebe
00000280: 02d2 6abd 06b8 b53d c16c 5e3d 8d1c 39be
00000290: cbd5 2e3d 40df 8bbc 8967 71bd 5056 903d
000002a0: cd59 383e adb8 4abe 427a e8bd 1d52 23bd
000002b0: f46c bdbd dcfc 013c b0dc 2d3c 2100 3e3e
000002c0: f688 bebd 3700 1c3d 0728 423e 3e4e ca3d
000002d0: 1353 453e 46f7 583d f310 7dbd 4b20 87bc
000002e0: 64c6 3a3e 910f cdbd e885 6dbd 0916 57be
000002f0: 8a7a 2cbe afed 033e b236 833d f8f4 4f3d
00000300: dc0a fa3d 9e65 54be 9e39 2b3e 6959 7ebd
00000310: 2c00 39bd 5c80 8cbd a10d 883d 9d71 493e
00000320: 8319 043e f23a f03d ac69 04be 8a14 673e
00000330: ca1b 283d a458 803d 6063 02be 4e6b b43d
00000340: 0f10 8c3e e292 e63d 40c0 c6bc 15f8 333e
00000350: 0496 d8bd 4a33 03be a1df 4abe 629b a93d
00000360: 0d0b f5bd 2a29 103f 882e 1b3f 10ac db3b
00000370: df63 eabd 302a c73e 18b4 b33d 80e7 d0bd
00000380: bd4f a1bd 80c9 1ebe 5399 2dbe 79fd 9d3d
00000390: 9804 51be 252f b5bd 766b 353e 6653 f8bd
000003a0: e2cf 43be 0df2 fa3d de6e 633e fde2 673d
000003b0: 43eb c13d db70 593e ca5d c43e 9660 393e
000003c0: fa5c e9bd 26d9 c8bd 15c6 c93d fdc6 213c
000003d0: df57 553e fe9c 42be 6052 b3bd cb6f 183d
000003e0: d1d0 14be c66c e6bd 77bc d83c 50b8 9a3d
000003f0: e537 7bbd aaeb 3dbe 6aec f53d 4dda 6fbd
0.07552266 0.24980506 0.079366975 0.03486737 -0.09230733 0.08836075 0.06623688 0.014919038
-0.14472508 -0.20396456 0.15705971 -0.03388725 -0.1258149 0.07279486 -0.1562479 -0.02316063
-0.20037381 0.12418496 0.041395318 0.116880335 -0.111542575 -0.13094117 0.2181083 -0.14456406
-0.064979754 -0.18993773 -0.2021727 0.037936483 -0.049173433 -0.06611408 -0.0026476977 0.11543562
-0.20219922 -0.10717451 -0.0102454955 -0.10355703 -0.038085196 -0.17120263 0.23359159 0.14080527
0.08752289 -0.15990826 -0.09727332 0.01433358 0.17938063 -0.109166786 -0.008517524 -0.1960147
-0.046576016 -0.11098493 -0.0024992703 -0.064401425 -0.1302386 0.06280702 0.09803906 -0.113857195
0.0010468194 -0.046990685 -0.102094345 -0.07750554 -0.05062192 0.10241372 -0.03417064 -0.16445589
-0.028096355 0.18676567 0.13824579 0.029001046 -0.101039715 0.07156147 -0.18309154 0.03905819
-0.19646545 0.057872202 0.025390292 -0.17638256 -0.17039524 0.06005573 -0.20991865 0.058516607
0.15234658 -0.19166474 -0.028820762 0.00077932636 -0.19906351 0.096025795 -0.08190185 -0.050070316
-0.052609805 -0.14500013 -0.015432309 -0.22010075 -0.060927153 0.11012588 0.007860053 -0.18257086
0.15428789 -0.073555276 -0.0016601045 -0.13258202 -0.19655986 -0.11992657 0.13880281 -0.0651653
-0.006195473 -0.1688922 0.09395419 0.082583785 0.02286482 -0.087061375 -0.14003408 0.11560305
-0.20442696 -0.19828664 0.088690616 -0.10421416 -0.20675942 0.19159847 -0.1592485 0.11452052
-0.073945194 0.050626937 0.15130444 -0.011067969 -0.07040303 -0.027364975 -0.06810019 -0.08112842
0.2069871 0.10301064 0.10816936 0.059714448 -0.03569164 -0.198389 -0.19400513 0.04537714
0.08798467 -0.126521 0.013140079 -0.0049794205 0.12143359 -0.079358 -0.15850213 -0.08309996
0.19542056 -0.18006803 -0.16338429 0.13765004 0.18530561 0.09429407 0.13904923 0.22827756
-0.10678315 -0.08784485 -0.18588711 0.1029439 -0.11428291 0.16415624 -0.14521824 -0.18599887
-0.057329185 0.0887299 0.054302935 -0.18077298 0.042684358 -0.017074227 -0.05893663 0.07047713
0.18003006 -0.1979701 -0.11351444 -0.03987323 -0.09249297 0.0079338215 0.010611698 0.18554737
-0.09303467 0.038086142 0.18960582 0.09878205 0.19269972 0.052970193 -0.061783742 -0.01649489
0.18239743 -0.10012735 -0.05798903 -0.210045 -0.1684362 0.12883638 0.06406917 0.05077073
0.122091025 -0.20741889 0.16721198 -0.062096987 -0.04516618 -0.0686042 0.066432245 0.19672246
0.12900357 0.11729993 -0.12930936 0.22566429 0.041042127 0.06266907 -0.12733221 0.08809529
0.27356002 0.112584844 -0.024261594 0.17575105 -0.10575488 -0.12812534 -0.1981187 0.0828159
-0.119649984 0.5631281 0.60617876 0.006703861 -0.1144483 0.38899374 0.087745845 -0.10200405
-0.07876537 -0.15506554 -0.1695302 0.07714362 -0.20411909 -0.08846883 0.17716774 -0.12125282
-0.1912227 0.12253199 0.22210261 0.056612957 0.09468701 0.21234457 0.38352805 0.18103251
-0.11394687 -0.09807043 0.09852234 0.009874103 0.20834301 -0.190052 -0.08755946 0.03721599
-0.14532782 -0.11251216 0.026457055 0.07554686 -0.061332602 -0.1854693 0.12007983 -0.058557797

bias f4 [128]
00000000: 5f2a debb 9668 7aba f8ac f7b9 5c5a 443a
00000010: f009 da38 50ca 993b 59ae 153a 7607 f6b9
00000020: eacf ff39 125a 5a3a 9717 8438 fe7b 2dba
00000030: 78b8 cdba 8f95 04bc 6f83 af39 1135 68bb
00000040: 51ba 25b8 18ee 163a 88b1 7f3b 90e6 3fbb
00000050: 6d0d d2ba a4eb 4fbc 3998 95ba 4844 4a39
00000060: 179f 9b3a 1e5b 7abb a7de a7b8 4c0b ec3a
00000070: a23e bc3a d130 3e3c d712 433b 44b8 d6bb
00000080: 6961 4ab9 038a 1a3c c44a 453c 862d 2cb8
00000090: 2ef7 173b 6f22 8cbb 783e edb9 963d 383b
000000a0: 0000 0000 35c7 a9bb e35b 0a3c 4e78 7f38
000000b0: 41ed 22bb d0ee bb3b 4035 d33a 6ce2 1d3c
000000c0: 47d5 04bb 7c38 cf3b 0e61 53ba b294 b43a
000000d0: 9a37 e13b 40da 0f3c 7ee5 d73b 4d37 083c
000000e0: 2996 da37 4417 efbb bcff 2abb 1401 83b9
000000f0: a175 a93a 2861 243b 4a79 113b 00ad 49b8
00000100: 1a46 1139 4c1b 203c 24ed 7a3a cf7d e0ba
00000110: da0d d2bb 6744 5636 4079 94b9 df27 bbba
00000120: c09f 9a3a dcc3 9ebc 46f0 9fb7 2b80 94bb
00000130: d7bf 053c 223b b53b d440 b5ba ecbf de3b
00000140: c7b0 3bbc acdf 89ba 6e36 3aba a6b5 37bc
00000150: 5e2a c3b9 2efd 04bc 7313 ef39 2f4c 923b
00000160: 0ca0 b83b 2695 203b f88d 07ba 2e4c 103c
00000170: c1fa 10bc 1a91 debb 69b6 933a 3edb b0bb
00000180: 567a ac3a 5e3f 733c 817a ed3a dd75 b1bb
00000190: 555d e6bb 3c8c 32ba 4202 223a 1a14 18b9
000001a0: a182 ffba f89b 1cbb 692c 8ebb 6060 263c
000001b0: 0000 0000 8b08 cebb daa2 603b 62bc 4bbb
000001c0: 41ee 373c 28ae 9939 9473 56bb 8e4e 26bc
000001d0: 153f 49ba 0868 c53b 2a87 55b6 a6e6 2abb
000001e0: 101e 163b fa02 24bc a4e1 693b 7b85 25ba
000001f0: 1396 b3ba 5339 a4bb c12e 1cb4 00c7 4fbb
-0.0067799534 -0.00095523277 -0.00047240383 0.0007490271 0.00010396901 0.004693307 0.0005709879 -0.00046926335
0.00048792298 0.00083294616 6.2986444e-05 -0.00066179025 -0.0015695235 -0.008092298 0.00033476527 -0.003543202
-3.9512586e-05 0.00057575246 0.003901573 -0.0029281713 -0.001602573 -0.012690458 -0.0011413164 0.00019289658
0.0011872974 -0.0038201283 -8.004653e-05 0.0018008738 0.0014361928 0.011608318 0.0029765868 -0.006552728
-0.0001930051 0.009432319 0.012041751 -4.1050393e-05 0.0023188102 -0.0042765657 -0.00045250705 0.002811288
0.0 -0.005181218 0.008444759 6.090878e-05 -0.0024860653 0.005735256 0.0016113892 0.009636503
-0.0020268725 0.006323872 -0.00080634735 0.0013777225 0.0068730833 0.008780062 0.006588637 0.008313966
2.6057549e-05 -0.0072964747 -0.002609237 -0.0002498707 0.0012928733 0.0025082324 0.0022197538 -4.8083253e-05
0.00013854392 0.009772133 0.000957208 -0.0017127338 -0.0064103426 3.19283e-06 -0.00028319098 -0.001427885
0.0011796877 -0.019380502 -1.9066163e-05 -0.0045318804 0.008163414 0.005530731 -0.0013828524 0.006797781
-0.011455721 -0.001051893 -0.00071034476 -0.011212742 -0.00037224864 -0.008117003 0.00045600123 0.004464648
0.0056343134 0.0024502962 -0.00051709963 0.008807225 -0.008848847 -0.0067922 0.0011269572 -0.0053972295
0.0013159018 0.014846651 0.0018118174 -0.0054156617 -0.007030169 -0.00068110577 0.0006180146 -0.00014503338
-0.0019493887 -0.0023896676 -0.00433879 0.0101548135 0.0 -0.0062876395 0.0034276755 -0.0031087627
0.011226238 0.0002931219 -0.0032722699 -0.010150565 -0.00076769415 0.0060243644 -3.181815e-06 -0.0026077419
0.0022906102 -0.010010475 0.003568747 -0.00063141406 -0.0013701342 -0.0050117164 -1.4545641e-07 -0.0031704307

weight f4 [128, 128]
00000000: c8bd 17bd d606 06be 262c b03d f25f db3c
00000010: 3822 c8bd dace a23c 26a5 c63d 14c9 bf3d
00000020: ba06 bdbd 2739 17be ab4c 10be 2278 73bd
00000030: ae16 dcbd 4303 083d 4729 6abd 5b53 f13d
00000040: 050d 5cbd 9957 9e3d 7c2d febd aad7 7d3c
00000050: 05b5 d4bd d43c 263e 1b15 b0bd 519e b83b
00000060: a050 083d 4e1b cdbc 46f0 113e 2c01 e63d
00000070: 2829 b33d ee29 4bbd 9e7a 00be d429 7e3e
00000080: 7cfa 07be b0c3 7bbc c71a 423e 1781 573d
00000090: d57c e7bd 2c8a c5bd 6756 9c3d 4e58 123e
000000a0: 5d47 15be 1095 0c3e 14bf 8cbd ba3b 07be
000000b0: cfc0 063e 48c1 29bd 0625 e8bd 0e66 08be
000000c0: c627 0f3e a4a0 473e 9cae 1abe c0cd 133e
000000d0: 6c9b 96bd 96a9 483e 329b 133e 04c6 df3d
000000e0: fb15 12bd e5e8 253e d3e3 053c 1632 67bd
000000f0: 56ed a9bd 9701 e33d d2e4 933d 6aa0 1c3d
00000100: 7d63 07be 204d c33d f64f 803d a593 873d
00000110: 9096 153e 87fe d43d 4b81 363e 6a3d f23c
00000120: dea4 333e 9f70 c23d aec8 103d 939c 54bd
00000130: 2090 21be 0e27 3f3e 4f02 453e 1682 493e
00000140: 7e28 e73d 77af cc3c 6e9d c4bd 5b53 a63d
00000150: dd97 f8bd 020f 433e e9f1 82bd b477 3c3d
00000160: 10f2 793d 7176 9e3d 145c 1d3d f311 36be
00000170: 34e4 dc3c 509c ecbc bedd 42bd e0ef cd3d
00000180: 63fe d7bd 89a0 e7bd 892f 113e 15a1 97bc
00000190: db77 b1bd b708 a93d 7d8c 47bd 2c85 6d3d
000001a0: 485b 153e b9d2 cfbd 51a0 1dbb 66e1 0c3c
000001b0: 9c8c b0bc 076b 1fbe 576f 8bbd e1ec 153d
000001c0: 8f38 09be 1719 c7bc c7a8 ec3c 5002 3d3c
000001d0: abbe f93c 3e46 b33d 1024 c83d 1cf6 f63c
000001e0: 2299 33be c743 adbc b083 f7bd 9fe5 0a3e
000001f0: 6757 9d3d 76bd 3dbd 6771 f0bd 6418 4f3e
00000200: 2860 653a 4f44 9cbd c3d5 0abe f888 173c
00000210: d5d3 b2bd 29ca 71bd 4c62 353d 649c fbbd
00000220: 500a 3ebd 704d cf3d f733 fc3a f487 9bbd
00000230: 2640 ffbd 904b 06be 878e 4b3d 74f4 28bc
00000240: ed2f 033e 87fd cebc d263 e13d 0647 2fbd
00000250: 2021 a4bd 7a43 a13d 42a0 4abd 62c5 b4bd
00000260: 59cb 293d 98aa 6d3d 7001 eabd fe3d d9bc
00000270: a040 0e3e 2af4 053e ba03 aabd fe51 91bd
00000280: ebec adbd 0349 eb3b 1c25 133e 0e76 003e
00000290: 5be5 0ebe 134f b63d 3cfb 433d 5580 003e
000002a0: 428f d9bd 8155 183d 6567 fe3d de00 8036
000002b0: 656e d63c f12e d8bd 030a 163e 2a6c 323e
000002c0: 769e fabd c7d9 0cbe ae23 d8bd 015a 0cbe
000002d0: 2c0a 45bd 7e49 b0bd b414 043e 934c 303e
000002e0: 3585 b93c ae4a 11be 1170 62bd 1d1e 30bd
000002f0: ef61 d7bd 2edd 073e 2126 10bc fc11 053e
00000300: 92f5 b5bc 0e06 953d 0b1b 93bc 4684 953d
00000310: a6c4 1c3c 3d63 163a 6fa1 9cbd 76c5 ea3c
00000320: 6572 f2bd 2a64 11bd e728 d73d 2f91 1a3c
00000330: 82de 993d 13cb 0dbe 54eb 26bd 4a46 be3c
00000340: f336 c9bb 95bc e4bd cdc3 eabd 184c 01bc
00000350: 09d0 e6bd 853e cfbd e71c c3bd 5ca9 84bd
00000360: ad1d 1a3e 8ba0 003e 2910 eebb 2456 28bc
00000370: c3fd bdbd 8573 ad3d 8b2c a5bd 150a 123e
00000380: 68f6 883d 3315 02bd 8e30 81bd 29e7 b33c
00000390: 5f21 1abe 64b7 c43c ea15 fe3d 77cf dcbd
000003a0: 7e85 0abe 8321 ad3d 905f 56bd 866f 993d
000003b0: 6fc4 e9bd 9224 fd3c e724 1e3e c28c 0dbe
000003c0: 0e81 e3bd 8228 773d c95d 963d b076 a23d
000003d0: 21cd 583d 6fd9 da3d a3bf 563d 6bc0 44bd
000003e0: 91fe 23bd 4c2d 3f3c 9af4 08bc 90fd 45bd
000003f0: 0fdd 703d e22d ea3d 5eca 06be cee0 a9bd
-0.037046224 -0.13088545 0.08602171 0.026779149 -0.09772152 0.019874025 0.09699468 0.093645245
-0.092297986 -0.14767896 -0.14091747 -0.05944074 -0.10746513 0.033206236 -0.05716827 0.11783477
-0.053723354 0.07731552 -0.12411019 0.015493313 -0.10386089 0.16234142 -0.085977755 0.005634107
0.033280015 -0.025037434 0.14251813 0.11230692 0.08748084 -0.049600534 -0.12546775 0.24820644
-0.13279146 -0.01536648 0.18955527 0.052613344 -0.11303107 -0.09645495 0.076336674 0.14291498
-0.14578004 0.13728738 -0.06872383 -0.13206378 0.13159488 -0.041444093 -0.11335187 -0.13320181
0.13980016 0.19494873 -0.1510567 0.14433956 -0.07353863 0.19595942 0.14414671 0.1092644
-0.035665493 0.16202123 0.008171993 -0.05644425 -0.08297221 0.110842876 0.072213784 0.03823892
-0.13221546 0.09536195 0.06265251 0.06619958 0.14608216 0.1040011 0.17822759 0.0295703
0.1754336 0.09494137 0.035347633 -0.051907133 -0.15777636 0.18667242 0.19239162 0.1967853
0.1128702 0.024986012 -0.0960034 0.081213675 -0.121383406 0.19048694 -0.06393797 0.046012595
0.061021864 0.07737435 0.03841789 -0.17780285 0.026964284 -0.02888313 -0.04757475 0.10055518
-0.10546567 -0.113099165 0.1417829 -0.018509427 -0.08665439 0.08253615 -0.048717964 0.05798833
0.14585602 -0.10147614 -0.0024051855 0.008598661 -0.021551423 -0.15568171 -0.06808346 0.03660286
-0.13400482 -0.024303956 0.028889073 0.011536196 0.030486425 0.08753632 0.097725034 0.030146651
-0.17538884 -0.021150483 -0.12085664 0.13564156 0.07682686 -0.046323262 -0.1174038 0.20224148
0.0008749985 -0.07630216 -0.13558106 0.0092489645 -0.0873181 -0.059030686 0.044283196 -0.122856885
-0.046396554 0.10122192 0.0019241561 -0.075942904 -0.12463407 -0.13114762 0.04969647 -0.010312188
0.12811251 -0.025267376 0.11005367 -0.042792343 -0.080141306 0.07874198 -0.04946924 -0.0882671
0.041453693 0.05802402 -0.114260554 -0.026518818 0.1389184 0.13081422 -0.08301492 -0.07095717
-0.08492454 0.0071803345 0.14369625 0.12545034 -0.1395468 0.08901801 0.047847018 0.12548955
-0.106230274 0.037190918 0.12422065 3.814798e-06 0.026175687 -0.10555828 0.14652257 0.17424074
-0.12237255 -0.1375495 -0.1055368 -0.13706209 -0.048105404 -0.086077675 0.12898523 0.17216711
0.022646526 -0.14188644 -0.055282656 -0.04299747 -0.10516726 0.13267967 -0.008798153 0.12995142
-0.022211824 0.072765455 -0.017957231 0.0730062 0.009568369 0.00057368336 -0.076479785 0.02865861
-0.11838225 -0.035495915 0.105058484 0.0094340285 0.07513143 -0.13846998 -0.04075177 0.023226876
-0.0061405837 -0.11168782 -0.11463127 -0.007891677 -0.11270148 -0.101193465 -0.09526997 -0.06477615
0.15050383 0.12561242 -0.00726511 -0.010274444 -0.09276917 0.08469299 -0.080651365 0.14261658
0.06687623 -0.0317585 -0.06308089 0.021960812 -0.15051793 0.024013229 0.124065235 -0.10781758
-0.13527486 0.084536575 -0.05233723 0.074919745 -0.1141442 0.030901227 0.15443765 -0.13823226
-0.111085996 0.060341366 0.07342107 0.07932794 0.05293 0.106860034 0.052428853 -0.048035067
-0.040037695 0.011668514 -0.008359099 -0.04833752 0.058804568 0.11434533 -0.13163134 -0.08294831

bias f4 [128]
00000000: 0200 53bc 10a9 633c a821 5aba 08c0 88bb
00000010: be6b 35bc 6054 7c39 f367 443b 24cc cdba
00000020: a967 77bb e8d4 093c aad9 bb3b f260 e83b
00000030: aef1 88bc 9938 b2b7 aa17 bbba e8e2 12bc
00000040: 0d3e 46bb 5d00 0e37 340f f238 3150 93ba
00000050: a030 a93a c718 83b9 b8bd c9ba db18 7b38
00000060: 48e0 e2ba 4a2c b63a 6d3f a93b 8025 b93c
00000070: 0000 0000 8e69 1039 86ea 37bb fd17 a9b8
00000080: 9924 9d39 c8f9 99ba 2594 a23c 3472 5e3a
00000090: ecbe 333b a649 143c 95b2 d13a 2028 56bc
000000a0: 41cd 11ba 72d6 75ba abad fcba 8089 ccbb
000000b0: fef8 10bb e5a7 cdbb 6d12 b73a d6c6 f4ba
000000c0: ab9b 0ebb 43a8 feba 6640 d8ba 3e39 1fba
000000d0: 1723 383c 3a9b f2b9 2b00 9bbc 5e30 1a3a
000000e0: 7c44 84ba a908 9035 ee07 95b8 24c9 a6bc
000000f0: 40db 823a ee73 b1bb d87f 36ba e2a6 a2ba
00000100: 44ba e3bb 20fd e03b 0000 0000 28d9 9eb9
00000110: dad9 1338 72ad 153b 40ea 32bc 92bc 9fbc
00000120: 49b2 20bb 4a2f a03a 9ecf 65bb 0f37 0a3b
00000130: 5389 e8bb c619 18bc 27b8 2cbc e2b2 853b
00000140: 5ad7 513c 5e3c 81bb 9b26 28bc e431 ebba
00000150: c8bc 82bb 37aa 37bb 5ace 0dbc f035 983b
00000160: 6528 8dbb e44f 80bc b640 9ebc 2413 18bc
00000170: f48a 313a a203 ab3a b4ca bbba 676d 22bb
00000180: 306b fd39 166d eab9 4d71 2bbb 48c0 6cbc
00000190: 1c44 41bb 2941 97b9 b76a 033c 9c29 873b
000001a0: 4a90 a93b a0a3 203a ebcc b5bb 1deb 8e3b
000001b0: 478d 6a3a a95a 6f3b 0f7e 3738 94bd da3a
000001c0: da5c 3736 9c63 9439 c825 8238 ec78 023b
000001d0: 27a0 8238 0fba 91bb 6e32 a1ba 51dd 3f3a
000001e0: 20c2 8b3b f489 d73b 363b 77bb 0afc e13a
000001f0: ab74 6e39 c3f5 0fbb 9b4e 573b 04eb 71bb
-0.01287842 0.013895288 -0.0008321055 -0.0041732825 -0.011073051 0.00024064025 0.0029969185 -0.0015701097
-0.0037750995 0.008412577 0.0057327347 0.007091635 -0.016716804 -2.1245609e-05 -0.001427402 -0.0089652315
-0.0030249387 8.463944e-06 0.00011542291 -0.0011239109 0.0012908168 -0.00025004728 -0.0015391624 5.986621e-05
-0.0017309273 0.0013898697 0.0051650316 0.02260089 0.0 0.00013772232 -0.002806337 -8.063016e-05
0.0002997264 -0.0011747414 0.019846031 0.00084856455 0.002742703 0.009050762 0.0015998656 -0.01307109
-0.0005561896 -0.0009377963 -0.0019277831 -0.006241977 -0.0022121067 -0.006276118 0.0013967283 -0.001867498
-0.0021760266 -0.0019428808 -0.0016498684 -0.00060738984 0.011238835 -0.0004627349 -0.018920979 0.0005881841
-0.0010091211 1.0731356e-06 -7.106351e-05 -0.020359583 0.0009983554 -0.005415431 -0.0006961799 -0.0012409354
-0.006949695 0.0068661124 0.0 -0.00030297902 3.525042e-05 0.0022838977 -0.010920107 -0.019499097
-0.0024520329 0.0012221124 -0.0035066376 0.0021089946 -0.0070964484 -0.009283489 -0.010541952 0.0040801624
0.0128076915 -0.003943964 -0.0102631105 -0.0017943946 -0.0039897896 -0.002802504 -0.008655155 0.0046451017
-0.004307794 -0.015663095 -0.019317966 -0.009281907 0.000677272 0.0013047347 -0.0014327378 -0.0024784447
0.0004833578 -0.00044713233 -0.0026160062 -0.01445014 -0.002949006 -0.00028849512 0.008021048 0.0041248333
0.0051746713 0.00061278977 -0.0055481098 0.004361524 0.00089474436 0.0036522544 4.3748e-05 0.0016688579
2.7323172e-06 0.00028302975 6.20592e-05 0.00199085 6.228714e-05 -0.0044472287 -0.0012298354 0.00073190505
0.004265085 0.0065777246 -0.0037724501 0.0017241251 0.00022740911 -0.0021966554 0.003285325 -0.0036913762

weight f4 [128, 128]
00000000: 0753 19bc a7f3 0c3e 9b54 af3c 8a90 acbc
00000010: a5ad e73d 5238 d73d fc71 053e 2f4c 8e3c
00000020: 6c26 d53c 4870 d4bd 7bb6 c4bd 9e15 c0bd
00000030: 11a3 5bbd edc7 a8bd 6791 a23d 5a86 0bbe
00000040: 7c89 ae3c 8691 e7bd 1138 033c de92 85bd
00000050: fd78 053e 9385 12be 4e96 95bd 7c28 c03d
00000060: 5a8b 12bd 80c6 84bd 518c 1cbe 6bb1 9bbc
00000070: 2e73 d53d 86fd 48bc f556 823d 438f 24bd
00000080: 4b69 dcbd 6fd5 523d 974b ad3d ad10 013d
00000090: f1b4 e2bd b40d 873d 3332 a43d a8ea 203d
000000a0: 6669 9937 bbfd 033c bd06 dc3d 9ee7 823b
000000b0: b6f5 b8bd e810 1ebd 07a0 1bbc 9b85 d1bd
000000c0: fba1 a9bd 3e9f febd 935e b83d 33c3 1abe
000000d0: 5f39 19bd 253e 9b3d e97d 563d 281a 043e
000000e0: ef93 f2bd 50c6 053e b99e 5ebc 4f8d 863d
000000f0: 3050 abbd 2666 833d e6c5 b63d 180e db3c
00000100: 5d69 80bc 995a 7fbd fd17 283d db3b 5d3c
00000110: 6b8c f9bd dc05 01be f566 813d 9d6b 0e3d
00000120: 229b 1f3c fa2d a33d 1480 d4bd 833a 7f3d
00000130: 6a23 04be f02f 18be 6fa8 35bd 4d99 4f3c
00000140: e2c8 0c3e cd91 9bbd 48d4 0ebe 9d6d 483d
00000150: f4e1 0a3e f130 85bd e417 5fbb c7f5 8abd
00000160: e9c1 8f3d 720e 1d3e c685 8abd 05c1 833d
00000170: f37f 8ebd fac4 243e 5360 f1bd fa1d 46bd
00000180: 5ad3 ae3c 088e e4bd 2237 06be 25f3 553c
00000190: fe24 683d be2a 153e d6c8 f9bc 184f d33d
000001a0: 54c1 e23d fe72 e6bd 953c 25bd 9c34 e9bd
000001b0: da12 1a3d 7167 a83d 85f7 13be 459f 173e
000001c0: 1b33 9a3d e0e4 8d3c 9366 dc3c f262 70bd
000001d0: 9007 7e3d 1ef2 94bd 6e68 ac3d c160 a93d
000001e0: 2d86 313c 783f b63c a0ef 153e cef2 693c
000001f0: 99bb dbbd fc56 11be 6e84 af3c 0092 b1bd
00000200: cd2d 003e 45c7 843d 97ae 033c 262b 6d3d
00000210: 518d 84bd 0107 ea3c 24bc a2bd 784d 07be
00000220: 5a34 79bd 2c8e 10be d112 f83d 503c 88bc
00000230: 772a 003e abb8 c9bd 1a8a 00be 4635 c53c
00000240: af46 f23d d610 d53d 1cd8 c73d 21b5 7c3d
00000250: dc22 08be 0555 8dbd 4a65 553d 5064 1cbe
00000260: 3dfa 8fbd 873f c5bd 1cf6 b83d 1e46 d3bd
00000270: e3f4 9bbc fbc8 e63d 0772 3d3d a405 6abd
00000280: 63d5 313d 5712 6cbd 2faf 1b3e 28de 12bb
00000290: 956d 1abe f20d 00bd 5d63 c03d 4648 a43d
000002a0: a891 b5bd ef27 8dbd 1b10 1cbd d221 8abd
000002b0: a041 f43d b009 9639 b25b d6bc 3177 653d
000002c0: e2c4 bdbd 45e5 98bd 707e f23c 4a6a e2bd
000002d0: b381 5e3c 6c8d 9cbd 48d2 d6bd 00c5 0bbe
000002e0: 5c33 76bd aa86 e93c ffca 663d 7321 ed3c
000002f0: 0a19 01be 143d 1d3c edef 5e3d f54c 9b3d
00000300: e1cc 13be 1989 103e 68e2 073e 7a90 9abd
00000310: 02ac dc3d 72ca 77bd 002e a7bd cf0a 80bd
00000320: 258a 1a3d 32d2 bbbd 3555 d63d 1ddb f93d
00000330: 270b b53c ef1b cf3d 8dc4 ab3d ff35 5c3d
00000340: 58ea d2bd cb5c c0bd 60cf 8dbc fbec be3d
00000350: 5b83 cd3d af8a 96bd 25d9 7e3d b0a8 f2bd
00000360: c4fd 953b 3fa4 4a3d e0b6 fcbd 478f 973d
00000370: 9b72 ec3d 7683 583d 0941 7bbc 61a2 d63d
00000380: 60a7 2a3d 65a7 ea3c 101f 0a3e 120b 93bc
00000390: b6a4 083d 75fc babd 6ae1 ce3d 627c 3ebd
000003a0: 7fe7 27bd 37ea 01be be49 373d 138c eabd
000003b0: 418f d4bd 0cd3 be3d 8441 5ebd dac7 f93d
000003c0: c576 55bd 65dd c03d de48 9bbd 18d2 52bc
000003d0: 7e3a 0abe 44f6 d1bd 5e33 a33c 081a b83d
000003e0: 68db d3bd f269 33bd 91dc 17be 276b 83bc
000003f0: 58bb 813c 01b6 efbc 429f 0c3e cfa3 06bd
-0.009358174 0.13764821 0.021402648 -0.021065015 0.11312417 0.10508789 0.13031763 0.017370312
0.026019298 -0.103729784 -0.09605118 -0.09379123 -0.05362231 -0.08241258 0.079378895 -0.1362547
0.021305792 -0.11307053 0.008008973 -0.06522153 0.13034435 -0.14308767 -0.07304059 0.09382722
-0.035777427 -0.06483173 -0.15287901 -0.019005498 0.104223594 -0.012267476 0.06364242 -0.040175688
-0.107622705 0.051473077 0.08461683 0.031510044 -0.11069668 0.065944105 0.08017387 0.039286286
1.8288101e-05 0.0080560995 0.10743473 0.003994896 -0.09031241 -0.03859034 -0.009498603 -0.10230561
-0.082828484 -0.12432717 0.090024136 -0.15113525 -0.03740823 0.075802125 0.05236617 0.12900603
-0.11844622 0.13063931 -0.013587647 0.06569921 -0.08364904 0.06415968 0.08924465 0.026740119
-0.015675241 -0.06234226 0.041038502 0.01350304 -0.12184986 -0.12599891 0.063184656 0.034770597
0.009741576 0.07967754 -0.103759915 0.06231166 -0.12904134 -0.14862037 -0.044350084 0.012670827
0.13748506 -0.07596169 -0.13948166 0.04893266 0.13562757 -0.065034755 -0.003404134 -0.067851596
0.07019407 0.15337542 -0.067637965 0.064333 -0.06957998 0.16090766 -0.117859505 -0.04836843
0.021341015 -0.11159903 -0.13106969 0.013058458 0.056675903 0.14567086 -0.030491274 0.1031782
0.11072031 -0.11252402 -0.04034098 -0.113869876 0.037615635 0.08222855 -0.1444989 0.1480685
0.07529279 0.01732105 0.02690438 -0.05868811 0.06201893 -0.07272743 0.08418356 0.082704075
0.010835213 0.022247061 0.14642191 0.014279081 -0.10729141 -0.14193338 0.021425452 -0.086704254
0.12517472 0.0648332 0.008037231 0.057902478 -0.064722665 0.028567793 -0.07946041 -0.13213146
-0.060840942 -0.14116734 0.12112964 -0.016630322 0.12516199 -0.09849676 -0.12552682 0.024073254
0.11829888 0.10403602 0.097580165 0.061696175 -0.13294548 -0.06900982 0.05209855 -0.15272641
-0.07030151 -0.096312575 0.09031317 -0.10316108 -0.01903767 0.11268803 0.046251323 -0.057134286
0.043416392 -0.057634678 0.15203546 -0.0022410247 -0.15080865 -0.0312633 0.09393952 0.080215976
-0.08865672 -0.06892382 -0.038101297 -0.06744732 0.119265795 0.00028617447 -0.02616677 0.056021873
-0.09266068 -0.07465605 0.029601306 -0.11055429 0.013580727 -0.076441616 -0.10489327 -0.13649368
-0.060107574 0.028506596 0.056345936 0.028946614 -0.12607208 0.009597082 0.05442803 0.07583038
-0.14433624 0.14114799 0.13269961 -0.07547088 0.107749954 -0.0604958 -0.08163071 -0.062520616
0.0377294 -0.09170951 0.10465471 0.12199996 0.022100044 0.1011275 0.083870985 0.053762432
-0.10298604 -0.09392699 -0.017310798 0.09322544 0.1003482 -0.073506705 0.062218804 -0.11848581
0.0045773704 0.049473044 -0.12339568 0.07400375 0.11545297 0.052859746 -0.01533533 0.1048019
0.041663527 0.028644273 0.13488412 -0.017949615 0.033360206 -0.091301836 0.10101588 -0.04650534
-0.040992256 -0.12687002 0.04474806 -0.11452498 -0.10378886 0.09317598 -0.0542617 0.12196322
-0.05211522 0.09417228 -0.07582258 -0.012867473 -0.13498875 -0.102520496 0.019921955 0.0898934
-0.10344583 -0.04380221 -0.14830233 -0.016042305 0.015836403 -0.02926159 0.13732627 -0.032871064

bias f4 [128]
00000000: 56af c4ba d7ea 2fbb 4f68 1a3c 08f7 01bb
00000010: ada4 a33b f57d a2b9 d7c1 a6bb 7aad b73c
00000020: ea43 72bc 4f55 0b3c a61f 8abc 1881 2538
00000030: 31d4 7eba c3f3 92ba 19cd 03ba 83b9 b83a
00000040: f217 3a3b 7a88 10bc 807f adbc 84de da3b
00000050: 0983 2f3b e53e bcbb 706b d93b e8ee 4e3a
00000060: 5c54 71bb 2da1 2b3b 91a2 1dbc b5ac 3d3c
00000070: b253 013c 6c61 7b36 f001 21bb 5006 603c
00000080: 9073 d6b9 774e 6dbb 0825 73bb 9c5d f2bb
00000090: 4630 00bb 7e10 cc3c 614d 3f39 005c 633c
000000a0: b4fc 203a 25b8 863a 7913 b8bb d008 0cbc
000000b0: 6ab5 89bc e0fa 37b7 711c 2239 5ef0 463b
000000c0: 404d 8fbb 68c0 9ebb 145a d13c 59ff 46b8
000000d0: d6ba 363a 8331 9f3b 39b6 d3bb 05fe 4abb
000000e0: 490d 82b8 76a7 1c3b 8775 a13b e0a6 3fbc
000000f0: 14aa 423b df99 29bc 476f 0fbc 6019 10ba
00000100: db09 a1ba b8f0 d53b d9f1 acbc 1da7 cf37
00000110: 144a 56bc 3fcf 6cbc 17ba 1d3c d81f 5dbb
00000120: b48d 3fbb 5089 2a3a 9655 bbb8 0e0b ac3b
00000130: 1b96 07bd f0d1 57bc f779 653a 50d0 77bc
00000140: 0000 0000 241a bfb9 42c1 f33b eb64 01bb
00000150: 3dc0 b5bb d923 033a 5ecc 5239 806b bf3b
00000160: f466 e83a b6b6 f539 0000 0000 8c31 9138
00000170: 58bc 963b 428b 1f3c f035 703c c18d f1bc
00000180: ca53 a23b 41ab 61bc 88f3 4e3a 85ba b6bc
00000190: 5bc8 0b3c fae8 703a 6a0f 6839 005f 5eba
000001a0: ae6e 71bb ccca 49ba 839c 433b 05ea 163c
000001b0: 18a8 1dbc 7d9b a434 20e3 ee39 0000 0000
000001c0: 5131 bbbb 7702 51bc ae40 f23b fbf8 d3ba
000001d0: 4891 c73b 4e2e 81bc e1bb ab3a 737d 3fbc
000001e0: 1d02 6d3b b947 9cbb 7647 9b3c 7c6c 233c
000001f0: d11c d63b f9f3 ec3c 2290 11ba 80d5 e1bb
-0.0015005867 -0.0026842856 0.009424283 -0.001983108 0.004993996 -0.00030992893 -0.0050890255 0.022421587
-0.0147867 0.008504226 -0.016860794 3.9459293e-05 -0.000972095 -0.0011211563 -0.00050278154 0.0014093373
0.002839562 -0.008821601 -0.02117896 0.006679358 0.0026780984 -0.0057448023 0.006635122 0.0007893876
-0.0036823964 0.0026188598 -0.009621278 0.011576821 0.00789349 3.7458622e-06 -0.0024567805 0.01367338
-0.00040903362 -0.0036210099 -0.003710093 -0.007396413 -0.0019560023 0.024910208 0.00018244005 0.013876915
0.00061411713 0.0010278268 -0.0056175557 -0.008547023 -0.016810138 -1.0966061e-05 0.00015460119 0.0030355672
-0.0043732226 -0.004844714 0.025555648 -4.744469e-05 0.000697059 0.004858197 -0.0064609316 -0.0030974161
-6.2013576e-05 0.0023903525 0.0049273404 -0.011697501 0.0029703425 -0.010351627 -0.008754558 -0.0005496945
-0.0012286262 0.00652894 -0.021111416 2.4754141e-05 -0.013079185 -0.014453708 0.009626887 -0.0033740904
-0.0029228749 0.00065054465 -8.9327965e-05 0.0052503413 -0.033102136 -0.013172612 0.0008753831 -0.015125349
0.0 -0.00036449835 0.0074388096 -0.001974399 -0.005546598 0.0005002595 0.00020103293 0.0058416724
0.0017730878 0.00046866172 0.0 6.9233676e-05 0.004600089 0.0097377915 0.014661297 -0.029486539
0.004953836 -0.01377374 0.00078945654 -0.022305736 0.008531655 0.00091899897 0.00022130986 -0.0008482784
-0.0036839652 -0.00076977606 0.0029847927 0.009211068 -0.009622596 3.0660513e-07 0.0004556412 0.0
-0.005712666 -0.012756935 0.0073929643 -0.0016172224 0.006090317 -0.01576915 0.0013102257 -0.011687624
0.003616459 -0.004769292 0.018954974 0.009974595 0.006534197 0.028924929 -0.00055527885 -0.0068919063

weight f4 [128, 128]
00000000: 40db e73d 87fe 06be af12 2b3d ae47 003e
00000010: f137 a43d d28d 98bd afda e03d d9a7 853d
00000020: 8a42 403d 485b 60bd 3966 68bd 1c6d 2bbc
00000030: 532a 003e 1833 3f3d b433 133e 2381 053e
00000040: 8df2 253e b97c f4bc 9710 713e 09b6 15be
00000050: fbdb 623e a1ca 063d 62e9 ccbc 29c5 e93d
00000060: 4f4f 623d 128c 8f3d a7f7 ddbd eee3 0ebd
00000070: cb86 9cbd e2e3 103e df60 bcbd b5f4 903d
00000080: 0219 a9bd 41f5 943c 62aa 5a3d 1010 c5bc
00000090: ba10 d0bd 8888 37be 6a95 073d 7631 593c
000000a0: c3a4 7dbd 4032 e1bd dbc7 813d 365d 223e
000000b0: 3bb0 343e 2bb7 b9bd 4eb4 d4bd 78d1 d0bc
000000c0: bb5e 95bd 0d4b 473d d0e2 27be f1d9 ed3d
000000d0: 0148 26bd 8037 f73d cc97 563e 54fe 153e
000000e0: da28 0fbe a9db 5cbc 6a06 973c 2fbb f13d
000000f0: 5f0f 363d 6d55 223e 5866 883b 4c75 83bb
00000100: 40c5 12be 5a08 59bd b203 533d 0ea3 0ebe
00000110: 95e6 343e 508f 403d 77b1 403d 1573 3f3c
00000120: 3b9b 70bd bf28 78bd bcef 533d ea9a 9d3c
00000130: cc8f 5a3e 0dfd 143d 1cf6 d13d c052 9bbb
00000140: 8931 aabc 0542 26bc 3eab bb3d bea8 53bc
00000150: 8405 9b3d a62e adbd c01f c63c eece 913d
00000160: 2000 c63d e727 c93d 5793 07be 44c7 d53d
00000170: 25e0 b93d 036a c73c 8eab 20bd c2b4 1d3c
00000180: ed94 ca3c b116 e3bd 4aef f9bd d779 603e
00000190: 0857 64bd 0258 973d 4697 d13d ebe3 61bc
000001a0: e191 eb3d a282 143e 64ff 003e 9a31 e13d
000001b0: 2caf e3bd e10c 9aba f649 7cbd fb33 883d
000001c0: 9641 613c d858 fa3d cd57 c5bd 37b0 53bd
000001d0: d087 d0bd 247f c2bb c38b 1a3e 8b37 9a3c
000001e0: 17b3 95ba 4a7c ebbc 9ea4 02be 8161 503d
000001f0: 0c3a 1bbe 794e 0fbe f2d0 62bd e6db 9bbd
00000200: 17ab 013e 4dea 0abe c43c c23c 4d2f 58bc
00000210: f97d a7bd df4d c83d b2ac a03d 181a d5bd
00000220: f7b9 1b3e 7b5e 073e 9371 823c ccd6 44bd
00000230: 04e2 073c 0049 a0bd 3c7d afbc 86e5 fb3d
00000240: d455 923d 3fdb e1bd c717 d53d 3c0e 7fbd
00000250: b3ec efbd 9aca 5fbd 1d2e c43a 1e9b c03d
00000260: 4ac8 0b3e 4639 463d f49b d5bd 1108 fbbd
00000270: 39a1 d8bd 3ce6 e7bd 1c26 c5bd 69ee d6bd
00000280: 2d63 0c3e 2072 49bc 861b 003e eaba 38bd
00000290: 9039 04be 2f51 983d 0fbb a8bc 95bd 7e3c
000002a0: ae1f 09be 23eb bcbd 0e3c ff3c a275 7ebd
000002b0: fa0f 013e 4e84 8dbd 15ca c73d 13aa 06be
000002c0: 2e29 16be f974 143d 59bf 673d 5f28 023e
000002d0: 0eb5 48bb f551 833d 3012 863d 1459 a2bc
000002e0: 27c8 b43c 0786 893d 1250 cebd 6671 81bc
000002f0: a097 973d 88c2 b53c c19d d2bd d867 213e
00000300: 72fd e33d f510 0d3e e2f3 033e 4146 79bd
00000310: dd63 6cbd 22ec d33d 1e7d fe3d 8c2c 923d
00000320: 59cd e0bd 6fe4 0bbe 601e 54bd 0b84 91bb
00000330: 06d1 06bd 2cbc bf3d d8a4 26be f81e a6bd
00000340: 2b9e 0c3e 1275 b63c 22a7 0f3e 7e50 b93d
00000350: c61a 0e3e 925f 1f3d dcff 923b ec12 c8bd
00000360: 77fb d8bd 939b 183e 6daa e2bb 2fee 363d
00000370: ce62 b8bd 17fa 0fbe 9d0b 443d 4ea6 c8bc
00000380: 7f11 663d 04a3 fc3d 4e63 d13d f15a c0bd
00000390: 2df6 cd3c f623 e3bd cd17 d73d 3df3 edbd
000003a0: 76bb 17bb ff79 3ebd f2d7 243d 7fb9 5dbd
000003b0: d3f3 ebbd 4634 06be 68ae 003e ccd3 75bd
000003c0: 9e42 05be 80bc b33d 3a7c 933d 838a bdbd
000003d0: 038a 1c3d 4878 0d3d 7f2a cc3d d20b bd3d
000003e0: 518c 403d bce4 d2bb 62e6 f4bc 168e d2bb
000003f0: 7271 353c c9d9 29be 8b01 a43d a297 c6bd
0.113211155 -0.13183032 0.041765865 0.12527344 0.080184825 -0.07448925 0.109792106 0.06526155
0.046938457 -0.054774553 -0.056738112 -0.010463025 0.12516145 0.046679586 0.14375192 0.13037543
0.16205807 -0.029844629 0.23541485 -0.14620222 0.22154228 0.032908086 -0.02501363 0.114145584
0.055251416 0.07009138 -0.108382516 -0.03488534 -0.07642897 0.1414943 -0.09198164 0.07077924
-0.08256723 0.018183352 0.053385146 -0.02405551 -0.1015944 -0.17923176 0.033101477 0.013256421
-0.061924707 -0.109959126 0.063369475 0.1585587 0.17645352 -0.0906814 -0.10385953 -0.025490507
-0.07293459 0.04865556 -0.16395116 0.11613835 -0.040596012 0.12071133 0.20956343 0.146478
-0.13980427 -0.013480105 0.018435676 0.118032806 0.044448253 0.158529 0.004162591 -0.0040117856
-0.14333057 -0.05298648 0.051517196 -0.13929388 0.17666085 0.047011673 0.047044244 0.011685153
-0.05874179 -0.060585734 0.0517423 0.019238908 0.21343917 0.03637414 0.1025202 -0.004740089
-0.020775573 -0.010147576 0.09163521 -0.012918649 0.075694114 -0.08456163 0.024185061 0.07119547
0.096679926 0.09822064 -0.132398 0.104383975 0.09075955 0.024342543 -0.039226107 0.009625616
0.024729216 -0.110883124 -0.12203844 0.21921478 -0.055747062 0.07389833 0.10233931 -0.01378725
0.115024336 0.14502957 0.12597424 0.10995789 -0.11117396 -0.0011753106 -0.061593972 0.066505395
0.013748547 0.12223977 -0.09635887 -0.051681723 -0.10182154 -0.0059355665 0.15092377 0.018825313
-0.0011421171 -0.02874579 -0.12758109 0.050874237 -0.15158862 -0.13994779 -0.055375047 -0.07610302
0.12662922 -0.13565941 0.023710616 -0.013194871 -0.08178324 0.09780478 0.07845439 -0.104053676
0.15207659 0.13219635 0.015923297 -0.04805641 0.008293632 -0.07826424 -0.021422021 0.122996375
0.07145277 -0.11028146 0.10404926 -0.062269434 -0.11715069 -0.054636575 0.0014967356 0.09404586
0.13650623 0.048394464 -0.10430136 -0.12257398 -0.10577626 -0.113232106 -0.096264094 -0.10494692
0.13709708 -0.012295276 0.125105 -0.04510013 -0.12912583 0.074373595 -0.020597009 0.01554813
-0.13390991 -0.09224536 0.031156566 -0.062123902 0.12603751 -0.06910001 0.09755341 -0.13150816
-0.14664146 0.036244366 0.056578968 0.12710713 -0.0030625495 0.064121164 0.06546438 -0.019817866
0.022068096 0.06715017 -0.10073866 -0.015801143 0.07401967 0.022187486 -0.102839954 0.1576227
0.11132325 0.13776 0.12886003 -0.060858015 -0.057712425 0.10347773 0.12426208 0.07137403
-0.10976667 -0.13661359 -0.05178678 -0.0044407896 -0.032914184 0.09362063 -0.1627382 -0.081113756
0.13732211 0.02227262 0.140286 0.09048556 0.13877401 0.038909502 0.004486067 -0.09769234
-0.10594838 0.14903097 -0.006917289 0.044660743 -0.090032205 -0.14060245 0.047862638 -0.024493363
0.05616903 0.1233578 0.10224019 -0.09392346 0.0251418 -0.110908434 0.105025865 -0.1161866
-0.0023152507 -0.046503063 0.040245004 -0.05413198 -0.11521115 -0.13105878 0.1256653 -0.06001644
-0.13013694 0.08776188 0.07201429 -0.09254935 0.038217556 0.034538537 0.09969043 0.0923077
0.047008816 -0.0064359587 -0.029895011 -0.0064256294 0.011074411 -0.16586985 0.08008107 -0.096968904

bias f4 [128]
00000000: da8f a7bc 165d 7cbb c07c d9b9 fb2b 8d39
00000010: fddb b93a 760c 64bc 7cdc ee3b 94d9 2d3c
00000020: 2e21 6dbb 7def c8bb b80c cbba 2041 793c
00000030: 49fd cbbc 3834 023c 8952 193d eddf b73a
00000040: c2a7 bfbc c217 08bc 8cd2 193c 4c94 eb3b
00000050: 7695 f8bb e952 60bb be40 adba d8b4 853a
00000060: 398d a7bb eac3 4336 9693 7abc 62cd df37
00000070: ac38 9ebb ddd9 8e3c fbfd 31bb 39ae 45bb
00000080: dc32 52bc d358 85b9 a044 64bc 0b67 593c
00000090: 472d 8d3a 2b95 c1ba 0331 26bb 55ae f4bc
000000a0: ce04 453c aa57 b33c c9f9 dbbb d6cc 5f3b
000000b0: 79eb 943b 9dfd e7ba 19f9 eeba 2513 26bc
000000c0: 93ea 75bc 0000 0000 4687 08ba 266f d338
000000d0: eaea d2bb da45 afbb 1f3f 953c 47a1 00bb
000000e0: 8062 0dbc 6b2d 8eb7 927c 93bb e3eb ccbb
000000f0: f912 1dbc 3632 eebb 0199 1c3c d485 47bb
00000100: 0a74 f43a b274 91ba 8095 d9bb db15 adbb
00000110: 787e 06bc 696a 62bc 5e9f e23b 8842 0e38
00000120: d9f5 3cbc 17dd abbc 14e6 b6b9 8f63 4abc
00000130: 8b43 0d3b 53af 8d37 b611 fbba 88ff 9f3c
00000140: d591 27ba e42b 6cba 80c0 bbbc 4937 de3a
00000150: d79b 06bc e746 1b35 f5b5 bfbc 5ec7 98bc
00000160: 1e42 a93b ef04 3c3a bbb2 3bbc f442 d73c
00000170: 67e9 80bb 8270 aaba 0000 0000 52a1 e53b
00000180: d98e 02ba bec6 47bb be40 67bb 6d7d 57bc
00000190: 0af6 81bb a5c8 8438 6092 a7b9 bf23 8dbb
000001a0: 86a8 98bb 4b64 d73b 21c1 46bb 2b5f 12ba
000001b0: f787 c23b b870 e8ba 016c 2dbb 1b59 35bc
000001c0: 8a73 5d3b 1321 efbc 3d1f a9bc defa 2bbb
000001d0: c769 d9bb d5d5 81b8 0000 0000 d3d8 27bb
000001e0: b988 aa3c 1819 ccbb 178d e3b8 94e0 7bbc
000001f0: 6cf4 29bb f417 8e3b acdb 5cb7 6392 a0bc
-0.020454336 -0.0038507632 -0.0004148241 0.00026926384 0.0014179941 -0.013918987 0.0072894674 0.010610957
-0.0036183107 -0.006132065 -0.0015491461 0.015213281 -0.02490105 0.00794702 0.037432227 0.0014028527
-0.023395423 -0.008306446 0.009388577 0.007189309 -0.0075861765 -0.0034229106 -0.0013218147 0.001020099
-0.0051132706 2.9171301e-06 -0.015293976 2.667931e-05 -0.004828533 0.01743787 -0.002715944 -0.003016366
-0.012829509 -0.00025433916 -0.013932377 0.013269196 0.001077094 -0.0014769187 -0.0025358803 -0.029868284
0.012025071 0.021892387 -0.0067131263 0.0034149191 0.004544672 -0.0017699484 -0.0018232196 -0.0101364
-0.01500954 0.0 -0.00052081456 0.00010081967 -0.0064366953 -0.005348903 0.018218575 -0.0019627379
-0.008629441 -1.6948869e-05 -0.004500934 -0.006253706 -0.009587043 -0.007269169 0.009557963 -0.0030444758
0.0018650305 -0.00110974 -0.0066401362 -0.0052821464 -0.008208863 -0.0138193155 0.0069159707 3.39174e-05
-0.011533224 -0.020979447 -0.00034885167 -0.012352838 0.0021555151 1.6890152e-05 -0.0019155059 0.019531026
-0.0006392275 -0.0009009226 -0.02291894 0.0016953732 -0.008215866 5.7845176e-07 -0.023402194 -0.018649753
0.0051653525 0.0007172366 -0.011456187 0.026277043 -0.0039340737 -0.0013003501 0.0 0.0070077563
-0.00049803924 -0.003048345 -0.0035286392 -0.013152462 -0.0039660977 6.3316234e-05 -0.0003196178 -0.00430724
-0.0046587614 0.006573235 -0.0030327516 -0.0005583639 0.0059366184 -0.0017733788 -0.002646208 -0.011068608
0.003379079 -0.029190576 -0.020644778 -0.0026242058 -0.006634924 -6.191029e-05 0.0 -0.0025611415
0.020817148 -0.0062285773 -0.000108504835 -0.015373368 -0.002593304 0.0043363515 -1.3164168e-05 -0.019601053

weight f4 [128, 128]
00000000: fedb a63d 0719 78bd 4231 26bb 9378 0bbe
00000010: bbc5 0c3c 1d94 8ebd 17b6 87bb 84db a63d
00000020: f9cd f73d ee52 d3bd ca25 b8bd 774d 313c
00000030: 6012 af3d bf66 fcbc 28d6 c23d a86a a9bd
00000040: 81c3 fc3d 7c17 e13b 1734 9abd 28d5 953d
00000050: b917 7b3c 2462 02be 6e8e 9d3d 287b 7cbd
00000060: f3bd 0c3e 3f0d 013d 8323 813d 4b6a c9bd
00000070: 4325 02be 9308 f43d 64b3 bb3d 8513 1b3e
00000080: 93de 8f3d 2c20 a43d b6c9 133e bc07 11be
00000090: 8d86 1abe fde2 b5bd 44f2 59bd 45e6 e03d
000000a0: 8040 9cbd f85d 11bd 8b6a 0bbd e9bc d63d
000000b0: 6ae8 aa3c ad20 53bd 83df 10be c72e 80bd
000000c0: d63d 123e c955 b73d aac7 1bbb b99b 593d
000000d0: b3d7 3d3d 1d7c 87bc 017d 9b3c 86da 08be
000000e0: b43e ee3d c41b d5bd 699a 6a3c 8099 e53b
000000f0: 56cd 1abd 2732 f7ba c6d9 6abc 9979 333d
00000100: f68c 08be d6fc 0b3d c313 68bd fdc0 09be
00000110: 3278 3ebc 68e3 9c3a cc3c 5bbd e441 e5bc
00000120: 7b5d 6c3d 4676 983d 9ef8 0238 08ba f43d
00000130: de3e 5b3d eb21 f7bc 39a6 0f3e b65c 47bd
00000140: 1b45 02be 53f7 a1bc 7082 f6bd a3c4 8b3a
00000150: 0c11 d43d 2366 1cba e90e c1bd 01c2 debd
00000160: 2ad7 cbbd 26e8 b23d 8a5e 9d3b b7f1 153e
00000170: 5bca 123d c6c0 eabd 2250 bf3c 21ad 11be
00000180: 4cb8 023e cdbe f83d 285c f23d 5a87 ef3d
00000190: 8f53 393d 2c9e 933d 498b fbbc 2c7c 83bd
000001a0: 5cfe 233d 3f1e a1bd 467a dfbd bc27 903d
000001b0: bc05 cdbc f813 683d d0bb 6fbd f2e5 92bc
000001c0: b032 053e 0d62 c7bd bc5c 143e 2f5c 8abd
000001d0: 25fa 8ebd 71b4 13bd 9f36 37bd 6711 b03c
000001e0: 8aea 1bbe 0212 16bd e98b efbd 8aef b2bd
000001f0: f80a 693d ac58 05be d824 0d3e 963a d9bc
00000200: 0c82 0abc 8897 ee3d b177 eebd a09f af3c
00000210: 780d 823c facb 213e 5731 ccbc d1a9 d5bd
00000220: 487c b53d 8d83 cfbc cecd bdbc e762 0ebe
00000230: caf1 d23d 8b53 b2bd 0bd5 f13d 405b 5f3d
00000240: 2cfc 203e 7e7c 3a3d f62f e1bd fae2 d9bc
00000250: dbdd 2ebd 2a6b be3c 6749 e63c 5af9 a13b
00000260: f696 abbd a7ef 0f3e a1fe 273e 25d5 b4bd
00000270: c525 bf3c dbc0 683d 9995 79bd 4955 063e
00000280: f683 f3bd fa04 89bd 056c efbd 634d 0c3e
00000290: 2adc a33c 2529 1e3d 66bb 6dbc 0c8c 403e
000002a0: 0878 12be 9dfd 0f3d bb5d c33d 9a52 a2bd
000002b0: 65d7 15be a9c4 c73d c98f b03d 018c 3c3d
000002c0: 9bce 833d a55d 063e 2d52 a1bd 4acd 68bd
000002d0: bc9c edbc 9945 c3bd ec33 913d 271f 713d
000002e0: 04ee a73d d171 b8bc 0ff2 c23d 8806 1abd
000002f0: 09da 143e ee6f 00be eb09 993c 0c3b d8bc
00000300: f14a eb3d a162 1c3e fc38 ac3d fc44 e1bd
00000310: 9058 29bd 6b53 823d fd79 ad3d 53d4 ff3d
00000320: d521 a73c 3ae9 b83d b29a 103c c9b3 b93d
00000330: 25f1 ad3b 698a b03d 4a5e 0a3e 8980 febb
00000340: 7293 523d 9287 ea3d 28d1 a1bc f6c3 28bc
00000350: de2c d4bd 6d78 f13a b68c f63d 781f ed3d
00000360: 1353 79bd 7bd7 cfbb 1552 093e 60bc 523a
00000370: e585 a13d eaff c23d f18c 13be b37d f0bd
00000380: 7c13 fbbb ba4f 173e 3489 a1bd c49e 8ebd
00000390: 2923 b33d 06f4 aa3b 067d ff3d f736 28bc
000003a0: 5b14 52bd 53c6 113d 5533 cabd df2d 0f3d
000003b0: 1701 c93d b231 0d3d be50 1dbc c9d8 b6bd
000003c0: 2e22 a0bd 2a43 b0bd c2d3 303e 7eac 05be
000003d0: f8ee 63bb 333a 0a3e 666e a5bd 3aa4 0a3e
000003e0: 72d3 31bd 5f03 183e b163 ecbd 43e3 cf3c
000003f0: 2af0 cb3d efa9 6bbd 6851 0ebe 14cc 5dbd
0.08147429 -0.060570743 -0.002535895 -0.13620214 0.0085920645 -0.06961844 -0.00414158 0.08147338
0.12099833 -0.10318552 -0.08991583 0.010821692 0.08548427 -0.030810712 0.09513503 -0.08272296
0.12341977 0.0068692546 -0.075294666 0.07316047 0.01532548 -0.1273275 0.07693182 -0.06164089
0.13744335 0.031506773 0.063056014 -0.09834727 -0.12709527 0.11915698 0.091650754 0.15144165
0.070248745 0.08013949 0.14432415 -0.14163107 -0.1509039 -0.08881185 -0.053209558 0.109814204
-0.0762949 -0.035490006 -0.034037154 0.104852505 0.020862777 -0.051544834 -0.14147763 -0.06258922
0.14281401 0.08951909 -0.0023770132 0.053127024 0.046348285 -0.016538674 0.018980505 -0.1336461
0.116330534 -0.104056865 0.014319041 0.007006824 -0.03779348 -0.0018859551 -0.014334148 0.043817136
-0.13335022 0.03417667 -0.05665947 -0.13452525 -0.0116253365 0.0011969628 -0.053524777 -0.02798552
0.057706337 0.07444434 3.1225958e-05 0.11949545 0.05352675 -0.03016754 0.14028253 -0.0486724
-0.12721674 -0.019771254 -0.12036598 0.0010663461 0.10354814 -0.00059661473 -0.09426672 -0.10876847
-0.09953149 0.08735685 0.0048025297 0.14642988 0.035837512 -0.1146255 0.02335364 -0.142262
0.12765616 0.12145767 0.11833984 0.11695738 0.045245703 0.07207903 -0.030706065 -0.06420168
0.040037498 -0.07867097 -0.10911994 0.07038829 -0.025027148 0.05665967 -0.05852872 -0.017931912
0.13007617 -0.097354986 0.144885 -0.06755864 -0.06981305 -0.036060754 -0.044729825 0.021492673
-0.15226188 -0.036638267 -0.116966076 -0.08737095 0.056895226 -0.13022107 0.13783586 -0.026517194
-0.008453857 0.11649996 -0.11643923 0.02143842 0.015875563 0.15800467 -0.02492587 -0.104327805
0.088615954 -0.025331283 -0.023169424 -0.13904916 0.10300024 -0.08707341 0.11808213 0.054530382
0.15721196 0.04552888 -0.10995476 -0.026597489 -0.042692047 0.02324446 0.028111173 0.004943055
-0.08378403 0.14056264 0.16405727 -0.088297166 0.02333344 0.056824546 -0.060933683 0.13118471
-0.11890404 -0.06690402 -0.11690525 0.13701396 0.020002443 0.038613457 -0.014510011 0.18803424
-0.14303601 0.035153974 0.09539362 -0.07925911 -0.14632948 0.09754307 0.08621175 0.046031956
0.06435891 0.1312166 -0.07877002 -0.056836404 -0.0290054 -0.09534759 0.070899814 0.0588676
0.08199695 -0.02251521 0.09518825 -0.037603885 0.14536299 -0.12542698 0.018681487 -0.026395343
0.11488903 0.15271999 0.084093064 -0.10999486 -0.041344225 0.06363567 0.08470533 0.124916695
0.020401875 0.090288594 0.008825945 0.090674944 0.0053082877 0.0862015 0.13512531 -0.0077667874
0.051410146 0.11451639 -0.019753054 -0.010300627 -0.1036012 0.001842273 0.12038557 0.11578268
-0.06087024 -0.006342826 0.13410218 0.00080389343 0.078868665 0.09521468 -0.14409234 -0.11742725
-0.007662235 0.14776507 -0.078874975 -0.06963876 0.08746941 0.005217078 0.12475018 -0.010267011
-0.051288944 0.035589527 -0.09873072 0.034955855 0.09814661 0.03447122 -0.00960177 -0.08928067
-0.07819019 -0.086065605 0.17268279 -0.13054082 -0.0034779888 0.13498764 -0.080776975 0.1353921
-0.04341454 0.14845036 -0.11542452 0.025376922 0.09957917 -0.05753511 -0.13898242 -0.054149702

bias f4 [128]
00000000: 6a2f f4ba 4296 9dbb c0bb 50bb d031 e53b
00000010: fe9d f3b4 4d72 b03b fd56 24bd 12ff f3ba
00000020: b9ea dc3b 1db9 1ebb 0bcb 0abc 07db 53bc
00000030: 4235 393b fd71 87bb 3da4 3dbc 5370 8dba
00000040: c56b 553c 701c 31bc 913c d1b9 4842 86ba
00000050: c387 caba 9485 74b6 5314 7f3b d8d1 493c
00000060: 5e6f a43b 7572 d3ba 99f5 04bb 5d3c 0abb
00000070: 667b 40bb 54fe 8a3b 3602 6f3c 3204 65bd
00000080: affa 83b9 0762 babc 395b 1ebc ddf6 233a
00000090: cbd9 c53c 2f99 813b 746d daba 1ba7 1e3b
000000a0: 39e6 d93b 1075 25ba 0b36 09bc e34c a039
000000b0: b287 42bc b42f afbc 5d97 a2b8 2e01 ceba
000000c0: 371f bb3b 520e d3bc dd8a 22bb 54d2 77bc
000000d0: c431 5fba 0000 0000 85c8 833c 35e2 edba
000000e0: 0301 53bc b65d 3f3d d1be 76ba e894 9137
000000f0: 64b6 163b c35a 813a 2626 43bc 3ba5 7abc
00000100: 27d2 3b3c 9403 ba3b 2d44 05bd 4633 5dbc
00000110: 8cc0 3fbc a1fc 2bb8 9c8e afbb bf31 843c
00000120: 148d 24bd 90d1 8fbc 01de debb 518c e53b
00000130: 4742 2f3c fe15 2fbc 2002 35bb 7e29 c53a
00000140: c7b2 febb 86f3 583a 4eba 2136 6773 04bd
00000150: 577c a1bb 91c9 58bb 9c9c cb39 503f c539
00000160: f302 443b 36d2 28ba 0ff0 8bbc 095a febc
00000170: 1f7a 67bc 4e00 36bb d406 bcb8 d6f4 78bb
00000180: 36ad e9bb c6a4 d5ba db76 5a3c 12fd 20bb
00000190: 1015 c0bc e823 683b d3e5 bbbb 9af7 e63a
000001a0: 11fe 98ba 47d3 e5ba 80d8 9b3c 4f92 e33b
000001b0: ca0c edb9 f1d0 033c afed 0abb 546d b7bb
000001c0: 82bc ebbc c998 3e3c e9c6 8e3c 6eb0 783b
000001d0: c8b5 d7ba 425b 5839 5726 0dbc 15d5 31bb
000001e0: 99fc 9dba bd9e c7ba cdbb cfbc b064 3fbb
000001f0: 84b7 a9bc 808b a7bc 1a37 373c 334e 05bb
-0.0018629853 -0.004809172 -0.003185019 0.0069944635 -4.5377232e-07 0.0053847195 -0.04012202 -0.0018615446
0.0067418483 -0.0024219223 -0.008471261 -0.012930638 0.0028260504 -0.0041334615 -0.011574802 -0.0010790922
0.013026183 -0.010810003 -0.00039908712 -0.0010243142 -0.0015451837 -3.6436586e-06 0.0038922026 0.012318097
0.005018159 -0.0016132133 -0.002028799 -0.0021093108 -0.0029370426 0.004241744 0.0145879295 -0.055912204
-0.0002517304 -0.022751821 -0.009665304 0.0006254742 0.024151703 0.0039550285 -0.00166647 0.002420849
0.006649759 -0.0006311694 -0.008374701 0.00030574863 -0.011873173 -0.021385051 -7.7529556e-05 -0.0015716904
0.005710508 -0.025763664 -0.0024802007 -0.01512583 -0.00085141906 0.0 0.016086826 -0.001814908
-0.012878659 0.04672023 -0.0009412589 1.7354687e-05 0.0022996897 0.0009868968 -0.011910951 -0.015298183
0.011463678 0.005676696 -0.03253572 -0.013500994 -0.011703622 -4.1004856e-05 -0.0053575765 0.016137002
-0.040173605 -0.017555982 -0.0068013673 0.0070052524 0.010696954 -0.010686396 -0.0027619675 0.0015042273
-0.0077727768 0.0008276034 2.4099313e-06 -0.03233662 -0.0049281525 -0.0033079127 0.0003883586 0.0003762194
0.0029908984 -0.0006440015 -0.017082242 -0.031048791 -0.014128237 -0.0027771178 -8.9658104e-05 -0.003798773
-0.007131244 -0.0016299717 0.013334001 -0.0024564904 -0.023447543 0.0035421792 -0.0057341843 0.0017621398
-0.0011672397 -0.0017534279 0.019024134 0.0069449316 -0.0004521369 0.008045421 -0.00211988 -0.0055977497
-0.028776411 0.0116331065 0.017428832 0.0037946957 -0.0016457373 0.00020633361 -0.008615098 -0.0027135063
-0.0012053429 -0.0015229803 -0.025358105 -0.0029204302 -0.02071739 -0.020452261 0.011182571 -0.00203408
