MAMRL-TE/Dynamic environments/Baselines/Random/ATT/task2/savemodels/policy15.pth (torch, 276891 bytes, 12 tensors)

weight f4 [128, 7]
0	0x3e64424c	0.22290915
1	0xbddd4bfe	-0.1080551
2	0x3e1835a5	0.14864214
3	0x3cbda81d	0.023151452
4	0xbbba3e11	-0.0056836684
5	0xbd66afa6	-0.056319855
6	0x3d9f92b2	0.07791652
7	0xbdb2d3fd	-0.0873184
8	0xbe227b22	-0.15867284
9	0xbe2e3b4f	-0.17014812
10	0xbcee8fb5	-0.02912126
11	0xbe00ea41	-0.12589361
12	0x3e56599d	0.20932622
13	0x3d81b828	0.06333953
14	0x3c37f0b4	0.011226822
15	0x3d750c3d	0.059826124
16	0x3dcc6e31	0.09981955
17	0x3dfea9c8	0.12434727
18	0x3e362af4	0.17789823
19	0xbe4b783d	-0.19870086
20	0x3e118d63	0.14214091
21	0x3e02c293	0.12769537
22	0xbe2a28f8	-0.16617191
23	0x3d511c61	0.051052455
24	0x3e2c6739	0.16836251
25	0xbd072009	-0.032989535
26	0x3c7bb9e8	0.015364148
27	0xbe2d99af	-0.16953157
28	0x3e59a84b	0.21255605
29	0x3e5812fe	0.21100995
30	0xbe5b9c56	-0.21446356
31	0xbdd18b0f	-0.102316014
32	0x3cc96c99	0.024587916
33	0x3e728f26	0.2368742
34	0x3e0aa2d6	0.1353868
35	0xbe053faf	-0.13012575
36	0x3b265b7b	0.0025384116
37	0xbe17f56a	-0.14839712
38	0x3d97a076	0.07403652
39	0xbd8e2fa5	-0.06942681
40	0xbe17ea95	-0.1483558
41	0x3d4f0ed3	0.050551247
42	0x3ef59086	0.47961825
43	0x3e0e55fd	0.1389999
44	0xbe087b51	-0.13328291
45	0x3e3aed80	0.18254662
46	0x3d372f5e	0.044722907
47	0x3d91a03b	0.0711064
48	0x3dd9249d	0.106026866
49	0x3dadb8e0	0.08482528
50	0x3d8b2533	0.067942046
51	0x3df4f871	0.11961449
52	0xbcccfa03	-0.025021559
53	0x3e539aef	0.20664571
54	0xbb1a2de4	-0.0023525888
55	0xbe18cd8a	-0.14922157
56	0x3d5578f8	0.052117318
57	0xbd8b0647	-0.06788307
58	0x3cdb185a	0.02674501
59	0xbbf76798	-0.007550191
60	0xbe4d96d6	-0.2007707
61	0x3ce80456	0.02832238
62	0xbdd6bd55	-0.10485331
63	0xbe6ea3b0	-0.2330463
64	0x3e4c1e13	0.19933347
65	0x3dc23310	0.09482396
66	0x3cd52f75	0.026023606
67	0xbe1720b4	-0.14758569
68	0xbd539d8b	-0.051663917
69	0xbd8320f9	-0.064027734
70	0x3e6f7108	0.23382962
71	0x3e45106d	0.19244547
72	0x3e5562d3	0.2083848
73	0x3e7327ad	0.23745604
74	0xbd0003d1	-0.03125364
75	0x3d9de835	0.077103056
76	0xbdf3be12	-0.119014874
77	0xbe1df33f	-0.15424822
78	0x3e31552b	0.17317645
79	0xbc252412	-0.010079401
80	0xbe2b79a4	-0.16745621
81	0x3e0621ad	0.13098784
82	0x3d509ff1	0.050933782
83	0x3dcce4b0	0.10004556
84	0xbd097aa9	-0.033564243
85	0x3de67ba3	0.112540506
86	0xbd04d012	-0.032424994
87	0x3e17dcd0	0.14830327
88	0xbd81a359	-0.06329984
89	0xbe10a553	-0.14125566
90	0x3df5e0fd	0.12005804
91	0xbd0f8abf	-0.035044428
92	0xbe51b286	-0.20478258
93	0xbdf07f64	-0.11743048
94	0xbe2332f0	-0.159374
95	0x3a963100	0.0011458695
96	0xbcc7c7ee	-0.024387326
97	0x3d675c21	0.056484345
98	0x3d4b77a3	0.04967464
99	0xbe3e361d	-0.1857533
100	0xbe30eafd	-0.17277141
101	0xbe3df6c1	-0.1855116
102	0x3e4ab052	0.19793823
103	0xbd13b2e7	-0.036059286
104	0xbe396e63	-0.18108515
105	0xbe30501a	-0.17218056
106	0x3e36edcf	0.17864154
107	0x3d1e8220	0.038698316
108	0xbabb0085	-0.0014267123
109	0x3e4ee24e	0.20203516
110	0x3c84529e	0.016152676
111	0xbe423f99	-0.18969573
112	0xbe0ba1f0	-0.13635993
113	0x3d9990e9	0.074983425
114	0xbe39ad8d	-0.1813261
115	0xbdb23ffb	-0.087036096
116	0xbe2e7d99	-0.17040099
117	0xbba6e35b	-0.005093021
118	0x3caf21b0	0.021378368
119	0x3b3621ea	0.002779121
120	0xbdd4adba	-0.10384698
121	0xbd3dd3d5	-0.046344597
122	0x3c157d34	0.009124089
123	0x3e437472	0.19087389
124	0xbb25d974	-0.0025306614
125	0xbd9e5b8c	-0.07732305
126	0xba10aff8	-0.00055193854
127	0xbd58f61d	-0.052969087
128	0xbe4467d5	-0.19180234
129	0xbd846741	-0.064650066
130	0xbdcad37b	-0.09903618
131	0xbd4e4cb3	-0.050366115
132	0xbdfb678c	-0.122756094
133	0xbe224a8b	-0.15848748
134	0x3ddaa427	0.10675841
135	0x3cb879a5	0.022518942
136	0x3e0bc8cb	0.13650815
137	0x3e0f812b	0.14014117
138	0xbe2ad4c7	-0.1668273
139	0x3d6551a0	0.055986047
140	0x3d76b906	0.060235046
141	0xbdfaa8bb	-0.12239214
142	0xbdf3f151	-0.11911262
143	0x3d1b2bfd	0.037883747
144	0xbcd9d74d	-0.026591921
145	0x3d86916c	0.06570706
146	0x3c3578e9	0.0110761905
147	0xbdbfb220	-0.093601465
148	0x3d378c54	0.04481156
149	0x3e2e9499	0.17048873
150	0xbe117794	-0.14205772
151	0x3e1f137b	0.15534775
152	0xbda50891	-0.080582745
153	0x3c010320	0.00787428
154	0xbe2f7c58	-0.17137277
155	0x3dc4bad2	0.09605946
156	0xbd853091	-0.06503404
157	0x3e0235a3	0.12715773
158	0xbdb35582	-0.08756544
159	0xbd3675b4	-0.044545844
160	0xbde5dc61	-0.112236746
161	0xbc2f95a4	-0.010716829
162	0xbce6df04	-0.028182514
163	0xbdb6c5b1	-0.089244254
164	0xbdd99f3b	-0.10626074
165	0xbe41f10c	-0.18939608
166	0x3e2afc1e	0.16697738
167	0xbe331187	-0.17487155
168	0xbd6b6526	-0.05746951
169	0x3e46b3d6	0.1940454
170	0x3db6c227	0.0892375
171	0x3e33e5a2	0.17568067
172	0xbd42d69c	-0.04756795
173	0x3e0b1f66	0.13586196
174	0xbe345167	-0.17609178
175	0x3e18edb9	0.14934434
176	0xbd8d870d	-0.069105245
177	0x3d8472f5	0.06467239
178	0xbd69ab47	-0.05704811
179	0xbe4e8936	-0.2016953
180	0xbde7cdb7	-0.11318534
181	0x3d17ab1b	0.037028413
182	0xbe17efad	-0.14837523
183	0xbd06e320	-0.032931447
184	0xbe2dd1eb	-0.16974609
185	0xbca1a17e	-0.019730326
186	0x3da6a392	0.08136667
187	0x3da2d1be	0.079501614
188	0x3e07b1f5	0.13251479
189	0xbe242aec	-0.16031998
190	0xbe036740	-0.12832355
191	0x3dc81c44	0.09771016
192	0x3d355502	0.044270523
193	0xbe3b4ee0	-0.18291807
194	0x3e51a137	0.20471655
195	0xbdb9bf7c	-0.09069726
196	0x3d423086	0.047409557
197	0x3e5d314c	0.21600837
198	0x3dee01e7	0.116214566
199	0xbe25099f	-0.16116951
200	0x3e1569fe	0.14591214
201	0xbcbb400f	-0.022857694
202	0x3e1d193d	0.15341659
203	0x3d3d7830	0.046257198
204	0xbe2ef0b5	-0.1708401
205	0xbd99873a	-0.074964955
206	0x3de36202	0.11102678
207	0x3cfcb741	0.030849101
208	0x3de458c6	0.11149745
209	0xbddc53d3	-0.10758176
210	0xbdd53c50	-0.10411894
211	0xbe3af4a3	-0.18257384
212	0xbe3f9414	-0.18708831
213	0xbc384c7e	-0.011248706
214	0x3db16c2f	0.086632125
215	0xbe48ec15	-0.19621308
216	0x3d070abf	0.032969233
217	0x3dc8478d	0.09779272
218	0xbe48c99f	-0.19608162
219	0xbdbcbeee	-0.092161044
220	0xbdc4c3c8	-0.09607655
221	0x3c9eff61	0.019408884
222	0x3dc8b0b5	0.09799329
223	0xbd8f0788	-0.06983858
224	0xbc1661db	-0.009178604
225	0xbe57564b	-0.21029012
226	0xbe3c76be	-0.18404672
227	0xbc18c9a7	-0.009325421
228	0x3d16c9bc	0.036813483
229	0x3db0ab0e	0.08626376
230	0xbe11c6d7	-0.14236008
231	0xbe13f7b5	-0.14449961
232	0x3d67fad2	0.056635685
233	0xbdb930fd	-0.09042547
234	0x3cffc493	0.031221664
235	0x3e2181e6	0.15772209
236	0xbe5fe773	-0.21865635
237	0x3dd0cfda	0.101958945
238	0x3e6d8b96	0.23197779
239	0xbe352893	-0.17691259
240	0x3db72904	0.0894337
241	0x3d5652fa	0.052325226
242	0x3d9a84bc	0.07544848
243	0xbd419abc	-0.047266707
244	0xbc37b11e	-0.011211662
245	0x3ebd1569	0.36930397
246	0x3d8ddcb9	0.06926865
247	0x3dda0ef2	0.10647382
248	0x3e8f9180	0.28040695
249	0x3e4ba2f5	0.19886382
250	0x3e24282d	0.16030951
251	0xbe070ee3	-0.13189273
252	0xbe4a61de	-0.19763896
253	0xbc7da16c	-0.0154803805
254	0x3e353e2c	0.17699498
255	0x3e0a337f	0.13496207

bias f4 [128]
0	0x3b605507	0.0034230368
1	0x37a71a95	1.992033e-05
2	0xb9fabb72	-0.00047823373
3	0xbb2495cd	-0.0025113702
4	0x3a8d2663	0.0010768886
5	0x38f249c4	0.00011553199
6	0x3b83b753	0.0040196567
7	0xb75aa4a0	-1.3032142e-05
8	0xb994f03b	-0.00028407745
9	0x3aa4d70f	0.00125763
10	0x3bd795d3	0.0065791397
11	0xb8f26805	-0.000115588344
12	0xbb2e5387	-0.002660008
13	0x347f70d7	2.3789777e-07
14	0x3806970a	3.2088756e-05
15	0xba88d769	-0.0010440174
16	0xb9b8abc9	-0.00035223205
17	0xba19d1b2	-0.0005867734
18	0x00000000	0.0
19	0x3b4d3e3c	0.0031317612
20	0xbad5af03	-0.0016302768
21	0x3b3e790e	0.0029063853
22	0xbb9a442f	-0.004707835
23	0xb8afa0cc	-8.374601e-05
24	0x3aa5902a	0.0012631465
25	0x3abc9940	0.0014388934
26	0xbb383969	-0.002811039
27	0xb8dd1318	-0.00010541658
28	0xb9175759	-0.00014433022
29	0xbae4ff48	-0.0017471099
30	0xb7b8465e	-2.1967277e-05
31	0xb91d032f	-0.00014973873
32	0xb695b5f7	-4.4617295e-06
33	0xbbbef2ea	-0.0058272975
34	0x3b1c8e47	0.0023888515
35	0x3b93d53c	0.0045115035
36	0x3a22bf8e	0.00062083534
37	0x3913bf84	0.00014090358
38	0xb86e25b1	-5.6778725e-05
39	0x3c773e62	0.015090557
40	0x3b55e5ce	0.0032638195
41	0x3b8a4745	0.004219922
42	0x381a0930	3.6725018e-05
43	0xbad61271	-0.00163324
44	0xbab8314c	-0.0014052778
45	0x3b1584f3	0.002281484
46	0x36567870	3.1958589e-06
47	0xb9bf28db	-0.000364608
48	0x3b199b2c	0.0023438437
49	0x3aafe3c1	0.0013419316
50	0xbbc00073	-0.0058594286
51	0x39b84196	0.0003514408
52	0x3c275247	0.010212488
53	0x377ee98f	1.5193959e-05
54	0xbb6a9ecd	-0.003580022
55	0x3a274720	0.0006381143
56	0xb9f9df6b	-0.0004765944
57	0x3a97efce	0.0011591853
58	0x3bb1b46a	0.0054231184
59	0xb90cd67a	-0.00013431339
60	0xbac71b5c	-0.0015190649
61	0x3b801bb5	0.003909553
62	0x3b2aa1c4	0.0026036361
63	0x3b595a32	0.0033165333
64	0x3ba9381c	0.0051641595
65	0x3c088712	0.0083329845
66	0xb905d69d	-0.00012763818
67	0x35cb47d4	1.5145583e-06
68	0x3acd66d2	0.0015670902
69	0xba0fecb4	-0.00054902886
70	0x3a937c60	0.0011252277
71	0x3b8b1ced	0.0042453916
72	0x3a04c31e	0.0005064475
73	0x38b2e96c	8.5311796e-05
74	0x3a7a6bb1	0.00095527904
75	0x3990848b	0.00027564573
76	0x3bdde712	0.0067719305
77	0x3a3a8251	0.00071147556
78	0xb5d9ab05	-1.6217533e-06
79	0x3985febb	0.00025557526
80	0x3b1fa026	0.002435693
81	0x345daed2	2.0645828e-07
82	0x3ae7b500	0.0017677844
83	0xba7af226	-0.0009572826
84	0xba9e00f8	-0.0012054732
85	0x3ad1e5f3	0.0016013965
86	0x3bdc3e0b	0.0067212633
87	0x38b93799	8.831843e-05
88	0x391ae770	0.00014772802
89	0x3b9295b3	0.004473412
90	0xbaa9a217	-0.0012941983
91	0xba05fdeb	-0.0005111384
92	0x3a24f922	0.0006293227
93	0x3b9b5416	0.0047402484
94	0x393f6694	0.00018253393
95	0x39fdf2ca	0.00048436812
96	0x35bb26a4	1.3943832e-06
97	0x3a28c3b8	0.0006437856
98	0x37da425c	2.6018526e-05
99	0xba9e3647	-0.0012070619
100	0x39d1cf38	0.00040017976
101	0x3b978575	0.0046240636
102	0x3ac2fa70	0.0014875662
103	0xb720ceb8	-9.584874e-06
104	0x3b6a6b28	0.0035769437
105	0x3993a489	0.00028160613
106	0x3b410416	0.0029451898
107	0x3b65e634	0.0035079839
108	0x369667d7	4.482437e-06
109	0x39b5ac48	0.0003465137
110	0xb7d4d114	-2.5369729e-05
111	0x3b320115	0.002716129
112	0x3986f607	0.00025741776
113	0x3a1054e4	0.0005505814
114	0xbaf94a8e	-0.0019019411
115	0x3a437285	0.00074557244
116	0x37d793d2	2.5698831e-05
117	0x36d682f4	6.392942e-06
118	0x3a13c3ec	0.00056367996
119	0x3b66502e	0.0035143006
120	0x3ab4aa4d	0.0013783664
121	0x39da4366	0.00041630416
122	0xba55bd6f	-0.0008153533
123	0xb902399e	-0.0001241923
124	0xba20d634	-0.00061354344
125	0xbaa283e9	-0.0012398931
126	0x3c167e1e	0.009185342
127	0x3824e621	3.931497e-05

weight f4 [128, 128]
0	0x3d919ac5	0.07109598
1	0xbdbed0dd	-0.09317181
2	0xbd797e6f	-0.060911592
3	0xbe0282fa	-0.12745276
4	0xbdc9e4fc	-0.098581284
5	0xbe09f307	-0.13471614
6	0x3c10a3a3	0.0088280765
7	0x3e19416d	0.14966364
8	0x3db3fca9	0.087884255
9	0xbddba300	-0.10724449
10	0x3cff1d77	0.03114198
11	0xbdc1edce	-0.09469186
12	0xbc07e3e6	-0.008294081
13	0x3d35beb7	0.044371333
14	0x3b9a77bd	0.004713981
15	0x3b30db66	0.002698624
16	0xbe07b69a	-0.1325325
17	0x3de7e8df	0.113237135
18	0xbc2b14f4	-0.010442007
19	0x3d7b2f38	0.06132433
20	0xbd97d559	-0.0741374
21	0x3d002afb	0.03129099
22	0x3e1d4781	0.15359308
23	0xbd26944e	-0.040668778
24	0x39780c98	0.00023655815
25	0xbd2622ea	-0.04056064
26	0xbdc6e028	-0.09710723
27	0xbdfad917	-0.12248438
28	0xbb43f853	-0.0029902651
29	0xbd80e908	-0.06294447
30	0x3d75dfda	0.060027935
31	0xbd41c1e6	-0.047304057
32	0x3ca5304f	0.020164637
33	0x3e0fbbbc	0.14036459
34	0x3e00a4b0	0.12562823
35	0xbd2877a8	-0.041129738
36	0x3e100795	0.14065392
37	0x3d58884f	0.05286437
38	0x3de9e437	0.11420482
39	0x3b5b01b8	0.0033417773
40	0xbc7e6f22	-0.015529426
41	0xbd1b52bb	-0.037920695
42	0xbc3deb34	-0.011591721
43	0x3c205533	0.009785938
44	0xbdf3965d	-0.11893914
45	0xbe15fc77	-0.14647089
46	0xbda86ace	-0.082234964
47	0x3db31509	0.087442465
48	0xbe1335af	-0.14375947
49	0x3e0fe73c	0.14053053
50	0x3e01a355	0.12659962
51	0x3e02c314	0.12769729
52	0xbdb54e9c	-0.08852884
53	0xbd7572ea	-0.059924044
54	0xbd1095f9	-0.035299275
55	0x3ccad993	0.02476195
56	0x3dd20e5e	0.102566466
57	0x3cc0ee9c	0.023551278
58	0x3e03fd0b	0.12889497
59	0x3dd590e1	0.10428024
60	0xbe177fd2	-0.14794853
61	0xbdd212c3	-0.10257485
62	0x3d923f5f	0.07140993
63	0xbd3d0bc2	-0.04615379
64	0xbde66de0	-0.11251426
65	0x3de00925	0.10939244
66	0xbdd28a7c	-0.1028032
67	0x3de01677	0.10941785
68	0xbbd954f7	-0.006632443
69	0x3d653e99	0.0559679
70	0xbcf9b3fe	-0.030481335
71	0x3e077dce	0.13231584
72	0x3d21ceb6	0.039503776
73	0xbdf53f33	-0.11974945
74	0x3cf3abaf	0.029744951
75	0xbdae7961	-0.08519245
76	0xbd14864f	-0.0362609
77	0xbd878b6c	-0.066183895
78	0x3d8a4851	0.067520745
79	0xbdce1b77	-0.10063832
80	0x3d669a02	0.056299217
81	0xbe118e07	-0.14214335
82	0x3de56b52	0.1120211
83	0xbe1680c5	-0.14697559
84	0xbda20fbc	-0.07913157
85	0xbd2d8952	-0.042367287
86	0x3d1f279f	0.038856145
87	0x3dabe114	0.083925396
88	0xbdbda048	-0.09259087
89	0xbe03d64f	-0.12874721
90	0xbe159320	-0.14606905
91	0xbdd8ca03	-0.10585406
92	0x3df63880	0.12022495
93	0x3e2214e9	0.15828289
94	0x3c5088b5	0.012727906
95	0xbe0ecd7e	-0.13945577
96	0xbe17f37f	-0.1483898
97	0xbd5aaa53	-0.05338509
98	0xbdde630d	-0.10858736
99	0xbdc67f34	-0.09692231
100	0xbdfa8c08	-0.1223374
101	0xbe00022d	-0.1250083
102	0xbdd54ae9	-0.104146786
103	0x3d95c58f	0.07313072
104	0x3d41eb58	0.047343582
105	0xb9a3a0a9	-0.00031209484
106	0xbcd07937	-0.025448425
107	0xbdd8ad4f	-0.10579931
108	0x3d89f5af	0.067363136
109	0x3dd64d52	0.104639664
110	0xbdd693b1	-0.10477389
111	0x39887013	0.00026023443
112	0x3e0cd4b5	0.13753016
113	0x3df0eb37	0.11763614
114	0x3e1a9565	0.15096052
115	0xbd9920ca	-0.07476957
116	0x3de93f5a	0.113890365
117	0x3caa2088	0.020767465
118	0xbe041b86	-0.12901124
119	0x3da95f09	0.0827008
120	0xbcceb865	-0.02523441
121	0x3db6f182	0.08932783
122	0x3d6be0f2	0.05758757
123	0xbe056c7d	-0.13029666
124	0x3d661084	0.056168094
125	0x3e11e515	0.14247544
126	0xbe0eea1e	-0.13956496
127	0xbd97e868	-0.07417375
128	0x3dcfd754	0.101484925
129	0xbd14fa7a	-0.036371686
130	0xbd9d0a60	-0.076679945
131	0x3d555d7c	0.052091107
132	0xbe182a0e	-0.14859793
133	0xbd9a74d5	-0.07541815
134	0xbc848555	-0.016176859
135	0xbdac376c	-0.084090084
136	0xbd89ced3	-0.06728902
137	0x3cec2278	0.02882503
138	0xbe0584d5	-0.13038953
139	0xbe0d2866	-0.13784942
140	0xbd81d2ed	-0.06339059
141	0x3d83fd9b	0.06444856
142	0xbd97eda1	-0.07418371
143	0xbd983986	-0.07432847
144	0xbc567700	-0.013089895
145	0x3da8b8d4	0.08238378
146	0x3d2fb2c2	0.042895086
147	0xbdfd9e81	-0.12383748
148	0xbdf20b02	-0.11818506
149	0x3d34bf1b	0.044127565
150	0xbd8dd064	-0.06924513
151	0x3dde4225	0.1085246
152	0xbd1bcf75	-0.038039643
153	0xbdee4f8b	-0.11636265
154	0x3d26f537	0.0407612
155	0xbdf5c1ea	-0.11999877
156	0x3c54ba8f	0.012983932
157	0xbc9eba24	-0.019375868
158	0x3e1ba2c3	0.15198807
159	0xbd8128a6	-0.06306581
160	0xbcc74296	-0.024323743
161	0xbe179c3e	-0.14805695
162	0xbb8d6896	-0.004315446
163	0xbe065f17	-0.13122211
164	0x3e16e308	0.14735043
165	0xbce4a54d	-0.027910853
166	0xbc483471	-0.012219534
167	0x3ca3f85a	0.020015884
168	0x3df93b2d	0.1216949
169	0x3d237b28	0.039912373
170	0x3e06aefd	0.1315269
171	0xbd688f85	-0.056777496
172	0x3deafe35	0.114742674
173	0xbdc6b7ba	-0.09703012
174	0xbdc68f83	-0.096953414
175	0x3e06bd13	0.13158064
176	0xbdf22700	-0.11823845
177	0xbe0f4d2d	-0.13994284
178	0x3df0f855	0.117661156
179	0x3da77d00	0.08178139
180	0xbdcc51f9	-0.099765725
181	0x3da85bfe	0.08220671
182	0xbda63e72	-0.08117379
183	0x3df60106	0.12011914
184	0x3dfc4154	0.12317148
185	0x3db78f38	0.08962864
186	0xbdfdbccb	-0.12389525
187	0x3da6a3bf	0.08136701
188	0xbd83b005	-0.064300574
189	0xbd68b700	-0.056815147
190	0xbd0025f1	-0.031286184
191	0x3de08f8f	0.10964882
192	0xbe04f888	-0.12985432
193	0x3db17872	0.08665551
194	0x3da39509	0.079874106
195	0x3ce0f2aa	0.027459461
196	0x3d6e1cc4	0.0581329
197	0xbd93be66	-0.0721405
198	0x3b9ea348	0.004841242
199	0x3e077fe8	0.13232386
200	0xbcb1a282	-0.021683935
201	0x3c7d3d76	0.015456548
202	0x3b72896d	0.0037008182
203	0x3d677d67	0.056516077
204	0xbdcb4c11	-0.09926618
205	0xbdb5b078	-0.08871549
206	0xbd1e487e	-0.038643353
207	0x3d7318ce	0.059349827
208	0x3dbbc00a	0.09167488
209	0x3ddd9b9f	0.10820698
210	0x3dab50c0	0.08365011
211	0xbe1a8cdf	-0.150928
212	0x3db242f4	0.087041765
213	0xbd217dd0	-0.039426625
214	0xbde5fb82	-0.11229612
215	0xbe10ca8b	-0.14139764
216	0xbe18f877	-0.14938532
217	0xbe0aa232	-0.13538435
218	0xbd21bbe4	-0.039485827
219	0x3d9c80e2	0.0764177
220	0x3e1c482a	0.15261903
221	0x3d82792d	0.06370769
222	0x3cdb630a	0.026780624
223	0xbdd7296d	-0.10505948
224	0xbe1792cb	-0.14802091
225	0x3e1254f5	0.14290221
226	0x3c3589e5	0.01108024
227	0x3c9b6bc3	0.018972283
228	0x3e0bb6ea	0.13643995
229	0xbbf73573	-0.0075442134
230	0xbe10f145	-0.14154537
231	0x3de326c7	0.110913806
232	0x3d935756	0.071943924
233	0x3dc431a9	0.095797844
234	0x3df2e0ff	0.11859321
235	0x3df6fc68	0.120598614
236	0xbcfcdb95	-0.030866424
237	0x3e177ba5	0.1479326
238	0x3d5b47cd	0.05353527
239	0x3e1565d8	0.14589632
240	0x3dbedec3	0.09319832
241	0xbdb783bb	-0.089606725
242	0x3ca2d9ce	0.019879248
243	0x3a1141b1	0.00055411
244	0xbe100bc4	-0.14066988
245	0xbd802b6d	-0.06258283
246	0x3d838b9f	0.06423115
247	0x3d2c8cd7	0.042126503
248	0xbdd5c226	-0.104374215
249	0x3e107ef6	0.14110932
250	0x3e032fca	0.12811199
251	0x3c93a318	0.018022105
252	0xbd7742c7	-0.06036642
253	0xbd9f5ba8	-0.07781154
254	0x3a52bbca	0.0008038847
255	0x3d9cdcc4	0.07659295

bias f4 [128]
0	0x3b05d613	0.0020421788
1	0x3a315532	0.0006764709
2	0xbad65fbc	-0.0016355435
3	0x3b77cd4c	0.0037811575
4	0xba9ac65b	-0.0011808382
5	0xb88abbb1	-6.615313e-05
6	0xb9d5c389	-0.0004077221
7	0x3630dac8	2.6353391e-06
8	0xbaf117ef	-0.0018393974
9	0x32bb065d	2.1772559e-08
10	0x39a3a267	0.00031210782
11	0x39e7ff4a	0.0004424996
12	0x392e8d9e	0.0001664669
13	0x3bccedbc	0.006253926
14	0x3af52b04	0.0018704836
15	0x3be279c7	0.0069114896
16	0xbb775165	-0.0037737724
17	0xb8347f2a	-4.3033775e-05
18	0x3a1b4fea	0.0005924689
19	0xbab716a5	-0.0013968541
20	0xbac1c797	-0.0014784214
21	0x3b4d5b17	0.0031334811
22	0xba6ba2a6	-0.0008988775
23	0x3a329a74	0.00068131764
24	0xba0f1e88	-0.00054595666
25	0x3b1bcaf2	0.0023772088
26	0x3b4ea522	0.0031531532
27	0x3b4dc2f3	0.0031396716
28	0x3b67dc74	0.0035379203
29	0xbac83ef5	-0.0015277552
30	0x3ac70895	0.0015185053
31	0xb930aed2	-0.00016849794
32	0x3b6c42e5	0.0036050614
33	0x3afab8e7	0.0019128592
34	0x3881d854	6.1914936e-05
35	0x39aa4398	0.00032475288
36	0x3aa3e2eb	0.001250354
37	0x3b391bdf	0.0028245372
38	0x00000000	0.0
39	0xba8e912f	-0.0010877008
40	0x00000000	0.0
41	0x00000000	0.0
42	0xb79e6594	-1.8882369e-05
43	0x38b01b22	8.397388e-05
44	0x3a9710d3	0.00115254
45	0xb83dcc70	-4.525151e-05
46	0xbb83ddf5	-0.004024262
47	0xba003a77	-0.00048915244
48	0x00000000	0.0
49	0x3ad0fb26	0.0015943989
50	0x3bc32238	0.005955007
51	0x3b0fc01d	0.0021934577
52	0xb97be15b	-0.00024021177
53	0x3b0388ea	0.002007062
54	0x3adca9fc	0.0016835327
55	0x35740109	9.089859e-07
56	0x3852d179	5.026299e-05
57	0xba183a78	-0.00058070524
58	0x00000000	0.0
59	0xbb43aeea	-0.0029858896
60	0x3a862d3c	0.001023687
61	0xb9637026	-0.00021690186
62	0x3accabca	0.0015615162
63	0x3afccbf5	0.0019286858
64	0xb9216462	-0.00015391552
65	0x3633b4e7	2.6778378e-06
66	0x348fac15	2.6761032e-07
67	0xbb09872b	-0.0020985107
68	0x3ba001d1	0.004883029
69	0xbb2f1b93	-0.0026719316
70	0x3ba6363c	0.005072383
71	0xb881e395	-6.19359e-05
72	0xba8803f7	-0.0010377158
73	0xba2ec8af	-0.00066674774
74	0x3b81196c	0.003939798
75	0x3b804924	0.003914969
76	0x3ac315d6	0.0014883827
77	0x3a023a62	0.0004967806
78	0x3b0b35eb	0.0021241854
79	0x3b6d6bf7	0.0036227682
80	0x38ed7426	0.00011322675
81	0x39957bff	0.0002851188
82	0x3b1e2024	0.0024128044
83	0xbb0eb5d3	-0.0021775856
84	0x38a3512c	7.787565e-05
85	0xbab30036	-0.0013656679
86	0x39b525c2	0.00034551142
87	0x3b100803	0.0021977432
88	0x3b369c2b	0.002786408
89	0xb7953d54	-1.7790742e-05
90	0x3ba1d99b	0.0049392707
91	0x3a9a3133	0.001176393
92	0xb9b8d314	-0.0003525248
93	0x3bd59ea3	0.006519155
94	0x3b9e3e31	0.004829191
95	0xb7d69f0c	-2.558485e-05
96	0xbb1920be	-0.0023365463
97	0x3ac84922	0.0015280584
98	0x3a0ae3be	0.00052982185
99	0x3b79e128	0.0038128588
100	0x398450b7	0.0002523714
101	0xba25c71e	-0.0006323921
102	0xba40b833	-0.00073516666
103	0x3b1a922c	0.002358566
104	0xb85338fc	-5.035939e-05
105	0x3b4e48d7	0.0031476521
106	0x3818dc36	3.644471e-05
107	0x39d89be4	0.00041314878
108	0xbb0430c6	-0.0020170673
109	0xb67affe4	-3.740185e-06
110	0x3a110278	0.0005531679
111	0x3bb3697b	0.0054752207
112	0xb796d777	-1.7981727e-05
113	0x00000000	0.0
114	0x3b7aa62a	0.0038246014
115	0xb9bf0fe2	-0.00036442193
116	0xbab49796	-0.0013778086
117	0xb706c104	-8.031962e-06
118	0x3719a9d4	9.159052e-06
119	0x3b424170	0.0029641055
120	0x3a8a23e2	0.0010539258
121	0x3ba09716	0.0049008233
122	0xb61a5ff0	-2.3003631e-06
123	0x39e35eb8	0.00043367385
124	0x3b05318f	0.0020323729
125	0xba04f7b8	-0.00050723134
126	0x3b1619c3	0.0022903539
127	0x3b620c91	0.0034492353

weight f4 [128, 128]
0	0xbdadd7fa	-0.0848846
1	0xbd816ed3	-0.06319966
2	0xbdaef25b	-0.085423194
3	0xbde118c5	-0.109910525
4	0x3c5ddc16	0.013541242
5	0x3cc3cfc3	0.02390278
6	0x3d6232ad	0.05522411
7	0xbddb3f32	-0.10705413
8	0x3db8c694	0.09022251
9	0x3dd8ecc4	0.105920345
10	0x3dc1e1c8	0.094668925
11	0x3db22349	0.08698136
12	0x3d943d92	0.07238306
13	0x3e01703a	0.12640467
14	0xbe0053d3	-0.12531976
15	0x3e0e13a1	0.13874675
16	0xbd8ba6af	-0.06818902
17	0xbd71ab83	-0.059001457
18	0x3bc34752	0.00595943
19	0x3d33221d	0.043733705
20	0x3d98496d	0.0743588
21	0xbd30e95d	-0.043191303
22	0x3bce1a41	0.006289751
23	0x3deeef92	0.11666788
24	0xbd3b584b	-0.0457385
25	0xbda77ab5	-0.081777014
26	0xbd7111d8	-0.058854908
27	0x3e18c17d	0.1491756
28	0xbd8c2f59	-0.06844968
29	0x3d92c2b8	0.07166046
30	0x3de9f414	0.11423507
31	0xbdfc7f95	-0.12329022
32	0xbdc27b70	-0.094962
33	0xbded536a	-0.115881756
34	0x3d972ddf	0.07381796
35	0x3d4abc0a	0.049495734
36	0xbd755a3d	-0.05990051
37	0x3c0ad8c8	0.008474536
38	0x3d089e02	0.033353813
39	0x3de9a226	0.114078805
40	0xbc897e19	-0.01678376
41	0xbdba1e23	-0.090877794
42	0x3dbf30b2	0.0933546
43	0xbe1779fd	-0.14792629
44	0xbc92fdc7	-0.017943276
45	0x3c772578	0.015084617
46	0xbe155a61	-0.14585258
47	0xbe15cd5a	-0.14629117
48	0xbd4f30f2	-0.050583787
49	0xbe000b86	-0.12504396
50	0xbcc2e1c8	-0.023789302
51	0x3d51d49e	0.05122816
52	0xbd9e1544	-0.077189
53	0x3d014f8f	0.031570014
54	0x3df089df	0.11745047
55	0xbe06bee5	-0.13158758
56	0xbe0590c5	-0.13043506
57	0xbe04192e	-0.1290023
58	0xbdead6f0	-0.11466777
59	0xbd47d324	-0.048785344
60	0x3e088b88	0.13334477
61	0xbb919a45	-0.004443439
62	0x3daf7086	0.08566384
63	0xbd914f97	-0.07095259
64	0x3dd8b75e	0.105818495
65	0x3d825fb0	0.06365907
66	0x3d45a90e	0.048256926
67	0x3d1967d8	0.03745255
68	0xbdd5da86	-0.10442071
69	0xbe1baf62	-0.15203622
70	0xbdfb91af	-0.12283646
71	0x3ddc3d8e	0.10753928
72	0x3df20918	0.11818141
73	0xbd316cfe	-0.043316834
74	0xbdda2f3c	-0.106535405
75	0x3dd35512	0.1031896
76	0x3dfc7a17	0.12327974
77	0xbe0054b0	-0.12532306
78	0x3c6fb335	0.014630129
79	0x3dd94154	0.106081635
80	0xbd626d95	-0.055280287
81	0x3d6d3543	0.057912122
82	0x3de97169	0.113985844
83	0xbdb188ac	-0.08668646
84	0x3d95807b	0.07299896
85	0x3de622b1	0.112370856
86	0xbe01ce19	-0.12676276
87	0x3ce0a638	0.02742301
88	0xbdccbd5e	-0.099970564
89	0xbe173198	-0.14765012
90	0x3da2784e	0.079331025
91	0xbb75e4df	-0.003752045
92	0x3e10940d	0.14118977
93	0xbe0508c0	-0.12991619
94	0x3e0a12b6	0.134837
95	0x3df55446	0.119789645
96	0x39869fb1	0.0002567745
97	0xbe02fde6	-0.12792167
98	0xbe11ee7c	-0.14251131
99	0xbe0b3131	-0.13592984
100	0x3d8e78c7	0.0695663
101	0x3d4373a5	0.04771771
102	0x3c6191c3	0.013767662
103	0x3dccffa9	0.10009701
104	0xbdef12f5	-0.11673538
105	0xbdd3fe84	-0.103512794
106	0xbdffaa1c	-0.12483618
107	0x3de7e5cb	0.113231264
108	0xbd9c3074	-0.07626429
109	0xbd9e85c5	-0.07740358
110	0xbe09e043	-0.13464455
111	0x3c730994	0.014833827
112	0xbd74ad61	-0.05973566
113	0x3da5b0bc	0.0809035
114	0xbb11d328	-0.0022251103
115	0xbd8b57c1	-0.06803847
116	0xbc05ea79	-0.008173578
117	0xbd5cecca	-0.053936757
118	0x3d9aea1f	0.07564186
119	0xbe0f5cce	-0.14000246
120	0xbd48dd22	-0.049039014
121	0xbe0ece11	-0.13945796
122	0x3df439a6	0.11925058
123	0xbba1ab0a	-0.0049337195
124	0xbe12b332	-0.1432617
125	0x3cb6acce	0.022299197
126	0xbcd4a934	-0.025959589
127	0x3e12ea6c	0.14347237
128	0x3d5748f8	0.052559823
129	0x3e0ccb4a	0.13749424
130	0xbdbfa874	-0.09358302
131	0x3e12b43b	0.14326565
132	0xbd367fbf	-0.044555422
133	0xbe068d77	-0.13139902
134	0x3cd617d3	0.026134407
135	0x3b4595ec	0.0030149175
136	0x3df80282	0.12109853
137	0xbdbf06c6	-0.09327464
138	0xbdaffa28	-0.085926354
139	0xbc91edd6	-0.017813604
140	0x3e0d4141	0.13794424
141	0xbde89fd0	-0.11358607
142	0x3c948d0f	0.018133668
143	0xbdbe53d0	-0.0929333
144	0xbe0b824e	-0.13623926
145	0xbd1063ab	-0.0352513
146	0x3e088ef2	0.1333578
147	0xbb9094d0	-0.004412271
148	0x3deda96a	0.11604579
149	0xbc84ca61	-0.016209783
150	0x3ddda786	0.10822968
151	0x3d857148	0.06515747
152	0xbd727d35	-0.059201438
153	0xbbe51adf	-0.0069917287
154	0x3df0fd22	0.11767031
155	0x3e00cb98	0.12577665
156	0x3dd8a2ea	0.105779484
157	0xbd1df918	-0.038567632
158	0x3d19ed10	0.037579596
159	0x3dfdaa83	0.12386038
160	0xbdf51ca9	-0.11968357
161	0xbdbc07ba	-0.09181161
162	0xbd6289fb	-0.05530737
163	0xbdb6af4d	-0.08920155
164	0x3e1cbc3f	0.15306185
165	0xbe0578fe	-0.13034436
166	0xbe01da99	-0.12681045
167	0x3dc684ff	0.09693336
168	0xbd7d8f4a	-0.06190423
169	0x3e1910f6	0.14947876
170	0x3dc5024d	0.096195795
171	0xbd12a653	-0.03580315
172	0x3caf7285	0.021416912
173	0x3d4c6071	0.04989666
174	0xbd447a95	-0.047968466
175	0x3a8b6231	0.0010634122
176	0x3ded7b73	0.11595812
177	0xbdfe9755	-0.12431208
178	0xbd361d74	-0.044461682
179	0xbc57753b	-0.0131505085
180	0x3d148439	0.03625891
181	0x3d81f9c1	0.06346465
182	0x3e0356c6	0.1282607
183	0x3c14a2c4	0.0090720095
184	0x3ddc5c01	0.10759736
185	0x3be3bc97	0.006949972
186	0xbd1c64b3	-0.03818197
187	0xbc71d060	-0.014759153
188	0xbdbd9040	-0.09256029
189	0x3e141e2e	0.14464638
190	0xbd497605	-0.049184818
191	0xbde7c2ef	-0.113164775
192	0x3e25e312	0.16199902
193	0x3dcd0962	0.10011555
194	0x3e066522	0.13124517
195	0xbde2ac47	-0.110680155
196	0x3cc74eb5	0.024329523
197	0xbd034512	-0.032048292
198	0xbe0d3934	-0.13791353
199	0x3d343f6a	0.04400579
200	0x3d6a146c	0.057148382
201	0xbd83bcfd	-0.06432531
202	0xbc29f48e	-0.010373248
203	0x3db545a3	0.08851173
204	0xbe0263a5	-0.12733324
205	0x3d95d4d0	0.073159814
206	0xbe13ad10	-0.14421487
207	0x3e248161	0.16064979
208	0xbd9652c6	-0.073400065
209	0x38de55d8	0.000106017746
210	0xbdd22b28	-0.10262138
211	0xbe0016bd	-0.12508674
212	0x3d5bbac0	0.053644896
213	0xbe03508d	-0.12823696
214	0xbba5c335	-0.005058671
215	0x3e237fe6	0.15966758
216	0xbd49580f	-0.049156245
217	0xbdf94f48	-0.12173325
218	0x3d77b18e	0.060472064
219	0xbda9fc82	-0.08300115
220	0xbe067b1d	-0.13132901
221	0xbe170035	-0.14746173
222	0xbe1e5e60	-0.15465689
223	0xbd88a5c2	-0.06672241
224	0xbdd7471a	-0.105116084
225	0xbdcef309	-0.10104949
226	0xbdb33c66	-0.087517545
227	0xbd0be9d6	-0.03415855
228	0xbdbaf835	-0.09129373
229	0x3d9c78ad	0.076402046
230	0xbc9df03a	-0.019279588
231	0xbd76806c	-0.060181066
232	0x3d8a4ff2	0.067535296
233	0x3d1631b1	0.036668483
234	0x3e0e07a4	0.13870102
235	0x3b687b24	0.0035473788
236	0x3d5b374e	0.05351954
237	0x3d282709	0.04105285
238	0x3e0c965a	0.1372923
239	0xbda2feea	-0.07958777
240	0x3e14a79f	0.14517067
241	0x3db5cbde	0.08876775
242	0x3e064be7	0.13114892
243	0x3dd097f6	0.10185234
244	0xbde8dfde	-0.11370824
245	0x3e0a3227	0.13495694
246	0x3d80bb9d	0.062857844
247	0x3e015457	0.1262983
248	0xbd0c59ae	-0.034265213
249	0x3d74e972	0.059792943
250	0x3cf851a4	0.030312367
251	0x3e1c064b	0.15236776
252	0x3da86abd	0.08223484
253	0x3df85d78	0.12127203
254	0xbd4d3e3c	-0.05010818
255	0xbddc37ee	-0.10752855

bias f4 [128]
0	0xb901ff25	-0.00012397447
1	0x3bfadb0f	0.0076555084
2	0xb88a24b3	-6.5871885e-05
3	0xba01899f	-0.00049414666
4	0xba8cc403	-0.0010739568
5	0xbadd69a7	-0.0016892449
6	0x3ac47adc	0.0014990228
7	0xba98e28c	-0.0011664196
8	0xb815c800	-3.5710633e-05
9	0xba20d894	-0.0006135788
10	0xb924956c	-0.00015695923
11	0x3bbecede	0.0058230003
12	0xba25c447	-0.0006323498
13	0x3b499b95	0.00307629
14	0x3ab2834d	0.0013619453
15	0xbaee160b	-0.0018164528
16	0xbae721e2	-0.0017633999
17	0x3aa3735d	0.0012470294
18	0x3b00f9ca	0.0019680136
19	0x3c28ca83	0.010302189
20	0xba3c6f52	-0.0007188219
21	0x3b2ba78a	0.002619239
22	0x3a95d9e3	0.0011432733
23	0x39fee74d	0.00048618988
24	0xbb15ba91	-0.0022846798
25	0x37739330	1.4518198e-05
26	0x3bb4b241	0.0055144136
27	0x3aee1f87	0.0018167355
28	0xb91e5733	-0.00015100538
29	0x3ad09b4b	0.0015915422
30	0x3a51efbf	0.0008008442
31	0x3af2825b	0.0018501984
32	0x3afa4a27	0.0019095585
33	0x3a1fed17	0.0006100698
34	0x3b28e7d8	0.0025772955
35	0xb9d8777d	-0.00041287756
36	0xbb57a17f	-0.0032902656
37	0x3b57bea6	0.0032920032
38	0x365869f7	3.2248188e-06
39	0x3b2997e2	0.0025877883
40	0x3a19d3a7	0.00058680255
41	0xba9b5dbb	-0.0011853495
42	0x3b71b6a2	0.003688254
43	0x3ab3e87c	0.0013725902
44	0xb866da85	-5.5039785e-05
45	0x00000000	0.0
46	0x3bf3d8ba	0.0074416073
47	0x3b4ac122	0.003093787
48	0x3afb6c97	0.0019182143
49	0x00000000	0.0
50	0xb6aa8b29	-5.082595e-06
51	0xba31c710	-0.0006781677
52	0xbabf71c7	-0.0014606052
53	0x3a421253	0.0007403243
54	0x3aac3224	0.0013137502
55	0x3a032626	0.0005002938
56	0x3aca161a	0.0015417964
57	0xbb31819c	-0.002708531
58	0x3b89b627	0.0042026225
59	0xbb307e84	-0.0026930878
60	0xbb0a4341	-0.0021097215
61	0xbae18ce2	-0.0017208124
62	0x36af35ba	5.221661e-06
63	0x39c183be	0.00036909984
64	0x38a2385c	7.73526e-05
65	0x3b0b9c03	0.0021302707
66	0xb1423ec3	-2.8266391e-09
67	0xbacd2593	-0.0015651457
68	0x3aef1b8d	0.0018242464
69	0xbbc069f0	-0.0058720037
70	0x38f32dbc	0.000115956616
71	0xbb09948e	-0.0020993087
72	0x39bb3936	0.00035710045
73	0x3ab8a487	0.0014087119
74	0xb87d0b3d	-6.0330367e-05
75	0x00000000	0.0
76	0xba5b4296	-0.0008364109
77	0xb8bfe73d	-9.150661e-05
78	0xba109582	-0.00055154425
79	0x39b1072e	0.0003376542
80	0x3b171356	0.0023052297
81	0xbaf431b0	-0.0018630531
82	0x3b4ab636	0.003093136
83	0xbb3c6897	-0.0028748864
84	0xb85e4161	-5.2989813e-05
85	0x3b42cc22	0.0029723723
86	0x3a8904dc	0.0010453719
87	0xb908e9e0	-0.00013057096
88	0x39181711	0.00014504443
89	0xb9130352	-0.0001402025
90	0xbb5faed7	-0.0034131312
91	0xbb2da862	-0.002649807
92	0x3b4e921e	0.0031520198
93	0x3a68e794	0.00088846055
94	0xba2aede5	-0.00065204344
95	0x3aefeaaa	0.0018304188
96	0xbb4b7792	-0.0031046611
97	0x3a841364	0.001007658
98	0x3a4f1586	0.00078996306
99	0x3b0f4ccd	0.0021865845
100	0x00000000	0.0
101	0x3b45f37e	0.0030204947
102	0x39392e74	0.0001766028
103	0x3b86ac9e	0.004109933
104	0xbb43c4d7	-0.0029871964
105	0xb9ba79cd	-0.00035567433
106	0xba3697dd	-0.00069653784
107	0x3b42f74a	0.0029749447
108	0x37b995bc	2.2123444e-05
109	0xb9490a6f	-0.0001917274
110	0x3bb368e6	0.0054751514
111	0xbb97c810	-0.0046320036
112	0xbac42582	-0.0014964791
113	0xbac3c85c	-0.0014937031
114	0x3ab5c203	0.0013867024
115	0x3a6dddc1	0.00090738764
116	0x390549fb	0.00012711428
117	0xbaa6f297	-0.0012737092
118	0x3b0c7cea	0.002143676
119	0x3adf10ba	0.0017018535
120	0xbb2ef858	-0.0026698317
121	0xba822537	-0.0009929304
122	0xba1a2afa	-0.0005881038
123	0x3b8cd15b	0.004297418
124	0xbb3cbf94	-0.0028800713
125	0xb8b19231	-8.467248e-05
126	0x3aa1be01	0.0012339951
127	0xba27e85f	-0.00064051704

weight f4 [128, 128]
0	0xbbd4a34d	-0.0064891935
1	0x3c0bebc6	0.0085400995
2	0x3b435bd9	0.0029809384
3	0xbd3b7be0	-0.045772433
4	0xbce515a6	-0.027964424
5	0xbcc45b50	-0.023969322
6	0x3c88080f	0.016605405
7	0xbdffa167	-0.12481957
8	0xbd9e4758	-0.077284515
9	0x3d86ad48	0.065760195
10	0x3d2b3a6f	0.041803773
11	0x3daedd6c	0.085383266
12	0x3d1cd7a3	0.038291585
13	0x3d4468a1	0.047951344
14	0xb8a8265f	-8.0180114e-05
15	0x3e05d120	0.13068056
16	0xbd2e092d	-0.04248922
17	0x3d893873	0.0670022
18	0xbc2449c5	-0.010027354
19	0x3db04a44	0.08607915
20	0x3d310349	0.043216024
21	0xbbad87a5	-0.005295711
22	0x3dbaf9be	0.09129666
23	0xbcc52206	-0.024064075
24	0x3d439846	0.04775264
25	0xbe13a09c	-0.14416736
26	0xbdddbe87	-0.10827356
27	0xbe121ab9	-0.14268006
28	0xbd811899	-0.0630352
29	0xbe0d45d6	-0.13796172
30	0xbe181b2c	-0.14854115
31	0xbdb6fb3c	-0.08934638
32	0x3ca92fa1	0.020652594
33	0x3e1cf8cd	0.15329285
34	0x3e16d1db	0.14728491
35	0x3bd779c1	0.0065757935
36	0x3dea972e	0.114546165
37	0x3deb1315	0.11478249
38	0x3d9e6b01	0.07735253
39	0x3b6a4dfd	0.003575205
40	0xbbebeef8	-0.007200118
41	0xbdc90eea	-0.09817298
42	0xbd06c23d	-0.032900084
43	0xbb9b6971	-0.004742794
44	0x3d18f321	0.03734124
45	0x3d8d3e34	0.0689663
46	0x3dbd872a	0.09254296
47	0xbd9b1dbb	-0.0757403
48	0xbd639441	-0.055561308
49	0x3dafee7c	0.08590409
50	0xbdcc4ca4	-0.099755555
51	0x3d2fadf6	0.04289051
52	0xbcd431f1	-0.02590272
53	0x3d636faf	0.05552643
54	0xbdb8404a	-0.08996637
55	0x3cdb20a0	0.026748955
56	0xbd5b6067	-0.053558733
57	0xbdbf2f21	-0.09335161
58	0xbd657398	-0.056018442
59	0xbdc6e319	-0.09711284
60	0x3cfb0c56	0.03064553
61	0xbda0cff9	-0.07852168
62	0x3d9bf655	0.076153435
63	0x3e010308	0.12598813
64	0xbd77977e	-0.06044721
65	0xbc78866b	-0.0151687665
66	0xbdabd75b	-0.08390685
67	0xbdc9b6e8	-0.0984934
68	0x3d434752	0.04767544
69	0x3e0edbcc	0.13951033
70	0x3cbee157	0.02330081
71	0x3e14516e	0.14484188
72	0xbd817db0	-0.06322801
73	0xbd901b8c	-0.07036504
74	0x3d6a2d87	0.057172325
75	0xbd4fa826	-0.05069747
76	0x3df5c6a8	0.12000781
77	0x3db66a67	0.089070134
78	0x3d87d0c1	0.066316135
79	0xbd10e348	-0.035373002
80	0x3e18955a	0.14900723
81	0x3d058d18	0.03260526
82	0x3df589d6	0.11989181
83	0xbcd6f627	-0.026240421
84	0x3bb59b37	0.0055421847
85	0xbdc2d307	-0.095129065
86	0xbd2b4fa7	-0.04182401
87	0x3e064ca2	0.1311517
88	0x3d059a1d	0.032617677
89	0x3dd41e4e	0.10357343
90	0x3cda355e	0.026636776
91	0x3ddb7c6a	0.107170895
92	0x3d5f6139	0.054536078
93	0x3dbdc2fc	0.09265706
94	0xbd8d7c5b	-0.069084845
95	0x3ddc1613	0.10746398
96	0xb993a0a7	-0.0002815772
97	0x3c886db2	0.01665387
98	0x3e057696	0.13033518
99	0x3d00589b	0.0313345
100	0xbe05ea96	-0.13077769
101	0xbe080b8b	-0.13285653
102	0x3d0461c2	0.03231979
103	0x3ba3d46e	0.004999689
104	0x3ce2a805	0.027668009
105	0xbdf687f3	-0.12037649
106	0xbe18cc6d	-0.14921732
107	0x3d3b28cb	0.0456932
108	0x3d2acaab	0.041697185
109	0xbe1b7783	-0.15182309
110	0xbdf0f647	-0.11765724
111	0x3e004dcf	0.12529682
112	0xbc866988	-0.016407743
113	0xbe003481	-0.12520029
114	0x3e0eb605	0.13936622
115	0xbe18fc5c	-0.14940017
116	0x3d4144ba	0.047184683
117	0x3d964f9d	0.07339404
118	0xbdf496f9	-0.11942858
119	0x3dcf257d	0.10114572
120	0xbd411bb2	-0.047145553
121	0xbdaafe4c	-0.083492845
122	0x3dd259b5	0.102710165
123	0x3d90243f	0.070381634
124	0xbcd0d196	-0.025490563
125	0xbc581de0	-0.0131907165
126	0x3da0105f	0.078156225
127	0xbce9b868	-0.028530315
128	0xbdd5c451	-0.10437835
129	0xbcd93f68	-0.026519492
130	0xbe03ce98	-0.12871778
131	0x3dfac68f	0.12244903
132	0xbd52b7fb	-0.05144499
133	0xbde4f313	-0.11179175
134	0x3dbec244	0.09314397
135	0x3d485c57	0.048916187
136	0x3e00e4a4	0.1258722
137	0xbb7a1b49	-0.0038163236
138	0x3da042fd	0.07825277
139	0x3df956b4	0.121747404
140	0xbde27989	-0.11058337
141	0x3ce8df9a	0.028426934
142	0xbab3ee14	-0.0013727569
143	0xbde0b384	-0.1097174
144	0x3e0fc26e	0.14039013
145	0xbe0a12e4	-0.13483769
146	0xbdbe2f65	-0.092863835
147	0xbdcff742	-0.101545826
148	0xbd53d260	-0.0517143
149	0x3e030d4f	0.12798046
150	0x3ca94445	0.020662436
151	0xbe0d7499	-0.1381401
152	0x3d8ce574	0.06879702
153	0x3cf6a9fa	0.030110348
154	0x3dcfde7e	0.10149859
155	0x3d3b3827	0.045707848
156	0xbd3a15ad	-0.045430828
157	0xbde3c3df	-0.11121344
158	0xbd632ea6	-0.05546441
159	0x3dafb343	0.08579113
160	0xbd38c2ef	-0.04510778
161	0xbdfd57d0	-0.123702645
162	0xbde6badb	-0.112661086
163	0xbde24323	-0.110479616
164	0xbd1f6375	-0.03891321
165	0xbd4b2d6a	-0.049603857
166	0xbbe24f55	-0.00690643
167	0xbd8948f2	-0.06703366
168	0x3e06ccd7	0.13164078
169	0xbd818b6e	-0.06325422
170	0x3da6ca2d	0.08144031
171	0x3d229d6b	0.039700907
172	0x3c6bb7a9	0.01438705
173	0xbc570ff5	-0.013126363
174	0xbd01a94c	-0.031655595
175	0x3cb3780c	0.021907829
176	0x3dbb2b20	0.09139085
177	0xbc0ddd49	-0.0086587155
178	0xbd9476d5	-0.07249228
179	0xbe0d6d3e	-0.13811204
180	0xbe0303fa	-0.12794486
181	0xbdc04ec6	-0.09390025
182	0xbe06c174	-0.13159734
183	0x3ded0b37	0.11574405
184	0x3dde0ef5	0.108426966
185	0xbdc06714	-0.093946606
186	0x3e156a3e	0.1459131
187	0xbd7400f9	-0.05957124
188	0xbdf802cc	-0.121099085
189	0x3e015a70	0.12632155
190	0x3e0ea518	0.13930166
191	0x3a06dd5b	0.0005144679
192	0xbd3647ef	-0.044502195
193	0xbda6a46b	-0.08136829
194	0xbe18404e	-0.1486828
195	0x3da1998a	0.078906134
196	0x3d8b698e	0.06807242
197	0x3d038718	0.032111257
198	0xbd94796e	-0.072497234
199	0x3d927a2f	0.07152211
200	0x3c5c3cda	0.0134422425
201	0xbe1b15db	-0.15145056
202	0xbe05a125	-0.13049753
203	0x3db29b0f	0.08720981
204	0x3d17e133	0.03708
205	0xbdee64bb	-0.116403066
206	0xbdac6f55	-0.084196724
207	0x3dc18916	0.09449975
208	0xbc2ac4c8	-0.010422893
209	0x3d5c77cf	0.053825196
210	0x3db82e66	0.08993225
211	0x3dc28c0d	0.09499369
212	0xbd4b0d74	-0.049573377
213	0x3d040155	0.032227833
214	0xbd5943f6	-0.05304333
215	0xbdc811f1	-0.09769047
216	0xbd8aa193	-0.06769099
217	0x3cf21215	0.029549638
218	0x3dffe97c	0.124957055
219	0xbd636ea3	-0.055525433
220	0xbd513ad3	-0.05108149
221	0xbc164840	-0.009172499
222	0xbdaffd88	-0.08593279
223	0x3c37318d	0.011181247
224	0x3dd48c29	0.10378296
225	0x3cb81461	0.022470655
226	0xbce1ea38	-0.027577505
227	0x3d1a8622	0.037725575
228	0xbe00da89	-0.12583365
229	0x3dbb9d83	0.09160902
230	0xbdbf68dd	-0.09346173
231	0xbd8d7d5b	-0.06908675
232	0x3e04edbc	0.12981313
233	0x3d800fa3	0.062529825
234	0xbc71a8f9	-0.014749759
235	0xbdbe7a78	-0.09300703
236	0x3d56d661	0.05245054
237	0xbe1734a4	-0.14766175
238	0x3e06772b	0.13131396
239	0xbe10e5aa	-0.1415011
240	0x3d8a8426	0.067634866
241	0xbe0584d5	-0.13038953
242	0xbc2c448e	-0.010514392
243	0x3d32c3eb	0.043643873
244	0x3dccb544	0.09995511
245	0x3e00cdf4	0.12578565
246	0xbbe76a6d	-0.0070622475
247	0xbac8a277	-0.0015307207
248	0x3dfd17f9	0.12358088
249	0xbde1c1a9	-0.11023266
250	0xbcdbd690	-0.02683571
251	0xbd542d3e	-0.05180096
252	0x3de30d67	0.11086541
253	0xbe15369e	-0.14571616
254	0xbd880937	-0.066423826
255	0x3dc6b758	0.09702939

bias f4 [128]
0	0x3ad3351d	0.0016113851
1	0xbaa5786c	-0.001262439
2	0x3b244f5c	0.0025071716
3	0x39425dbc	0.000185362
4	0xb917e815	-0.0001448694
5	0xbb437c58	-0.0029828753
6	0xba292727	-0.00064526725
7	0x3b4bb983	0.0031085915
8	0xb77b2c40	-1.4971069e-05
9	0x3bd522a2	0.0065043727
10	0x3add21a9	0.0016870993
11	0xbaeba641	-0.0017978625
12	0x39bec248	0.00036384375
13	0x3b5f1b93	0.0034043535
14	0x3a379728	0.000700342
15	0xb96cd8a0	-0.00022587413
16	0x3b1bd3ea	0.0023777434
17	0x3b289568	0.0025723819
18	0x3af7b9b9	0.0018899954
19	0x3580d1a8	9.597761e-07
20	0x397c59ab	0.00024065997
21	0x3ae756b0	0.0017649736
22	0x3bd8dc5b	0.0066180653
23	0x39d65681	0.0004088171
24	0x3c13c647	0.009019441
25	0xb92c6299	-0.00016439929
26	0x39f70bec	0.00047120394
27	0x3ba80be9	0.005128373
28	0xbb90007b	-0.0043945885
29	0xbae91350	-0.0017782245
30	0xb91eb486	-0.00015135304
31	0x3a97d883	0.0011584911
32	0x3b56dec8	0.0032786597
33	0x3aff7c35	0.0019491973
34	0xb70ec828	-8.510462e-06
35	0xbaa28cb3	-0.0012401551
36	0xbada520e	-0.0016656534
37	0x34f748e5	4.6060373e-07
38	0xbb86e4aa	-0.0041166143
39	0x3b0466f5	0.0020202969
40	0xb9fcea3e	-0.0004823971
41	0x37f5aee4	2.9287716e-05
42	0xb9f3ee78	-0.00046526245
43	0xb9997763	-0.00029271384
44	0x3b1b38ed	0.0023685053
45	0x00000000	0.0
46	0x3bd4672b	0.006482025
47	0xba7fb93f	-0.0009755082
48	0xbb2c8737	-0.0026325712
49	0xbad9d7ac	-0.0016620061
50	0xb6324260	-2.6562702e-06
51	0x39e5f2e8	0.00043859263
52	0x3a9bc81a	0.0011885196
53	0xba29c41c	-0.0006476061
54	0x3b177e24	0.0023115957
55	0x3b93c4b3	0.0045095324
56	0x00000000	0.0
57	0xba42b981	-0.0007428155
58	0x00000000	0.0
59	0xbb954fc6	-0.004556629
60	0xb892a4e5	-6.9925365e-05
61	0x3ab7603c	0.0013990472
62	0x3b3e4952	0.0029035402
63	0x3ad29990	0.0016067494
64	0xba7312ba	-0.0009272505
65	0x3672185e	3.6074994e-06
66	0x3883a74e	6.27773e-05
67	0x3a8067d4	0.0009796568
68	0x37fb0d23	2.9927649e-05
69	0xb9fcae13	-0.0004819488
70	0xb547347f	-7.420967e-07
71	0x3babdf72	0.0052451426
72	0x3a1e7c60	0.0006045755
73	0x3b18501a	0.0023241104
74	0x39605164	0.00021392625
75	0x39ebbc64	0.00044963055
76	0xb995a4b0	-0.00028542196
77	0x00000000	0.0
78	0xb952b705	-0.00020095341
79	0x3842edf5	4.647482e-05
80	0x3bcfed4d	0.006345427
81	0x3b678233	0.0035325408
82	0xb801f462	-3.0983596e-05
83	0xba87954c	-0.0010344177
84	0x3a200b60	0.00061052106
85	0xb67b8be9	-3.7483353e-06
86	0xba25cf64	-0.0006325154
87	0x378e205e	1.6942791e-05
88	0xb968dc84	-0.00022207393
89	0x3b0200e1	0.001983695
90	0xbaa74f80	-0.0012764782
91	0xb913469b	-0.00014045315
92	0x3aa18ea9	0.0012325841
93	0xbacff7e5	-0.0015866725
94	0xbba491f5	-0.0050222822
95	0x00000000	0.0
96	0x3b0d53b2	0.002156478
97	0x3846f7f8	4.7437818e-05
98	0x3b7d3391	0.0038635472
99	0x3b8a9b35	0.004229928
100	0xbb1eb988	-0.0024219472
101	0xb679f791	-3.7247994e-06
102	0x398a7237	0.00026406508
103	0xbb8c8fa5	-0.0042895847
104	0xba373c52	-0.00069898844
105	0xba537066	-0.000806576
106	0xbafc22be	-0.0019236428
107	0x3b6238e5	0.0034518775
108	0xb9d1c0f9	-0.00040007362
109	0x3b3aec7b	0.00285223
110	0xbb7387df	-0.0037159843
111	0x33836f46	6.1204034e-08
112	0x3b040b13	0.0020148202
113	0x3a327074	0.0006806918
114	0x3a845294	0.0010095411
115	0x39c9a86a	0.00038463186
116	0xb61bfac8	-2.3242774e-06
117	0xba457bca	-0.00075333996
118	0x3af6d042	0.0018830376
119	0xbb486a0c	-0.0030580787
120	0x3af8cad4	0.0018981346
121	0x391b7f5c	0.00014829397
122	0xb4968abc	-2.804062e-07
123	0xb7edc805	-2.8345743e-05
124	0x3b1249b2	0.0022321758
125	0x38fa910c	0.00011947946
126	0xbabe8ea5	-0.0014538361
127	0xbb17850f	-0.002312008

weight f4 [128, 128]
0	0x3d71f638	0.059072703
1	0x3dd991f2	0.1062354
2	0xbd3e7d28	-0.046506077
3	0x3dfa15d3	0.12211194
4	0xbd241dcf	-0.04006749
5	0xbd235bef	-0.039882597
6	0x3dfab27c	0.122410744
7	0xbddf3811	-0.10899366
8	0xbd738cdc	-0.059460506
9	0xbb6d46d0	-0.0036205538
10	0x3dde48d7	0.10853737
11	0xbdcb00ca	-0.0991226
12	0xbbb23c5b	-0.005439324
13	0xbe0df5e0	-0.13863325
14	0x3d4b6219	0.0496541
15	0xbc409dd7	-0.011756382
16	0x3dced7ac	0.1009973
17	0xbbab4767	-0.0052270177
18	0x3dd216bc	0.102582425
19	0xbd5b2459	-0.05350146
20	0xbd2ab2e9	-0.04167453
21	0x3dc2fe0b	0.09521111
22	0x3cfbda3f	0.030743716
23	0xbe1a6c0d	-0.1508028
24	0x3e05e65f	0.13076161
25	0xbe0de5ee	-0.13857242
26	0x3d990f5a	0.07473631
27	0xbc436995	-0.011927028
28	0x3dfdde5d	0.12395928
29	0xbcef6c7a	-0.02922653
30	0x3d4a63c3	0.049411546
31	0xbd758ced	-0.05994885
32	0x3dabc99f	0.083880655
33	0xbd9da70a	-0.07697876
34	0xbe01a132	-0.12659147
35	0xbded49c7	-0.115863375
36	0xbde4a034	-0.11163369
37	0x3dc167a9	0.094436
38	0xbdbd69fc	-0.092487305
39	0xbe07a612	-0.13246945
40	0xbc0b84d2	-0.008515554
41	0xbda6a3c8	-0.081367075
42	0xbcfe6c17	-0.0310574
43	0xbdbe38c8	-0.09288174
44	0x3e11a4c3	0.14223008
45	0xbdef0f40	-0.116728306
46	0xbd68050e	-0.056645446
47	0xbdb70d1e	-0.08938049
48	0x3e1375c2	0.1440039
49	0x3b6aaae2	0.003580742
50	0xbe15a78b	-0.14614694
51	0xbd2914f5	-0.04127975
52	0x3ddefb9b	0.10887834
53	0x3cbde35a	0.023179699
54	0x3e14440e	0.14479086
55	0xbdffa520	-0.12482667
56	0x3d984984	0.07435897
57	0x3dfb2bc6	0.122642085
58	0x3cca875b	0.024722746
59	0x3d9e173c	0.07719275
60	0x3d0aa073	0.033844423
61	0x3e17e066	0.14831695
62	0xbe18453f	-0.14870165
63	0x3dbb584b	0.091477
64	0xbd7b1066	-0.061294936
65	0xbda158e6	-0.07878284
66	0xbcc2cc99	-0.0237792
67	0xbc8b4e08	-0.017004982
68	0xbdfa0d11	-0.122095235
69	0x3d62181e	0.05519878
70	0xbd82f303	-0.06394007
71	0xbd91a667	-0.07111817
72	0xbdf5cfa9	-0.12002499
73	0x3e0e3261	0.13886406
74	0xbe078b5e	-0.13236758
75	0x3d8122b3	0.063054465
76	0x3e0a949b	0.13533251
77	0x3dd40b5d	0.1035373
78	0x3dc3632f	0.09540402
79	0x3de43d64	0.11144522
80	0xbd309c02	-0.04311753
81	0x3e0aeafa	0.13566199
82	0xbcd15232	-0.02555189
83	0x3e13f7d4	0.14450008
84	0xbdaf6e3b	-0.08565947
85	0xbd2a6f54	-0.041610077
86	0xbde20968	-0.1103695
87	0x3e122dd8	0.142753
88	0xbda5876b	-0.080824696
89	0xbb73c988	-0.003719898
90	0x3dc0c0e2	0.094117895
91	0xbd1a6862	-0.037697203
92	0xbda2bfdb	-0.0794675
93	0x3e06b0c5	0.1315337
94	0x3cce425f	0.025178133
95	0x3d978690	0.07398713
96	0x3d8f607b	0.07000824
97	0xbc7a43f6	-0.015274992
98	0xbe15f4f7	-0.14644228
99	0xbdd6192e	-0.104540214
100	0xbc9a299b	-0.018818667
101	0xbdd32ab4	-0.10310879
102	0xbdd9385a	-0.10606451
103	0x3d4bcce3	0.049755942
104	0x3bdd3253	0.006750384
105	0x3da17d1a	0.07885189
106	0x3dc69678	0.096966684
107	0xbe1c9c9c	-0.15294117
108	0x3d4056a1	0.046957616
109	0xbe14c18e	-0.1452696
110	0xbdd04217	-0.10168856
111	0x3d9c69f5	0.07637397
112	0x3d017547	0.031605985
113	0x3db7e205	0.08978657
114	0x3d19d812	0.037559576
115	0xbd9d9a8d	-0.07695494
116	0x3d7d0d44	0.06178023
117	0x3d095802	0.033531196
118	0x3bc96281	0.006145776
119	0xbad97e30	-0.0016593393
120	0xbdd56651	-0.10419906
121	0x3de1e82c	0.110306114
122	0x3d479dd9	0.04873452
123	0xbe1022bb	-0.14075749
124	0x3dd90891	0.10597337
125	0x3de5a4f3	0.11213102
126	0xbb20bc94	-0.0024526464
127	0x3df404a4	0.11914948
128	0xbdabd356	-0.083899185
129	0xbde5bc18	-0.11217517
130	0xbde14977	-0.110003404
131	0xbb664695	-0.0035137285
132	0x3e19f15e	0.1503348
133	0x3e192ace	0.14957735
134	0xbe040dd9	-0.12895907
135	0x3e0d30f4	0.13788205
136	0xbdcf577c	-0.10124108
137	0xbe0bf139	-0.13666238
138	0x3df63c39	0.12023205
139	0xbe05db49	-0.13071932
140	0x3d19cae5	0.03754701
141	0x3da98f9b	0.08279344
142	0x3d0f44d7	0.03497776
143	0x3d5ddd12	0.054165907
144	0x3dcb4f37	0.099272184
145	0xbd90eb85	-0.07076172
146	0x3dc1ad2a	0.094568565
147	0x3c9e0b66	0.019292545
148	0x3cee8446	0.029115807
149	0x3c83357c	0.016016714
150	0xbe0bed33	-0.13664703
151	0x3e1a4cb8	0.15068328
152	0x3d15bb67	0.036555674
153	0x3e117402	0.1420441
154	0xbe129abf	-0.14316843
155	0x3de24f29	0.11050255
156	0xbb6a13f0	-0.003571745
157	0xbd883264	-0.06650236
158	0xbd9498a5	-0.07255677
159	0x3e0e67e1	0.13906814
160	0x3d4d9e3a	0.050199725
161	0xbcf5db54	-0.03001181
162	0x3c9f6a70	0.019459933
163	0x3d5c74d5	0.053822357
164	0xbdb60bdd	-0.088889815
165	0xbdb13ffb	-0.086547814
166	0xbde43834	-0.111435324
167	0x3e107a18	0.14109075
168	0xbd879b15	-0.066213764
169	0x3da879d1	0.0822636
170	0xbdcaf2b9	-0.09909577
171	0x3c423557	0.0118535375
172	0x3db8f7dc	0.090316504
173	0x3bb71e08	0.005588297
174	0xbe10eeca	-0.14153591
175	0x3d64b5f6	0.055837594
176	0xbdc54f67	-0.096342854
177	0x3d88659c	0.066600055
178	0x3b11ef7c	0.0022267988
179	0xba11b19b	-0.00055577763
180	0xbbfbb669	-0.007681657
181	0xbe02cd82	-0.12773708
182	0xbd9c3822	-0.07627894
183	0x3d9cfa36	0.076649114
184	0xbd8330e6	-0.06405811
185	0xbcf7b343	-0.030236846
186	0xbdfb056b	-0.12256893
187	0x3d102e1a	0.035200216
188	0xbcd210c4	-0.02564276
189	0x3cb77cec	0.022398435
190	0xbe180c45	-0.1484843
191	0xbd9228dd	-0.071367
192	0x3d851781	0.06498624
193	0x3c866add	0.016408378
194	0x3e11c6b7	0.1423596
195	0xbc9bcbd0	-0.019018084
196	0x3c18fb9f	0.009337335
197	0xbddfea81	-0.109334
198	0xbdec1c1c	-0.11528799
199	0xbe08688c	-0.13321131
200	0x3da4aa63	0.08040311
201	0x3cf89924	0.03034646
202	0xbde2c183	-0.11072066
203	0x3e15d829	0.1463324
204	0x3e0159bc	0.12631887
205	0x3d05e794	0.032691553
206	0x3d61a5d5	0.05508979
207	0x3c9880e8	0.018616155
208	0xbe007d01	-0.12547685
209	0x3e12ec77	0.14348017
210	0x3e1c12e2	0.15241578
211	0xbc2fab02	-0.010721924
212	0x3dea87f6	0.11451714
213	0x3e04ff75	0.12988074
214	0x3dee173b	0.116255246
215	0xbe0990f7	-0.13434206
216	0xbd8a2146	-0.06744628
217	0x3bc58538	0.006027844
218	0xbd9dd206	-0.077060744
219	0x3dfb40b6	0.12268202
220	0x3dc77c33	0.09740486
221	0x3dd7bbfd	0.10533903
222	0x3d90343a	0.070412114
223	0xbdc0e1eb	-0.094180904
224	0x3e031474	0.12800771
225	0xbde8fc4c	-0.11376247
226	0xbdd4612a	-0.10370095
227	0x3d76787d	0.0601735
228	0xbcec2e2b	-0.028830608
229	0xbd3a9e6f	-0.04556125
230	0xbdd6c893	-0.10487475
231	0x3e021a57	0.1270536
232	0xbe17766b	-0.14791267
233	0xbd74558c	-0.059651896
234	0xbb85066c	-0.0040596034
235	0xbd894071	-0.06701744
236	0x3e19c60a	0.15016952
237	0x3c43bd5b	0.011947001
238	0x3ca95883	0.020672088
239	0x3d49afa4	0.04923977
240	0x3dcd473b	0.10023352
241	0x3e1cae5f	0.15300892
242	0xbd776a66	-0.060404204
243	0x3dd5acc0	0.1043334
244	0xbe0b31c0	-0.13593197
245	0x3e04a9e6	0.12955436
246	0x3e059bf5	0.13047774
247	0xbc78aa18	-0.015177272
248	0xb78fc9b8	-1.7140861e-05
249	0xbdea4899	-0.11439628
250	0xbdbe49dc	-0.09291431
251	0xbe18deda	-0.14928761
252	0xbd957bb2	-0.07298984
253	0xbdc02696	-0.0938236
254	0x3cef63bd	0.029222364
255	0xbc084592	-0.008317368
