MAMRL-TE/Dynamic environments/Baselines/Random/ATT/task2/savemodels/policy24.pth (torch, 276379 bytes, 12 tensors)

weight f4 [128, 7]
0	0x3db35f29	0.08758385
1	0x3d3d26ab	0.046179455
2	0x3dcbdb39	0.09953923
3	0x3e02d4b4	0.12776452
4	0x3d7ce3d5	0.061740715
5	0x3e43102a	0.19049135
6	0x3e09323e	0.13398072
7	0x3d85cef8	0.06533617
8	0x3e46987c	0.19394106
9	0xbc186843	-0.009302202
10	0xbd94a1e9	-0.072574444
11	0x3cb4a4dd	0.02205127
12	0x3e399f71	0.18127228
13	0xbdbca664	-0.09211424
14	0xbc434bc8	-0.011919923
15	0xbe39e7a6	-0.18154773
16	0x3dbbbfdf	0.09167456
17	0xbe2cb6ee	-0.16866657
18	0xbdcadef7	-0.099058084
19	0xbe466c19	-0.19377173
20	0x3de2467b	0.11048599
21	0x3e436c31	0.1908424
22	0xbe08db17	-0.13364826
23	0xbe2685e0	-0.16262007
24	0x3e1b5e80	0.15172768
25	0x3e19a02f	0.15002511
26	0x3e3fd753	0.18734483
27	0x3e3befb0	0.18353152
28	0xbda4712e	-0.080294
29	0x3deba916	0.1150686
30	0xbe4e50dc	-0.20148033
31	0xbb92a23d	-0.0044749067
32	0x3e20e86e	0.15713665
33	0xbca92956	-0.020649593
34	0xbd427187	-0.04747155
35	0x3e32b936	0.17453465
36	0xbe1a756d	-0.15083857
37	0xbd915390	-0.070960164
38	0xbdc15b6b	-0.09441265
39	0xbc70161b	-0.014653708
40	0xbe27f35c	-0.16401428
41	0x3e436521	0.19081546
42	0xbe03766d	-0.12838145
43	0xbe181175	-0.1485041
44	0x3e5837ac	0.21114987
45	0x3c71ecb2	0.014765905
46	0x3dec65f4	0.115428835
47	0x3e279cb8	0.16368377
48	0x3e328832	0.17434767
49	0x3d064362	0.032779105
50	0x3d7cedfe	0.061750405
51	0xbc97c958	-0.018528625
52	0xbe3a800c	-0.18212909
53	0x3e031b75	0.12803443
54	0xbde1da8e	-0.11028014
55	0x3e087a71	0.13327958
56	0x3e1968cf	0.14981388
57	0xbda031d1	-0.07822002
58	0xbe4cfbe6	-0.20017967
59	0x3e01c195	0.12671502
60	0xbe276e7d	-0.16350742
61	0xbd2acb62	-0.041697867
62	0x3d769891	0.060204092
63	0xbda6e231	-0.08148611
64	0x3e6b7d2e	0.22996971
65	0x3db9938e	0.09061347
66	0x3cc2d9f7	0.023785574
67	0xbde101ec	-0.10986695
68	0x3bfcf9e6	0.00772022
69	0x3def4382	0.11682798
70	0xbe2f963e	-0.17147157
71	0x3c2b0b44	0.010439698
72	0x3e1d39fe	0.15354154
73	0x3db3b029	0.08773834
74	0xbdc37198	-0.09543151
75	0x3e034ee8	0.12823069
76	0x3e2be09c	0.167849
77	0xbdcd8dd4	-0.10036817
78	0x3c507f46	0.012725657
79	0xbd2dc4bb	-0.042423945
80	0xbe08c1f4	-0.13355237
81	0xbc408ba6	-0.011752045
82	0xbe570232	-0.20996931
83	0x3d20f4c0	0.03929591
84	0x3d201a9e	0.039087884
85	0xbe1a131c	-0.15046352
86	0x3e231641	0.15926458
87	0x3d4b9c09	0.049709354
88	0x3e041c55	0.12901433
89	0xbe02d982	-0.12778285
90	0x3e1aeda4	0.15129715
91	0xbe3c6889	-0.18399252
92	0xbddfc9bb	-0.10927149
93	0x3d8ffd9e	0.070307955
94	0xbcaa1f7d	-0.020766968
95	0xbdf8e1b7	-0.12152427
96	0x3deda0d0	0.11602938
97	0xbd2be6db	-0.041968208
98	0xbe3bca1c	-0.18338817
99	0xbcef0296	-0.029176038
100	0xbdcc6bb3	-0.099814795
101	0xbd3f7fd2	-0.04675276
102	0xbde5fec5	-0.11230234
103	0xbe3cc5fe	-0.18434903
104	0x3d048888	0.03235677
105	0x3bc5df46	0.006038579
106	0x3e4e38b9	0.20138825
107	0x3e2fae47	0.17156325
108	0x3db3155d	0.08744309
109	0x3e4bc1b9	0.19898118
110	0xbe489226	-0.19587001
111	0x3e2f04e1	0.17091705
112	0xbe37a7a6	-0.17935047
113	0xbe0313e3	-0.12800555
114	0xbbd1c0fc	-0.0064011794
115	0x3d09fc5f	0.033687945
116	0x3e26f17c	0.16303056
117	0x3d55341e	0.052051656
118	0x3d00242b	0.031284492
119	0x3e573817	0.2101749
120	0x3d4b68c6	0.049660467
121	0xbdfb6167	-0.122744374
122	0xbe1a8dcb	-0.15093152
123	0xbde17ef8	-0.110105455
124	0xbe13c5ad	-0.14430876
125	0xbddc5192	-0.10757746
126	0xbdde9288	-0.10867792
127	0x3e368652	0.17824677
128	0x3c8cdc45	0.017194876
129	0x3ddbf63a	0.10740323
130	0xbd584625	-0.05280127
131	0x3d915f2b	0.0709823
132	0xbd1d3e15	-0.038389284
133	0x3e65d8b1	0.22445942
134	0xbd214626	-0.03937354
135	0x3e5241f1	0.20532967
136	0xbd83dbaf	-0.06438386
137	0xba339686	-0.0006850738
138	0xbcabbb6d	-0.020963395
139	0xbdee05cd	-0.116222
140	0xbd3e7c01	-0.046504978
141	0x3de1af6a	0.11019786
142	0x3dcf3e34	0.10119286
143	0x3e5c95df	0.21541546
144	0xbdc832a8	-0.09775287
145	0xbbec9f3c	-0.0072211307
146	0xbda3a8c1	-0.07991172
147	0x3d4d5cb8	0.05013725
148	0x3e3f4b49	0.18681063
149	0xbdb800ef	-0.08984553
150	0x3db2277e	0.08698939
151	0xbe3fcb78	-0.18729961
152	0xbd5d1023	-0.053970467
153	0x3e422ce3	0.18962435
154	0xbe2cd93f	-0.16879748
155	0x3ba8ba5e	0.00514917
156	0x3d0a466f	0.033758577
157	0xbcdeab12	-0.027181182
158	0x3e3e86cd	0.1860611
159	0x3c2edcf6	0.010672798
160	0xbda80d12	-0.08205618
161	0xbe347762	-0.17623666
162	0xbb9e18f6	-0.004824753
163	0x3e101a57	0.14072548
164	0x3de42b85	0.11141113
165	0x3d627177	0.05528399
166	0xbc1d2ab6	-0.009592703
167	0x3d1e6e65	0.0386795
168	0xbc5ee769	-0.013604977
169	0x3e3dfd7c	0.18553728
170	0xbd502794	-0.050818995
171	0x3d159758	0.036521286
172	0xbd7df972	-0.062005468
173	0xbe483ec3	-0.19555192
174	0x3d8e4e10	0.06948483
175	0xbd13edc7	-0.036115434
176	0x3e291526	0.16511974
177	0x39692e66	0.00022237896
178	0x3e154047	0.14575301
179	0xbd3892f3	-0.045062017
180	0xbd29879c	-0.041389093
181	0x3b6c427f	0.0036050377
182	0xbe36f796	-0.17867884
183	0x3e3af9fd	0.18259425
184	0xbab72bc4	-0.0013974835
185	0xbe2a6d5e	-0.16643283
186	0x3da6f6a0	0.08152509
187	0xbd2ab766	-0.04167881
188	0x3d597edf	0.05309951
189	0xbe0d945e	-0.13826129
190	0xbe2124b2	-0.15736654
191	0x3e115f8e	0.14196607
192	0x3da2c72c	0.07948145
193	0x3e48c8e9	0.19607891
194	0x3d62125e	0.055193298
195	0xbd0987b6	-0.03357669
196	0xbe2da07a	-0.16955748
197	0x3df66205	0.120304145
198	0xbcf17db3	-0.029478883
199	0xbc0c40b2	-0.008560346
200	0xbd29a1da	-0.04141412
201	0x3d3fec18	0.046856016
202	0xbe4b9ee1	-0.19884826
203	0xbdffd09a	-0.124909595
204	0x3d69c44b	0.057071965
205	0x3e628d4a	0.2212421
206	0xbe4175cc	-0.18892592
207	0x3dab1c6f	0.08355033
208	0x3c518199	0.012787246
209	0x3e1da9c7	0.15396796
210	0xbd34706d	-0.04405253
211	0xbd94f31d	-0.07272933
212	0x3e42dbeb	0.19029205
213	0x3df72d1d	0.120691516
214	0xbe490f86	-0.19634828
215	0xbe452e48	-0.19255936
216	0xbc0506cb	-0.008119295
217	0xbd832911	-0.06404317
218	0x3e3a77cb	0.1820976
219	0xbdbacd2d	-0.091211654
220	0xbe3d23bd	-0.18470664
221	0xbe3a731b	-0.18207972
222	0xbdd19760	-0.102339506
223	0x3e36d5bf	0.17854975
224	0x3d9256fb	0.071454965
225	0x3d44b685	0.048025627
226	0xbd41d23a	-0.04731963
227	0x3ce7d2e2	0.028298799
228	0x3e4b117b	0.19830887
229	0x3c7a24f6	0.015267601
230	0xbd9d50ae	-0.07681404
231	0xbe42d574	-0.19026738
232	0x3cba2ce4	0.022726484
233	0x3e337a70	0.17527175
234	0xbe012f0a	-0.126156
235	0x3ce44747	0.027866019
236	0x3d130fda	0.03590379
237	0xbc231a38	-0.0099549815
238	0xbde53e80	-0.111935616
239	0x3dd3104c	0.10305843
240	0x3da49f90	0.08038247
241	0x3d512143	0.05105711
242	0x3c075eb0	0.008262321
243	0x3d45c1c6	0.0482805
244	0xbde7e7e0	-0.113235235
245	0x3e297462	0.16548303
246	0xbe5404f4	-0.20705014
247	0xbe140123	-0.14453559
248	0x3e49258a	0.19643226
249	0x3e1dedeb	0.1542279
250	0x3d13daa1	0.036097173
251	0xbc4d5308	-0.012532003
252	0x3e188b4b	0.14896886
253	0x3d04d897	0.03243312
254	0xbdbd84ad	-0.092538215
255	0x3a968301	0.0011483134

bias f4 [128]
0	0x3b445b5b	0.0029961679
1	0x3b86e787	0.0041169557
2	0xb90533cd	-0.00012703166
3	0x3b7602e0	0.0037538335
4	0x3a503191	0.0007941956
5	0xbb72a3c6	-0.0037023886
6	0x3c280ff5	0.010257711
7	0x3b11dc71	0.0022256637
8	0x3a963814	0.0011460804
9	0x3c114f36	0.008868983
10	0x3b407fa6	0.002937296
11	0xb78675d8	-1.602892e-05
12	0x3a177fe5	0.00057792506
13	0xb9e2bfeb	-0.0004324907
14	0x37e69b94	2.7490583e-05
15	0x3bf5f85d	0.007506414
16	0xba7c4885	-0.00096238434
17	0xbb07d7ea	-0.002072806
18	0xb8d70eb0	-0.00010254735
19	0x3b0d7590	0.0021584965
20	0x3bc5f21e	0.0060408255
21	0x3ba17847	0.0049276683
22	0xba981abe	-0.001160465
23	0xbb2c2770	-0.0026268624
24	0x3adad4c3	0.0016695488
25	0xb946d15a	-0.00018960741
26	0x3b305c2c	0.0026910407
27	0xba394b18	-0.000706838
28	0x38f50a27	0.000116844014
29	0x3bb54598	0.005531978
30	0xb9c89a5e	-0.00038261985
31	0x3a76b5d3	0.0009411249
32	0xb91884d2	-0.00014545329
33	0x3a3ad28c	0.0007126711
34	0x3a582e63	0.0008246658
35	0xbba9fda1	-0.0051877056
36	0x3b436be3	0.0029818944
37	0xb7d5210d	-2.540697e-05
38	0x3c13e00c	0.009025585
39	0x3a18b317	0.00058250263
40	0x3a03e625	0.00050315476
41	0x39710dfc	0.0002298876
42	0x3bff7f40	0.007797152
43	0xbac92d3f	-0.0015348567
44	0x37b52a88	2.1596687e-05
45	0x3be55ced	0.006999603
46	0xbab8dac8	-0.0014103288
47	0x3959a852	0.00020757437
48	0x3aae27df	0.0013287029
49	0x3b2a8d29	0.002602408
50	0x34c08ee2	3.5866748e-07
51	0x3b24e091	0.0025158266
52	0xb9b5bd12	-0.0003466388
53	0xba3ca2d3	-0.00071958936
54	0xb890c97a	-6.903983e-05
55	0x392dc3f3	0.00016571562
56	0x3ac75f19	0.0015210836
57	0x38dd2dc6	0.00010546627
58	0xb7c23c64	-2.3154724e-05
59	0x3b05bbea	0.0020406195
60	0x3ac7b569	0.001523656
61	0x3b301182	0.0026865904
62	0x3bb0ec86	0.0053992895
63	0x3aa35180	0.0012460202
64	0xba4253dd	-0.00074130093
65	0x3a5ba768	0.00083791325
66	0x3b5b9b35	0.0033509259
67	0x3976bf2c	0.00023531605
68	0xbbf6e214	-0.007534275
69	0xbbb19576	-0.0054194285
70	0x39bad959	0.0003563862
71	0xbb08fd10	-0.002090279
72	0xbba87cbc	-0.0051418226
73	0xba404737	-0.00073348306
74	0xb6f3f017	-7.2699145e-06
75	0x39929fa1	0.00027966223
76	0xbac89a22	-0.0015304724
77	0xbab8f9de	-0.0014112552
78	0x3a607dfa	0.0008563694
79	0xb81b5f8a	-3.7043857e-05
80	0x3bd18c03	0.0063948645
81	0x3c15139f	0.009098916
82	0xb8f8c3af	-0.000118620104
83	0xbbd5dc63	-0.0065265163
84	0xb9d63c82	-0.00040862343
85	0x35c34e52	1.4551426e-06
86	0x39e7e1c6	0.00044227968
87	0xb839162b	-4.4128083e-05
88	0x3b9df415	0.0048203566
89	0xb83dd44d	-4.5258832e-05
90	0x3c058a96	0.008150717
91	0xba9b5eb4	-0.0011853785
92	0xb96debfb	-0.00022689991
93	0x3ae52d14	0.0017484748
94	0x3b7629ba	0.0037561492
95	0x391f6a2a	0.00015202971
96	0xb9c46880	-0.00037461892
97	0x3b306bb8	0.0026919674
98	0x3a98f789	0.0011670451
99	0x3ace26ad	0.0015728079
100	0xbac64de1	-0.0015129411
101	0x3713371d	8.774715e-06
102	0x39622860	0.0002156808
103	0xbaa717b2	-0.0012748151
104	0x3a03e933	0.0005032003
105	0x3b6f23bf	0.0036489812
106	0x39f6cdeb	0.00047074197
107	0xbbe6a35c	-0.007038517
108	0x3a1bb674	0.00059399684
109	0x35804d29	9.5592e-07
110	0xba8f30d0	-0.0010924581
111	0xbbb5005a	-0.0055237236
112	0xbb31706d	-0.0027075068
113	0x3b167fa8	0.0022964273
114	0xba02cae0	-0.0004989337
115	0x3b8f85fd	0.0043799863
116	0xb910e299	-0.00013817324
117	0xba2f8b30	-0.0006696461
118	0x3b3c2e65	0.0028714177
119	0x3c3f29c4	0.011667673
120	0xb9bd2c8a	-0.00036082073
121	0xb8391e70	-4.4135784e-05
122	0xb83c54fb	-4.4901837e-05
123	0x3a23356e	0.0006225918
124	0xbaa0bb13	-0.0012262784
125	0x3b62fabe	0.0034634317
126	0xb9c4ad21	-0.00037513024
127	0x3b435ed7	0.0029811168

weight f4 [128, 128]
0	0x3dbb160f	0.09135067
1	0xbc3ec8eb	-0.011644582
2	0xbdac0e3c	-0.084011525
3	0x3d4b1e4f	0.04958945
4	0x3d7a81de	0.061159007
5	0x3d196219	0.03744707
6	0xbdc5d856	-0.096604034
7	0x3dcf825f	0.10132288
8	0x3d3d39c2	0.04619766
9	0x3d5da117	0.054108705
10	0x3d2af641	0.041738752
11	0x3dc1188c	0.0942851
12	0xbdd0f716	-0.10203378
13	0xbd691782	-0.056907184
14	0x3e02bf4b	0.12768285
15	0x3d705205	0.05867197
16	0x3de3cd66	0.11123161
17	0xbddac366	-0.106818005
18	0xbdaa872c	-0.08326563
19	0xbe102af8	-0.14078891
20	0x3db84f73	0.08999529
21	0x3d56da56	0.052454315
22	0x3e0568f7	0.13028322
23	0xbd17abb2	-0.037028976
24	0xbd94c577	-0.07264226
25	0xbd8dd45f	-0.06925272
26	0xbd2901c1	-0.04126144
27	0x3e0194bd	0.12654395
28	0x3d6d466e	0.057928495
29	0xbd67c255	-0.056581814
30	0x3d6692ea	0.056292452
31	0x3c39fb46	0.011351412
32	0xbe1ae7b4	-0.1512745
33	0xbe0eda5c	-0.13950485
34	0xbe0757f3	-0.13217144
35	0xbe1bda8a	-0.15220085
36	0xbdeb7600	-0.11497116
37	0xbc74e578	-0.014947288
38	0x3d4ebbac	0.050471947
39	0xbe16cd0a	-0.14726654
40	0x3d90c880	0.07069492
41	0xbd699c64	-0.05703391
42	0xbe1548ad	-0.14578505
43	0x3ca81bd0	0.020521075
44	0xbe15fc5c	-0.14647049
45	0xbe1c5f95	-0.15270837
46	0xbdfa0aff	-0.122091286
47	0xbe0e3ede	-0.1389117
48	0x3cf4970f	0.029857187
49	0xbdd74664	-0.10511473
50	0x3deebd53	0.116572045
51	0x3e14e04a	0.14538684
52	0xbdd69d78	-0.104792535
53	0x3c24bca3	0.01005474
54	0xbd589f2f	-0.052886184
55	0x3c73e1c0	0.014885366
56	0x3c6a1a2e	0.014288468
57	0xbdf79c04	-0.120903045
58	0x3d8b559b	0.06803437
59	0xbd001f35	-0.03127976
60	0x3e14279c	0.14468235
61	0xbe09a42b	-0.13441531
62	0x3d29db18	0.04146871
63	0xbd84284d	-0.06452999
64	0x3d6d9778	0.05800578
65	0xbcf1d653	-0.029521143
66	0xbe11a342	-0.14222434
67	0x3d5460aa	0.05185
68	0xbc89c8b2	-0.016819332
69	0xbe0168fe	-0.12637708
70	0x3c7e7e3c	0.015533026
71	0xbe0f3882	-0.139864
72	0x3dbedbd2	0.09319271
73	0xbd947636	-0.072491094
74	0x3e16599c	0.14682621
75	0x3e0a2f03	0.13494496
76	0x3c7553f6	0.014973631
77	0x3d8f7937	0.07005542
78	0x3d4cf4d9	0.050038192
79	0xbd97e9a2	-0.07417609
80	0xbaa22f08	-0.0012373636
81	0x3c1ea1de	0.009682147
82	0x3bfc01d0	0.0076906458
83	0xbe17cd54	-0.1482442
84	0x3c74f3eb	0.014950733
85	0xbe1ae5de	-0.1512675
86	0x3e06e315	0.13172562
87	0x3d880b62	0.06642796
88	0xbd2a276d	-0.041541506
89	0x3da889d3	0.08229413
90	0xbd604e45	-0.054762144
91	0x3de4de4e	0.11175214
92	0xbd81f4ea	-0.06345542
93	0x3d7889a3	0.060678136
94	0x3dd1fbaf	0.10253083
95	0xbc93c1e6	-0.018036794
96	0x3caa39fb	0.0207796
97	0x3c95ba0b	0.018277189
98	0xbd2e4ed9	-0.042555664
99	0xbcb9ca8c	-0.02267959
100	0xbdf76ced	-0.12081323
101	0xbcaf36ef	-0.021388499
102	0xbd43f985	-0.047845382
103	0x3d4f1401	0.050556187
104	0x3b00e9e0	0.001967065
105	0x3cef7038	0.029228315
106	0x3d890b0e	0.06691562
107	0xbdb429a9	-0.087970085
108	0x3cfa2d31	0.030539127
109	0x3e0a0c3b	0.13481228
110	0xbd9253b9	-0.07144875
111	0xbdf3b036	-0.11898844
112	0xbe0f35c3	-0.13985352
113	0xbdd799c3	-0.105273746
114	0xbe05e3f5	-0.1307524
115	0xbb831e7b	-0.0040014363
116	0xbe03b3b7	-0.12861525
117	0x3ce86691	0.02836922
118	0x3c894a85	0.016759166
119	0xbcba1a3a	-0.022717584
120	0x3cb03491	0.02150944
121	0xbda19348	-0.0788942
122	0xbd4a5f66	-0.049407385
123	0x3d417131	0.04722709
124	0xbd6f8db5	-0.05848475
125	0xbdb9bc40	-0.09069109
126	0xbcfcd12c	-0.03086146
127	0x3df0ed9a	0.11764069
128	0xbe0e6f03	-0.13909535
129	0xbe02ed68	-0.12785876
130	0x3cbf1cde	0.023329195
131	0xbd73acee	-0.05949109
132	0x3d227806	0.039665245
133	0xbdbc9b1f	-0.092092745
134	0xbcdd6a94	-0.02702836
135	0x3ded71fb	0.11594006
136	0x3dadaeab	0.08480581
137	0x3da92daa	0.08260663
138	0x3dd49911	0.103807576
139	0x3d413008	0.047164947
140	0xbd9c952c	-0.0764564
141	0xbd5b33b6	-0.053516112
142	0xbda5bd36	-0.0809273
143	0x3e1044d0	0.1408875
144	0x3cf41504	0.029795177
145	0xbc905417	-0.017618222
146	0x3d6ac94e	0.057320885
147	0x3dec9d18	0.11553401
148	0xbda7e573	-0.08198061
149	0x3c0ea3ed	0.008706075
150	0x3b975e2b	0.00461938
151	0x3e0a4b78	0.13505352
152	0x3e1a7ba3	0.15086226
153	0x3d5cad74	0.053876355
154	0x3dfa5168	0.12222558
155	0x3d4048f3	0.04694457
156	0xbd6b1220	-0.057390332
157	0xbce23643	-0.027613765
158	0xbdf5ceaa	-0.12002309
159	0xbc8042a6	-0.01565678
160	0x3e093a79	0.13401212
161	0xbe1bb4b1	-0.15205647
162	0x3dc90b78	0.098166406
163	0x3da63ab1	0.08116663
164	0x3dd152f4	0.102209
165	0x3d3a858f	0.045537528
166	0xbca857dd	-0.020549709
167	0xbdbd509e	-0.09243892
168	0x3ca7cb98	0.020482823
169	0xbdcbdef7	-0.099546365
170	0x3d066eb6	0.032820426
171	0xbc32c7f8	-0.010911934
172	0xbd93c60b	-0.07215508
173	0x3dc4301f	0.09579491
174	0xbd46717c	-0.04844807
175	0x3e1175c6	0.14205083
176	0xbd1b1529	-0.037861977
177	0x3da62de0	0.08114219
178	0x3d34619a	0.044038393
179	0x3d790ed7	0.060805168
180	0xbc4c7017	-0.012477896
181	0xbe0a0c52	-0.13481262
182	0xbd2e6322	-0.04257501
183	0xbcc892e1	-0.0244841
184	0xbcf489f1	-0.029850932
185	0x3cd19178	0.02558206
186	0x3d9cc65e	0.07655023
187	0x3bc17a56	0.005904476
188	0x3dfaf83a	0.12254377
189	0xbd85b608	-0.0652886
190	0xbdcbc8f1	-0.09950436
191	0xbdf6a193	-0.120425366
192	0x3d563d1e	0.05230438
193	0x3d303c32	0.043026157
194	0xbd94e66c	-0.07270512
195	0x3ddc26e5	0.10749606
196	0x3d60f8e7	0.05492487
197	0xbdfaa785	-0.12238983
198	0x3e0e35a5	0.13887651
199	0x3dda1b5d	0.106497504
200	0xbe06504f	-0.13116573
201	0x3d175fee	0.03695672
202	0xbe0e6ea7	-0.13909398
203	0xbbbe0a43	-0.005799563
204	0x3cc9a965	0.024616906
205	0x3c166132	0.009178447
206	0x3e1406b1	0.14455678
207	0xbd433508	-0.047657996
208	0xbdc4de30	-0.096126914
209	0x3de35130	0.1109947
210	0xbdc0d86a	-0.09416278
211	0x3e1b91b8	0.15192306
212	0x3d981920	0.07426667
213	0x3e09696b	0.1341912
214	0x3e0328e3	0.12808566
215	0x3dc790dc	0.097444266
216	0x3d30de15	0.043180544
217	0xbd41f5de	-0.047353618
218	0xbde03e48	-0.10949379
219	0x3cc58a9a	0.024113942
220	0xbd84dfa9	-0.06487972
221	0x3e0bdfb8	0.1365956
222	0x3e09df50	0.13464093
223	0xbe12b05a	-0.14325085
224	0x3df94162	0.12170674
225	0xbcfc402e	-0.030792322
226	0xbe0c024d	-0.13672753
227	0xbd3ec004	-0.04656984
228	0x3d634e76	0.055494748
229	0x3ca00f74	0.019538619
230	0x3d2981dc	0.04138361
231	0x3db3cd3f	0.08779382
232	0x3d8e94d1	0.06961978
233	0x3da73741	0.08164836
234	0xbd555b22	-0.052088864
235	0xbba37763	-0.0049885972
236	0x3d7509b6	0.059823714
237	0xbd353d7f	-0.0442481
238	0xbd6d225e	-0.057894103
239	0x3d09f79e	0.03368341
240	0xbdabfe28	-0.08398086
241	0x3dd690ed	0.10476861
242	0x3cb8f18f	0.022576122
243	0x3d2a8c9f	0.041638013
244	0x3d6aa419	0.057285402
245	0xbd8ed387	-0.069739394
246	0x3df02ceb	0.117273174
247	0x3cddff10	0.027099162
248	0xbdcda4e6	-0.100412175
249	0xbd854bf2	-0.06508626
250	0xbe1c7bbf	-0.1528158
251	0x3d5166db	0.05112348
252	0x3d0cb549	0.034352574
253	0xbde45b9f	-0.11150288
254	0xbcd4d260	-0.02597922
255	0x3e01d0e6	0.12677345

bias f4 [128]
0	0x375b8605	1.3084621e-05
1	0x3c34de58	0.011039339
2	0x3ac99c6b	0.0015381699
3	0xbbfbd24b	-0.007684981
4	0x36a1c79b	4.821411e-06
5	0xbadcde21	-0.0016850868
6	0x3c272078	0.010200612
7	0xba0289a2	-0.00049796153
8	0x3a98f670	0.0011670124
9	0xb9020d84	-0.00012402801
10	0xbac9a4d8	-0.001538421
11	0xbae166b3	-0.0017196744
12	0x3bbd975b	0.0057858652
13	0xbbd128e3	-0.006383048
14	0x399b5c5d	0.0002963272
15	0x3a4bad7d	0.0007769687
16	0x38f206cc	0.00011540725
17	0xb8cd6db0	-9.7955926e-05
18	0x3ae29a00	0.0017288327
19	0xbad698b4	-0.0016372413
20	0x3b769f1b	0.0037631455
21	0xb791aed9	-1.7366767e-05
22	0x39100553	0.00013734894
23	0xb9962c37	-0.00028643172
24	0xbaaa2660	-0.0012981407
25	0x39944aa5	0.00028284374
26	0x38463791	4.725863e-05
27	0x3c927de4	0.017882295
28	0x3adc571b	0.0016810627
29	0x3b65e220	0.0035077408
30	0x382c5bc0	4.1093444e-05
31	0xbc109f34	-0.0088270195
32	0xba717e23	-0.0009212216
33	0x399586f8	0.00028520054
34	0xbb035107	-0.002003731
35	0x3b03ff1a	0.0020141066
36	0xbb3a91ec	-0.0028468324
37	0x3979d7d8	0.00023826899
38	0x3994b9a7	0.00028367082
39	0x3a9fce33	0.001219219
40	0x3c3cdab4	0.011526752
41	0x3be8edc5	0.0071084225
42	0x3b5b6a34	0.003348005
43	0x3a196e6e	0.0005852942
44	0x3a6e349c	0.0009086819
45	0xbacab850	-0.0015466306
46	0xbb033949	-0.0020023158
47	0x3c2c8326	0.010529315
48	0x37f90aa8	2.9688075e-05
49	0x3527ff71	6.2584064e-07
50	0x3ba7a856	0.0051165028
51	0xbc05576a	-0.008138517
52	0x3852e150	5.027774e-05
53	0x381e2fb7	3.7714573e-05
54	0x36044121	1.9707443e-06
55	0x3bc61810	0.006045349
56	0xbbbe1374	-0.005800659
57	0xb9d9a928	-0.00041515497
58	0x3b12dd3f	0.0022409705
59	0xba3ae1ce	-0.00071289844
60	0x3a537a8a	0.0008067271
61	0x3c0cbe51	0.008590297
62	0x38e58c24	0.00010945674
63	0xbbd81afe	-0.0065950146
64	0x3c1cade9	0.009562948
65	0x3c94c7fd	0.018161768
66	0x3b9912f8	0.0046714507
67	0xba94f029	-0.0011363077
68	0xbbcffe8c	-0.006347483
69	0x394ad940	0.00019345153
70	0x3c0cf0c1	0.008602322
71	0xbb5c7f19	-0.0033645092
72	0xb8dd1270	-0.000105415354
73	0x3bef8253	0.007309237
74	0xbbd2332a	-0.0064147906
75	0xba9a40fb	-0.0011768633
76	0xb5f39708	-1.8148867e-06
77	0xb8f26a3c	-0.00011559247
78	0x3a0b1ead	0.0005307
79	0x3b9e012f	0.0048219184
80	0xba1da4d3	-0.00060136354
81	0xb71be442	-9.291865e-06
82	0xbb50e7ec	-0.0031876517
83	0xba026710	-0.0004974464
84	0x3c51c5da	0.012803519
85	0xbbdff952	-0.006835141
86	0xbbc9ec07	-0.00616217
87	0x39437154	0.00018638867
88	0xb62761bd	-2.494183e-06
89	0xb86bb5ba	-5.6197612e-05
90	0xbc3caf9c	-0.011516478
91	0x3ba5ba51	0.005057611
92	0x3a3960ee	0.00070716336
93	0x3a1e876e	0.0006047402
94	0xbafc2ae8	-0.0019238861
95	0x3b01ad59	0.001978716
96	0xba563acd	-0.0008172214
97	0x3a8a7d2a	0.0010565866
98	0x37d6efc2	2.5622434e-05
99	0xb9047338	-0.00012631423
100	0xb9ee86a9	-0.00045495227
101	0x3b1c6e08	0.0023869295
102	0xb9ebffb7	-0.00045013215
103	0xb947a495	-0.0001903943
104	0x39911df4	0.00027678872
105	0xbb4e22cb	-0.0031453844
106	0xb9b524ba	-0.00034550374
107	0x3a44224f	0.0007481919
108	0xb8f2b609	-0.00011573366
109	0xb977ceb0	-0.00023632753
110	0xbc4b3c8b	-0.012404571
111	0x3b29f5c9	0.0025933853
112	0xbb2f24aa	-0.0026724734
113	0xb8a13739	-7.687364e-05
114	0x3b3e980f	0.0029082333
115	0x3c866750	0.016406685
116	0xb3da26af	-1.01584526e-07
117	0x3b03105c	0.0019998765
118	0x3ad28f98	0.0016064523
119	0x3bda3311	0.0066589196
120	0xbbab6840	-0.0052309334
121	0x39be4fb9	0.00036299022
122	0xb7426a9f	-1.1588126e-05
123	0x3a4690f9	0.0007574703
124	0x3a03f153	0.00050332135
125	0x3a9df6fe	0.0012051759
126	0x3861ee84	5.3866315e-05
127	0xba19c0ce	-0.0005865217

weight f4 [128, 128]
0	0x3db35b05	0.08757595
1	0x3dc9c886	0.098527
2	0xbd9d1ac2	-0.07671119
3	0xbdb85586	-0.09000687
4	0xbcf0823c	-0.029358976
5	0xbdbac38d	-0.091193296
6	0x3d8b4de9	0.068019696
7	0xbe168c49	-0.14701952
8	0x3dd8811b	0.105715
9	0x3cf85c59	0.030317472
10	0xbde60d6f	-0.11233031
11	0xbd4aa22c	-0.049471065
12	0xbc54bbc0	-0.012984216
13	0xbd9080a6	-0.07055788
14	0x3e19c7f1	0.15017678
15	0xbc203cfc	-0.009780165
16	0xbcfd0694	-0.030886926
17	0x3e0f1cd5	0.13975842
18	0xbc8f391f	-0.017483292
19	0xbdab4c1b	-0.08364125
20	0x3d283b81	0.041072372
21	0xbd91293b	-0.07087942
22	0xbe1328fe	-0.14371106
23	0x3e0616bb	0.13094608
24	0xbdfa4ca4	-0.12221649
25	0xbd9b5fe1	-0.07586647
26	0xbc593bb8	-0.013258867
27	0xbdf57b05	-0.11986355
28	0x3e06a58d	0.1314909
29	0x3ae8dcfa	0.0017766051
30	0xbd4e47a9	-0.05036131
31	0x3dcbf948	0.09959656
32	0xbe05323e	-0.13007447
33	0xbc973ded	-0.018462146
34	0xbd6c3776	-0.05767008
35	0x3d87dccd	0.06633911
36	0x3d89097e	0.066912636
37	0x3dff5d02	0.12468912
38	0x3dbfdade	0.093679175
39	0x3d30e79d	0.043189634
40	0xbdc81037	-0.09768718
41	0xbcd6103e	-0.026130792
42	0x3e069a60	0.13144827
43	0xbc572de2	-0.013133498
44	0xbd141ed8	-0.036162227
45	0xbca4d265	-0.020119855
46	0xbd878a01	-0.06618119
47	0xbbb44196	-0.0055009825
48	0x3e0e7002	0.13909915
49	0x3e000bc2	0.12504485
50	0x3e08aa96	0.13346323
51	0x3d9f0301	0.07764245
52	0x3dcf6457	0.1012656
53	0x3e054051	0.13012816
54	0xbdc66343	-0.096869014
55	0xbd8d4996	-0.06898801
56	0xbd5d9be6	-0.054103754
57	0x3d863bce	0.065543756
58	0xbd89d41b	-0.06729909
59	0x3c3e3188	0.011608489
60	0x3d7a7059	0.0611423
61	0xbd302460	-0.04300344
62	0xbe03fd9e	-0.12889716
63	0x3e1115cf	0.14168476
64	0xbd96ccd4	-0.073632866
65	0x3d9b5bf5	0.07585899
66	0xbdd01deb	-0.101619564
67	0x3dc598e1	0.096483
68	0xbbe278a3	-0.0069113537
69	0xbe12516e	-0.14288875
70	0xbc652685	-0.013986235
71	0xbdc8d378	-0.098059595
72	0x3b8e60c6	0.0043450324
73	0xbd98a5e4	-0.07453516
74	0x3dd22a84	0.102620155
75	0x3cf3a6af	0.029742567
76	0xbddf67ca	-0.10908468
77	0x3bd7eeeb	0.0065897605
78	0xbe122378	-0.14271343
79	0x3c0aff84	0.008483771
80	0xbe19911b	-0.1499676
81	0xbca6964e	-0.020335343
82	0xbe07658d	-0.13222332
83	0x3dcb9c7c	0.099419564
84	0xbe0ad563	-0.13557963
85	0x3ceccff6	0.028907757
86	0x3c7a54c9	0.015279003
87	0x3dbfb9e3	0.09361627
88	0xbdc3d2ce	-0.09561692
89	0x3db8a048	0.09014946
90	0x3dabeacd	0.08394394
91	0x3e12d572	0.14339235
92	0x3db438f1	0.08799923
93	0xbe1bdb73	-0.15220432
94	0x3d8b98be	0.06816243
95	0xbe15c80c	-0.14627093
96	0x3dbfc351	0.093634255
97	0xbe1941c9	-0.14966501
98	0x3de81941	0.11332942
99	0xbd36ed17	-0.0446597
100	0xbd7e5693	-0.062094282
101	0x3d87d5a7	0.06632548
102	0x3d2b0c4e	0.04175978
103	0x3ded54a7	0.11588412
104	0xbddf3f4e	-0.10900746
105	0x3e168a9f	0.14701317
106	0xbdc7cd31	-0.09755934
107	0x3cd690bb	0.02619206
108	0x3e1b44ec	0.1516301
109	0xbc5e4726	-0.013566768
110	0xbe1c3e64	-0.15258175
111	0xbcdd51a3	-0.027016466
112	0x3d76ab0d	0.06022172
113	0xbddf3aa2	-0.10899855
114	0xbd8a488c	-0.067521185
115	0xbdb76977	-0.08955663
116	0x3da55826	0.080734536
117	0x3d4302a8	0.047609955
118	0x3d5fea09	0.054666553
119	0x3d5b8f28	0.05360332
120	0x3dbfa4ca	0.09357603
121	0x3dbf2092	0.09332384
122	0xbd8c4402	-0.06848909
123	0x3c9d46f0	0.019198865
124	0xbd936a0b	-0.071979605
125	0x3dd3ef69	0.10348398
126	0xbd094713	-0.033515047
127	0x3e0b183c	0.13583463
128	0x3c2dacbb	0.010600264
129	0x3cb0510c	0.021523021
130	0xbc51f900	-0.012815714
131	0x3de75e5a	0.11297293
132	0xbdf83227	-0.12118941
133	0xbdde06cb	-0.108411394
134	0x3d2583ce	0.040408902
135	0xbb81fb05	-0.0039666914
136	0x3dbdfa1c	0.0927622
137	0xbd96ef58	-0.0736987
138	0xbdb485fd	-0.08814619
139	0x3cc17c83	0.023618942
140	0xbdfe81a0	-0.12427068
141	0xbcd6a440	-0.026201367
142	0x3c04b73f	0.00810033
143	0xbd4694da	-0.0484818
144	0x3cd82c2f	0.026388256
145	0xbdc559ad	-0.09636245
146	0x3d3396ec	0.043845102
147	0x3d669199	0.056291196
148	0xbd3c3d87	-0.045957115
149	0x3de5f1de	0.11227773
150	0x3e1973b7	0.14985548
151	0x3ddb5c84	0.10711005
152	0x3dc2ddf1	0.09514988
153	0xbd21ebd9	-0.039531562
154	0xbd04746a	-0.032337584
155	0x3dac70e2	0.08419968
156	0x3e03595d	0.12827058
157	0x3d95800f	0.07299816
158	0x3c6cf8ff	0.014463662
159	0xbdc7faa6	-0.09764604
160	0x3e07172e	0.13192436
161	0x3d962e72	0.073330775
162	0xbc1ac83d	-0.009447155
163	0x3df2e869	0.11860735
164	0xbdbf2543	-0.09333279
165	0xbd1cfe5b	-0.03832851
166	0x3ba1ef1e	0.004941835
167	0x3e1a4c28	0.15068114
168	0x3df384de	0.11890577
169	0xbdc9c605	-0.09852222
170	0x3dd3af2e	0.10336147
171	0x3d18c5df	0.03729808
172	0x3dc3fdc3	0.095698856
173	0xbdf6020d	-0.1201211
174	0x3cd1adde	0.025595602
175	0xbc75b41e	-0.014996557
176	0xbdb1455e	-0.08655809
177	0xbd9504b6	-0.07276289
178	0x3dddd85b	0.10832282
179	0x3e13a0a9	0.14416756
180	0xbd2fdf0d	-0.042937327
181	0x3d1e613d	0.038666952
182	0xbd87dd6a	-0.06634028
183	0x3dc0128d	0.09378538
184	0xbca087e5	-0.01959605
185	0x3cc22fa6	0.023704361
186	0xbd115807	-0.03548434
187	0xbdb915d8	-0.090373695
188	0xbdd29c07	-0.10283666
189	0xbe07285f	-0.13198994
190	0xbd616b2c	-0.055033848
191	0x3e11668a	0.14199272
192	0xbc84e65a	-0.016223121
193	0x3d5a5920	0.053307652
194	0x3d0a431b	0.033755403
195	0xbe0c804b	-0.13720815
196	0x3d7bca05	0.061471958
197	0xbc5d5f24	-0.013511453
198	0x3d4f21e2	0.050569423
199	0x3e047bf1	0.12937905
200	0x3dc1fcfd	0.09472082
201	0xbcada28d	-0.021195674
202	0x3ce779de	0.028256353
203	0x3d910ffd	0.07083128
204	0xbdee6d79	-0.11641974
205	0x3d1a92f4	0.0377378
206	0x3d136406	0.03598406
207	0xbd899896	-0.067185566
208	0xbdc25b0d	-0.09490023
209	0x3dd8e65b	0.10590812
210	0x3dfd2dc4	0.12362245
211	0x3d3cd32b	0.046099823
212	0xbd94a1b4	-0.07257405
213	0xbdac0b28	-0.084005654
214	0xbda4f8e9	-0.08055288
215	0xbe16e36c	-0.14735192
216	0xbdd3a565	-0.10334281
217	0x3d65c329	0.056094322
218	0xbce9f9fc	-0.028561585
219	0xbe06adcc	-0.13152236
220	0xbd996dd9	-0.07491655
221	0x3cefb6ac	0.02926191
222	0xbdc2b05e	-0.095062956
223	0xbdc4e831	-0.096145995
224	0xbd80d088	-0.06289774
225	0x3ddb11bc	0.10696742
226	0x3cc7aa69	0.02437325
227	0xbdf97d02	-0.121820465
228	0x3dd88755	0.105726875
229	0x3d106afb	0.035258275
230	0x3d7bf081	0.06150866
231	0x3c40b858	0.011762701
232	0x3e09cdba	0.13457385
233	0x3df851fe	0.12125014
234	0x3d98565c	0.07438347
235	0x3d984173	0.074343584
236	0x3dd82f38	0.10555881
237	0x3d093d8f	0.033505972
238	0x3c0231e1	0.007946462
239	0x3dc555be	0.09635495
240	0x3d414171	0.04718155
241	0x3d1c058c	0.038091227
242	0xbe0b2f2b	-0.13592212
243	0x3deb18ed	0.114793636
244	0xbd5ca87d	-0.05387162
245	0x3e086267	0.13318788
246	0x3dee9c54	0.11650911
247	0x3da32ff5	0.079681315
248	0x3de8dfe9	0.113708325
249	0xbd6290d8	-0.055313915
250	0x3df22d4a	0.118250445
251	0x3d84dec8	0.06487805
252	0x3d9361eb	0.07196411
253	0xbd5bbe5d	-0.05364834
254	0x3d84949f	0.0647366
255	0x3d98df7f	0.074645035

bias f4 [128]
0	0xba9bcc59	-0.0011886462
1	0xb8d3f508	-0.00010106905
2	0x39cd3795	0.0003914206
3	0xba06f61c	-0.00051483675
4	0x3bb094d6	0.0053888364
5	0xb8f866b1	-0.00011844689
6	0x3bb18fe7	0.005418766
7	0xb92ff4ab	-0.00016780446
8	0xbb2826d3	-0.0025657907
9	0x3c3b0751	0.011415319
10	0x3a57aa9f	0.00082270236
11	0x3c0139e8	0.007887341
12	0x3b54185b	0.003236315
13	0x3b93f4c4	0.0045152623
14	0x355bd5ca	8.189496e-07
15	0xbba8b332	-0.005148315
16	0x3aec75c0	0.0018040463
17	0x3c8cb436	0.017175775
18	0xbb8b462a	-0.0042503076
19	0xbb2abf8e	-0.0026054117
20	0xbb68a0c2	-0.003549621
21	0x397fceeb	0.00024395778
22	0xb9870ae1	-0.00025757312
23	0xbbb9b948	-0.005667839
24	0xba5ca12f	-0.0008416352
25	0xbb879995	-0.0041381815
26	0x3c9a0545	0.01880134
27	0xb70817b4	-8.1117505e-06
28	0xb8021eae	-3.1022988e-05
29	0xbb1a6008	-0.0023555774
30	0x3caf7c07	0.021421446
31	0x3c2b5227	0.010456598
32	0x3a83917a	0.0010037862
33	0x3bbdff48	0.005798254
34	0x38f1e5d9	0.00011534588
35	0xbaee01fa	-0.0018158548
36	0xbaac212c	-0.0013132445
37	0x37aa7e25	2.032432e-05
38	0x3aee1ba9	0.0018166202
39	0xbaa5c2aa	-0.0012646515
40	0x3c8d7db4	0.017271854
41	0xbb0a982a	-0.0021147826
42	0x3c355aea	0.011069039
43	0xbc0d62f3	-0.008629548
44	0x3c9a86cd	0.018863106
45	0xba97e56f	-0.0011588762
46	0xbc1b4494	-0.0094767995
47	0x3c1403f1	0.009034143
48	0x3b221c2a	0.0024736025
49	0x3c1ad2e9	0.009449699
50	0x3ac8f0d3	0.001533056
51	0xbb9ab454	-0.004721204
52	0x3b90eaa3	0.004422502
53	0x3c7ee0a3	0.015556487
54	0x399d587a	0.00030011294
55	0xb9a31840	-0.0003110785
56	0x3a7236ba	0.0009239722
57	0xbb5d0222	-0.0033723195
58	0x370fda30	8.574265e-06
59	0x3c37b9d5	0.011213739
60	0x3c75c0a8	0.014999546
61	0xba94d105	-0.0011353797
62	0x3bf1c6fe	0.007378458
63	0x382907c7	4.0299983e-05
64	0x3c04f834	0.008115817
65	0x3a57103b	0.00082040176
66	0xbc57be6a	-0.013167957
67	0xb64819b9	-2.9817295e-06
68	0xbb39e1b2	-0.0028363285
69	0x3c0262c8	0.007958122
70	0x391ee39e	0.00015152848
71	0xb97a17f0	-0.00023850775
72	0xbc00d887	-0.007864124
73	0x361a6edc	2.3012317e-06
74	0xbb2770bd	-0.0025549375
75	0x3a8621e9	0.0010233495
76	0x3b69894b	0.0035634812
77	0x352b778e	6.387644e-07
78	0x3943d219	0.00018674917
79	0xbb1fcf5e	-0.0024385075
80	0x3bc1e3a8	0.0059170313
81	0x3b0216e3	0.0019850067
82	0x3c526242	0.012840809
83	0xbb75f10e	-0.0037527713
84	0xbc54dc86	-0.01299203
85	0x3a847285	0.001010493
86	0xb9aaa39f	-0.00032546834
87	0x3ae255d6	0.0017268013
88	0xb9facc24	-0.00047835812
89	0x3b9b35d2	0.0047366405
90	0x39c92267	0.0003836334
91	0x3823a821	3.901881e-05
92	0x3c02afea	0.0079765115
93	0x3c9775c8	0.01848878
94	0x3b45a5c4	0.0030158618
95	0x3ace8b80	0.0015758127
96	0xbac48408	-0.0014992962
97	0xb41460c4	-1.3818777e-07
98	0x3b2e50b2	0.002659839
99	0xbb7e7f5f	-0.0038833243
100	0xb8809b42	-6.132435e-05
101	0xbb8a55c1	-0.0042216484
102	0xbb17fbd1	-0.0023190866
103	0x37c5cd9d	2.3579976e-05
104	0x3bab7628	0.005232591
105	0x3a7b7990	0.00095930044
106	0xbbf3ba02	-0.0074379453
107	0xba02c043	-0.00049877557
108	0x3c002f76	0.007823816
109	0x381544a5	3.55883e-05
110	0xbc4216ed	-0.011846286
111	0x3c4ad8ff	0.012380837
112	0xb8f7a040	-0.00011807727
113	0x3a8389be	0.0010035557
114	0xb79317da	-1.7534872e-05
115	0xbb98563b	-0.0046489513
116	0x3c2e5009	0.010639199
117	0x3b123880	0.0022311509
118	0xbb70deb4	-0.0036753835
119	0x397beaf5	0.00024024754
120	0x3c6b9f7c	0.014381286
121	0x3b2290d0	0.0024805553
122	0x3b9908d4	0.004670242
123	0x3a3fafe2	0.00073122804
124	0xbbd60074	-0.0065308157
125	0xba0328e5	-0.0005003347
126	0x3c84634f	0.016160635
127	0x3ac31a24	0.001488511

weight f4 [128, 128]
0	0xbd03a799	-0.032142255
1	0xbd537ecf	-0.051634606
2	0x3cef88a3	0.029239958
3	0xbe0f3bd0	-0.1398766
4	0xbbbc8fa7	-0.0057544294
5	0xbb29feaa	-0.0025939145
6	0x3d738580	0.059453487
7	0xbdfff0e9	-0.12497122
8	0xbc2e9eee	-0.010658009
9	0x3b142823	0.002260693
10	0x3e1b38d7	0.15158401
11	0xbdbd8ae2	-0.092550054
12	0x3d98a08b	0.07452496
13	0x3e00d96d	0.12582941
14	0xbc128c37	-0.008944563
15	0xbcf1558a	-0.029459734
16	0xbdd1a77b	-0.102370225
17	0x3dfe3954	0.12413278
18	0x3e12460d	0.14284535
19	0xbbb960d5	-0.005657295
20	0xbde5ceee	-0.11221109
21	0x3d0dd658	0.034628242
22	0xbdba417b	-0.09094521
23	0x3de752c8	0.11295086
24	0xbdd66fe6	-0.10470562
25	0x3dac9fa4	0.084288865
26	0x3df726ca	0.12067945
27	0x3d2f2d8e	0.042768054
28	0xbdf6db1b	-0.1205351
29	0x3da8edcf	0.082484834
30	0xbc553436	-0.013012936
31	0x3e0dfcf0	0.13866019
32	0x3db805d8	0.089854896
33	0x3d1a553d	0.037678946
34	0xbd12d00d	-0.035842944
35	0x3dac37d4	0.08409086
36	0x3dc79413	0.0974504
37	0x3d8b4b17	0.068014316
38	0xbd6e261b	-0.05814181
39	0xbdd92c30	-0.10604131
40	0x3c3fec9d	0.011714128
41	0xbe108fd8	-0.14117372
42	0x3db6b182	0.08920576
43	0x3db48288	0.08813959
44	0xbd95b806	-0.0731049
45	0xbe157d2f	-0.14598535
46	0xbe109934	-0.14120942
47	0xbe039c91	-0.12852694
48	0x3dee91bb	0.1164889
49	0x3e11d739	0.14242257
50	0x3db36c85	0.08760933
51	0x3b1b2d5a	0.0023678155
52	0x3d889dbd	0.06670711
53	0xbe1212ef	-0.14265035
54	0xbe0c011a	-0.13672295
55	0xbd3de105	-0.046357173
56	0x3c8b12e9	0.01697679
57	0x3d0a8920	0.03382218
58	0xbda3c32d	-0.07996211
59	0x3e0af85d	0.13571306
60	0x3d0952f3	0.033526372
61	0x3b142809	0.002260687
62	0x3ded5d25	0.115900315
63	0xbc86fc2f	-0.016477672
64	0xbd17644a	-0.036960877
65	0x3d1474c1	0.036244158
66	0x3dd969c1	0.10615874
67	0xbd49a108	-0.049225837
68	0x3da65782	0.081221595
69	0xbd8bf104	-0.068330795
70	0x3dff7d91	0.12475122
71	0xbdf16f3c	-0.117887944
72	0xbe1ee088	-0.1551534
73	0x3c9fa739	0.019488918
74	0xbdcdf6cd	-0.10056839
75	0xbb8efaeb	-0.004363408
76	0x3da410b9	0.08011002
77	0x3db7f5a9	0.08982403
78	0x3df085de	0.11744283
79	0x3c382d18	0.01124122
80	0x3e13fd5b	0.14452116
81	0x3dae1c15	0.0850145
82	0xbdf2a314	-0.11847511
83	0xbd82d280	-0.06387806
84	0x3e09dc81	0.13463022
85	0x3db89803	0.09013369
86	0x3e1baa39	0.15201654
87	0x3d38a290	0.045076907
88	0x3be4d683	0.0069835796
89	0xbd8df87e	-0.06932162
90	0xbdc13826	-0.094345376
91	0x3d1ed48c	0.03877692
92	0x3a926253	0.0011168219
93	0xbe18fc54	-0.14940006
94	0xbbc6c5ef	-0.006066076
95	0xbc1115ce	-0.008855296
96	0xbca86c8e	-0.020559575
97	0xbc3e04b7	-0.011597804
98	0x3d13d2b1	0.036089603
99	0x3dd7a61d	0.105297305
100	0xbc47804c	-0.012176584
101	0x3d3cc4b9	0.046086047
102	0x3d9b994f	0.07597601
103	0xbd31fe18	-0.043455213
104	0x3d9e8f25	0.077421464
105	0x3b4c4062	0.0031166305
106	0x3d6fc884	0.058540836
107	0x3dc06fa3	0.09396293
108	0x3ceab281	0.02864957
109	0x3d1d4c46	0.03840282
110	0xbd638c85	-0.05555393
111	0xbdb5ff4c	-0.08886585
112	0x3dccbe89	0.09997279
113	0x3d96b184	0.07358077
114	0x3db8dcdd	0.09026501
115	0x3daf85ad	0.085704185
116	0x3d5e7637	0.054311957
117	0xb9b253cd	-0.00034013242
118	0x3e138574	0.14406377
119	0x3dd3211b	0.10309049
120	0xbd82600f	-0.06365978
121	0xbe16ef5c	-0.14739746
122	0x3ce3c97c	0.027806036
123	0x3d4b5fcc	0.049651906
124	0x3cb2813c	0.02179014
125	0x3d676bc8	0.056499273
126	0xbe1aea5e	-0.15128466
127	0x3d9a9ce4	0.07549456
128	0xbd4d186d	-0.050072122
129	0x3dd1ffd1	0.10253871
130	0xbd84728d	-0.06467161
131	0xbcd3f317	-0.02587275
132	0x3e01aa9a	0.12662736
133	0x3db241b2	0.08703937
134	0x3e1a2f33	0.15057068
135	0x3b78c6b0	0.0037960224
136	0xbcee2022	-0.029068056
137	0xbdf79122	-0.12088229
138	0xbe137f4d	-0.1440403
139	0x3d25a5eb	0.040441435
140	0xbd6fd094	-0.058548525
141	0x3e1898b7	0.14902006
142	0xbdf9a4d3	-0.12189641
143	0xbd9ea354	-0.07745996
144	0x3d4b6815	0.049659807
145	0x3a5b64f8	0.00083692325
146	0xbd4db12b	-0.05021779
147	0xbd04f34d	-0.032458592
148	0x3da2a27f	0.0794115
149	0x388cc2df	6.712018e-05
150	0x3df9e553	0.12201943
151	0xbdfe9513	-0.124307774
152	0xbdb33687	-0.08750635
153	0x3c90c0f7	0.017670138
154	0x3d7c12bd	0.061541308
155	0xbd75419c	-0.059877023
156	0xbe173e11	-0.1476977
157	0x3e023407	0.1271516
158	0xbc59ab3b	-0.013285453
159	0xbd38e538	-0.045140475
160	0xbd651c10	-0.055934966
161	0xbdd78b7a	-0.1052465
162	0x3de44adb	0.1114709
163	0x3d70e425	0.058811326
164	0x3dcdc800	0.100479126
165	0x3cacac6c	0.02107831
166	0x3de17679	0.11008925
167	0x3db5941a	0.08866139
168	0xbdaec18e	-0.085330114
169	0xbd90618d	-0.07049856
170	0xbe174620	-0.14772844
171	0x3d949fb8	0.072570264
172	0xbdc2cd96	-0.09511869
173	0x3dc1ac21	0.09456659
174	0x3e036fcc	0.12835616
175	0x3dd0e978	0.10200781
176	0x3df7c60b	0.120983206
177	0xbd71d4f8	-0.059040993
178	0x3d2203f1	0.03955454
179	0x3dd51f89	0.104064055
180	0x3c168e1a	0.009189153
181	0xbe1b978d	-0.15194531
182	0xbdad7add	-0.084707
183	0xbdda4018	-0.10656756
184	0x3ce3c9ae	0.02780613
185	0x3e1714ec	0.14754075
186	0xbc2c8697	-0.010530136
187	0x3e190263	0.14942317
188	0xbdc0ce23	-0.094143175
189	0xbe1b3fee	-0.15161106
190	0xbb8d43d9	-0.0043110666
191	0x3c4993e5	0.012303327
192	0xbd72da94	-0.059290484
193	0xbc916feb	-0.017753562
194	0xbe110f05	-0.14165886
195	0xbda73c39	-0.081657834
196	0xbd183a59	-0.03716502
197	0x3c8fd634	0.017558195
198	0x3c83599e	0.016033944
199	0xbe1879b8	-0.14890182
200	0x3db32e9f	0.08749127
201	0x3cf7f02b	0.030265888
202	0x3de1fd77	0.11034673
203	0xbe02d34a	-0.12775913
204	0x3d195944	0.037438646
205	0x3da9f268	0.082981884
206	0xbca3d0ba	-0.01999699
207	0x3df1f9b6	0.11815207
208	0x3de4e58d	0.11176596
209	0xbd9bab73	-0.07601061
210	0x3d218e91	0.039442603
211	0xbd8eac9f	-0.069665186
212	0x3c5261d2	0.012840705
213	0x3cee9a1d	0.029126221
214	0x3d722a4a	0.05912236
215	0x3e07393e	0.1320543
216	0xbdcdf230	-0.10055959
217	0x3deba468	0.115059674
218	0x3de6bb52	0.11266197
219	0x3e1bc65c	0.15212387
220	0xbd5bc37a	-0.053653218
221	0xbdcf0129	-0.10107643
222	0x3d7e0e58	0.062025398
223	0xbd22d471	-0.03975338
224	0x3e0a24b1	0.13490559
225	0xbd0e0e29	-0.034681473
226	0xbdc9a8f6	-0.0984668
227	0xbd929f31	-0.071592696
228	0x3e1b7a5f	0.151834
229	0xbe095fab	-0.134154
230	0x3bf342e1	0.007423744
231	0x3dfbf59a	0.12302704
232	0x3c9d1458	0.01917474
233	0x3e159fd6	0.14611754
234	0x3dd9e3d3	0.10639157
235	0xbca4a074	-0.020096041
236	0x3d44d3eb	0.048053663
237	0x3dd98fab	0.106231056
238	0xbdbc9848	-0.09208733
239	0x3c0e72cb	0.008694361
240	0xbdfe61f8	-0.1242103
241	0xbdc55bfd	-0.09636686
242	0xbd75dba0	-0.060023904
243	0xbcdebd7a	-0.027189959
244	0xbd38e4cf	-0.045140084
245	0xbe0fc60e	-0.14040396
246	0xbdb7ca5f	-0.08974146
247	0x3d5e11d1	0.05421621
248	0x3d8515f4	0.06498328
249	0xbd6bb4b4	-0.05754538
250	0xbcce82f6	-0.025208931
251	0x3d57cfd0	0.05268842
252	0xbdc19fd0	-0.0945431
253	0xbe0b70f5	-0.13617308
254	0xbca6b9e9	-0.02035232
255	0x3e1c00c1	0.15234663

bias f4 [128]
0	0xbc3cda18	-0.011526607
1	0xba276bb1	-0.00063865917
2	0x3ce0a39a	0.027421761
3	0xbb2118db	-0.0024581465
4	0xbadb2b8e	-0.0016721354
5	0x3a916b7b	0.0011094654
6	0xbb140a68	-0.002258921
7	0xbc2e7d25	-0.010649954
8	0x3c1892a8	0.009312309
9	0xba0691ca	-0.00051334186
10	0xb802f173	-3.1219282e-05
11	0xbc7cd01f	-0.015430479
12	0xbb0996de	-0.0020994465
13	0xbb15f11f	-0.0022879315
14	0xb7a1e790	-1.9300525e-05
15	0x3d1c2ebe	0.038130514
16	0x3caa4d4a	0.020788807
17	0xbca0645f	-0.01957911
18	0x3b417610	0.0029519834
19	0x37db1642	2.6117199e-05
20	0x3868ae8c	5.547567e-05
21	0xbc1113fe	-0.008854864
22	0x3ced20c8	0.028946295
23	0x3ba4b633	0.0050266027
24	0xbab170a0	-0.0013537593
25	0xbc51922e	-0.0127912
26	0x3b00e828	0.0019669626
27	0xb888764c	-6.50702e-05
28	0x00000000	0.0
29	0x3bdd4664	0.006752776
30	0xbc290108	-0.010315187
31	0xbb8bebfb	-0.0042700744
32	0x3b96391c	0.0045844447
33	0xbc795ed9	-0.015220367
34	0xbd00ee08	-0.031477004
35	0xbba4f416	-0.00503398
36	0x3856fc80	5.1256735e-05
37	0xba847ab4	-0.0010107369
38	0x3a82f2f0	0.0009990614
39	0x3bb00f2a	0.0053729014
40	0x00000000	0.0
41	0xbabaa920	-0.0014241077
42	0x00000000	0.0
43	0x36c26d00	5.79434e-06
44	0xbc64ce81	-0.01396525
45	0x3c320e24	0.010867629
46	0xbb2b5148	-0.0026140977
47	0xb952785e	-0.00020072001
48	0x3b80b4a4	0.003927784
49	0x3c16ce47	0.009204454
50	0x3b7cf998	0.0038600918
51	0xba4d1037	-0.00078225456
52	0x3b9c8988	0.004777137
53	0x3bb502a0	0.0055239946
54	0xbbe063fb	-0.006847856
55	0xbbb4a1c8	-0.00551245
56	0x3a435eea	0.0007452803
57	0x3ca7bc33	0.020475483
58	0x2bed9f06	1.6884001e-12
59	0xbad1482f	-0.0015966947
60	0xb9b8f949	-0.00035280947
61	0x3cd3ece8	0.025869802
62	0x38f26803	0.00011558833
63	0x3bd48e41	0.0064866845
64	0x3ca2ba23	0.019864148
65	0xba806745	-0.0009796402
66	0x3c5e394f	0.013563468
67	0x3cab8993	0.020939624
68	0xbbaa8921	-0.0052043353
69	0xb90d5cf1	-0.00013481431
70	0x3a43f5cf	0.0007475288
71	0xbbfab587	-0.0076510343
72	0x3c825959	0.015911745
73	0xba58b4cf	-0.00082666887
74	0xb986709e	-0.00025642378
75	0xbaec24ec	-0.0018016375
76	0x3ad554f8	0.0016275933
77	0x3cbacfe3	0.022804206
78	0xb90b4083	-0.00013280105
79	0x3adeaec2	0.0016989338
80	0xbc4b30ba	-0.012401754
81	0x00000000	0.0
82	0x39b0a654	0.0003369326
83	0xbbef7bea	-0.007308473
84	0x3ce0a169	0.027420716
85	0x3afe6dc1	0.0019411371
86	0x3c8f6145	0.017502436
87	0x3b189910	0.0023284592
88	0x3c3d9ef2	0.01157354
89	0x3c3f79e9	0.0116867805
90	0xbc012049	-0.007881233
91	0x3c29ffa6	0.010375893
92	0xbb242d8e	-0.0025051567
93	0xb8c217d5	-9.25508e-05
94	0xbbc66147	-0.006054077
95	0xbbcdd664	-0.006281661
96	0x3c1f89f1	0.009737478
97	0x3c0383ec	0.008027058
98	0xbc2320fe	-0.009956596
99	0xba867aba	-0.0010259964
100	0x3c297128	0.01034192
101	0xbbfe6374	-0.0077633206
102	0xbaa84274	-0.0012837187
103	0xbb2ac6ec	-0.0026058508
104	0x3d0543ee	0.032535486
105	0xb8aa5d9f	-8.12367e-05
106	0x3b20dccf	0.0024545675
107	0x3a860a2e	0.0010226422
108	0x3cecec47	0.02892126
109	0xbc16470b	-0.009172211
110	0x3bbbbab0	0.005729042
111	0xbc0f1ba6	-0.008734619
112	0xbc561611	-0.0130667845
113	0x00000000	0.0
114	0xbbff7314	-0.007795701
115	0x37132734	8.7710105e-06
116	0x00000000	0.0
117	0xbbe8475f	-0.007088586
118	0x3c0ddcd2	0.008658605
119	0xba59479d	-0.0008288564
120	0x3a3f4077	0.0007295678
121	0x3cb3fe3c	0.021971814
122	0xb9abb482	-0.0003275015
123	0x3a6174e6	0.0008600488
124	0x00000000	0.0
125	0xb956f64c	-0.00020500383
126	0xbb431bdc	-0.0029771244
127	0xbaea0827	-0.0017855213

weight f4 [128, 128]
0	0x3e0715e5	0.13191946
1	0x3df93486	0.12168221
2	0xbdeb4ffa	-0.11489864
3	0x3db298a8	0.08720523
4	0x3d0ad5c6	0.033895276
5	0xbd9836e8	-0.074323475
6	0x3d8e05e7	0.069347195
7	0x3d18399f	0.037164327
8	0x3ab1e7fa	0.0013573163
9	0x3d0358d1	0.032067124
10	0x3e15fccb	0.14647214
11	0xbe12403e	-0.14282319
12	0x3cd0a1a2	0.025467698
13	0x3d177706	0.036978744
14	0xbda35e15	-0.07976929
15	0xbd9260e6	-0.07147388
16	0x3d1e6af1	0.038676206
17	0x3dabae49	0.08382852
18	0xbdad9170	-0.084750056
19	0x3e143e8e	0.14476988
20	0x3d9de77b	0.07710167
21	0xbd22d55c	-0.039754257
22	0xbd01b617	-0.031667795
23	0xbdc1cbba	-0.09462686
24	0xbb49c8fc	-0.0030789962
25	0x3e197f74	0.14990026
26	0x3dc762d8	0.0973565
27	0xbdd93aac	-0.10606894
28	0xbd144ebb	-0.036207896
29	0x3d6a0305	0.057131786
30	0x3e1826ca	0.14858547
31	0x3dd59785	0.10429291
32	0xbd1b0e80	-0.037855625
33	0x3df0f5a0	0.11765599
34	0x3c88f7a5	0.016719649
35	0x3d13af74	0.036055997
36	0x3c809139	0.015694248
37	0x3d9cbb5c	0.076529235
38	0x3d2ed4bc	0.042683348
39	0x3da83c12	0.082145825
40	0xbd28c598	-0.041204065
41	0xbc0acc25	-0.008471523
42	0x3db34b5b	0.08754607
43	0xbe162677	-0.1466311
44	0xbd7b6118	-0.061371893
45	0x3d921b1e	0.071340784
46	0x3d04cae6	0.03242006
47	0x3d0bd6d1	0.03414041
48	0xbdaf0f35	-0.085478224
49	0x3da1f1e7	0.07907467
50	0xbcd210f1	-0.025642844
51	0xbe03350c	-0.12813205
52	0xbd89bc0d	-0.06725321
53	0xbd915c38	-0.070976675
54	0xbd15e2f9	-0.03659341
55	0xbe11f1e2	-0.14252427
56	0xbd96645d	-0.073433615
57	0xbd7a6c87	-0.061138656
58	0xbd4922f9	-0.04910562
59	0xbddff1b0	-0.1093477
60	0x3e14e5c7	0.14540778
61	0xbce6469c	-0.028109841
62	0x3d623469	0.055225763
63	0xbd99da18	-0.07512301
64	0xbdab8428	-0.08374816
65	0x3cdb0238	0.026734456
66	0x3de104cc	0.10987243
67	0xbdbaf0eb	-0.09127983
68	0x3d6a755c	0.05724083
69	0x3dc0a407	0.09406286
70	0xbb6fc6fe	-0.0036587114
71	0x3cb79779	0.022411095
72	0x3c394207	0.011307246
73	0xbe0b9247	-0.13630019
74	0xbe13a632	-0.14418867
75	0xbe0cfa17	-0.13767277
76	0xbddacc55	-0.106835045
77	0xbb30e00b	-0.0026989009
78	0x3dd66c68	0.104698956
79	0xbddc690f	-0.10762226
80	0xbe0ec81a	-0.1394352
81	0x3d3749f3	0.044748258
82	0xbd9d984e	-0.076950654
83	0x3d3e6450	0.046482384
84	0x3d5b12bc	0.053484663
85	0x3d8013ca	0.062537745
86	0xbdc8aece	-0.09798966
87	0xbdc20cf5	-0.094751276
88	0x3cc4a710	0.024005443
89	0x3d58a906	0.05289557
90	0xbbf75e82	-0.007549108
91	0xbdef23dc	-0.116767615
92	0xbd192e44	-0.037397638
93	0xbdd57f50	-0.104246736
94	0x3d9e50f9	0.07730288
95	0x3df0c292	0.11755861
96	0x3ddeb8c9	0.10875089
97	0xbda9eba6	-0.082968995
98	0x3e0d8786	0.1382123
99	0xbd82ae0f	-0.06380855
100	0xbdd84ef7	-0.10561936
101	0xbd0b26e4	-0.033972636
102	0xbe172b4f	-0.14762615
103	0x3cd0486b	0.025425157
104	0xbd9ff19d	-0.07809756
105	0xbe1640be	-0.14673135
106	0x3ce97847	0.028499736
107	0x3e0c587c	0.13705629
108	0xbdd8c4f4	-0.10584441
109	0xbd32a474	-0.043613866
110	0x3d066c9d	0.032818425
111	0xbd1f11c1	-0.03883529
112	0xbd1b5a48	-0.037927896
113	0xbdae15a8	-0.08500224
114	0xbcb085fd	-0.021548266
115	0xbe0cc032	-0.13745192
116	0xbdcb274f	-0.09919607
117	0x3d0321e5	0.032014746
118	0xbd8e7936	-0.06956713
119	0x3d831be5	0.06401805
120	0xbdde2238	-0.108463705
121	0x3cabb354	0.020959534
122	0xbd1d48ca	-0.038399495
123	0xbdd317a6	-0.10307245
124	0x3dc80a89	0.097676344
125	0xbd583ec7	-0.052794244
126	0x3ce9b1ce	0.028527167
127	0x3a400e29	0.0007326329
128	0xbe1684ed	-0.14699145
129	0xbd92543e	-0.07144974
130	0x3e0db4c0	0.13838482
131	0xbd833291	-0.06406129
132	0xbdd6580b	-0.104660116
133	0x3d3bdf2d	0.045867134
134	0xbd8efc6f	-0.06981742
135	0xbdecd741	-0.11564494
136	0xbd2f3d54	-0.042783096
137	0xbde73223	-0.1128886
138	0x398c0787	0.0002670849
139	0xbc716620	-0.014733821
140	0x3d81fe09	0.063472815
141	0x3da30899	0.07960624
142	0x3dec490e	0.115373716
143	0x3e1ee234	0.15515977
144	0xbd9efc57	-0.07762974
145	0xbd59a0d0	-0.05313188
146	0x3bef2462	0.0072980383
147	0xbc71dfa5	-0.014762794
148	0xbdb6e9c9	-0.0893131
149	0xbdee4cac	-0.11635718
150	0x3d96affe	0.073577866
151	0x3db1163a	0.086468175
152	0xbd925e72	-0.0714692
153	0x3c995168	0.018715575
154	0xbdd85411	-0.105629094
155	0xbe15e917	-0.14639698
156	0xbd4406d5	-0.047858078
157	0xbd90923a	-0.070591405
158	0x3d4a816f	0.049439844
159	0xbbc48586	-0.0059973625
160	0x3cebcf62	0.028785411
161	0xbdf64468	-0.12024766
162	0x3e1e2942	0.15445426
163	0xbdd5dfca	-0.10443075
164	0xbdb45ab4	-0.08806363
165	0xbe164039	-0.14672936
166	0x3de851d8	0.113437355
167	0xbd4226b9	-0.04740021
168	0xbde70eee	-0.112821445
169	0x3d93ab3a	0.07210393
170	0x3dabf0ec	0.083955616
171	0xbd0f4840	-0.034981012
172	0xbe0ba1dc	-0.13635963
173	0x3ded5f03	0.11590388
174	0x3e0d4886	0.13797197
175	0x3cca402f	0.024688808
176	0x3d78afe8	0.060714632
177	0x3ded5025	0.11587552
178	0xbd3a59ed	-0.045495916
179	0xbc89dddb	-0.016829422
180	0xbd4d6c6a	-0.05015222
181	0xbd0845f8	-0.033269852
182	0xbdca6bff	-0.0988388
183	0xbdcb31e5	-0.09921626
184	0xbd5cb830	-0.053886592
185	0x3dac5057	0.08413761
186	0x3da38702	0.07984735
187	0xbdf5e94b	-0.12007388
188	0xbc021133	-0.007938671
189	0x3db05a37	0.08610957
190	0x3dd3a82e	0.10334812
191	0x3d58e53b	0.052952986
192	0xbda68fbc	-0.08132884
193	0x3d9bbe55	0.07604662
194	0x3b81c7f9	0.003960606
195	0xbdf3f153	-0.11911263
196	0x3c18ff2b	0.009338181
197	0xb95f9f83	-0.0002132636
198	0x3d0dea39	0.0346472
199	0xbd9d92ad	-0.07693992
200	0xbd8fe6da	-0.07026453
201	0x3b543ba4	0.0032384181
202	0x3d84f39e	0.06491779
203	0x3d8d1d45	0.06890348
204	0xbcf51889	-0.029918926
205	0xbc1b817b	-0.00949132
206	0xbca84a01	-0.0205431
207	0x3e0b9501	0.13631059
208	0xbc873cea	-0.016508538
209	0xbe130ca4	-0.14360291
210	0xbced16ec	-0.028941594
211	0x3c991b89	0.018689888
212	0xbd96998e	-0.07353507
213	0xbcb98e70	-0.022650927
214	0x3e086411	0.13319422
215	0x3dec085b	0.11525031
216	0x3da5b88b	0.080918394
217	0x3db500ab	0.08838018
218	0x3dc66e28	0.096889794
219	0xbcfafcb5	-0.030638078
220	0xbdc05308	-0.09390837
221	0x3d539f5f	0.05166566
222	0xbe19998e	-0.14999983
223	0x3df80d5f	0.12111925
224	0xbd76ef2d	-0.06028669
225	0x3dc86228	0.09784347
226	0x3ccf78fa	0.02532624
227	0x3da2c949	0.07948548
228	0xbd49c66c	-0.049261495
229	0xbc13e65a	-0.009027088
230	0xbc4873aa	-0.012234608
231	0x3dd0ce98	0.10195655
232	0x3d24597c	0.0401244
233	0xbc69f9db	-0.014280762
234	0xbd2b0401	-0.041751865
235	0x3e1f0553	0.15529375
236	0xbceb9717	-0.028758569
237	0x3ddc6b51	0.107626565
238	0xbd0ab33e	-0.033862345
239	0xbe0617b3	-0.13094978
240	0x3d139a87	0.03603604
241	0x3d3ea4f5	0.046544034
242	0xbdd63313	-0.104589604
243	0xbde180d6	-0.11010902
244	0x3cfe1a7d	0.03101849
245	0xbd52bc76	-0.05144926
246	0xbb3d8966	-0.0028921007
247	0xbe0c4baa	-0.13700739
248	0xba5b7076	-0.0008370945
249	0x3e02bf70	0.1276834
250	0x3cb696bc	0.022288673
251	0x3d1e6d13	0.03867824
252	0x3c610f86	0.013736611
253	0x3ddee45c	0.108834
254	0xbd76c8a4	-0.06024994
255	0x3db07b82	0.08617307
