MAMRL-TE/Dynamic environments/Baselines/Random/ATT/task2/savemodels/policy13.pth (torch, 275867 bytes, 12 tensors)

weight f4 [128, 7]
00000000: fb42 31be ef7f bb3d e31b 0b3e 498c 5abd
00000010: b232 89bc 70c1 5b3e 5038 093e 9ced c83e
00000020: 47a3 53be e4f9 423d 5b30 02be 3e4a 543d
00000030: 2864 083d 3ec0 f73d bafd 03be 4987 833e
00000040: b296 1dbd 6055 edbd ae3b 36be 7a8a 513d
00000050: 181b 2c3e 96e6 b93e 1c18 3fbe 75d0 873d
00000060: 068e b0bc bf15 373e 7fcd 3d3c fd0e be3d
00000070: 3c3c 37be 13f4 9f3d 9f8a 853d f13e 3bbe
00000080: f12f 163e 2a6c ecbd 72df 0d3e 4646 84be
00000090: 143e 0f3e 871b a9bc 904b 51bd 2726 493e
000000a0: e23f c23d 1718 843e 67b1 43bd 1909 4e3e
000000b0: 4f5e 493d d657 153c 922a 2e3e fb95 3fbe
000000c0: 7436 24be a7eb 74bc 2a56 b7bd 8c3a 283d
000000d0: cc15 4ebd eaee 203e db83 47be 2609 a13d
000000e0: fc8b 1abe 701f a2bd 6ef6 1d3e d572 e03d
000000f0: 8ef3 6d3e c2ff 6ebd 055d 953d 4075 f03d
00000100: aa54 3a3d deaa e83d cc59 febd 2e77 01be
00000110: ab08 8bbd 55bf 2d3c 13da 43be 53ee 6f3e
00000120: dba6 2f3e 0bf7 13be 1440 49be 783d c83c
00000130: 05b2 c0bc b9a6 cc3e fc49 203e 2142 27be
00000140: bd4e 533d b103 1ebd d7f2 803e 1608 153e
00000150: 5c22 16be 991d 67bd 5e88 1e3e 85c2 0a3b
00000160: f962 99bd 9b36 2e3e 0d97 933c fb1b a93d
00000170: 7925 943e 2dab 1d3e 3df8 133e a865 5ebe
00000180: 1caf 433e 08d7 60be cb3f e1bc 4378 863e
00000190: ac42 33be 0de0 3fbd fad5 1abe 22ec 1e3d
000001a0: c567 15bd 39fa 6a3d 686c 313d 0009 09be
000001b0: 91d5 a73d 6312 bfbd 5e1b cd3c 21d0 233d
000001c0: d0b6 27be 6588 3b3d 816b 03be bc79 ffbd
000001d0: b713 ecbc 6f39 7dbc 77a4 55be c31e a5bd
000001e0: aa20 753d e977 1fbd 825c 9e3d 130a fb3d
000001f0: 9178 0cbd ef75 85bd 448d f33a 2226 26be
00000200: 0e6f 24bc a6d9 033e 1add e0bc edb7 edbd
00000210: 49ba debd ccac 5ebc a52c 4dbd 51c3 e9bc
00000220: b343 29be 23a0 00be e2d7 38be 9861 883d
00000230: 4d44 363d 66a8 8f3e acdc 243e 735e e93d
00000240: 3b1b 12bd 03b5 4ebd d168 fe3d 4bd2 79bd
00000250: 7219 d1bd d904 4d3d 5874 503e aacf 09be
00000260: 34b4 e43d be69 173e 4220 57be 1b73 c6bd
00000270: 49ce 25be ae09 00be da31 5e3d 1042 a43d
00000280: 9807 77bc 2093 33bd 8543 23be 4fd5 17be
00000290: fa8b 413e 7ca4 3ebd d764 483e 749e e3bd
000002a0: 87ea 6d3e 691f fd3d 7800 843d 34ae 303e
000002b0: 521b 823d 4810 ac3d aeb4 0e3e 6e30 49be
000002c0: 4cbd 84bd 17d6 05be 1e35 e63d 075a 073e
000002d0: 29ed 2ebe cc81 05be 033a c03e cb22 163e
000002e0: d5de c43b 7c32 913d a0ed 9d3e 5519 413d
000002f0: 41a0 acbd a790 a8bc 6758 45be 2df4 59bc
00000300: 2b9b e4bd 5367 57be 8025 2dbe 2c6e 34be
00000310: 7c6e babd 2782 eb3d 66ce 06be 0f2b a9bc
00000320: 310c 393e 3827 443e 1bce f73d ce5a 35bd
00000330: 79de f6bd e529 36bd d3e7 0bbe 09cc 1b3e
00000340: 09b5 2fbe ec7c 0cbb cf3e 22bd 98aa 693d
00000350: 047b c3bd 5a9c 95bb 0032 c5bd 46ba 1ebe
00000360: 4660 3b3e bdd9 863d 4b02 28bd e0c1 44bc
00000370: 1045 363e c1d4 453e e3d0 1ebe 821f 523e
00000380: 64ac 26be f638 2a3e 1c8b 9f3d 8e40 72bc
00000390: 1bbc ce3e 0e12 94bd 88b8 763e fc2e 55bd
000003a0: 6530 023e f4d7 363e a351 dbbc db49 653c
000003b0: c2cd a53d a28e eebd 636d 153e 491f b83d
000003c0: 3376 0a3c 886a acbb 893e ffbd 1a5a 3abe
000003d0: bb8b cb3d 4e9f 31be b8b2 b1bd fdd2 08be
000003e0: ea5a 6c3e cb19 863e cf43 ce3d 31fd 8d3c
000003f0: ba17 17be 6740 cebd 21ab 873e 5deb 3e3e
-0.17310707 0.09155261 0.13584857 -0.053356443 -0.016747806 0.2146051 0.13400388 0.39243782
-0.20667754 0.047601596 -0.12713759 0.051828615 0.03329864 0.12097214 -0.12889758 0.25689152
-0.038473792 -0.115885496 -0.17796203 0.051157452 0.1680721 0.36308736 -0.18661541 0.06631557
-0.021552097 0.17879389 0.011584639 0.092802025 -0.17894071 0.07810225 0.065205805 -0.18285729
0.14666726 -0.11544068 0.13854769 -0.25834864 0.13988525 -0.020643009 -0.051097453 0.1964346
0.09484841 0.2579963 -0.047776606 0.20120658 0.049162205 0.00911518 0.17008427 -0.18709557
-0.16036397 -0.014948762 -0.08951981 0.04107146 -0.050313756 0.15716138 -0.19483893 0.07863073
-0.15092462 -0.079161525 0.15426037 0.109594025 0.2323744 -0.05834938 0.07293133 0.11741114
0.0454909 0.11360715 -0.12419471 -0.1264312 -0.06788763 0.010604699 -0.19126157 0.23430757
0.17153494 -0.14449708 -0.1965335 0.024443373 -0.023522386 0.3997095 0.15653223 -0.1633382
0.051588763 -0.03857774 0.25185272 0.14553866 -0.14661545 -0.05642471 0.15481707 0.0021173072
-0.07489581 0.17013018 0.018016363 0.0825729 0.2893484 0.1539733 0.14450164 -0.21718466
0.19109768 -0.21957028 -0.02749624 0.26263627 -0.17505902 -0.04684453 -0.15120688 0.038799413
-0.036475915 0.057367537 0.043316275 -0.1338234 0.081950314 -0.09329679 0.025037464 0.03999341
-0.16378331 0.045784373 -0.12833978 -0.12474391 -0.028817995 -0.015455588 -0.2086352 -0.08062508
0.059845604 -0.038932715 0.07732488 0.12257781 -0.03429467 -0.06516635 0.0018581529 -0.16225484
-0.010036243 0.12875995 -0.02744918 -0.11607347 -0.10875375 -0.013591003 -0.050091404 -0.028535517
-0.16529731 -0.12561087 -0.18051103 0.066592395 0.04449873 0.28058165 0.16099805 0.11394968
-0.0356705 -0.050465595 0.12422336 -0.060991567 -0.102099314 0.05005345 0.20356882 -0.13458124
0.111671835 0.14786431 -0.21008399 -0.096899234 -0.16191973 -0.12503693 0.05424676 0.08020413
-0.015077494 -0.04384148 -0.15943725 -0.14827465 0.18901053 -0.046543583 0.19569717 -0.11114207
0.23233996 0.12359507 0.06445402 0.17253953 0.06352867 0.08401543 0.13936111 -0.1964738
-0.06481418 -0.1306995 0.112406 0.13217936 -0.17082657 -0.13037795 0.3754426 0.1466171
0.006008009 0.07089707 0.30845356 0.0471433 -0.084290035 -0.020576788 -0.19272004 -0.013302845
-0.111624084 -0.21035509 -0.16908836 -0.17620152 -0.091031045 0.11499434 -0.13164672 -0.020650415
0.18071057 0.19155586 0.120998584 -0.04427605 -0.12054152 -0.044473547 -0.13662653 0.15214552
-0.17158903 -0.0021436764 -0.03961068 0.057047457 -0.09544948 -0.0045657577 -0.09628677 -0.15500745
0.18298444 0.06584499 -0.04101781 -0.012009114 0.17799783 0.1931944 -0.15509371 0.20519832
-0.162767 0.16623291 0.07790205 -0.014785899 0.40377888 -0.07230006 0.2409383 -0.05204676
0.12713774 0.17855817 -0.026772326 0.013994659 0.08095886 -0.11648299 0.14592509 0.08990342
0.008451032 -0.005261723 -0.124630995 -0.18198434 0.09938761 -0.17345926 -0.08676666 -0.13361736
0.23081556 0.26191553 0.10071527 0.017332645 -0.14755145 -0.100708775 0.26497748 0.18644471

bias f4 [128]
00000000: 3540 7f3c 9af2 85bb c586 473c c374 133b
00000010: 2b9d dfb9 0dc6 9abb 5f27 fd3b 5533 1c3b
00000020: 1c94 553c 4072 4b3a 6827 e33b a755 8abb
00000030: 7c55 2e3b 30eb ea3c 02f0 9f3c 3eb4 f239
00000040: d09c 44bc 3ec3 87bc 4be2 19bb 634c b1ba
00000050: 09a8 9f3c b484 ea3b 28d3 243b 8414 81bb
00000060: fe67 393b 4b39 923b 3dbb 0fbc 0000 0000
00000070: 3e24 22ba 62ae 9fbb 6250 60ba e03c 253c
00000080: 54ae 12bc 3561 5c3c 58e2 673b 2124 4a3c
00000090: 528f 50ba a764 29bb cfeb 6cbc e55e aa3c
000000a0: 6226 a5ba 46fc d63b 3770 90b9 038b e3bb
000000b0: 2b9b 59bb f6c9 b5ba 00df 483c e314 8fbb
000000c0: 7972 e2bb 8345 c4bb 0f94 6ebb b39b f0ba
000000d0: f3e1 12bc 129c 57bb 2fc2 1dbc 1ca0 a73a
000000e0: 2b50 5ebb 1702 923b ca96 253c 4604 733b
000000f0: e5bb 3abc a334 d53a f55e 283b 314c 853b
00000100: 6bf1 c7ba f0ca 84bb 378e a73b 3eed a6bb
00000110: a1ca e23b 4ffa 6e3c bcf2 69bb 835a dc3c
00000120: bfb4 dc3a 962b 4c3c 703e 13bb 500e db3b
00000130: bc65 61bc 4dc2 2eba b0dc 16bc 2e92 edba
00000140: 09d1 c43a d472 da39 5562 d5bc 098a 733a
00000150: 7311 c039 e50c 1fbc 7052 58bb 2444 733c
00000160: 49ef c8bb 2ed2 bab7 4298 b73a 263f d3b9
00000170: 0000 0000 8abf 0f3c e150 d03c 48ad 423c
00000180: 7b21 973a 5776 7e3b ed30 023b 8879 8a3b
00000190: dcfb a23b 08b5 033d 2e20 53b8 fa01 e8b9
000001a0: ae42 b23b d4ce 4cbb d826 97ba b0cf 9c3b
000001b0: d909 2c3b 873a ad3c 4abc bbbb 79aa 183b
000001c0: a322 893c 88f8 50bc 9ee5 85bc c320 3839
000001d0: f2bc 203c 601d cd3b ecd7 8dbb 4e04 12bb
000001e0: 7480 943b d2db 0cbc 4b10 fa3a 221b 193c
000001f0: feb9 04bc 6850 7b3b 5886 ccb9 0000 0000
0.015579273 -0.0040877583 0.012178128 0.0022500015 -0.00042650974 -0.0047233165 0.0077256407 0.0023834307
0.0130358 0.000776086 0.006932188 -0.0042216363 0.0026601246 0.0286766 0.019523624 0.00046292128
-0.012000278 -0.01657259 -0.0023480828 -0.0013526793 0.019489305 0.0071569327 0.0025150273 -0.003939213
0.0028290744 0.0044623963 -0.008772668 0.0 -0.000618521 -0.004873083 -0.00085569 0.0100853145
-0.008952696 0.01345091 0.0035382714 0.012337715 -0.00079559267 -0.0025847347 -0.014460518 0.020797202
-0.001259994 0.006560835 -0.00027549427 -0.0069440617 -0.003320406 -0.0013869393 0.012260199 -0.0043665036
-0.006910619 -0.0059897318 -0.0036404168 -0.0018356949 -0.008965003 -0.0032899422 -0.0096288165 0.0012788805
-0.0033922296 0.0044558155 0.010106752 0.0037081405 -0.011397337 0.0016266297 0.0025691364 0.0040679206
-0.0015254443 -0.0040525123 0.005113389 -0.0050941994 0.006921128 0.014586045 -0.003569766 0.026898628
0.0016838535 0.012461564 -0.0022467636 0.006685056 -0.0137571655 -0.00066665263 -0.009207889 -0.001812523
0.0015015911 0.00041665754 -0.026047865 0.0009290283 0.00036634094 -0.009707664 -0.003300812 0.014847789
-0.0061320406 -2.22708e-05 0.0014007168 -0.00040292105 0.0 0.008773694 0.025429191 0.011882134
0.0011530364 0.003882786 0.0019865588 0.0042259134 0.0049738716 0.032155067 -5.033629e-05 -0.0004425196
0.0054400777 -0.003125121 -0.0011531962 0.0047855005 0.0026250987 0.021146072 -0.005729233 0.002329497
0.016740149 -0.012754567 -0.016344842 0.00017559812 0.009810673 0.0062596053 -0.0043287184 -0.0022280398
0.0045319144 -0.008597331 0.0019078342 0.009344848 -0.008100985 0.0038347486 -0.00039010006 0.0

weight f4 [128, 128]
00000000: 9c7a 04be 2a1d 6b3b be69 e53d 4a02 3a3e
00000010: 7fab 1eba 7ebc 33bc c630 dfbd 4760 6b3d
00000020: afc0 f53b 822d 8cbc 1f74 1dbe 0730 af3d
00000030: 2527 9d3d ffb8 e6bd dd83 533c b2dd 2b3d
00000040: 668f e33d e7ac 893d f577 a2bd 1d3e c43d
00000050: 0a51 d3bd cc34 e53c e8f1 7c3d 3247 2a3d
00000060: fcaa 1e3b c610 c63c e670 96bd 5507 15be
00000070: fabd dd3d b7a2 87bd e1e1 d1bd d74e f93d
00000080: 29c3 f93d 852f ccbd e9a7 963c 87ab ba3a
00000090: 66e2 b0bb c8db 1d3e b08d 963d d47f e4b8
000000a0: 2ec2 03be 2e5a 43bd fc88 e23d 58ce db3d
000000b0: 01a8 74bd 9dcf 713d 3161 40bd 788e 06be
000000c0: 6c25 3b3e 37ec 1a3e 3ea2 73bd 89d2 f03c
000000d0: 66fd 123e 30ec 13be 6c42 403d eb97 c8bd
000000e0: 3321 b43d 4d27 273e 4710 e73d 6f17 c6bc
000000f0: 6e3b 8c3d 2d09 bb3d ea5b e73d d230 493b
00000100: bafa 363e 2fb8 ca3d 5e64 d8bd cb9e 373e
00000110: a4b5 e7bd 427b cfbd 0c2c 163e 75e4 f43d
00000120: 88fc c0bd 7032 003d 6919 e9bc 7f55 3f3d
00000130: 149c 503e 98e0 273e 2829 023d 128a 0ebe
00000140: acd2 0fbe 3d15 873d 13d7 283e ef99 233d
00000150: b43c b6bb 9c0a d93d 6644 cf3d a4c3 40bd
00000160: d24a 7dbc 0dc2 9abd afdd cd3d ebe7 cdbd
00000170: 71ea 90bd dce2 2d3d 7d13 c9bd bec7 9b3d
00000180: aee1 253e 3e12 2e3e 0780 183c 743a e6bd
00000190: f898 81bc 5856 ddbc 1b74 2d3d ef06 12bd
000001a0: 4dd7 843b 4621 0f3e 6fa7 823d b892 143d
000001b0: e15d b8bd 9de0 a7bc 0f79 843c 8e6e 423e
000001c0: 890c 00be 241a 183e 8a65 04be 60bc a43d
000001d0: ec5c 3b3e d513 ecbd 9ef1 0f3e ae71 b53d
000001e0: 837a 2bbd 6e85 bb3d d09a 9b3d 7217 303c
000001f0: 4918 763d 10c7 4a3d 6d45 dabd 600f 113d
00000200: e4e0 4e3d d549 353d 2861 19bc 3953 d53d
00000210: 2f38 60bc 0e6c e6bd 80bf 02be 02d5 5e3d
00000220: 1b72 053e 6404 963d 799d ecbd 16fd 093e
00000230: a3ac ac3d 4a57 e9bd 0af3 e93d abcc f0bd
00000240: 587c 983d f36e 233d b828 09be 0e75 03be
00000250: fbd0 313d 89a4 463d b253 eb3c 9b6e dcbd
00000260: 2f74 233e 0ce3 41bd e493 833d c9b2 ac3d
00000270: 271c 61bd f375 e4bc 20dd c7bd a67b 95bd
00000280: fc86 17be b89d 7b3d efed 0e3e 5e9f ef3d
00000290: e356 ec3d 05f0 c9bd aed9 75bc a0f4 8fb8
000002a0: b57f 1a3e 394b 4c3c dbb6 0fbe b2f9 e03c
000002b0: 70bd 0d3c 393b 77bd ad97 14be a14a 453d
000002c0: 1703 103e 92ee cbbd ec39 da3d 7fb5 cebc
000002d0: 6444 cdbd 5813 d6bc d38f 583d c01d fbba
000002e0: 5edb 693d 2169 d33d 71aa 9c3c 03e3 093e
000002f0: 74cb 683b ae75 f0bb 65eb 48bd c775 d2bd
00000300: 3f1d 7cbd 2625 993d c6e9 2c3d b3de 503d
00000310: f737 66bb 10fb 02be 7151 8dbd 9565 c4bd
00000320: b0e5 2ebd fe49 123e f2ab 34bb d802 823d
00000330: 5722 243e e237 f43d 9087 5e3c ba37 c53d
00000340: 0e36 043d 29e1 5e3d a5ef 963d ae45 d93d
00000350: cf97 c63d 53d1 12bb a0ba 183b eb8f 20bb
00000360: 32d3 07be 21ba dd3d 2038 d63d b8de 0ebe
00000370: 189a 8cbd d730 10be 66db 0abe 6ee7 073e
00000380: 52db 403d 5d64 923d c6cb 073e dae3 01be
00000390: bcaf 743d 5d13 873d 1f67 efbc fd68 3f3d
000003a0: 4931 edbc 5faa d6bd 69ea f43d 76ed 02be
000003b0: 8281 bbbd 6730 f53d f4bd a5bd 43b9 a73d
000003c0: f473 73bc 27b3 b43d 0ae4 c7bc 7a13 b7bd
000003d0: d873 f8bd 29b9 a8bd 8e15 4d3d 336d 963d
000003e0: 9236 093d f947 0fbe b0eb acbb 3897 853c
000003f0: 42ae 123d 5347 c93a a5c5 f7bc e296 d83d
-0.12937397 0.0035875537 0.11201809 0.18164936 -0.00060527766 -0.010970233 -0.10897975 0.057464864
0.0074997763 -0.017111544 -0.15376328 0.08554082 0.07673482 -0.11265754 0.012909857 0.041959472
0.111113355 0.06722432 -0.07933036 0.0958216 -0.10318191 0.027979277 0.061754137 0.041571803
0.0024210801 0.02417792 -0.073457524 -0.14553578 0.10827251 -0.06622832 -0.10248161 0.12173241
0.12195427 -0.09970001 0.018390613 0.0014241793 -0.0053980825 0.15415871 0.073512435 -0.00010895697
-0.12867042 -0.047693424 0.11061284 0.10732716 -0.059730534 0.059035886 -0.04696769 -0.13140285
0.18275994 0.15129171 -0.059480898 0.029397266 0.14354476 -0.14445567 0.046938345 -0.09794601
0.08795395 0.16323586 0.112824015 -0.024181096 0.06847273 0.091326095 0.11296828 0.0030699265
0.17869082 0.098984115 -0.105660185 0.17931668 -0.11313942 -0.101309314 0.1466524 0.11957637
-0.094231665 0.0312981 -0.0284545 0.046712395 0.20372039 0.1639427 0.03177753 -0.13919857
-0.14045209 0.06595848 0.16488294 0.039941724 -0.0055614356 0.10597727 0.10120468 -0.047061577
-0.015459733 -0.075565435 0.100520484 -0.100540005 -0.07075966 0.042452678 -0.0981817 0.07606457
0.16199371 0.16999146 0.009307868 -0.11241618 -0.015820011 -0.027018711 0.042347055 -0.035651144
0.004053986 0.13977537 0.06379592 0.036272734 -0.09002281 -0.020492846 0.016171006 0.18987486
-0.12504782 0.14853722 -0.12929359 0.08043742 0.18297166 -0.1152722 0.14057013 0.08859573
-0.041864883 0.09156309 0.075978875 0.010747777 0.060081754 0.049506247 -0.10657773 0.035415053
0.05050744 0.044259865 -0.009361543 0.10416264 -0.01368527 -0.112510785 -0.12768364 0.05440236
0.13031809 0.07325056 -0.11553473 0.13475451 0.08431365 -0.11393602 0.11423309 -0.11757787
0.07445592 0.03990073 -0.13394439 -0.12837622 0.04341219 0.048496757 0.028726432 -0.10763284
0.1596229 -0.04733567 0.06424692 0.08432538 -0.05495849 -0.027888274 -0.09758973 -0.07298975
-0.14797586 0.06142971 0.13957952 0.11700319 0.1154001 -0.09860233 -0.015005512 -6.864336e-05
0.15087779 0.012469106 -0.14034598 0.027462814 0.008651122 -0.060359214 -0.14510985 0.048166875
0.14063679 -0.09957613 0.10655579 -0.025233028 -0.1002281 -0.02613227 0.052871536 -0.0019158646
0.05709397 0.10322786 0.019124242 0.13465504 0.0035521658 -0.0073382473 -0.049052615 -0.102763705
-0.06155133 0.074777886 0.04221513 0.050993633 -0.0035128572 -0.12791085 -0.06900299 -0.09589688
-0.042699516 0.14286038 -0.0027568308 0.06348199 0.16028725 0.11924721 0.013582125 0.096297696
0.032278113 0.05441395 0.07369927 0.106089935 0.09696924 -0.00224026 0.0023304597 -0.0024499844
-0.13264158 0.10826517 0.10459924 -0.13952148 -0.068653286 -0.14081131 -0.13560256 0.13271877
0.04708416 0.07148049 0.13261327 -0.12684575 0.059737906 0.0659549 -0.029223977 0.046730984
-0.028954165 -0.104817145 0.11958773 -0.12785897 -0.09155561 0.11972123 -0.08092871 0.08189633
-0.014859188 0.08823233 -0.02440073 -0.08939262 -0.121314704 -0.082384415 0.050069384 0.07345047
0.033499308 -0.13992299 -0.0052771196 0.016307458 0.035810716 0.0015356339 -0.030245611 0.105756536

bias f4 [128]
00000000: 6d1a e2bb 6df3 d63b 4ff7 42bc df03 bfbb
00000010: b7e8 3b3a 87da d0ba 5fa9 d6ba 8df7 743b
00000020: 2918 193c 456e 0ebc 160c ee3c d371 673a
00000030: 6beb 6e3c daa6 7dba a044 203c d833 2cbc
00000040: da3a fabc a923 e7bb cf93 43bc b63e 43ba
00000050: 59e5 f73b 08dc abbb 5e95 083c 7616 1c3b
00000060: 79b0 4dba 5796 97bc f968 083b a525 ce3a
00000070: 8ed8 373d 7735 cfbc a9a0 8a3b c716 c1bb
00000080: 3e79 bebb c39a 52ba d0ba 983b 6f74 25bb
00000090: 90c3 70bc 8732 e63c 2be0 d3bb 7ac6 4b3c
000000a0: b6ac dc3b bd50 8dbb 99ff 7a3c 6849 03b8
000000b0: cb9f 0fbc 7360 06bc 63ac 6ebc fd1f 8dbc
000000c0: 41d0 81b9 15ab d03b a570 823b bcdb 23bc
000000d0: 3976 0e3b d030 72b9 da27 613a fc85 90ba
000000e0: de8d 4fbc ddc9 713b e32d 3fbb 22ac afb7
000000f0: 51ff 1c3d 0d9c 31bc ea01 eab9 288e 3539
00000100: a529 50bb 7be8 78ba fd3a d73a 47d4 ddbb
00000110: 8cc7 c3bb b4dd 09bb 36fe 073d dfce f1bc
00000120: f485 8cba 6d44 1a3b 1f33 903b ad56 daba
00000130: 0b63 933c c8f0 66ba e4ed 4dbc 1a4d 75ba
00000140: d444 34ba 0000 0000 855c a23b 214c a53b
00000150: d767 19bc a13e 283c 688c e8b9 c149 033c
00000160: d033 95bb 6699 54bb f062 92ba 272a 093d
00000170: 8428 1ab7 b55e f4ba aa1c b7b9 29d3 393b
00000180: bbb8 ee39 25ec c8b9 b538 3cbc 8e46 ae3b
00000190: 905c 86bc 6694 ed3c 2fdf 753c 7a04 aabc
000001a0: 3d03 a43b cee9 6739 f8b2 fc3a 76d5 a6bc
000001b0: a260 723b f098 a5bb 4117 5439 8f9d 863b
000001c0: 4240 d43b 136c dabb baba a0b9 b5ed 223c
000001d0: 7aa8 cb39 9cee 0db8 55e3 afbb ee7a f53b
000001e0: f8ad 3fbc 63eb cdbc 852f 73bc 915a cb3c
000001f0: b402 033a 82d0 a73c 5fda 033c 7272 d3bb
-0.006900123 0.0065597803 -0.011899783 -0.005829319 0.0007168161 -0.0015934267 -0.0016377381 0.0037378997
0.009344139 -0.0086932825 0.029058497 0.0008828912 0.014582495 -0.0009676047 0.0097819865 -0.010510407
-0.03054564 -0.0070538116 -0.011937096 -0.00074480043 0.007565182 -0.0052447356 0.008336393 0.0023817099
-0.0007846426 -0.018504305 0.0020814522 0.0015727772 0.044884257 -0.025294049 0.004230578 -0.005892608
-0.005812793 -0.00080339256 0.0046609417 -0.0025246402 -0.014695063 0.028100265 -0.006465932 0.012437457
0.006734456 -0.0043126033 0.015319728 -3.13012e-05 -0.008766125 -0.008201706 -0.014567467 -0.017227167
-0.0002475996 0.006368051 0.0039807134 -0.010001119 0.0021737947 -0.00023097103 0.0008589007 -0.0011026259
-0.012668101 0.0036894002 -0.0029171638 -2.0941781e-05 0.038329426 -0.010840428 -0.00044633384 0.00017314462
-0.0031763103 -0.00094950915 0.0016420778 -0.00676969 -0.0059747156 -0.0021036686 0.03320142 -0.02951759
-0.0010721073 0.002353932 0.0044006254 -0.0016657911 0.017991563 -0.0008809683 -0.012568925 -0.00093574973
-0.0006876711 0.0 0.004954877 0.0050444757 -0.009363136 0.010268838 -0.000443551 0.00801319
-0.0045532957 -0.0032440065 -0.0011168402 0.033487465 -9.188549e-06 -0.0018643948 -0.00034925836 0.002835462
0.00045532532 -0.00038322914 -0.011488129 0.0053184694 -0.01640156 0.029001426 0.015006824 -0.020754088
0.005005269 0.00022116976 0.0019279411 -0.020365458 0.0036983867 -0.005053632 0.00020226558 0.004108138
0.0064773867 -0.0066657155 -0.000306567 0.009944369 0.00038844702 -3.3839242e-05 -0.0053676763 0.007491461
-0.011699192 -0.025136655 -0.0148428725 0.024823459 0.0004997656 0.020485166 0.008047669 -0.006452852

weight f4 [128, 128]
00000000: 0a85 5e3a 2061 f03c c301 0e3e 41c5 253d
00000010: 44ac c6bd c101 e9bc b416 dbbd 6bba ebbd
00000020: 77a0 fabd 5959 16be bb37 8a3d 45df b33c
00000030: 486d b7bd 4137 0a3e 913e e03d 69c8 b43d
00000040: 457c b6bd a61c 113c 2c7c 06be 29f9 6c3d
00000050: 3504 fcbc 04e0 993c 69e7 4dbd 048d dcbd
00000060: b1ad 9cbc d506 7fbd 0aab cebd a92c acbd
00000070: 0782 453d 0683 0d3d 6ba5 37bd e8c8 9f3c
00000080: a7f6 183e 4b26 903d cee0 263d 8be0 c83d
00000090: 34b9 083e 505c ae3d d6c3 183d 9dbb 16be
000000a0: da71 35bd de54 a33c 5f60 9d3c b322 17bc
000000b0: f716 9abd 94ea 09be 2ecc 49bd 8b89 a13d
000000c0: 828a 07bd bdb3 12bd 399f 2b3a 9843 cbbc
000000d0: 8c75 13ba 15ae b0bc aeef 003e 8324 793c
000000e0: a283 00bd f6ba c93b 61e1 63bb f06a 5ebd
000000f0: 7b43 613c 8b26 76bd 0e51 b7bd dc82 57bd
00000100: c704 cbbc 2fe9 21bd 5dd8 8cbd dc10 f1bd
00000110: 9b94 adbd 2833 14bd f9b0 ce3d d38e eabd
00000120: 86a4 813c 56af 93bd bb10 823c 4f8e 913d
00000130: 45f3 9cbd ab0a 0ebe e5a5 acbd 805c 03be
00000140: 8ab3 e63d d58b 92bd c9d2 a23b 75ba 09be
00000150: 1471 f53d 4dd9 113d c4ea e8bd 07bc 11be
00000160: 3a6a 0dbb e7cb ac3d dd47 19bd f6ea 10be
00000170: de82 e2bd 5f03 573b 5aa8 bc3c 951b ab3d
00000180: 6e70 07be 133d 153e 9bb4 91bc 98ca b33d
00000190: b7bd abbd c3d3 acbb d822 103e 9be7 a43b
000001a0: 711b ebbc e599 04bd 5ead 013d affe b0bc
000001b0: b8d3 043e d5fc c0bd f2a9 43bd c309 73bd
000001c0: a20c a53c d4f8 edbd fa71 c93d 5443 e23d
000001d0: 549b 1f3e 3c68 47bd d7b8 f2bd a5c2 d93c
000001e0: ab15 18bd 645d 973d ee45 193e 1ae0 1cbd
000001f0: b555 03be c51a 07bc d5ff 553c b527 14bd
00000200: 9575 a5bd 2d2d 47bd 2c87 0ebd 8a63 a839
00000210: ffdd 6a3d 3fe3 19be 5bbb 983d d452 d2bd
00000220: 827d 5d3d a9dc 943d 55f1 8bbd d6b2 64bb
00000230: 79fa bd3d 72d6 0b3e 9473 0e3c 84de 543d
00000240: 5cd5 dbbd 3f92 4f3d ea4f f13d 1e77 9e3d
00000250: dcfd 0d3b 42da f73d fb34 a4bd 19cf 0dbe
00000260: 588e ba3c d480 bb3c cdfc f13a 1f0e b13d
00000270: 7f3a fcbd d53c a7bd 635a f6bd 7520 93bd
00000280: 5d81 263e 94b7 4f3d 38f4 c03b f080 dbbc
00000290: 775a d6bc 0689 173e 2a35 813d b25a 7a3d
000002a0: 85e9 d5bd af08 e23a 0eba 9ebd 8f75 8abd
000002b0: a3a8 9a3d 45ad 783d fe20 bdbd 6ed7 00bd
000002c0: 3a98 91bd 7021 083e 86df c53d 81c4 843d
000002d0: a64f 143e a67c 013e 4484 f2bd 331d 833d
000002e0: 8137 dc3d 251a eebd 6190 c73d d44b dfbc
000002f0: 9d88 1b3e a848 10bd 813a 32bc a626 c3bd
00000300: ae9e 203e 091b 0c3e b032 e4bd 69a4 15be
00000310: 4941 bdbb 4201 47b9 1aa6 bcbd ce31 f4bd
00000320: 3472 b83d 6e0f d13d c529 f53d faa2 93bb
00000330: 1a8c 133d d81f 16be e73d af3d e14c f43d
00000340: 6bda c7ba b4c1 81bd 43d4 ce3d 4563 773c
00000350: b3c3 b63d fb47 0bbe 61f3 223d 7f44 093c
00000360: d295 d63d f057 a8bd 1707 43bd dab1 c8bd
00000370: b52b c8bc 476d 4abc ecf7 ca3d e89e 9abd
00000380: 007f 0cbe 85e1 8a3c 6175 50bd b5b4 04be
00000390: 61ba 7abd 1315 04bc 7082 a43d 2230 f83d
000003a0: 9bd6 1f3e 8d8a 18be 49b7 373d ebd2 febc
000003b0: a98f 49bd 552a 2bbd 4052 323d 0f00 14bb
000003c0: 4816 4c3d 3710 9c3d 8dd4 f9bc b372 47bd
000003d0: a96c 3c3d 81a8 8e3d 333e ff3d d74c c2bd
000003e0: 21ea 133e 92ac e9bd b4c4 9f3d d17e 4d3d
000003f0: bc36 163e 9d24 ecbd 65d6 16be 78b0 013e
0.00084884523 0.029343188 0.1386786 0.04047132 -0.09700826 -0.02844322 -0.1069769 -0.11510166
-0.122376375 -0.14682521 0.06748911 0.02195705 -0.089563906 0.1349764 0.109494336 0.08827288
-0.08910421 0.008856928 -0.13133305 0.057854805 -0.030763725 0.018783577 -0.050269518 -0.10769084
-0.019125791 -0.062262375 -0.10091217 -0.08406956 0.048219707 0.03454878 -0.04483549 0.01950498
0.1493784 0.07038554 0.040741734 0.09808453 0.133519 0.08513701 0.03729614 -0.14720006
-0.04429803 0.019937929 0.019210992 -0.0092245815 -0.075239114 -0.1346839 -0.049266987 0.07887562
-0.033091076 -0.035815943 0.00065468583 -0.024812505 -0.0005625121 -0.021567384 0.1259143 0.015206459
-0.031375535 0.0061563207 -0.0034771787 -0.054301202 0.013748999 -0.06009535 -0.08951007 -0.05261503
-0.024782551 -0.03952902 -0.068772055 -0.11770794 -0.0847561 -0.0361816 0.100923486 -0.11453023
0.015825521 -0.07211177 0.015877118 0.07107221 -0.076635875 -0.13871257 -0.08430079 -0.12828255
0.11264713 -0.07155577 0.004968975 -0.13450034 0.119844586 0.035607625 -0.11372903 -0.14231883
-0.0021578209 0.08437329 -0.03742205 -0.1415213 -0.11060117 0.0032808406 0.023029495 0.0835487
-0.13226482 0.14574079 -0.017786315 0.08778876 -0.083857946 -0.0052742674 0.14075792 0.0050324923
-0.028699609 -0.032373328 0.031659476 -0.021605818 0.1297139 -0.09423224 -0.047769494 -0.05933548
0.020147625 -0.11619726 0.098361924 0.11047998 0.15586597 -0.04868339 -0.11851662 0.026582072
-0.03713004 0.0739086 0.14968082 -0.038299657 -0.12825663 -0.008246128 0.013061483 -0.03617068
-0.080790676 -0.048627067 -0.03479688 0.0003211762 0.05734062 -0.15028094 0.0745761 -0.102697045
0.05407477 0.0726865 -0.0683314 -0.0034896634 0.092762895 0.13656023 0.008694548 0.05197002
-0.107340544 0.05067658 0.117828205 0.077375636 0.0021666205 0.12102176 -0.08017918 -0.13848533
0.022772953 0.022888578 0.0018462181 0.086452715 -0.12315845 -0.081659 -0.12028959 -0.07183925
0.16260286 0.050712183 0.005888488 -0.02679488 -0.026166184 0.14798364 0.06308968 0.06112165
-0.10444931 0.001724502 -0.07750331 -0.06760704 0.07551696 0.060712118 -0.092348084 -0.03145545
-0.07109113 0.13294005 0.09661774 0.06482793 0.14483508 0.12645206 -0.11841634 0.06402054
0.10752774 -0.116260804 0.09744335 -0.027257837 0.15188833 -0.03522554 -0.010878206 -0.09528856
0.15685531 0.13682188 -0.111424804 -0.14613499 -0.005775605 -0.00018978587 -0.09211369 -0.11923562
0.090061575 0.10208021 0.119708575 -0.0045055123 0.036022283 -0.14660585 0.08556729 0.11928726
-0.0015247589 -0.06335774 0.100990795 0.015099351 0.089240454 -0.13601677 0.039782885 0.008378147
0.10477795 -0.08219898 -0.047614183 -0.097995475 -0.024434904 -0.012355155 0.099105686 -0.0754984
-0.13720322 0.01695324 -0.05089319 -0.1295956 -0.0612129 -0.008061665 0.080326915 0.121185556
0.15609209 -0.14896603 0.04485253 -0.031106433 -0.04920927 -0.041788418 0.04353547 -0.0022583043
0.049825937 0.0762028 -0.03049686 -0.04869337 0.046002064 0.06965733 0.124630354 -0.09487312
0.14444782 -0.11409868 0.0780119 0.05016977 0.14669317 -0.11530421 -0.14730223 0.12664974

bias f4 [128]
00000000: bf46 6bbb 8053 3b3c 33b7 003a d24a 863a
00000010: 2f8d 9e3c 9cf7 0e3a 7ebc 0bb5 bcfb d5bc
00000020: b93e 093a f04d 0139 bdf0 61ba 0f23 a6bc
00000030: f961 0d3d 8d62 023a 7fc1 02bd c034 c3ba
00000040: e181 333d e978 4aba 435b 2539 0000 0000
00000050: 3b8c 8b3c c30f c7ba d662 9aba aadc 883b
00000060: de30 05bc 5522 96bc c8fa a3bb 9f40 67bc
00000070: 7ed4 54ba 4a6f f2bb 2221 d33c 0e5e b2bc
00000080: 7632 053c 6ddb 693a 8ac6 12bc 206e 2bbc
00000090: ae00 0d3c 203c 75bc 4dd5 623c ca69 2fba
000000a0: 5876 96bb 0000 0000 a72e a73a 4998 87bc
000000b0: a8e6 f9b9 5488 9c3b 8271 fc3b a6ac e2bb
000000c0: d968 00bc 964a 043d 815a 8c3b 35ca 0d3b
000000d0: 19d0 5bbb d87c d8bb 5403 34bc 7aa2 1f3b
000000e0: 0fef af3b d4c6 9ebc ed39 10bc 6cc4 adba
000000f0: 86d2 773b d2e5 bfb8 af7e 1cbb 8c9e 9dbb
00000100: 9a47 a4ba 5b5f 163c 7698 60bb cec3 10bb
00000110: 463b 96bc d959 813b 146d a2bb 8ed4 14ba
00000120: 645c a3ba 3460 213d 9642 3d3c b6da 543c
00000130: 836f 74bc be2a b63b 0dbe a7bb f99e 0dbc
00000140: 6dd2 6bbc 3ffb 34bd ad6b 4cbc cd4c cf3c
00000150: 97f2 36ba f861 7fbc 4c2e a83c c957 47bb
00000160: 9f67 97bb 4a28 8cbc 9d22 243a 116d a3bc
00000170: c1cc 433c f8cd 21bd 972c dbba a7a8 473b
00000180: d18a 17bd 1f9c 17ba e430 7e3a e30c 85ba
00000190: f672 7fbc 7001 903c ff24 91bb 00f6 eabb
000001a0: db17 c738 6217 ecba a465 a139 8ff0 943c
000001b0: 08db 65bc 0c55 62bc 133d 1c3d 170e 8139
000001c0: 9496 07bd a3d6 f73b cde3 22bc acb0 7db7
000001d0: 6422 873c 961d a8bb 294e 863c 0381 10bb
000001e0: f739 4fba fd3f 6f3b c993 0fbd 4f1a c03c
000001f0: 6599 d0bb c243 7bb9 5f3c eabb 61b7 ed3a
-0.0035900322 0.011433482 0.00049101113 0.0010245687 0.019354431 0.0005453767 -5.205583e-07 -0.026121013
0.00052354817 0.00012331433 -0.00086189416 -0.02028039 0.034517262 0.00049737917 -0.031922814 -0.001489304
0.043825034 -0.00077237055 0.00015769624 0.0 0.01703464 -0.0015187192 -0.0011778723 0.004176696
-0.008129327 -0.018326918 -0.0050042607 -0.014114528 -0.0008118822 -0.0073985206 0.025772635 -0.021773364
0.008129707 0.00089209416 -0.008958468 -0.010463268 0.008606119 -0.014967948 0.0138448 -0.0006691484
-0.0045917444 0.0 0.0012754992 -0.016552107 -0.00047664833 0.0047769938 0.007703961 -0.006917554
-0.007837498 0.032297693 0.00428325 0.0021635417 -0.0033540784 -0.0066066794 -0.010987122 0.0024358318
0.005369074 -0.019381918 -0.008802873 -0.0013257391 0.003781469 -9.150397e-05 -0.002387922 -0.00481016
-0.0012533546 0.009178008 -0.0034270561 -0.0022089365 -0.01833881 0.0039474783 -0.004956851 -0.0005677425
-0.0012463448 0.039398387 0.01155152 0.012991598 -0.014919165 0.0055592945 -0.0051190914 -0.008643859
-0.014393431 -0.04418492 -0.012476844 0.025305176 -0.0006978898 -0.015587322 0.020529889 -0.0030417314
-0.004620507 -0.017109055 0.00062612613 -0.019949468 0.011950673 -0.039503068 -0.0016721663 0.0030465515
-0.03699762 -0.0005783457 0.00096966163 -0.0010150935 -0.015591374 0.01757881 -0.004429459 -0.0071704388
9.493503e-05 -0.001801234 0.0003078404 0.018181114 -0.014029272 -0.013814222 0.038144182 0.00024615295
-0.033102587 0.0075634285 -0.009942007 -1.512111e-05 0.01649589 -0.00513048 0.016394692 -0.0022049553
-0.0007905061 0.0036506646 -0.03505305 0.023450045 -0.0063659423 -0.00023962467 -0.00714831 0.0018136316

weight f4 [128, 128]
00000000: 35d1 5dbd 8aef aa3d c2e6 093e 49cf 0bbe
00000010: b43a 6b3d 31b8 82bc 7f8a f53d 31c5 883e
00000020: e4a9 0d3e 2756 f23b 3d16 10be c07e 873e
00000030: 3166 28bd 714e a0bd 8ddc ef3d 73e2 c1bd
00000040: 3220 12be 370c cc3c 630b 613d 1c4b a33c
00000050: be2f 0cbe ec85 c1bb b212 293c 6cae f43d
00000060: 96d6 c03d 554b 743d 5043 083d 77c7 623e
00000070: 63ce 2dbd b3e7 413e 4cc5 eabd b6b0 0b3e
00000080: 4e15 213d 6904 263e 069f 953d e1c7 3a3c
00000090: d5cc 663e e120 d3bd 0b18 193c 9b40 b5bd
000000a0: 709d cf3d 15ec 49bd 7ff0 98bd cabb d93d
000000b0: 2d9d 8fbc 82b2 68bd 695c d5bd c21c f33d
000000c0: 8881 2a3e 14ca 83bd 8043 303e f526 a43d
000000d0: 827d 7e3d dfa9 313d 02c1 213e e1d5 023e
000000e0: f348 02be 1a96 6b3e dc97 89bd b3d7 e73d
000000f0: 5721 d73c 36e1 cb3d cda8 1b3e d194 033e
00000100: 0842 babc 1257 bdbd b9d7 51bd bcaa d93b
00000110: c83d 053e 4358 a8bc 8e70 ffbd 4f5b a03d
00000120: 343c 07be 9f07 b13a 80d0 753d 7217 06be
00000130: f1e6 1a3e f357 0f3e 5300 4bbd 3256 573e
00000140: de12 263e f095 9a3e 614d 0e3e c9a9 18be
00000150: cacd b73d fbde d53d f417 883d e795 f73d
00000160: 4a37 df3d a36e 72bd df9b 893d 9ee1 1a3e
00000170: e197 e03d 1177 943e aedd 68bd d520 b3bd
00000180: c0ca 313e d517 fb3d 3f96 6bbd 8cf7 20bd
00000190: 070f 0a3e 458b 8fbd 8792 aa3d f916 f3bd
000001a0: 7018 7a3d 4908 903d ca06 9f3c 2f0a a1bd
000001b0: ead3 9f3a 0268 a13d 8125 0dbd 1e50 db3c
000001c0: e10c 853e dfa6 eb3d 1d24 98bd 75b9 0abd
000001d0: 1f1b 8fbd 3765 013e ea14 2e3b 21f0 00be
000001e0: 93dd 2a3e 682a 723d 2c71 303e dd52 833d
000001f0: 00f6 9f3b c3b4 183e 72f5 023e 7ca0 a83d
00000200: 9670 53bd d680 093e d3d8 d6bd edbc 03be
00000210: d4ae 5b3d a94c 7abd ac26 9c3d 141f e93d
00000220: 071e 00be 7160 ff3c afba f73d 39e0 c43d
00000230: 6ad4 6c3d 4231 953d 6476 e9bd 8038 253a
00000240: 2a83 293d f314 8ebc 2317 0d3d d56e b03d
00000250: c4f2 1a3e fdbe 343c eb85 913d af62 be3d
00000260: 9f0c e73d 098a 963b 54c5 943d 766c 3e3d
00000270: dbe0 153e 8a15 f3bd b557 213e f91f 623d
00000280: cd5b 203c d156 a2bd 432a 073e 9668 b4bd
00000290: b4ad 9c3d 2708 e2bd c9c3 9e3d b4b5 c2bd
000002a0: 2bf0 013e 581d ef3d 9932 653b e5e3 0a3e
000002b0: e08b 673d 3623 9a3c a6e1 323c 7a62 aa3d
000002c0: 0eba 823c 2dde 933d 4829 a1bc 5cf7 c73d
000002d0: a7ee 0fbe 7693 97bd 460c 6fbd 8fbc 0f3e
000002e0: 02d1 abbd 39e4 313e 9857 be3c 7e36 d63d
000002f0: 29cf 0abe d745 183e 47c6 86bd 9cec 0abe
00000300: e998 e83c e93c c23d e6f8 36bd 2e7c 1a3e
00000310: 4505 b5bc 4571 073e e335 0a3e c2db ff3d
00000320: 98e2 00be 7a77 a03d 5667 c2bd b6ed 533d
00000330: 6a8a d33d c565 eb3d c073 b5bc 2a80 0abe
00000340: d770 13bd a05b 353d d2ed c7bd 84d8 603d
00000350: 704e dd3d 91db 8a3d fa8f bf3c 0f2b fa3d
00000360: a915 3c3c 8e12 ae3d e168 123e cfce 333d
00000370: 4b6e 183e b90f 0fbd 4e34 ccbd 112a 033e
00000380: 5a64 643c e23d dfbc 54c2 0cbe de1e 9bbd
00000390: 3f67 49bd b7ab b53b b715 eabd 8733 453d
000003a0: 16dc 0c3e 728a 54bd 713d 07bd 15c6 f13d
000003b0: bbe9 93bd 17ee abbb 5f94 e3bd 132f c63d
000003c0: 2f9c 543d de9a 94bd 6b3e 253d 7135 5dbc
000003d0: 4532 d3bb 3098 143d 05aa 8f3d e9b2 003e
000003e0: 87da 14bd 7d8b 013e 9b24 1c3e 0feb 30bd
000003f0: 8998 c03d b06d f1bd dce6 733d 1c88 703d
-0.054154593 0.0834647 0.13466933 -0.13653292 0.05742903 -0.01595697 0.11989307 0.26712945
0.1383434 0.007395524 -0.14070983 0.2646389 -0.041113082 -0.078274615 0.117119886 -0.0946702
-0.14270094 0.024908168 0.0549425 0.019933276 -0.13690087 -0.0059058573 0.010319399 0.11947331
0.09415929 0.059642155 0.03326732 0.22146402 -0.042433154 0.18936042 -0.11463413 0.13641629
0.03932696 0.1621262 0.07305722 0.011400194 0.22539075 -0.103090055 0.009344111 -0.08850213
0.10137451 -0.04929741 -0.07467746 0.10631521 -0.017531002 -0.056810863 -0.104180165 0.118707195
0.16650975 -0.06435028 0.17213249 0.08015243 0.062131412 0.043374892 0.15796283 0.12776901
-0.1272314 0.23006478 -0.06718418 0.11320438 0.026261015 0.09955065 0.15201111 0.12849738
-0.022736564 -0.09245123 -0.05123112 0.0066426676 0.13011849 -0.020549899 -0.1247264 0.07829916
-0.1320656 0.00135063 0.060013294 -0.13094881 0.1512716 0.13998394 -0.049560856 0.21028975
0.16218135 0.30192518 0.13896705 -0.14908518 0.08974798 0.10442921 0.06645194 0.120891385
0.108992174 -0.059187543 0.06719183 0.15125129 0.109664686 0.2899709 -0.056852035 -0.087464966
0.17362499 0.12260405 -0.057516333 -0.03929858 0.13482295 -0.070089854 0.08328729 -0.11869616
0.06105846 0.0703283 0.019412417 -0.078632705 0.0012193893 0.07881166 -0.034459595 0.026771601
0.25986388 0.115064375 -0.07428763 -0.03386827 -0.06987595 0.12636267 0.0026562759 -0.12591602
0.16686086 0.059122473 0.17230672 0.06412289 0.0048816204 0.14912705 0.12788942 0.08233735
-0.051621042 0.13428053 -0.10490575 -0.12865038 0.053633526 -0.061108265 0.076245636 0.11382881
-0.12511455 0.031173917 0.12096154 0.096130796 0.05781976 0.07284786 -0.11399534 0.00063026696
0.041384853 -0.017343974 0.034445893 0.086148895 0.1513167 0.011031863 0.07105621 0.09296166
0.11281704 0.004594092 0.072642 0.046490155 0.14636557 -0.118693426 0.15756114 0.055206273
0.009787512 -0.07926715 0.13199715 -0.08809011 0.07650319 -0.11036711 0.07752187 -0.09507313
0.12689273 0.11675519 0.0034972786 0.13563497 0.05652988 0.018815618 0.010918057 0.08319564
0.015957858 0.07220111 -0.019673005 0.09763977 -0.14055882 -0.07401173 -0.058361314 0.14036773
-0.083894745 0.17372216 0.023235127 0.10459612 -0.13555588 0.14870392 -0.06580787 -0.13566822
0.028393226 0.09484274 -0.04467096 0.15086433 -0.02209724 0.13226803 0.13497119 0.12493087
-0.12586439 0.07835288 -0.09492366 0.05174037 0.10329135 0.114940204 -0.02214992 -0.13525453
-0.035996284 0.044276834 -0.097621575 0.054893985 0.108059764 0.0678016 0.023384083 0.12215244
0.011479774 0.08499633 0.1429782 0.0438984 0.14885823 -0.034927104 -0.09970914 0.12809016
0.013939941 -0.027251188 -0.13746005 -0.07574247 -0.04917073 0.0055441516 -0.11429923 0.048144843
0.13755831 -0.051889844 -0.03301758 0.11805359 -0.07222315 -0.0052468884 -0.11112284 0.096769474
0.05190676 -0.07256101 0.04034273 -0.013501511 -0.0064452016 0.03627795 0.070148505 0.12568249
-0.036341216 0.12650867 0.15248339 -0.04319292 0.09404094 -0.11788499 0.059546337 0.058723554

bias f4 [128]
00000000: eee1 54bd af0e 533b c64d b9bb 85cf cd3b
00000010: 7983 863c 4ace 96bc c37e b23b d330 80bc
00000020: 2439 5538 ddb5 e6bb 4d07 87bc 494f 1c3d
00000030: 44ce eabb fe07 22bd 0beb 95bb 7f8f 6bbc
00000040: fef8 d1bb fcca 5aba bc79 7ebb d4a8 a83b
00000050: 4310 c8b9 a3b9 a63a 3edb 2bbc 503a db3c
00000060: 3e45 42bc 00c0 19b8 fa58 9139 5107 1bbd
00000070: d924 f9bb aa1f 59bc b2b3 f5b9 020a 1136
00000080: 66aa 253d b58f 333d c26f 59bb 1a40 87ba
00000090: 953c 853c 65ff 6cba 5f27 5839 ec7b b5bb
000000a0: 3c8d 1e3c 17da 213d 3f1e ff3b c9af 0fbb
000000b0: 7489 b83c 4953 35ba 96a9 04bc b0d0 0bbc
000000c0: bbf0 5bbb 4c5b 093c 9fc2 6e37 0000 0000
000000d0: a76f 3cbb 4648 a7bb 89f5 48bb d469 d7bb
000000e0: bc22 083c f15c b2ba 777e 0b3b a831 80ba
000000f0: 4c03 603b 215c ed3a 1ace 34b7 7123 d3bb
00000100: 80a1 823c 9c80 2cbc aecb bbb9 0760 cb3c
00000110: b367 643b 4a20 0b3d 278b 82bc 62fb a73a
00000120: 6b46 933b fe72 47bc 9f67 3e3a 02a0 68bc
00000130: b2dc 97ba f2cc 0dbb c02b e1bb 907e a9bc
00000140: 28b9 1bbd 0928 e33a 6251 2eba faa0 2c3c
00000150: 8d6d f2bb 4e04 873c f52e baba 3c65 66bc
00000160: 0000 0000 95c3 3fb9 74c9 3a3d e426 5eb9
00000170: 975a 3f3a 3020 e9b7 969b bcbc fe1a 54ba
00000180: 3220 0dbd e140 18bc ec6a 7439 816a 66b8
00000190: ce96 a7bc e6a9 083c 0464 45ba b137 653c
000001a0: d44c 4b3c 0000 0000 0000 0000 7b9f c1ba
000001b0: afac a6bb c74a 67bd 1151 11b9 28e8 aab8
000001c0: 5637 24bc b89b f63b 1e71 4e34 1d00 27bb
000001d0: 0472 563d 5782 133d 3b0e 953c 4064 8db9
000001e0: 9d0d fdb9 0000 0000 9ed4 c73c fe5a 04bd
000001f0: 2898 62ba 6a0c 81bc de96 2bba f3ea ffbc
-0.051973276 0.0032204797 -0.0056550233 0.006280842 0.016420113 -0.018408913 0.00544724 -0.015648281
5.0836374e-05 -0.0070407228 -0.016482973 0.03816155 -0.007165702 -0.039558403 -0.0045751384 -0.014377474
-0.006407856 -0.0008346287 -0.0038829884 0.005147079 -0.0003815909 0.0012720119 -0.010489283 0.026761204
-0.011857329 -3.6656857e-05 0.00027722848 -0.037848774 -0.0076032695 -0.013252178 -0.00046863925 2.161251e-06
0.040445708 0.04383822 -0.0033178185 -0.0010318786 0.01626424 -0.00090407423 0.00020614032 -0.0055384543
0.009677228 0.039514627 0.007785588 -0.0021924844 0.02252648 -0.00069170125 -0.008097073 -0.008533642
-0.0033560235 0.008383583 1.4231219e-05 0.0 -0.0028753073 -0.005105051 -0.0030663928 -0.006573895
0.008309063 -0.0013608021 0.0021285096 -0.0009780424 0.0034181653 0.0018109122 -1.0776823e-05 -0.006443434
0.01594615 -0.01052871 -0.00035819173 0.024826063 0.0034851849 0.03396634 -0.015935494 0.0012816007
0.0044944785 -0.012173412 0.00072633656 -0.014198305 -0.0011586158 -0.002163705 -0.0068716705 -0.020690233
-0.038018376 0.0017330657 -0.00066497 0.010536427 -0.0073983134 0.016481545 -0.0014204668 -0.014062222
0.0 -0.0001828804 0.045602277 -0.00021186058 0.0007299571 -2.7790753e-05 -0.023023408 -0.00080911804
-0.034454532 -0.009292812 0.00023309485 -5.4935463e-05 -0.020457651 0.008341288 -0.0007529857 0.013990329
0.012408454 0.0 0.0 -0.001477226 -0.0050865035 -0.056467798 -0.00013858477 -8.149474e-05
-0.010022959 0.0075258873 1.9226397e-07 -0.0025482245 0.052354828 0.036012974 0.018195262 -0.00026968308
-0.00048266063 0.0 0.024393376 -0.03231334 -0.0008643889 -0.01575299 -0.0006545613 -0.031239962

weight f4 [128, 128]
00000000: 8579 f23d 8fd3 9b3d f6e5 5ebd 822c 1dbe
00000010: 69bd aabb 3a53 693d 26b1 dbbd 6270 1abe
00000020: 4e09 b9bc 2c55 8d3c b6d8 ecbd 59be f63d
00000030: 584d 883d 0834 48bd b76c 13be 6284 10be
00000040: 6b7a f03d 309a fb3d 7ab5 203d 63ec 043e
00000050: a627 0dbd a87a a23d 35e5 763d 286c 09be
00000060: 8c0a 893d 6e7c b4bd a124 133e 8b85 073e
00000070: 26e5 9dbd 7ae9 60bd c0ab a3bc 93a7 103e
00000080: 2296 143d 8fd9 b4bd e70b e13d e4f9 b33c
00000090: 6eb0 893c fa62 adbd 4e69 1a3e 94e6 98bd
000000a0: 77d5 a93c f035 f83c c81b 8bbd 948d 943d
000000b0: ad9a 2f3d d322 13be 553d 163e 182a 15be
000000c0: a226 ce3d 83ef fbbd 0cde e5bd 8749 833c
000000d0: 2d46 443d 1d0b 0e3e 6d11 103e 11e8 983d
000000e0: 93d2 2bbd fd70 cabd 4dea 0dbc f590 f6bd
000000f0: 0df6 76bd c6d6 d63d 18a4 b93d c366 13be
00000100: f4da 8c3d 0b34 063e 3c32 c73c 4dab 0e3c
00000110: 43ed 52bd a2cd 3bbd 5a4b 35bd 19e5 103e
00000120: 48dc fbbd e6c6 47bd 0b9d 0d3e 7fbe aa3c
00000130: 84bc 363c bc81 cabc fc2a 92bd 5be2 123e
00000140: 49e5 b7bc 4f18 4f3d d02a b33d 70f8 02be
00000150: 8338 0abe d5eb 883d 9e04 003e 50de 973b
00000160: f700 a23c 10a6 b3bd 4980 01be a3af 00be
00000170: 4da6 5cbd f047 0f3e 4db8 40bd b1b7 95bd
00000180: a868 2b3d c9aa 503d cd7e 1dbc 181b 843d
00000190: 9d17 0bbd c8ea b2bc e726 ed3b 543b 14be
000001a0: 4d0e 1fbe 7226 073e 67f4 543d cf35 e6bd
000001b0: fcf0 bd3b e5ce 04be fd9e a23d f4dd a33d
000001c0: 3bc8 843c 8832 efbd 75da f8bd 9d5f f3bd
000001d0: 786b acbd c52a 263d df1b f43d de7a f3bb
000001e0: 909d 053e d524 a0bd 3c0e 05be 824b 7bbb
000001f0: 2fea 793d 9e3e 63bd 8c12 18be 257b 82bd
00000200: 40b4 febd 951e 08bb 894d 1bbd 7913 b13d
00000210: 3203 b2bd 8b5f 01bc 6173 91bb cc31 053c
00000220: afbd d1bd 9863 013e f897 133e d57b c13d
00000230: cdc9 ef3d 8526 8c3d 0437 0dbe 55a8 a8bc
00000240: b647 223d 3c5b aebd 1da1 ac3b 43b7 0e3e
00000250: 9493 803d 9ddc 5bbb 4d79 65bd 0e97 f33d
00000260: ab22 fabd 8ea9 15be ff4a 49bb bbfb af3d
00000270: a3fd f9bd 8ecb b9bd 0727 29bd 5e9d 17be
00000280: 7f46 d9bb 9610 bc3c 3dad 113d 466d f7bd
00000290: 706e 043e 02f7 0d3d e76f 5d3d 1234 d6bd
000002a0: 3978 8e3d 658e d93d ebf4 b4bd 3e44 03be
000002b0: 4837 1bbe ad9a e2bd 7726 b03a 405e 103e
000002c0: fe3c 61ba 8ac8 103d 909f 713d 2012 0d3e
000002d0: 9c6f 153e f0f0 03be 268f 9b3d 3cc8 163e
000002e0: f14b 9d3d dc58 cebc c954 a13b 8689 d43d
000002f0: 8a0c 853d 10b4 bc3d a124 013e d804 f33c
00000300: 6797 703c 9573 793d e4b0 ec3d 0754 0cbe
00000310: 19f9 243c 5465 d63d 5263 ae3d 565e fa3d
00000320: 7470 18bb 5187 1a3e a22c d3bd 8687 0fbc
00000330: bebb 463c ac5c 9d3c f0a1 12be 3811 6b3d
00000340: 1f1b 10be 8e72 c6bc 2687 d23d 0d58 123e
00000350: bff3 b4bd fd15 cf3d 4d27 3cbd 6819 c33d
00000360: 0694 333d e864 7e3d afd0 a13d 7250 753c
00000370: b572 a23d 1668 ef3d 8c85 973d 91f3 ccbc
00000380: 04a7 dcbd d0a5 42bd 6469 07bd 5ded 04be
00000390: 1a29 8c3d 7e1a fe3a bafc 99bc c8a2 9e3d
000003a0: e5fc a93c ab0f babd 971c 5fbd 9e3b d63b
000003b0: dc10 c43d b6ca b13d f9dc 2c3d 5589 f93c
000003c0: 5a70 1ebe 9b50 493d b511 cf3d 2b56 13be
000003d0: d02e 5a3d ff50 eebd 39d2 913c 6667 6d3d
000003e0: ec9d 033e 8db9 00be ec43 acbd c06d ef3d
000003f0: f0dd 3f3d b7c6 0d3d 9d2e c53c c2ed 953a
0.11839584 0.07608711 -0.054418527 -0.1534901 -0.0052105677 0.056964137 -0.10727148 -0.15081933
-0.022587445 0.017252527 -0.11564772 0.12048025 0.06655377 -0.048877746 -0.1439694 -0.14113
0.117420994 0.12285268 0.03923557 0.129808 -0.03446164 0.07933551 0.060277183 -0.13420165
0.06691465 -0.088127956 0.14369442 0.13234536 -0.07709722 -0.05491016 -0.019979358 0.14126424
0.03627599 -0.088305585 0.10988598 0.021969743 0.016807761 -0.08466144 0.15079233 -0.07465854
0.02073167 0.030299157 -0.06792408 0.072535664 0.04287212 -0.14368753 0.14671834 -0.14566839
0.100659624 -0.123015426 -0.11223993 0.016026272 0.047918487 0.13871427 0.14069147 0.07466138
-0.041948866 -0.09884832 -0.008661819 -0.12039367 -0.060293246 0.104901835 0.090645015 -0.14394669
0.068776995 0.1310579 0.024315946 0.0087078335 -0.0514958 -0.045850404 -0.044261314 0.14149894
-0.12297875 -0.04877367 0.13829438 0.020842789 0.011153344 -0.024720065 -0.07137105 0.1434416
-0.022448199 0.05056029 0.087484 -0.12790084 -0.1349812 0.066856064 0.12501761 0.004634656
0.01977585 -0.08771908 -0.12646593 -0.12567 -0.053869534 0.13992286 -0.047050763 -0.07310427
0.041847855 0.050944123 -0.009612751 0.0645048 -0.033958066 -0.021840468 0.0072373035 -0.14475757
-0.15532799 0.1319826 0.051990893 -0.11240732 0.00579655 -0.12969549 0.07940481 0.080013186
0.016208759 -0.1167956 -0.12151042 -0.11883471 -0.084189355 0.040568132 0.119193785 -0.0074304184
0.13048387 -0.07819525 -0.12993711 -0.0038344567 0.06101435 -0.05547964 -0.14850825 -0.06371144
-0.12436724 -0.0020770181 -0.03791574 0.08646292 -0.08692016 -0.007896314 -0.004438803 0.008129548
-0.102412574 0.12635648 0.1441344 0.09447447 0.11708412 0.068432845 -0.13790518 -0.02058808
0.03961917 -0.08513495 0.0052682296 0.13937096 0.06278148 -0.0033548244 -0.056023885 0.11894046
-0.12213644 -0.14615461 -0.0030714867 0.08592936 -0.122065805 -0.09072028 -0.041296985 -0.14806125
-0.0066307182 0.022957128 0.035565604 -0.12081389 0.12932754 0.034659393 0.054061797 -0.104591504
0.069565244 0.10622863 -0.08835777 -0.12819001 -0.15157807 -0.11064658 0.0013439198 0.14098454
-0.00085921574 0.0353475 0.05899006 0.13776445 0.14593357 -0.12884879 0.07595663 0.14724821
0.076805 -0.025188856 0.0049234373 0.10377793 0.06496532 0.09214032 0.12611629 0.029665396
0.014684535 0.060901243 0.11557177 -0.13703929 0.010069155 0.104685456 0.085150376 0.122250244
-0.0023260387 0.15090682 -0.103112474 -0.008760339 0.012129722 0.019209228 -0.14319587 0.057389468
-0.14072846 -0.024224546 0.10279684 0.14291401 -0.088355534 0.10111616 -0.045935918 0.0952633
0.043842338 0.06210795 0.07901131 0.014972793 0.07932035 0.11689775 0.07398519 -0.025018485
-0.10774043 -0.047521412 -0.033059493 -0.12981172 0.06843777 0.0019386557 -0.018797267 0.07745892
0.020750472 -0.0908502 -0.054470625 0.0065378686 0.09573528 0.08681242 0.042202923 0.030460993
-0.15472546 0.049149137 0.10110799 -0.14388339 0.0532673 -0.116365425 0.017800437 0.057959937
0.12853211 -0.12570782 -0.084113926 0.11690855 0.046842515 0.034613337 0.024070079 0.0011438655

bias f4 [128]
00000000: 8e98 04bc f718 08bb b703 c4ba 8f24 0a39
00000010: fe8a 28bc 5886 28b6 a9f3 c6bc 6653 f73a
00000020: 2aa8 113a 8745 0abd 0000 0000 4b5c 1dbc
00000030: 250d 8ebc b4f2 adbc 824c a03a 0521 7ebc
00000040: 274d fd3a 9de2 15bc 67cb 8b3c d40b fa3b
00000050: 8bd6 6cbc 693b 033c 8931 a239 f579 8dbb
00000060: 7a93 a6bc 8d94 83bb e28e af3b dd3d d13a
00000070: 121b 493b 6b37 09bb 8e82 a837 df77 913b
00000080: c147 6d3a e428 d83b 079f d83c 125a f1bc
00000090: 9dd2 1b3d 9cc7 863c c5a5 38bb ea41 a137
000000a0: 3274 4cbb da3a 643c b60d 813b 7b60 e93a
000000b0: 3895 a7b8 188d fc3b 29ce 4ebb aec7 df3b
000000c0: 0922 f639 2fa4 9cba c985 973b c55c 85bc
000000d0: 632d 433b e5a6 15bd b514 50ba 06e1 473a
000000e0: a66d ac3d e64d 6abc e672 89ba 224a 8cba
000000f0: f5fb bbba af45 b9b9 3138 593c 9638 32bc
00000100: 25b4 84bb dae2 d8ba a61b d4bb 702f 21bd
00000110: 1fad 9abb a616 22b8 48f6 f93b 83d8 813b
00000120: a22b 1539 16ae cbbc 25eb 8d3c f264 b4bb
00000130: 6376 a93b aece c03c 6af4 00bc f498 84b9
00000140: d0eb c5bc 0000 0000 0000 0000 f0c3 36ba
00000150: ad7f 153d 32e4 44ba 20f6 eb3b 8c4c beba
00000160: 0000 0000 9eaf 043d 9b27 7039 7729 1cbd
00000170: e5ab bcba 224c 893c 3c60 44ba 61e2 13bd
00000180: 3dba 803d 1afa 05bc 887d bf3b e009 0d39
00000190: d860 60bc 7f6c aabc 5b76 a439 4616 86b8
000001a0: a002 b0ba bce3 fbb8 a784 073d 42ab c6bb
000001b0: 1db8 0639 e019 c1bb bcfb b1bc 2c87 24bc
000001c0: 72de 143b f254 d93c 1ee3 d5b9 c321 90ba
000001d0: 1d5e 05ba 1bbf 9ab8 db88 56bd 194c bbbb
000001e0: 9c40 563a 63f0 e43a dd39 843d 4e45 da3b
000001f0: 5902 0abb 52a8 3d36 af65 453c 0a37 efb9
-0.0080930125 -0.0020766833 -0.001495472 0.00013174325 -0.010287045 -2.511215e-06 -0.024286108 0.0018869459
0.00055563694 -0.033757713 0.0 -0.009604524 -0.017340252 -0.021233894 0.0012229832 -0.015510802
0.0019325361 -0.009148267 0.017064763 0.0076308046 -0.014455448 0.00800977 0.00030935954 -0.004317517
-0.020333994 -0.0040155114 0.005357609 0.0015963871 0.0030686301 -0.0020937573 2.0087955e-05 0.0044393386
0.00090515247 0.0065966714 0.026443018 -0.029461894 0.038042653 0.016452603 -0.0028174978 1.922339e-05
-0.0031197187 0.013930047 0.003938402 0.0017805243 -7.990975e-05 0.0077072494 -0.0031555986 0.0068292236
0.00046946135 -0.0011950786 0.0046241027 -0.016279588 0.0029781691 -0.036536116 -0.0007937656 0.00076247787
0.08419351 -0.014300799 -0.0010486513 -0.0010703246 -0.0014342057 -0.00035337868 0.013258026 -0.010877749
-0.004049795 -0.0016547099 -0.0064730225 -0.03935188 -0.0047203447 -3.8644903e-05 0.007628236 0.003962578
0.00014226002 -0.024863284 0.01732404 -0.0055051977 0.0051715835 0.023536053 -0.007870773 -0.0002529096
-0.024160296 0.0 0.0 -0.0006971946 0.036498714 -0.00075108104 0.0072009712 -0.0014518662
0.0 0.032394044 0.00022902938 -0.03812548 -0.001439449 0.016759936 -0.00074911467 -0.036104564
0.06285522 -0.008177305 0.005843822 0.00013450487 -0.013694964 -0.020803688 0.000313687 -6.393767e-05
-0.0013428517 -0.000120110315 0.03308549 -0.006062896 0.00012847823 -0.005892977 -0.021726482 -0.010041993
0.0022715596 0.026529763 -0.0004079574 -0.001099639 -0.00050875713 -7.3788884e-05 -0.05237661 -0.0057158587
0.00081730797 0.001746666 0.06456349 0.006661094 -0.0021058528 2.826117e-06 0.012048169 -0.0004562664
