MAMRL-TE/Static environments/Baselines/PG/Geant/savemodels/baseline5.pth (torch, 1465 bytes, 1 tensors)

weight f4 [1, 18]
00000000: e102 1040 263d c7c1 ea85 6fbf dd01 753f
00000010: 6d5a 39bd 8a42 b5be ca7b 65be 6cf9 05bf
00000020: 6c2d 8d40 ad5a c03e f36a a9be 2a22 a13c
00000030: 6191 173e 3579 da3d cb1d bfbf 4e5f 823d
00000040: cb30 56ba 5213 b6c1
2.2501757 -24.904858 -0.9356371 0.9570597 -0.045252252 -0.35402328 -0.22410503 -0.5233371
4.4117947 0.3756918 -0.33089408 0.019669611 0.14801551 0.1066765 -1.4930967 0.06365834
-0.0008170723 -22.759434
