MAMRL-TE/Dynamic environments/Baselines/Random/ATT/task0/savemodels/policy5.pth (torch, 276379 bytes, 12 tensors)

weight f4 [128, 7]
0.017103601 0.19558795 -0.10822052 0.16608982 0.11674708 0.18078445 0.09681671 -0.20804095
-0.14127764 0.18531814 -0.04178008 0.17241696 0.115940765 -0.17208971 0.17441969 -0.08059067
0.15696219 -0.14753136 -0.22739866 -0.08060687 0.036218435 -0.15749417 0.13660786 -0.071905166
0.19597495 0.056982327 -0.14642765 -0.091978855 -0.013279119 0.024916572 0.08586262 0.17929871
0.18415461 0.24931742 0.009557814 -0.2128729 0.2564149 -0.11149641 0.0037531038 -0.0055530253
-0.01452573 0.027630301 0.035857618 -0.026753906 -0.058837518 -0.18746325 0.18921958 -0.18673882
0.109028 -0.1409403 -0.1668327 -0.1431411 0.20014963 -0.050088193 -0.19792767 0.20980845
-0.16442968 0.15595032 -0.050912384 0.14684032 -0.18692093 0.099031545 -0.18337607 -0.04343817
0.16773589 0.041546542 -0.056299835 -0.14940162 0.011481887 -0.058176346 0.17858733 0.1975846
0.022732314 0.18680102 -0.11352782 -0.057758115 -0.10945026 0.10046034 0.07123829 -0.122861974
-0.012687246 -0.1280685 -0.16388555 -0.1523147 -0.26749516 0.29885548 0.05722984 -0.041132905
-0.1474898 0.07274334 0.010619253 0.2706308 -0.049848147 -0.2315259 -0.18069692 0.10861873
-0.010757258 -0.21797186 -0.02076623 -0.18951261 -0.026714459 -0.19478442 -0.17927647 -0.08948632
0.10351361 0.27580848 0.1763263 0.06495533 -0.17482963 0.22630036 0.16014454 0.17017101
-0.08579038 -0.037699845 -0.12749678 0.004438744 0.046578906 -0.027324216 -0.01160805 -0.1661413
-0.06795043 -0.020844731 0.11895001 0.06673101 -0.1969258 -0.10975782 0.37804747 0.19555666
-0.017384565 -0.11255857 -0.22770934 -0.05167352 -0.19866623 -0.17042525 -0.056050427 0.02312282
0.005431226 -0.038555797 -0.18249297 -0.034679715 -0.1834372 -0.074879475 -0.14439985 -0.10225408
0.023683863 -0.09218949 0.15371019 0.1316603 0.20312634 0.14147684 -0.004186545 -0.11014131
-0.06750372 -0.031810496 0.0097351 -0.009700739 0.21648479 0.2040012 -0.08371769 0.1637325
0.1602005 0.028604629 -0.09034888 0.1326435 0.13050343 -0.1534818 0.10086889 -0.15336634
-0.004770241 -0.03759649 0.06739707 0.08168316 -0.033194494 -0.15001364 0.027840171 -0.31030145
0.37732992 -0.0828348 0.031533778 -0.064555146 0.17142387 -0.1874604 -0.19742414 0.17494807
0.121624075 0.14148997 0.20340961 0.09525682 -0.14857434 0.11130897 0.07424043 -0.14565763
-0.16001002 -0.10477259 -0.022357434 0.1345349 0.029249884 -0.17088132 0.06949646 -0.13961975
-0.060061235 -0.06233619 -0.08735906 -0.22020897 0.048778553 -0.2001757 -0.19931008 0.20806362
-0.08507649 0.14075857 -0.0009326146 0.0018781873 0.0050587663 0.08913173 -0.020624053 0.17839983
0.23338337 -0.06196466 0.19779707 0.20391281 -0.014772695 0.009751653 -0.06922839 -0.12505515
-0.11722463 0.12785219 -0.0039748247 -0.022138037 0.12763418 0.15210925 0.07652039 0.039584205
0.15989746 0.15640749 0.16860132 0.00122642 0.09473546 0.24547085 0.31303254 0.12261126
0.09136453 0.11295274 0.090855196 -0.09814473 -0.105579585 0.06282547 -0.046817943 0.1361676
0.09977793 0.22424357 0.21222265 0.053739183 0.05242156 0.16436091 -0.09070346 0.05897668
00000000: da1c 8c3c 3548 483e b8a2 ddbd 7313 2a3e
00000010: 1819 ef3d 8f1f 393e d747 c63d b008 55be
00000020: 16ab 10be 0ac4 3d3e 9721 2bbd 128e 303e
00000030: 5a72 ed3d 4938 30be 139b 323e b90c a5bd
00000040: b2ba 203e 7612 17be 32db 68be 3715 a5bd
00000050: c859 143d 2746 21be eee2 0b3e 0443 93bd
00000060: a8ad 483e 4d66 693d 21f1 15be 695f bcbd
00000070: a990 59bc d71d cc3c bed8 af3d 159a 373e
00000080: 0793 3c3e 114d 7f3e 6198 1c3c 5afb 59be
00000090: d048 833e 3b58 e4bd a2f6 753b 27f6 b5bb
000000a0: 54fd 6dbc f158 e23c 70df 123d 022b dbbc
000000b0: 9cff 70bd 5ef6 3fbe c7c2 413e 7638 3fbe
000000c0: 124a df3d a752 10be 31d6 2abe 9593 12be
000000d0: 06f4 4c3e 4729 4dbd 8dad 4abe 07d8 563e
000000e0: 4160 28be 71b1 1f3e 8189 50bd 4f5d 163e
000000f0: 3368 3fbe 0dd1 ca3d f0c6 3bbe 39ec 31bd
00000100: f5c2 2b3e b52c 2a3d a89a 66bd bdfc 18be
00000110: 861e 3c3c 524a 6ebd 99df 363e 9e53 4a3e
00000120: 1e39 ba3c c448 3f3e 4681 e8bd c693 6cbd
00000130: 7527 e0bd 27be cd3d 61e5 913d 0f9f fbbd
00000140: 2bde 4fbc 6424 03be 9dd1 27be 62f8 1bbe
00000150: 20f5 88be 9603 993e d669 6a3d fa7a 28bd
00000160: 9107 17be 76fa 943d 60fc 2d3c 1f90 8a3e
00000170: 922d 4cbd 2015 6dbe 9d08 39be 7f73 de3d
00000180: 363f 30bc 0434 5fbe f11d aabc 980f 42be
00000190: 48d8 dabc 9175 47be 4094 37be 9b44 b7bd
000001a0: f2fe d33d c536 8d3e e28e 343e 4d07 853d
000001b0: 8a06 33be 48bb 673e eefc 233e 4f41 2e3e
000001c0: deb2 afbd 276b 1abd 848e 02be e272 913b
000001d0: 86c9 3e3d 09d7 dfbc b12f 3ebc f220 2abe
000001e0: 9829 8bbd 92c2 aabc 109c f33d 45aa 883d
000001f0: eba6 49be b5c8 e0bd 708f c13e 0140 483e
00000200: 136a 8ebc 1c85 e6bd a32c 69be 9da7 53bd
00000210: 296f 4bbe f583 2ebe 2295 65bd 116c bd3c
00000220: 6df8 b13b afec 1dbd 70df 3abe 510c 0ebd
00000230: f6d6 3bbe 695a 99bd 8edd 13be 966a d1bd
00000240: a904 c23c d8cd bcbd 3466 1d3e f5d1 063e
00000250: 5a00 503e 4edf 103e 492f 89bb c491 e1bd
00000260: 643f 8abd b94b 02bd f87f 1f3c d9ef 1ebc
00000270: 30ae 5d3e b1e5 503e 2e74 abbd 7ea9 273e
00000280: 9a0b 243e 4154 ea3c d508 b9bd b3d3 073e
00000290: b1a2 053e 552a 1dbe 5994 ce3d 110c 1dbe
000002a0: af4f 9cbb c7fe 19bd 7a07 8a3d 8049 a73d
000002b0: f3f6 07bd 2d9d 19be 1211 e43c d5df 9ebe
000002c0: 6331 c13e 4ba5 a9bd 9029 013d 7d35 84bd
000002d0: bd89 2f3e 9ef5 3fbe 8e29 4abe 9625 333e
000002e0: 0b16 f93d bfe2 103e 9c4a 503e 0216 c33d
000002f0: df23 18be f5f5 e33d 5e0b 983d 4627 15be
00000300: abd9 23be 0393 d6bd f026 b7bc 84c3 093e
00000310: 749d ef3c 83fb 2ebe 2954 8e3d 7bf8 0ebe
00000320: c502 76bd 3c54 7fbd 4fe9 b2bd 767e 61be
00000330: 05cc 473d dcfa 4cbe f117 4cbe a10e 553e
00000340: 953c aebd 0423 103e b57a 74ba 822d f63a
00000350: 02c4 a53b b28a b63d c6f3 a8bc 72ae 363e
00000360: 0dfc 6e3e a8ce 7dbd 518b 4a3e 85ce 503e
00000370: 2c09 72bc 66c5 1f3c 9dc7 8dbd 750e 00be
00000380: 7813 f0bd afeb 023e 3f3f 82bb d45a b5bc
00000390: 89b2 023e 87c2 1b3e b9b6 9c3d 0c23 223d
000003a0: 29bc 233e 4929 203e d3a5 2c3e d4bf a03a
000003b0: aa04 c23d b65c 7b3e cd45 a03e 9d1b fb3d
000003c0: 541d bb3d c453 e73d 4a12 ba3d 1b00 c9bd
000003d0: 1c3a d8bd a4aa 803d 2cc4 3fbd 856f 0b3e
000003e0: 5f58 cc3d 1ba0 653e e550 593e 9e1d 5c3d
000003f0: fdb7 563d 3a4e 283e bcc2 b9bd 8891 713d

bias f4 [128]
-0.002028931 -0.0010406822 0.0069136233 0.012158049 -0.011132847 0.025224222 0.004023978 0.00040527942
0.013407168 -0.012058882 0.009642771 0.0006906129 0.03224206 0.025891481 0.0 0.0057612066
-0.0001858533 -0.0023531965 0.034283828 -0.0034371363 -0.0010329221 0.029198034 -0.00422645 -0.0014571608
0.0006618711 0.05806391 0.022477036 0.02084144 4.951118e-06 0.023041554 -0.013995093 0.00012096559
0.024214573 -0.025139634 0.036315583 0.002147832 0.012995854 0.0120635815 0.0067121037 0.0044774055
0.0035899573 0.014228569 0.0002975341 -0.008771674 0.005724193 -4.239009e-06 0.011911727 0.04590524
0.00039858397 0.012127977 0.011714035 3.3686298e-05 0.038121864 0.024550818 -0.01342086 0.004247005
0.05928378 -0.00075127464 -0.006576151 0.006128853 0.0 -0.004021051 -0.001425441 4.5696197e-06
0.02597349 0.0038739364 0.020975143 0.012650335 -0.0011432446 -0.008968162 0.0012215574 -0.0013410734
-8.558008e-06 0.022721227 0.0054215686 0.019985488 -0.0043491772 0.041992784 0.028760064 0.001455183
0.018654868 0.02166858 0.03261424 -0.0025014128 -0.013310523 0.029730104 -0.019435395 0.027441524
-0.0031529884 4.5321434e-05 7.829402e-06 0.00016378597 0.006772097 0.008966553 -0.00017112633 0.0023081233
0.0001273219 0.0007598101 0.018645335 -3.9648086e-05 0.03297451 -0.010565196 0.001533962 0.0018749047
0.030308757 0.0008018267 -0.0013910023 -5.545489e-06 -0.00036266228 -0.02964813 0.014170663 -0.0038176896
0.014144557 -0.00024050698 0.00033948326 0.03524727 -0.0040689 0.0 0.004930674 0.04299426
0.023170745 -0.0059774276 0.015766246 0.008064388 0.018913029 0.03582362 -0.0027770698 0.023530725
00000000: d0f7 04bb 8067 88ba ad8b e23b 8e32 473c
00000010: 8b66 36bc 07a3 ce3c 93db 833b af7b d439
00000020: bda9 5b3c 9e92 45bc b7fc 1d3c 3f0a 353a
00000030: 4010 043d 5f1a d43c 0000 0000 81c8 bc3b
00000040: 9ee1 42b9 1638 1abb 336d 0c3d 9441 61bb
00000050: 1d63 87ba b730 ef3c 087e 8abb 34fe beba
00000060: 6b81 2d3a 6cd4 6d3d c321 b83c abbb aa3c
00000070: c821 a636 a4c1 bc3c ad4b 65bc e8ae fd38
00000080: a45d c63c a2f1 cdbc a6bf 143d a4c2 0c3b
00000090: 90ec 543c 54a6 453c 35f1 db3b 33b7 923b
000000a0: 7d45 6b3b f21e 693c 5afe 9b39 11b7 0fbc
000000b0: 0392 bb3b cf3c 8eb6 6729 433c 2207 3c3d
000000c0: 09f9 d039 6cb4 463c 39ec 3f3c 634a 0d38
000000d0: ac25 1c3d cc1e c93c 2be3 5bbc 762a 8b3b
000000e0: 8dd3 723d 30f1 44ba c17c d7bb 8cd4 c83b
000000f0: 0000 0000 05c3 83bb ddd5 baba bc54 9936
00000100: 5bc6 d43c dee1 7d3b 10d4 ab3c 5a43 4f3c
00000110: ecd8 95ba 33ef 12bc aa1c a03a f5c6 afba
00000120: 5d94 0fb7 de21 ba3c 6aa7 b13b 9bb8 a33c
00000130: 8b83 8ebb a000 2c3d 3a9a eb3c d7bb be3a
00000140: 18d2 983c 4e82 b13c 8296 053d beee 23bb
00000150: 6114 5abc 8c8c f33c fa36 9fbc 0ccd e03c
00000160: 5ea2 4ebb 8517 3e38 075b 0337 f6bd 2b39
00000170: 78e8 dd3b 73e8 123c 6070 33b9 e243 173b
00000180: b681 0539 fe2d 473a 1abe 983c cf4b 26b8
00000190: 4810 073d a519 2dbc 390f c93a 5dbf f53a
000001a0: 124a f83c ae31 523a 4b52 b6ba 6313 bab6
000001b0: b523 beb9 a3e0 f2bc 122c 683c 3432 7abb
000001c0: 92be 673c 9a30 7cb9 acfc b139 715f 103d
000001d0: 6854 85bb 0000 0000 7e91 a13b c01a 303d
000001e0: 93d0 bd3c 4cde c3bb 3728 813c 7f20 043c
000001f0: 7fef 9a3c cabb 123d 80ff 35bb 82c3 c03c

weight f4 [128, 128]
0.0870132 -0.040039357 0.04818342 0.14058833 0.14562505 0.15161923 -0.011833355 0.10226713
0.028844185 0.014590499 -0.071474545 -0.075247 0.12562506 0.01849843 0.07700821 0.104207
-0.00798351 -0.08802554 -0.119594246 -0.040911503 0.027050277 0.033793155 -0.069259524 0.1504952
-0.14967193 0.12427248 0.022868838 -0.13558097 -0.109498024 -0.028131396 -0.030759828 -0.1060815
0.057236735 -0.09938889 -0.1610749 -0.009265245 -0.009293092 -0.12950158 0.070704535 -0.11414507
0.14413272 0.12851925 0.06787481 -0.03273578 0.0802128 0.11710748 0.05140271 0.09008693
-0.071269676 0.16511156 0.024215426 0.099850096 0.076272674 0.139547 -0.026092462 0.026270496
0.04524055 -0.13204677 0.014143915 -0.10880772 0.09522046 0.10417483 -0.017193714 -0.1029001
0.13067532 0.124234185 0.04155877 0.10489128 0.08484421 0.045569587 0.06939434 0.071336664
0.05086624 -0.090958185 0.06846779 -0.093862645 -0.10210347 0.07534789 -0.008554217 -0.09552068
-0.06309965 -0.12678544 -0.092660785 0.06076461 -0.038142674 0.072241336 -0.08749972 0.037865154
-0.022887647 0.08454037 -0.026914718 0.0003816037 -0.13412541 -0.020093242 -0.1063288 -0.016220305
0.058244795 0.035909973 -0.054653008 -0.08677015 0.06261861 -0.053833522 0.007561531 0.14261645
0.09749795 0.12730698 -0.13713036 0.09255107 0.033823088 0.044362247 0.097566545 0.034350943
0.06745339 -0.113255195 0.13667202 -0.05138966 0.12743618 -0.06376908 -0.011963438 -0.08822962
0.06599925 -0.10445846 -0.14579171 -0.056992885 -0.10796168 0.10792911 0.13545789 -0.053632136
-0.114162356 0.095769465 -0.08501919 -0.04004821 0.14410889 -0.11298257 -0.15003902 0.02474176
0.072201535 0.0020043207 0.050695363 -0.016053434 0.06984284 0.07327967 -0.04861995 0.041599877
-0.036767296 -0.034876317 0.08732685 -0.009381048 -0.11346014 0.13458925 -0.017131701 0.10825692
-0.10335315 0.1209545 -0.04170185 0.03366203 -0.0070054284 0.07020339 -0.07445554 0.07352338
0.0534795 0.13904728 -0.12566169 0.13238318 0.082236595 -0.08636292 0.02102265 0.024269486
-0.08712556 -0.14692275 -0.056756794 -0.041731626 -0.020366738 -0.098503 0.042801406 -0.0058055255
0.14088248 0.019099072 0.07523372 0.008946668 0.094008334 0.07924092 -0.004206847 0.08039235
-0.054818254 0.13880125 -0.0034262293 0.09506746 0.14287421 0.07424642 -0.087467976 0.047502663
0.100621566 0.09853403 -0.020025931 0.008342153 -0.10069301 -0.11731619 -0.115587525 0.069857545
-0.012510499 -0.02631219 -0.11893876 -0.15180312 0.106575966 -0.055579353 -0.10254368 0.010708653
0.024668582 0.13410942 0.06929452 0.09761977 0.11237302 0.009021879 0.007193902 0.106164746
-0.086633414 -0.1093183 0.12400277 -0.06905728 0.015349443 0.15202855 -0.06679905 0.1025462
-0.040341105 0.030245813 -0.01591469 -0.012122731 -0.1472909 0.09318427 0.093906745 0.09297135
-0.14906426 0.15111218 0.120696984 -0.028589664 0.14278165 -0.15160628 0.01276316 -0.098960534
-0.14336161 -0.029383905 0.12425571 -0.11692734 0.10961509 -0.056270033 0.0684796 -0.009223766
0.10585283 0.0073820935 -0.1186602 0.018367862 -0.13533315 -0.115805194 -0.06908688 0.072418034
00000000: fa33 b23d 4f00 24bd fa5b 453d 63f6 0f3e
00000010: bc1e 153e 1242 1b3e b0e0 41bc 6e71 d13d
00000020: a44a ec3c fd0c 6f3c 3f61 92bd 191b 9abd
00000030: dba3 003e 058a 973c 7bb6 9d3d 7b6a d53d
00000040: 45cd 02bc bc46 b4bd d4ed f4bd d292 27bd
00000050: 8b98 dd3c b16a 0a3d f0d7 8dbd 6a1b 1a3e
00000060: 9943 19be 9282 fe3d 6e57 bb3c bdd5 0abe
00000070: 8040 e0bd d073 e6bc 09fc fbbc 4241 d9bd
00000080: 1171 6a3d 678c cbbd d2f0 24be 41cd 17bc
00000090: 0e42 18bc 109c 04be 8acd 903d e4c4 e9bd
000000a0: 8797 133e 8d9a 033e f301 8b3d f415 06bd
000000b0: 9c46 a43d 0cd6 ef3d a68b 523d 7f7f b83d
000000c0: d6f5 91bd 0113 293e 6e5f c63c 357e cc3d
000000d0: d934 9c3d 69e5 0e3e dcbf d5bc 3935 d73c
000000e0: 284e 393d 4537 07be e1bb 673c 95d6 debd
000000f0: f202 c33d 9d59 d53d d5d9 8cbc 4abd d2bd
00000100: c0cf 053e 7e6e fe3d 8739 2a3d 3dd1 d63d
00000110: cdc2 ad3d 2da7 3a3d 9f1e 8e3d f518 923d
00000120: 1e59 503d 4948 babd d738 8c3d 0f3b c0bd
00000130: a01b d1bd ff4f 9a3d fd26 0cbc 59a0 c3bd
00000140: 643a 81bd 0bd4 01be f0c4 bdbd 50e4 783d
00000150: 7e3b 1cbd 44f3 933d 0e33 b3bd 7e18 1b3d
00000160: e07e bbbc 8023 ad3d 417c dcbc fb11 c839
00000170: 2c58 09be 959a a4bc eac2 d9bd 72e0 84bc
00000180: 1892 6e3d 5616 133d d5db 5fbd 8cb4 b1bd
00000190: 303e 803d 8a80 5cbd b8c6 f73b 0c0a 123e
000001a0: 01ad c73d c35c 023e e76b 0cbe 6a8b bd3d
000001b0: 148a 0a3d 30b5 353d f8d0 c73d 93b3 0c3d
000001c0: 0125 8a3d 57f2 e7bd c0f3 0b3e f77d 52bd
000001d0: a17e 023e 5d99 82bd 4c02 44bc bbb1 b4bd
000001e0: 9d2a 873d 51ee d5bd 6c4a 15be 5f71 69bd
000001f0: 031b ddbd f009 dd3d 79b5 0a3e 5fad 5bbd
00000200: f4cd e9bd c822 c43d 8b1e aebd 9809 24bd
00000210: 4891 133e 6863 e7bd d4a3 19be 3baf ca3c
00000220: 66de 933d ec5a 033b f1a5 4f3d 7e82 83bc
00000230: c309 8f3d a713 963d b625 47bd a264 2a3d
00000240: 4e99 16bd 78da 0ebd 6bd8 b23d f8b2 19bc
00000250: ca5d e8bd c4d1 093e c857 8cbc ceb5 dd3d
00000260: d1aa d3bd feb6 f73d 8fcf 2abd 32e1 093d
00000270: cb8d e5bb ccc6 8f3d 257c 98bd 6d93 963d
00000280: 520d 5b3d 6962 0e3e 75ad 00be 758f 073e
00000290: a96b a83d 0bdf b0bd b137 ac3c cdd0 c63c
000002a0: e36e b2bd eb72 16be d079 68bd c8ee 2abd
000002b0: 25d8 a6bc f1bb c9bd 8750 2f3d 473c bebb
000002c0: 7f43 103e a875 9c3c 2314 9a3d 0c95 123c
000002d0: 7187 c03d 1049 a23d 97d9 89bb bfa4 a43d
000002e0: 1b89 60bd ea21 0e3e 978a 60bb bab2 c23d
000002f0: 9e4d 123e 820e 983d 6922 b3bd 2792 423d
00000300: ae12 ce3d 36cc c93d 6c0d a4bc 87ad 083c
00000310: 2338 cebd 7843 f0bd 27b9 ecbd 7911 8f3d
00000320: d6f8 4cbc a98c d7bc 2a96 f3bd 4772 1bbe
00000330: 8044 da3d 2da7 63bd 6c02 d2bd 5973 2f3c
00000340: c415 ca3c fb53 093e 49ea 8d3d e0ec c73d
00000350: d323 e63d 81d0 133c d3ba eb3b e76c d93d
00000360: dc6c b1bd 46e2 dfbd 2af5 fd3d e76d 8dbd
00000370: 3b7c 7b3c 5fad 1b3e f1cd 88bd be03 d23d
00000380: b73c 25bd 11c6 f73c 865f 82bc 6b9e 46bc
00000390: 6dd3 16be 65d7 be3d 2e52 c03d c367 be3d
000003a0: 4da4 18be 27bd 1a3e fb2f f73d df34 eabc
000003b0: 5a35 123e ad3e 1bbe 931c 513c d2ab cabd
000003c0: 63cd 12be 84b6 f0bc c779 fe3d 9a77 efbd
000003d0: e07d e03d 687b 66bd 083f 8c3d 471f 17bc
000003e0: 5ec9 d83d 7de5 f13b 1e04 f3bd 3378 963c
000003f0: c694 0abe 462b edbd 6c7d 8dbd e84f 943d

bias f4 [128]
0.0296681 0.0011397935 0.0306075 0.00022161772 0.00016949637 -0.0007747619 0.017631235 -0.0007963455
-0.00035343308 0.012349815 -0.001450046 0.07091848 -0.016433734 0.038818397 -0.00019178845 0.04810625
0.0008014926 0.018106695 0.0 -0.00041309517 0.036604457 0.0163513 -0.03525104 0.021258067
0.020171857 -0.00011228724 0.030037114 0.014651973 0.004519053 -0.0076924292 0.005468447 0.0
-0.0018367954 -0.00051585695 -0.0008642348 -0.001734664 0.02333719 -0.016294787 0.0031002262 0.015740361
-0.002068261 0.009486603 -0.008790495 0.028461192 -4.106636e-06 0.010541454 0.012833397 0.011523695
-0.01632848 -0.0034329477 -0.00022573058 0.0030307367 0.003404189 0.032931272 0.015036949 0.00029514096
0.033837143 -0.00015597811 -0.0028044977 0.011286202 0.013807112 -0.030273126 0.0033995784 0.05145534
0.004894986 2.9957537e-05 0.0044494835 -0.0010781081 0.011113223 0.00012061666 0.012554487 0.0126356
0.00623826 0.0058230963 -7.406084e-05 -0.009069363 1.9043786e-07 0.02829659 -0.006743547 0.0040368624
0.0 -0.0059959264 0.0030165552 0.0 0.007872773 0.044077948 0.014199801 -0.0005285281
0.0 0.020107448 -0.011608757 0.028932238 0.0084915785 -0.0030571881 -1.6078559e-07 -0.00022712622
0.013489925 0.0042643375 0.01435476 3.6938292e-07 0.0061315075 0.011566015 0.0 -0.0041160863
0.0035870525 -0.0050105825 -2.4503133e-06 0.0027329146 0.013209681 0.013356248 0.010431161 0.018041149
-0.01435371 0.03281842 0.03602345 0.003711769 0.0025695614 -0.0030666739 0.041795377 0.021815488
0.018847298 0.012263214 0.023091143 -0.0003017182 0.00030791908 0.013961916 -0.031201975 0.0001804029
00000000: 840a f33c 2065 953a 94bc fa3c 0e62 6839
00000010: d6ba 3139 6419 4bba 616f 903c d8c1 50ba
00000020: fc4c b9b9 e156 4a3c 780f beba b53d 913d
00000030: 0aa0 86bc 0a00 1f3d d21a 49b9 0f0b 453d
00000040: 421b 523a 7e54 943c 0000 0000 b294 d8b9
00000050: 8eee 153d 29f3 853c 6563 10bd 6625 ae3c
00000060: 733f a53c c17b ebb8 6510 f63c d40e 703c
00000070: 9014 943b c610 fcbb a930 b33b 0000 0000
00000080: a0c0 f0ba 933a 07ba d18d 62ba aa5d e3ba
00000090: a22d bf3c a57c 85bc 2a2d 4b3b eef1 803c
000000a0: a98b 07bb b26d 1b3c 0206 10bc 7227 e93c
000000b0: bccb 89b6 10b6 2c3c 2b43 523c e1cd 3c3c
000000c0: 4ec3 85bc 4efb 60bb 17b2 6cb9 539f 463b
000000d0: d018 5f3b f1e2 063d 895d 763c 26bd 9a39
000000e0: d198 0a3d 0e8e 23b9 aacb 37bb c3e9 383c
000000f0: 3a37 623c 59ff f7bc 76cb 5e3b d6c2 523d
00000100: 1e66 a03b 524d fb37 f9cc 913b 4e4f 8dba
00000110: 3c14 363c 94f3 fc38 56b1 4d3c 8c05 4f3c
00000120: 516a cc3b accf be3b 1c51 9bb8 aa97 14bc
00000130: 297b 4c34 40ce e73c f9f8 dcbb a847 843b
00000140: 0000 0000 7a79 c4bb 66b1 453b 0000 0000
00000150: cefc 003c 148b 343d 48a6 683c ec8c 0aba
00000160: 0000 0000 60b8 a43c a832 3ebc 4d03 ed3c
00000170: 4320 0b3c 1b5b 48bb 68a4 2cb4 bb28 6eb9
00000180: d904 5d3c dbbb 8b3b 3a30 6b3c 9a4f c634
00000190: d0ea c83b 627f 3d3c 0000 0000 3ce0 86bb
000001a0: c114 6b3b d02f a4bb 1070 24b6 b31a 333b
000001b0: 6b6d 583c 2ad4 5a3c 76e7 2a3c 08cb 933c
000001c0: d32b 6bbc 9c6c 063d 538d 133d 2641 733b
000001d0: 1666 283b 40fa 48bb a131 2b3d 65b6 b23c
000001e0: a665 9a3c a6eb 483c a329 bd3c ee2f 9eb9
000001f0: 3370 a139 85c0 643c 499b ffbc 892a 3d39

weight f4 [128, 128]
0.11096216 0.13167202 0.087030016 0.124774605 0.020974882 -0.100212224 0.06933496 -0.04816738
-0.10361412 -0.04955146 0.09745183 -0.07114925 0.0013373207 -0.054685112 -0.06616766 -0.14397208
-0.14122882 -0.07818667 0.07396687 0.081890814 0.013606991 -0.14159639 0.044632312 0.13742252
0.1360194 0.12519728 0.059827607 0.023496296 0.024738558 -0.10542188 -0.015487634 -0.007876497
-0.07039893 0.011635426 0.044509217 -0.10684129 0.12845586 0.08472044 -0.030181384 0.0676282
0.11212565 0.09184046 0.11116954 0.009692812 0.062545046 0.13861729 0.038934793 -0.11847575
-0.1370032 0.014911781 0.08990999 0.008552076 0.11592856 -0.08947117 -0.037233513 -0.007845835
0.031444468 0.02108764 0.12464781 0.014179701 0.11803702 -0.09818951 -0.11649588 -0.045725856
-0.09284826 -0.13190486 0.050557148 -0.017760893 0.10912687 -0.018278811 -0.021201372 -0.016135555
-0.034954164 0.1209001 -0.040292237 -0.13207446 0.09781541 -0.09876588 -0.06000537 0.1001959
0.099936225 -0.05136219 -0.13162969 -0.00058141234 -0.10319132 -0.041219912 -0.056014363 -0.08770653
0.062405195 0.076977655 -0.011977617 0.07498479 -0.035072785 0.07640105 0.053560983 -0.10341972
-0.14443235 0.11408057 0.022157568 0.08661847 -0.11918433 -0.07867214 0.0644368 -0.13887896
0.13369262 -0.034367923 0.024304723 0.04128288 -0.14589208 0.086671986 -0.06513142 -0.10763543
-0.05860624 0.040450804 0.09965221 -0.063585564 0.08034877 0.08234681 -0.109096035 0.0030054366
0.032719452 -0.11085047 -0.0024186312 -0.09110282 -0.009516669 -0.07260363 -0.042907007 0.14080153
-0.12272666 0.01868187 0.05355827 0.12649949 -0.029374491 0.10122984 0.07914027 -0.020791084
-0.097443275 0.03075996 -0.065551 0.04851159 -0.076191664 0.103282526 0.07341885 -0.08758521
0.06836889 0.0138791725 -0.12842089 -0.039170854 -0.120996684 0.09705119 -0.1200059 -0.068060614
0.06981329 -0.034018613 0.04697207 0.14688559 0.016809849 -0.07374494 0.12288373 0.086467214
-0.12492202 -0.021993339 0.048837718 0.11696378 -0.12964508 -0.060174916 -0.14236793 0.13795908
0.033202473 -0.07135266 0.07601878 -0.08570239 -0.09889841 0.122096725 0.030814879 0.0029280738
0.023403376 0.04843269 0.1419709 0.119057365 0.09289155 0.12135079 0.07040196 -0.1515152
-0.020554036 0.019507002 -0.083594926 -0.095362544 0.09505057 -0.0084161805 0.111207046 -0.031198684
-0.03964052 -0.121095054 -0.10781698 0.012320344 -0.010559872 -0.07399768 0.057651542 -0.012984067
0.034540914 -0.0059351004 0.10368994 0.065827616 -0.059172038 0.07398846 -0.0132742915 0.0461392
0.03694403 0.0875873 -0.031695087 -0.05000511 -0.038384657 -0.10104733 0.004832795 -0.054012213
0.073730215 0.11303275 -0.15066849 0.0051107323 -0.16220684 -0.11447513 -0.12521969 0.11508892
0.005241028 -0.10574808 0.016743729 -0.09515115 0.041234843 0.10326154 -0.0030222202 -0.06331941
-0.14420603 0.02376541 0.11978536 -0.06507098 -0.10834617 -0.11064431 0.031446487 -0.03629
0.10405289 0.04002571 -0.075992234 0.07023208 0.01405141 -0.027464965 -0.037079707 0.14437707
0.10644637 -0.09156584 0.15423097 -0.05594154 -0.05394517 0.07396806 0.069467224 0.050505035
00000000: 2140 e33d 08d5 063e cb3c b23d d489 ff3d
00000010: 84d3 ab3c 113c cdbd 7dff 8d3d 294b 45bd
00000020: a433 d4bd 79f6 4abd d394 c73d b3b6 91bd
00000030: 0949 af3a 7ffd 5fbd e982 87bd 6b6d 13be
00000040: 4a9e 10be 5520 a0bd f17b 973d 5fb6 a73d
00000050: dbef 5e3c a5fe 10be 5fd0 363d 7db8 0c3e
00000060: ab48 0b3e b733 003e cb0d 753d 4e7b c03c
00000070: 84a8 ca3c 6de7 d7bd d8bf 7dbc 6c0c 01bc
00000080: 502d 90bd 84a2 3e3c 4c4f 363d 9bcf dabd
00000090: ef89 033e e981 ad3d f33e f7bc a780 8a3d
000000a0: 22a2 e53d da16 bc3d dbac e33d 9ace 1e3c
000000b0: 9e17 803d b1f1 0d3e 177a 1f3d 6aa3 f2bd
000000c0: 914a 0cbe 8b50 743c bb22 b83d 021e 0c3c
000000d0: f46b ed3d a93c b7bd 2b82 18bd d18b 00bc
000000e0: eacb 003d fdbf ac3c 5a47 ff3d fa51 683c
000000f0: 65bd f13d 9517 c9bd 6495 eebd 094b 3bbd
00000100: 3b27 bebd 1112 07be 0315 4f3d 4b7f 91bc
00000110: e97d df3d 72bd 95bc 80ae adbc b62e 84bc
00000120: 192c 0fbd 799a f73d 7909 25bd 873e 07be
00000130: 7253 c83d c445 cabd 31c8 75bd 8233 cd3d
00000140: 5dab cc3d 2961 52bd efc9 06be ec69 18ba
00000150: f955 d3bd 36d6 28bd 516f 65bd 7b9f b3bd
00000160: 979c 7f3d 76a6 9d3d c43d 44bc a091 993d
00000170: 7ba8 0fbd 2778 9c3d c362 5b3d b8cd d3bd
00000180: 13e6 13be 13a3 e93d ca83 b53c 0665 b13d
00000190: ea16 f4bd dc1e a1bd 71f7 833d 4936 0ebe
000001a0: b8e6 083e 61c5 0cbd b31a c73c 3d18 293d
000001b0: bc64 15be 1581 b13d 9f63 85bd f76f dcbd
000001c0: 190d 70bd beaf 253d 7516 cc3d 2639 82bd
000001d0: e58d a43d 72a5 a83d be6d dfbd dcf6 443b
000001e0: d504 063d 9205 e3bd e681 1ebb 1e94 babd
000001f0: ceeb 1bbc 36b1 94bd 42bf 2fbd 472e 103e
00000200: 1d58 fbbd b90a 993c eb5f 5b3d 1589 013e
00000210: c6a2 f0bc 9751 cf3d 4b14 a23d 1052 aabc
00000220: 5790 c7bd 50fc fb3c 9a3f 86bd 17b4 463d
00000230: 600a 9cbd ca85 d33d 9f5c 963d e05f b3bd
00000240: fd04 8c3d 7865 633c c480 03be 9e71 20bd
00000250: 1ccd f7bd c6c2 c63d a7c5 f5bd 5d63 8bbd
00000260: 45fa 8e3d 1a57 0bbd c965 403d 2d69 163e
00000270: cfb4 893c 9607 97bd 77aa fb3d b915 b13d
00000280: 1ed7 ffbd 602b b4bc 0f0a 483d b58a ef3d
00000290: aec1 04be f979 76bd e6c8 11be 2545 0d3e
000002a0: 51ff 073d 5821 92bd bcaf 9b3d bc84 afbd
000002b0: 408b cabd d90d fa3d 7c6f fc3c ede4 3f3b
000002c0: 70b8 bf3c 5b61 463d d260 113e 59d4 f33d
000002d0: ed3d be3d c386 f83d e72e 903d cd26 1bbe
000002e0: f060 a8bc 26cd 9f3c d133 abbd 704d c3bd
000002f0: e0a9 c23d 05e4 09bc 85c0 e33d 6294 ffbc
00000300: 195e 22bd af00 f8bd 26cf dcbd 45db 493c
00000310: 5003 2dbc 188c 97bd 0624 6c3d 20bb 54bc
00000320: c67a 0d3d 3b7b c2bb 645b d43d a1d0 863d
00000330: 615e 72bd 4387 973d 6a7c 59bc 75fc 3c3d
00000340: a052 173d f860 b33d b5d2 01bd 29d2 4cbd
00000350: 3b39 1dbd e7f1 cebd 6c5c 9e3b e93b 5dbd
00000360: deff 963d b77d e73d d748 1abe ee77 a73b
00000370: 8d19 26be f071 eabd 9739 00be bdb3 eb3d
00000380: eebc ab3b 7392 d8bd 252a 893c 9bde c2bd
00000390: dee5 283d c97a d33d 7110 46bb 9bad 81bd
000003a0: bfaa 13be adaf c23c 0752 f53d ef43 85bd
000003b0: 99e4 ddbd 7c99 e2bd 08ce 003d d3a4 14bd
000003c0: ae19 d53d 00f2 233d d1a1 9bbd d6d5 8f3d
000003d0: e337 663c 35fe e0bc e4e0 17bd 95d7 133e
000003e0: 8e00 da3d df86 bbbd b9ee 1d3e f522 65bd
000003f0: 9cf5 5cbd 917c 973d d544 8e3d 5ede 4e3d

bias f4 [128]
-0.0005205517 0.008762342 -0.0006065105 -0.0072663995 -0.002067386 0.0 0.00785515 -0.0039028954
-9.4679344e-05 0.0 0.040404506 -0.0049168034 0.04822729 -0.009471154 0.0 0.0
-0.021628521 0.005795787 0.0755473 0.021042138 8.65399e-05 0.00044873962 -0.0026065104 0.0053931535
-0.012779791 -0.00038866425 0.0 0.0249705 0.0 -7.643401e-07 0.0011759426 3.6776605e-06
0.0 -0.00077275955 0.0 0.002367571 0.010189827 0.0 -0.0028520657 -0.0019120713
0.0 0.029903058 0.051411208 0.0 0.04591875 -0.004302804 0.01772069 -0.008567816
0.004034449 1.2989931e-05 0.045888048 0.009722829 -9.391167e-07 0.0020571447 0.028959958 0.016029347
-0.00098189 0.030253546 -0.0005743922 -0.012789709 0.0007363532 -0.003893505 0.0 -0.005033761
-0.025157182 0.0045781755 0.010853049 0.046030793 -0.0024840354 -5.6122706e-05 0.00062259915 0.0037105784
0.022237115 0.016123623 -0.0018372298 -0.00075484934 0.016149644 0.001811655 -0.0044414327 -0.0005421035
0.015744165 -0.0077222507 -0.0009131433 -0.0046316055 7.328875e-05 0.008273188 0.004048847 0.019092841
-2.3943789e-05 0.020818008 -3.3841174e-05 -0.00070776034 0.028821563 0.0210887 -0.008641625 0.015038021
0.033876892 -0.0016893343 0.014091298 0.027296646 0.0038341857 0.01980312 -0.00046826302 0.0
0.00020559593 0.013139339 0.04491682 0.017194195 -0.00071803754 0.020213554 1.8665266e-06 0.00020610321
0.012393514 -0.011516366 0.000789974 -0.00466525 0.017664675 0.015003562 -0.024091516 -0.0048266095
-0.023618266 0.00037294117 0.0025483244 0.0025274213 0.011144378 0.03637075 0.046962462 -0.0037660054
00000000: a275 08ba ed8f 0f3c 3bfe 1eba fa1a eebb
00000010: fb7c 07bb 0000 0000 e3b2 003c b8c7 7fbb
00000020: 968e c6b8 0000 0000 327f 253d 231d a1bb
00000030: fb89 453d e62c 1bbc 0000 0000 0000 0000
00000040: 4c2e b1bc 96ea bd3b 8bb8 9a3d 9060 ac3c
00000050: c17c b538 d044 eb39 fdd1 2abb 0db9 b03b
00000060: 5462 51bc a2c5 cbb9 0000 0000 ef8e cc3c
00000070: 0000 0000 0d2d 4db5 1622 9a3a bacd 7636
00000080: 0000 0000 0493 4aba 0000 0000 4029 1b3b
00000090: 3bf3 263c 0000 0000 b9e9 3abb 779e faba
000000a0: 0000 0000 42f7 f43c 8f94 523d 0000 0000
000000b0: 4d15 3c3d 89fe 8cbb fb2a 913c 0660 0cbc
000000c0: 6933 843b 54ef 5937 1bf5 3b3d 804c 1f3c
000000d0: 9c17 7cb5 29d1 063b 6f3d ed3c fa4f 833c
000000e0: c3b2 80ba 49d6 f73c cf92 16ba ed8b 51bc
000000f0: d407 413a 2d2a 7fbb 0000 0000 3ff2 a4bb
00000100: 6f16 cebc 8504 963b fdd0 313c c98a 3c3d
00000110: 33cb 22bb 4c65 6bb8 ec35 233a 2d2d 733b
00000120: 9c2a b63c b015 843c 34cf f0ba 15e1 45ba
00000130: 424c 843c 0e75 ed3a 7089 91bb f31b 0eba
00000140: e8f9 803c ef0a fdbb 0260 6fba b9c4 97bb
00000150: 99b2 9938 448c 073c 31ac 843b 9768 9c3c
00000160: e5da c8b7 878a aa3c aff0 0db8 fe88 39ba
00000170: 331b ec3c 36c2 ac3c 9a95 0dbc 0862 763c
00000180: 7fc2 0a3d a76c ddba 30df 663c 379d df3c
00000190: f646 7b3b 273a a23c 3381 f5b9 0000 0000
000001a0: 3d95 5739 6246 573c b3fa 373d d7da 8c3c
000001b0: af3a 3cba e596 a53c 5e85 fa35 691d 5839
000001c0: 2a0e 4b3c 24af 3cbc 4216 4f3a f4de 98bb
000001d0: 82b5 903c 80d1 753c 925b c5bc 8928 9ebb
000001e0: 187b c1bc 5187 c339 ca01 273b 18a3 253b
000001f0: e996 363c 7ff9 143d b65b 403d 16cf 76bb

weight f4 [128, 128]
-0.04108745 -0.1294593 0.018113222 0.12845747 0.05871937 -0.07748824 -0.12959139 -0.11784124
-0.14089477 0.008098929 -0.09508553 0.14378773 0.07874104 0.09792025 0.09646848 0.013928858
-0.09109932 -0.01552101 -0.043006502 0.09799559 -0.08777867 -0.023638768 0.12575702 0.07884838
-0.063293464 0.13502482 0.005042253 0.07190311 0.13295247 0.035813145 -0.062280513 0.073876776
0.06748475 0.11574646 -0.10760038 0.004366295 -0.08506757 -0.10944426 0.090844944 0.036149193
0.12313273 -0.11089289 0.06690193 -0.1505973 -0.09890765 0.09849013 -0.14235014 0.12033106
-0.02945387 -0.04749069 -0.0028237554 -0.13967925 0.064086474 -0.04625996 0.03855441 0.15078768
0.10871089 0.14429909 -0.0045368476 0.016078155 0.017294915 0.041630194 0.12859422 0.10227199
-0.052995656 -0.10402649 0.00024023841 -0.15093794 0.1293334 -0.108326316 -0.108936526 -0.13343267
0.025816778 -0.05294856 -0.10848669 -0.000814855 0.139894 0.08672959 0.14696616 -0.092830256
0.0805112 0.02302831 -0.12587917 0.060673866 0.02611076 0.14844206 0.116292536 -0.08388712
0.11367186 -0.086320795 0.11522746 0.14114085 0.008249126 0.08367693 -0.038051173 -0.10650347
-0.08365021 -0.123651065 -0.07056428 0.16071716 0.02573166 0.05340632 -0.07662157 0.08759036
0.107793525 0.060235 0.038806643 0.093616605 -0.13733982 -0.096075274 -0.089483924 0.10751544
0.100735515 -0.015176882 -0.08222439 -0.052589104 0.08790657 0.052897286 0.14488097 0.06143732
0.060730487 0.014008065 -0.08551952 0.14323458 0.07338718 0.056591574 -0.11382521 0.12686394
-0.0050506727 0.113688104 -0.04189963 -0.06344359 0.089083694 0.11391418 0.06608696 -0.14541072
-0.1267196 -0.09887779 0.17052285 -0.017626313 -0.13286787 -0.11771699 0.1094693 0.08473736
0.059779745 0.1534032 0.15035574 0.12506711 -0.08956423 -0.07493447 -0.14472282 0.07165572
-0.02532586 -0.05119279 0.13947527 -0.14106101 -0.11668473 0.019941963 -0.07541675 0.12474091
-0.019458918 0.113639176 0.057055958 -0.14710963 -0.04563712 0.10815153 0.06466162 -0.023320574
-0.0084069185 -0.07918613 0.14514484 0.13749981 0.01639982 -0.12225379 -0.13704088 -0.0406083
0.078288086 -0.022109298 0.15316887 0.09709485 0.12429641 0.09606466 0.06609924 0.12815572
0.10938523 0.12814444 -0.11787141 -0.016193064 -0.0951746 -0.0526811 -0.039088566 0.097573124
-0.07899975 -0.014983697 0.10701557 -0.10216836 0.111721024 -0.10449816 0.15815404 0.03422412
0.15898311 -0.07551155 0.052088346 0.06442399 0.011759689 -0.11714269 0.10550582 -0.13822794
-0.0039378167 0.06964211 -0.054093134 0.12545817 0.14333834 0.07468075 -0.12696823 0.116567284
0.12888232 -0.10881421 0.07855989 0.15192947 0.07720421 0.0077988957 0.07684458 0.0121181635
0.13874069 -0.09152527 -0.10312218 -0.023281768 -0.062035777 0.15850024 0.09396044 0.10994162
0.000982237 0.15526904 0.08543057 -0.0674671 -0.017228631 0.11119299 0.08228627 -0.12555192
0.029925793 0.11245313 0.11022746 0.04852961 -0.015024371 -0.034104075 -0.005893008 -0.17982107
-0.013603895 -0.15166849 0.06492838 -0.0038106607 0.08147216 -0.043273117 -0.09221786 0.010130765
00000000: 504b 28bd fb90 04be 2e62 943c 5b8a 033e
00000010: b983 703d 28b2 9ebd 9bb3 04be bf56 f1bd
00000020: b846 10be 5fb1 043c 34bc c2bd 173d 133e
00000030: fb42 a13d 698a c83d 4491 c53d dd35 643c
00000040: 4892 babd d64b 7ebc 9627 30bd e9b1 c83d
00000050: 4ec5 b3bd 17a6 c1bc 73c6 003e 427b a13d
00000060: 01a0 81bd f243 0a3e 7c39 a53b f041 933d
00000070: b124 083e ceb0 123d da19 7fbd b54c 973d
00000080: 7235 8a3d 7b0c ed3d 975d dcbd 2313 8f3b
00000090: e837 aebd 5024 e0bd ea0c ba3d 2d11 143d
000000a0: 032d fc3d d01b e3bd e103 893d 2e36 1abe
000000b0: 1890 cabd 31b5 c93d 3cc4 11be 2170 f63d
000000c0: 3e49 f1bc 9985 42bd c10e 39bb 1408 0fbe
000000d0: c53f 833d 157b 3dbd 3beb 1d3d 1668 1a3e
000000e0: d1a3 de3d 24c3 133e d6a9 94bb 56b6 833c
000000f0: 11ae 8d3c 6c84 2a3d 34ae 033e fa73 d13d
00000100: f911 59bd d70b d5bd 82e8 7b39 7a8f 1abe
00000110: fa6f 043e 30da ddbd 1d1a dfbd 93a2 08be
00000120: b57d d33c 97e0 58bd 452e debd fe9b 55ba
00000130: 5f40 0f3e 499f b13d 4c7e 163e ca1d bebd
00000140: 0ee3 a43d dea5 bc3c 78e6 00be 2985 783d
00000150: 3ce6 d53c 3201 183e c82a ee3d 03cd abbd
00000160: cbcc e83d f5c8 b0bd 60fc eb3d 3a87 103e
00000170: 5827 073c cf5e ab3d 8cdb 1bbd 7e1e dabd
00000180: cd50 abbd c53c fdbd 0184 90bd 0a93 243e
00000190: 34cb d23c 96c0 5a3d c5eb 9cbd 9362 b33d
000001a0: dac2 dc3d fab8 763d b7f3 1e3d 10ba bf3d
000001b0: cfa2 0cbe 1dc3 c4bd 5943 b7bd 0e31 dc3d
000001c0: 6c4e ce3d 75a8 78bc 4365 a8bd ac67 57bd
000001d0: 5c08 b43d d3aa 583d ad5b 143e b3a5 7b3d
000001e0: 88c0 783d 1582 653c dc24 afbd 16ac 123e
000001f0: 054c 963d 91cc 673d 311d e9bd 9fe8 013e
00000200: 1d80 a5bb 4fd5 e83d f29e 2bbd b7ee 81bd
00000210: 8371 b63d d64b e93d 9a58 873d 8ce6 14be
00000220: c8c2 01be 7080 cabd 8b9d 2e3e 0f65 90bc
00000230: 840e 08be 9b15 f1bd 7131 e03d c88a ad3d
00000240: 9bdb 743d ba15 1d3e dbf6 193e 9811 003e
00000250: 736d b7bd 3e77 99bd 3832 14be 3cc0 923d
00000260: 2e78 cfbc 88af 51bd 9bd2 0e3e 4c72 10be
00000270: 67f8 eebd 545d a33c 1974 9abd 2a78 ff3d
00000280: 4f68 9fbc a8bb e83d 82b3 693d e8a3 16be
00000290: fded 3abd 8d7e dd3d 506d 843d ca0a bfbc
000002a0: 2cbd 09bc 562c a2bd d9a0 143e c0cc 0c3e
000002b0: ea58 863c 3260 fabd 7254 0cbe e454 26bd
000002c0: 8155 a03d 8f1e b5bc 4dd8 1c3e aad9 c63d
000002d0: 1e8f fe3d 8cbd c43d 0a5f 873d 413b 033e
000002e0: 5d05 e03d 4c38 033e 9166 f1bd 51a7 84bc
000002f0: e7ea c2bd 23c8 57bd 551b 20bd 6bd4 c73d
00000300: 9fca a1bd 2e7e 75bc fb2a db3d a53d d1bd
00000310: fecd e43d 2203 d6bd 22f3 213e 972e 0c3d
00000320: 78cc 223e cda5 9abd 975a 553d baf0 833d
00000330: b6ab 403c 82e8 efbd 6f13 d83d a08b 0dbe
00000340: cd08 81bb 86a0 8e3d c390 5dbd 1b78 003e
00000350: 49c7 123e 39f2 983d f603 02be d4ba ee3d
00000360: baf9 033e fcd9 debd 02e4 a03d 6693 1b3e
00000370: 3e1d 9e3d e18d ff3b b160 9d3d 438b 463c
00000380: 0a12 0e3e 9a71 bbbd b931 d3bd 68b9 bebc
00000390: 3a19 7ebd e34d 223e 556e c03d 1229 e13d
000003a0: 68be 803a d9fe 1e3e 39f6 ae3d 312c 8abd
000003b0: 0f23 8dbc 26b9 e33d b485 a83d af90 00be
000003c0: f026 f53c d44d e63d efbe e13d fcc6 463d
000003d0: c828 76bc b7b0 0bbd 221a c1bb 0423 38be
000003e0: dfe2 5ebc fc4e 1bbe 2cf9 843d 47bc 79bb
000003f0: e0da a63d 273f 31bd b8dc bcbd 82fb 253c

bias f4 [128]
-0.0013471972 0.016941005 -0.011949716 0.0 -0.007479699 0.0057830573 0.032434605 0.029181726
-0.0026315902 -0.0024931272 -0.012101024 0.0 0.0014180719 0.0014206491 -0.010611933 -0.0016894976
0.03043013 0.0058582514 -0.018543856 -0.014684255 0.028032577 -0.0020302143 -0.0027462875 0.0100393845
0.0011338978 0.0020941168 0.0 0.043311864 0.0 -0.04321275 0.020411296 0.010802391
0.03243367 0.036718767 -0.0015068689 -0.027229624 -0.0035578324 -0.01102898 -0.046998728 0.0063779713
-0.038823884 -0.0006741269 0.053305257 -0.00017103052 0.0 0.03112544 -0.001431017 0.011858726
0.019525595 0.0 0.022462884 0.019786984 0.087443046 0.0 -0.0049678385 0.011811881
0.006930059 0.0 0.026998058 -0.015583635 -0.030118827 0.005446666 0.0635751 0.0173786
0.015731726 -0.002067778 -0.0045038527 -0.0010831794 0.009182411 0.033598784 0.009437087 0.05511605
-1.3338646e-07 0.010438791 0.012766573 0.025023378 0.0 0.0 0.0050875046 -0.009180681
0.018842375 0.0 2.7805045e-05 0.01838624 0.0010240606 0.0011810642 0.012156561 -0.0069593433
0.06008468 0.0019797122 0.009920608 0.03467926 -0.009289757 -0.0032527149 -0.010845493 -0.001665341
-0.0011124233 0.0 0.009607476 0.01704678 0.027299847 0.035101548 0.02892095 -0.037753254
-0.0060649286 -0.0029989379 0.017501216 0.013668105 0.013928322 -0.03501384 0.0016013952 0.042234406
0.0014592481 0.034102425 -0.0070731696 0.019904897 0.013764971 0.0005306288 0.021684986 -0.016947703
0.022368325 -0.0041232537 -0.0045421747 0.0 -0.0020244378 -0.0005487022 -0.0018618787 0.00899425
00000000: 7094 b0ba ddc7 8a3c bec8 43bc 0000 0000
00000010: 4318 f5bb cd7f bd3b 26da 043d 840e ef3c
00000020: c276 2cbb bc63 23bb 6043 46bc 0000 0000
00000030: 99de b93a 1335 ba3a acdd 2dbc 2272 ddba
00000040: 9c48 f93c 93f6 bf3b 49e9 97bc 3b96 70bc
00000050: 93a4 e53c 580d 05bb 0ffb 33bb 3b7c 243c
00000060: 4c9f 943a 733d 093b 0000 0000 c867 313d
00000070: 0000 0000 daff 30bd 9735 a73c 83fc 303c
00000080: 2bd9 043d 6b66 163d 2182 c5ba a910 dfbc
00000090: 862a 69bb e5b2 34bc bd81 40bd 4dfe d03b
000000a0: cb05 1fbd e4b7 30ba 9d56 5a3d a856 33b9
000000b0: 0000 0000 c7fa fe3c f690 bbba 1a4b 423c
000000c0: 24f4 9f3c 0000 0000 1504 b83c 5018 a23c
000000d0: 5715 b33d 0000 0000 40c9 a2bb 9f86 413c
000000e0: 8c15 e33b 0000 0000 082b dd3c 8152 7fbc
000000f0: c2bb f6bc f279 b23b a933 823d 915d 8e3c
00000100: d2df 803c 8f83 07bb 0e95 93bb 78f9 8dba
00000110: d371 163c e19e 093d 039e 1a3c 5ec1 613d
00000120: fe38 0fb4 7607 2b3c e32a 513c d4fd cc3c
00000130: 0000 0000 0000 0000 15b5 a63b 916a 16bc
00000140: 535b 9a3c 0000 0000 e13e e937 bd9e 963c
00000150: c639 863a f0cd 9a3a 502c 473c 340b e4bb
00000160: 5a1b 763d 0fbe 013b 0c8a 223c d70b 0e3d
00000170: 1134 18bc 802b 55bb 4bb1 31bc 9247 daba
00000180: bbce 91ba 0000 0000 ad68 1d3c b0a5 8b3c
00000190: eea3 df3c a4c6 0f3d a1eb ec3c 28a3 1abd
000001a0: 4fbc c6bb d489 44bb b65e 8f3c 30f0 5f3c
000001b0: 9e33 643c ac6a 0fbd e8e5 d13a fcfd 2c3d
000001c0: 3e44 bf3a fcae 0b3d 0cc6 e7bb 980f a33c
000001d0: 7986 613c e519 0b3a b6a4 b13c e9d5 8abc
000001e0: c73d b73c 5c1c 87bb 86d6 94bb 0000 0000
000001f0: 6eac 04bb c8d6 0fba 480a f4ba 9e5c 133c

weight f4 [128, 128]
-0.116505675 0.10036942 -0.06957802 0.081137486 -0.089733146 -0.09705763 -0.13456213 0.046294555
0.003437009 -0.10627321 0.111272946 -0.005137391 -0.07171688 -0.12360451 0.10109744 0.102154255
-0.047737334 -0.04444235 0.14921767 -0.14792486 -0.049269542 -0.13930497 -0.0075912476 0.13539664
-0.051558327 0.0686784 0.10238948 -0.15062626 -0.07326168 0.09470492 -0.078278825 -0.026881041
-0.12565075 -0.028868536 -0.13072772 0.021501051 -0.023800988 -0.059955847 0.0569531 0.061038718
0.1038245 -0.01586879 -0.12003676 -0.07173241 -0.031211905 0.026143335 0.07482207 -0.09694627
-0.0072822366 -0.011968174 0.13772021 -0.009148092 -0.08870778 -0.049846902 -0.08652779 -0.13104807
0.13782926 0.040491417 0.119415835 0.051250722 -0.0236173 -0.0674363 0.021305848 0.11527622
0.078357935 -0.1325451 0.077643245 -0.14521654 0.02197123 -0.13125314 -0.07105964 -0.13905467
0.09417612 -0.14740269 0.12283041 -0.038522594 0.07846674 0.122110635 0.030300349 0.06060254
0.09147563 -0.039901774 0.13220385 -0.030805383 0.15001047 0.0011980293 -0.056922 -0.108342394
-0.022783982 -0.048051126 -0.051536445 -0.11349312 0.043759193 -0.020012135 -0.1144775 -0.09816947
0.09730125 0.08361441 0.054862823 0.09301551 0.11045304 -0.037225246 -0.15000618 0.05908298
0.01377813 0.12429238 -0.013787072 0.07432338 -0.115232706 0.08417666 -0.1490111 -0.055106714
0.08613906 -0.015058248 -0.11828238 0.02497602 -0.09062534 -0.04506601 0.10615992 0.03336053
0.057739697 0.10940539 0.04919384 0.047344446 -0.07868105 0.031956855 0.12674958 0.010082809
-0.0033074913 0.04649449 0.04115949 0.004102865 0.06831966 0.15194593 -0.03152879 0.010079022
0.113061376 0.039053455 -0.13716935 -0.12863638 -0.031168267 0.08116474 0.099804625 -0.091525055
0.06737304 -0.12519048 0.006816845 -0.06418641 -0.09501666 -0.1200194 0.0700553 -0.11381667
0.013829995 0.054378577 -0.13484663 0.015225331 -0.004185264 -0.017702814 -0.112060525 0.13686314
-0.1425023 0.07957127 0.13254996 0.14072968 -0.052802052 0.03625575 0.07582187 -0.10386226
-0.11594755 0.011700572 0.083559774 -0.084290236 0.0780206 -0.07919947 0.046582695 0.10703636
-0.105639465 0.038776215 -0.09224242 -0.06616717 -0.14316407 -0.03394063 0.05477686 0.049787153
-0.054606218 -0.011120109 -0.07483905 -0.10656361 0.06040568 -0.028009163 -0.040536862 -0.13373049
-0.111812554 -0.034711603 -0.14224157 0.0064684697 -0.014894376 -0.12478213 -0.12172741 0.035500623
-0.041267883 0.14969638 0.08186696 -0.04894293 -0.052482493 0.008112143 -0.06575149 0.028280642
-0.069342226 -0.14014418 0.11417342 0.07850814 0.13414223 -0.0088186115 -0.012726353 0.13669235
-0.055134755 0.05941157 0.14993952 -0.14238855 -0.061187956 0.14283639 0.043302566 0.008004165
0.03941227 0.09486908 -0.027917411 0.034841172 0.007151413 0.11429225 0.027760632 0.031389326
0.02031339 -0.12730695 0.00762514 0.12317376 0.03158853 0.07618864 0.037724476 0.07031936
0.05474162 -0.052738976 -0.1407464 0.06335068 0.018982805 0.06175491 -0.12453168 -0.05571986
0.025079533 -0.007790292 -0.035219286 -0.021160504 -0.1150956 -0.08243482 -0.03591521 0.047369707
00000000: 879a eebd 7c8e cd3d ec7e 8ebd 692b a63d
00000010: 03c6 b7bd 27c6 c6bd a8ca 09be 5c9f 3d3d
00000020: 713f 613b c5a5 d9bd 12e3 e33d 8f57 a8bb
00000030: 4de0 92bd 5d24 fdbd 2d0c cf3d 4036 d13d
00000040: 3988 43bd 2e09 36bd 84cc 183e 9d79 17be
00000050: dcce 49bd f6a5 0ebe 00c0 f8bb 6ba5 0a3e
00000060: d32e 53bd 43a7 8c3d 93b1 d13d c53d 1abe
00000070: 380a 96bd a7f4 c13d a650 a0bd a135 dcbc
00000080: 97aa 00be b57d ecbc 7ddd 05be f922 b03c
00000090: 4afa c2bc 4394 75bd a747 693d bc03 7a3d
000000a0: f1a1 d43d 44ff 81bc d5d5 f5bd 71e8 92bd
000000b0: 1cb0 ffbc 8c2a d63c 503c 993d c48b c6bd
000000c0: d49f eebb 2916 44bc 8706 0d3e e1e1 15bc
000000d0: 6dac b5bd 442c 4cbd 7b35 b1bd 7731 06be
000000e0: 1d23 0d3e 54da 253d 4a90 f43d 47ec 513d
000000f0: 1179 c1bc 0b1c 8abd 9a89 ae3c f015 ec3d
00000100: 207a a03d e7b9 07be 6c03 9f3d a5b3 14be
00000110: 02fd b33c 3967 06be b787 91bd 5964 0ebe
00000120: 69df c03d bbf0 16be 838e fb3d dec9 1dbd
00000130: 2cb3 a03d 2415 fa3d 7038 f83c 5e3a 783d
00000140: 9357 bb3d 0b70 23bd 7260 073e 925b fcbc
00000150: 589c 193e 3107 9d3a 0b27 69bd 9ee2 ddbd
00000160: 79a5 babc 42d1 44bd e117 53bd 156f e8bd
00000170: d73c 333d 7df0 a3bc 2e73 eabd 130d c9bd
00000180: e145 c73d 083e ab3d d7b7 603d ea7e be3d
00000190: 3435 e23d 8079 18bd 389b 19be ff00 723d
000001a0: aabd 613c 018d fe3d 2ce3 61bc db36 983d
000001b0: 20ff ebbd d064 ac3d 5e96 18be 94b7 61bd
000001c0: ad69 b03d dfb6 76bc 083e f2bd 839a cc3c
000001d0: c799 b9bd 2397 38bd 5f6a d93d 0da5 083d
000001e0: 7680 6c3d ef0f e03d 7b7f 493d 40ec 413d
000001f0: 8823 a1bd 31e5 023d a4ca 013e 5e32 253c
00000200: 7fc2 58bb 0271 3e3d da96 283d 5371 863b
00000210: 2eeb 8b3d b797 1b3e 5524 01bd 7b22 253c
00000220: b98c e73d 84f6 1f3d 1f76 0cbe 41b9 03be
00000230: 9854 ffbc b339 a63d 5e66 cc3d 7d71 bbbd
00000240: e0fa 893d ef31 00be d75f df3b 2a74 83bd
00000250: 1898 c2bd bbcc f5bd 2779 8f3d b718 e9bd
00000260: 3497 623c 12bc 5e3d 3c15 0abe ab73 793c
00000270: 8a24 89bb 7e05 91bc fd7f e5bd da25 0c3e
00000280: 1fec 11be 43f6 a23d 2dbb 073e 711b 103e
00000290: f746 58bd e980 143d 7f48 9b3d bdb5 d4bd
000002a0: e975 edbd c2b3 3f3c 6321 ab3d 5ca0 acbd
000002b0: 44c9 9f3d 5533 a2bd 7fcd 3e3d e135 db3d
000002c0: 8159 d8bd cfd3 1e3d 98e9 bcbd a782 87bd
000002d0: 9a99 12be 5405 0bbd b35d 603d 9ded 4b3d
000002e0: c5aa 5fbd 1e31 36bc 3745 99bd 063e dabd
000002f0: f26b 773d 7973 e5bc fb09 26bd a5f0 08be
00000300: fbfd e4bd c12d 0ebd c6a7 11be 75f5 d33b
00000310: 8a07 74bc c68d ffbd 384c f9bd 1a69 113d
00000320: 8308 29bd 024a 193e dda9 a73d 6278 48bd
00000330: e2f7 56bd cbe8 043c b8a8 86bd ceac e73c
00000340: 4c03 8ebd f581 0fbe c1d3 e93d e0c8 a03d
00000350: 955c 093e f07b 10bc 3182 50bc 14f9 0b3e
00000360: fbd4 61bd 8c59 733d bf89 193e 4ece 11be
00000370: 39a0 7abd b443 123e 085e 313d e723 033c
00000380: c36e 213d b84a c23d 0eb3 e4bc 9eb5 0e3d
00000390: 6656 ea3b 0e12 ea3d 446a e33c 1892 003d
000003a0: 4468 a63c c15c 02be 4fdc f93b 8642 fc3d
000003b0: f962 013d ca08 9c3d fb84 1a3d 9903 903d
000003c0: c038 603d d304 58bd d31f 10be 00be 813d
000003d0: d481 9b3c b7f2 7c3d 770a ffbd 823a 64bd
000003e0: 9873 cd3c b545 ffbb 1942 10bd cb58 adbc
000003f0: 3eb7 ebbd 96d3 a8bd d41b 13bd bd06 423d

bias f4 [128]
0.0 -0.0015564363 -0.0032421085 -0.018672988 0.06944066 1.540392e-05 0.025812978 -0.016514298
0.06368066 -4.748894e-05 0.040371343 0.0011792161 -0.0003374686 -3.0308785e-05 -0.010192734 0.04050638
-0.045439918 -0.004700619 0.03460931 -0.0042211968 -0.0033460616 0.00051877124 0.06568625 0.012350852
0.044446874 0.017613297 0.056947038 0.015493704 0.0054231896 0.0007704935 0.095239386 -0.01368782
0.014654601 -0.036993217 -0.042147227 -0.0049247076 5.290617e-05 0.0 -0.012284558 -0.026709476
0.0010749705 0.05222538 0.030512333 0.0 -0.00028435743 0.009182821 0.005115176 0.009038617
0.0048382916 0.00021796848 0.0 -0.020884423 0.006646827 0.0055142064 1.29819655e-05 0.00333404
-3.6587821e-06 0.0 0.02801231 -0.011885009 -0.021443523 4.0753355e-05 0.017501693 0.054403186
0.0058662025 -1.2707534e-05 0.017355649 0.07885115 -4.0130515e-05 0.023240637 -0.004364166 0.0012159954
0.0 0.0011418809 0.0035985317 0.015589669 0.0007353201 -5.8213086e-06 9.7791035e-06 -0.0010620065
0.0008400086 0.031927254 -0.04786514 -0.01408042 0.015836732 -0.021676209 -0.04100864 -0.00036097056
0.0006779768 -0.004479023 -0.014343706 -0.0130813345 -0.0013798532 0.0 0.0021604644 3.8528583e-08
0.022775954 0.021187933 -0.0019679498 -0.00012730029 0.015944263 -0.0063558705 -0.04715849 0.017218191
-2.5679828e-05 0.040215403 -0.04929865 1.7240862e-05 0.01376826 0.05651016 -0.002054642 0.0353954
0.020356823 0.015230839 -3.8654754e-05 0.0 0.0 -0.0072447276 -0.024072118 0.025903434
1.2609373e-05 0.004114217 -0.01646058 -0.003045696 -0.00020389305 0.043337766 -0.0032764324 0.06359142
00000000: 0000 0000 5601 ccba 8e79 54bb 18f8 98bc
00000010: e836 8e3d ab37 8137 bd75 d33c fe48 87bc
00000020: 026b 823d dc2e 47b8 6c5c 253d ed8f 9a3a
00000030: 45ee b0b9 9f3f feb7 6dff 26bc 05ea 253d
00000040: 351f 3abd a607 9abb 7ec2 0d3d f751 8abb
00000050: 9949 5bbb 26fe 073a 8386 863d 3a5b 4a3c
00000060: ed0d 363d c349 903c 4c41 693d 4ed9 7d3c
00000070: 03b5 b13b f2fa 493a de0c c33d e142 60bc
00000080: da19 703c 3386 17bd 92a2 2cbd 715f a1bb
00000090: 91e7 5d38 0000 0000 2c45 49bc d5cd dabc
000000a0: 06e6 8c3a 48ea 553d 00f5 f93c 0000 0000
000000b0: cf15 95b9 8b73 163c 359d a73b b516 143c
000000c0: 888a 9e3b 788e 6439 0000 0000 cf15 abbc
000000d0: a0cd d93b 84b0 b43b 1ecd 5937 e97f 5a3b
000000e0: 6689 75b6 0000 0000 127a e53c 57b9 42bc
000000f0: 54aa afbc 95ee 2a38 b65f 8f3c e0d5 5e3d
00000100: 4639 c03b 7132 55b7 6f2d 8e3c b67c a13d
00000110: d051 28b8 2663 be3c 4701 8fbb 0962 9f3a
00000120: 0000 0000 2aab 953a 58d5 6b3b d06b 7f3c
00000130: 7fc2 403a a954 c3b6 ee10 2437 0633 8bba
00000140: 0634 5c3a 27c6 023d 3d0e 44bd 90b1 66bc
00000150: 09bc 813c 4e92 b1bc adf8 27bd a640 bdb9
00000160: 41ba 313a c5c4 92bb dd01 6bbc 1853 56bc
00000170: 31dc b4ba 0000 0000 9496 0d3b a07a 2533
00000180: a394 ba3c 5192 ad3c b8f8 00bb e97b 05b9
00000190: 8b9d 823c e844 d0bb 4329 41bd 2a0d 8d3c
000001a0: 036b d7b7 e8b8 243d 62ed 49bd 78a0 9037
000001b0: 4594 613c 3377 673d 2ca7 06bb c4fa 103d
000001c0: 5ac3 a63c c58a 793c 3a21 22b8 0000 0000
000001d0: 0000 0000 2e65 edbb e432 c5bc 7033 d43c
000001e0: d88c 5337 8ed0 863b 57d8 86bc 4d9a 47bb
000001f0: 20cc 55b9 f182 313d 6ab9 56bb 383c 823d
