MAMRL-TE/Static environments/Baselines/PG/B4/savemodels/baseline3.pth (torch, 1465 bytes, 1 tensors)

weight f4 [1, 18]
0	0x3f37e559	0.7183433
1	0x3f8b8cd0	1.0902348
2	0xbe674699	-0.22585525
3	0xbe5f2138	-0.21790016
4	0xbddacf20	-0.10684037
5	0xbdac1909	-0.084032126
6	0xbd67236d	-0.05643027
7	0xbe198e33	-0.14995651
8	0xbd3d0b1d	-0.046153177
9	0x3dd8086f	0.105484836
10	0x3dda1724	0.10648945
11	0x3d7d256c	0.061803266
12	0x3d539219	0.051653
13	0x3d3ca4ea	0.04605571
14	0xbff89075	-1.9419085
15	0x3da6ca23	0.08144023
16	0xba85b6a0	-0.0010201521
17	0xc25af91d	-54.743275
