MAMRL-TE/Static environments/Baselines/PG/B4/savemodels/baseline4.pth (torch, 1465 bytes, 1 tensors)

weight f4 [1, 18]
000000 7c 9f 43 bd 59 0b 90 3f fa 93 3c 3d 51 ee 26 3d
       -0.047759518 1.1253463 0.04603956 0.04075462
000010 ce 8b 68 3c fb 8a 88 3c ca 45 13 bc 96 fd 35 3c
       0.014193488 0.016667834 -0.008988807 0.011107823
000020 ab 61 3c be b8 5a be bc f1 fb 88 bc 59 22 a5 bb
       -0.18396632 -0.023236617 -0.016721698 -0.005039495
000030 86 b8 11 bc 27 a2 09 3c a6 3d c5 bf f3 77 8a 3d
       -0.0088940915 0.008400477 -1.5409439 0.0676116
000040 03 63 64 ba 72 11 5d c2
       -0.00087122637 -55.267036
